logs/8-Naive-Again/43-DuelingDQN-random-max-Naive-WLKOD-25_10_25_13-48-56/10/models/10000/DuelingDQN_checkpoint.pth (torch, 917195 bytes, 44 tensors)

feature_layer.model.0.weight f4 [128, 39]
0	0xbd0ac19b	-0.033876043
1	0x3e4eb4e5	0.20186193
2	0xbd828e18	-0.063747585
3	0x3eca322b	0.394914
4	0x3e270be5	0.16313131
5	0x3ed02523	0.40653333
6	0x3ee92090	0.45532656
7	0x3f27b242	0.65506375
8	0x3eecbb10	0.46236467
9	0x3e94b485	0.29043975
10	0x3e4849f5	0.19559462
11	0x3cbb738f	0.022882251
12	0x3e712b5b	0.23551695
13	0x3eddfc59	0.43356588
14	0x3ef44d4e	0.4771523
15	0x3ef39096	0.47571248
16	0x3e8ec415	0.27883974
17	0x3eedfe84	0.46483243
18	0x3ee0b621	0.43888953
19	0x3ec85248	0.39125276
20	0x3ec5ed44	0.38657582
21	0x3e8aba9c	0.27095497
22	0x3ead86dd	0.33891955
23	0xbddeea85	-0.10884575
24	0x3dc7b42d	0.09751163
25	0x3debd85c	0.11515877
26	0x3cd5956a	0.026072223
27	0x3e51fdb5	0.20506938
28	0x3e43e095	0.1912864
29	0x3f075148	0.528584
30	0x3e8a2634	0.26982272
31	0x3eeac1fd	0.45851126
32	0x3ec42e47	0.38316557
33	0x3ea414ae	0.32047027
34	0x3f124948	0.5714307
35	0x3ec83c01	0.3910828
36	0x3f1ab479	0.6043163
37	0x3ed2d7d8	0.411803
38	0x3f03f66e	0.51547897
39	0x3dd1ac54	0.10237947
40	0x3ef66594	0.48124373
41	0x3ea36e7d	0.31920233
42	0x3cde892b	0.027165016
43	0x3ee04bb9	0.43807772
44	0x3eea1f6f	0.45727107
45	0x3edcac7c	0.43100345
46	0x3efc839c	0.4931916
47	0x3ebb5846	0.36590785
48	0x3e4f8b2d	0.20267935
49	0x3ec8f9a5	0.39252964
50	0x3ec624c5	0.38699928
51	0x3f2c5658	0.6731925
52	0x3ecc66e7	0.39922258
53	0x3ee55778	0.44793296
54	0x3ef2708f	0.473515
55	0x3f27b068	0.6550355
56	0x3ee3ff6b	0.44530806
57	0x3eb0e64b	0.345507
58	0x3f028182	0.50978863
59	0x3eff69e8	0.49885488
60	0x3e8ea065	0.27856746
61	0x3e839e43	0.25706682
62	0x3edc8b00	0.430748
63	0x3ea9e635	0.33183447
64	0x3ebcf23d	0.36903563
65	0x3f16e746	0.58946645
66	0x3f00d47c	0.50324225
67	0x3e16e86e	0.14737102
68	0x3e96364e	0.29338306
69	0x3f1a6cd6	0.6032232
70	0x3f1a1b88	0.6019826
71	0x3ecdcdee	0.40196174
72	0x3eee30c3	0.46521577
73	0x3f12aa17	0.57290787
74	0x3ebfc959	0.37458304
75	0x3ed99d7a	0.42502958
76	0x3df68679	0.120373674
77	0x3ef2d3bb	0.47427163
78	0x3e5917c2	0.21200469
79	0x3e949bcb	0.2902511
80	0x3eab1173	0.3341175
81	0x3c934d27	0.017981125
82	0x3f1ac5e2	0.60458195
83	0x3ed4259f	0.41434953
84	0x3f10be09	0.5653997
85	0x3ebd8393	0.37014446
86	0x3d28c708	0.041205436
87	0x3eb24455	0.34817758
88	0x3e946312	0.28981835
89	0x3ed0d0ad	0.40784207
90	0x3ef00e8b	0.46886095
91	0x3f366f32	0.7126342
92	0x3e3465b0	0.17616916
93	0x3f03a809	0.51428276
94	0x3f084d04	0.53242517
95	0x3eddf96b	0.43354353
96	0x3e16c47d	0.14723392
97	0x3eb43916	0.35199803
98	0x3dfb128e	0.122593984
99	0x3e39c4b4	0.18141443
100	0x3e3427a1	0.17593242
101	0x3f286c4e	0.6579026
102	0x3ee75d2a	0.45188266
103	0x3eda709b	0.42664036
104	0x3ec8c4c9	0.39212635
105	0x3e9db8c4	0.30805027
106	0x3eadb2da	0.33925515
107	0x3ea9766a	0.33098155
108	0x3f0aace2	0.5417005
109	0x3f0191db	0.5061318
110	0x3f2335b1	0.637538
111	0x3f2ae982	0.66762555
112	0x3edfcf36	0.43712777
113	0x3e858199	0.26075438
114	0x3ee858b1	0.45380166
115	0x3e294c51	0.16533019
116	0x3e2243bc	0.15846151
117	0x3d52813a	0.05139277
118	0x3e521a40	0.20517826
119	0x3e94f516	0.29093236
120	0x3f07ede5	0.53097373
121	0x3ed7789c	0.42084205
122	0x3ebb93e6	0.36636275
123	0x3ec93fb8	0.39306426
124	0x3f22c8dd	0.63587743
125	0x3ef5b9ac	0.4799322
126	0x3eaa5d65	0.3327438
127	0x3e83cff0	0.2574458
128	0x3ce95271	0.028481694
129	0x3e798f6a	0.24371114
130	0x3ec6b586	0.38810366
131	0x3ef3e974	0.47639048
132	0x3ea668e8	0.32501912
133	0x3e92627f	0.28590772
134	0x3ee29c30	0.44259787
135	0x3ec4b618	0.38420177
136	0x3efd5320	0.49477482
137	0x3f1a9de4	0.6039717
138	0x3eb6e1c4	0.3571912
139	0x3ebe89ab	0.37214407
140	0x3dc8a45e	0.097969756
141	0x3f0a05e5	0.53915244
142	0x3ef6f66f	0.4823489
143	0x3dbd18bc	0.09233233
144	0x3ef5a14c	0.47974622
145	0x3ed0966d	0.40739766
146	0x3f271e23	0.6528036
147	0x3e5e7e82	0.21727946
148	0x3edd4d58	0.4322307
149	0x3e91532a	0.28383762
150	0x3e7df6b4	0.24801141
151	0x3f0e7d61	0.55660063
152	0x3ee469b3	0.44611892
153	0x3efe44ca	0.49661857
154	0x3ee90b36	0.45516366
155	0x3eb8f47f	0.36124036
156	0x3ee2bd25	0.4428493
157	0x3f2060b2	0.62647545
158	0x3f027e71	0.50974184
159	0x3d426cef	0.04746717
160	0x3eae3796	0.34026784
161	0x3da5d2ae	0.080968246
162	0x3e570b21	0.21000339
163	0x3e5088ed	0.20364733
164	0xbf04c6a6	-0.51865613
165	0xbcda1707	-0.026622308
166	0x3e8d4b8f	0.2759671
167	0x3ebf9c27	0.37423822
168	0x3e67cdcf	0.22637103
169	0x3e9110c9	0.2833312
170	0xbeb78d27	-0.35849878
171	0x3ee7d607	0.45280477
172	0x3e860c7d	0.26181403
173	0xbc8e98aa	-0.01740678
174	0x3c90dc3c	0.017683141
175	0x3c7c0a30	0.015383288
176	0x3cab8cd3	0.020941174
177	0xbd7348b3	-0.059395503
178	0xbdf68a97	-0.12038153
179	0x3f076f87	0.5290455
180	0x3e051272	0.12995318
181	0x3e81be51	0.25340512
182	0x3f1c5f04	0.6108248
183	0x3d7d1359	0.06178603
184	0x3e75fce6	0.24022254
185	0x3cc74a57	0.02432744
186	0x3ee48eb5	0.44640127
187	0x3e947c26	0.29000968
188	0x3eead413	0.45864925
189	0x3f00b6bd	0.50278836
190	0xbc0acec4	-0.008472148
191	0x3caac15e	0.020844158
192	0xbd3bcbc9	-0.04584864
193	0xbdbdf4bd	-0.09275196
194	0xbdbee45c	-0.093209
195	0xbe2ddd37	-0.16978918
196	0x3e4ad6be	0.1980848
197	0x3e7a1723	0.24422888
198	0x3c13df70	0.00902544
199	0x3cd7c648	0.026339665
200	0xbdf0b24b	-0.11752757
201	0x3e00ca52	0.12577179
202	0x3da8a6c3	0.08234932
203	0x3e169737	0.14706121
204	0x3de2bdd5	0.11071364
205	0x3d28b714	0.041190222
206	0xbc0448e2	-0.008074017
207	0xbe2cc173	-0.1687067
208	0xbd61f6b8	-0.05516693
209	0x3d1baa12	0.03800399
210	0x3df45471	0.119301684
211	0xbe47474b	-0.1946079
212	0xbda9b65a	-0.08286734
213	0x3e88ee87	0.26744482
214	0x3cc832b1	0.024438234
215	0x3dec2644	0.11530736
216	0x3e9054f7	0.28189823
217	0x3dedba55	0.11607806
218	0xbc24bdb2	-0.0100549925
219	0x3e1b05b0	0.15138888
220	0x3e88a4da	0.26688272
221	0x3db4963e	0.08817719
222	0xbe0f9898	-0.14023054
223	0x3e1659b6	0.1468266
224	0x3d7f1da9	0.062284146
225	0x3d52016e	0.051270895
226	0x3dde7a81	0.108632095
227	0x3dbcf0e3	0.09225633
228	0x3ddff879	0.10936064
229	0x3e0aed65	0.13567121
230	0x3d2b5342	0.041827448
231	0xbd509c3e	-0.050930254
232	0x3e85d50a	0.26139098
233	0x3d349dca	0.044095792
234	0x3edfa407	0.4367983
235	0x3f2a3f47	0.66502804
236	0x3ef01bce	0.46896213
237	0x3d2c1232	0.04200954
238	0x3f005510	0.50129795
239	0x3e940015	0.28906313
240	0x3dc8cfa2	0.09805228
241	0x3e9eb3c7	0.30996534
242	0xbea59415	-0.3233954
243	0xbd9ca965	-0.07649497
244	0x3ec88a40	0.39167976
245	0x3ede76f2	0.43450123
246	0x3eebe564	0.4607345
247	0x3dbe2bc0	0.092856884
248	0xbedd5e0d	-0.43235818
249	0x3edc5faa	0.43041736
250	0x3e3738a2	0.17892697
251	0x3d5040c4	0.050843015
252	0xbd1b8454	-0.037967995
253	0x3e7eb64a	0.24874225
254	0xbe27b616	-0.16378054
255	0x3e03a9bb	0.12857716

feature_layer.model.0.bias f4 [128]
0	0x3ec3135f	0.38100716
1	0x3f15dcac	0.58539844
2	0x3eaad440	0.3336506
3	0x3f23a9c2	0.63930905
4	0x3dacdc01	0.084404
5	0x3c4ebd4b	0.012618373
6	0x3dda0bb1	0.10646761
7	0x3f22cd1e	0.63594234
8	0x3f264b6d	0.6495884
9	0x3e9c40bc	0.30518138
10	0xbc258e60	-0.010104746
11	0xbda31f24	-0.07964924
12	0x3e4ae602	0.19814304
13	0x3ecb80cc	0.39746702
14	0x3ed0c5b9	0.4077585
15	0x3f28a066	0.6586975
16	0x3eddf3d8	0.433501
17	0x3e2d4e04	0.16924292
18	0x3e6a62bc	0.22889227
19	0x3eea4e6c	0.45762956
20	0x3e3aa447	0.1822673
21	0xbe1f8228	-0.15576994
22	0x3ec7ac88	0.38998818
23	0x3d74d278	0.05977103
24	0x3e9356a6	0.28777045
25	0x3ec7801c	0.38964927
26	0x3e7ef9f4	0.24900037
27	0x3cba2c6d	0.022726262
28	0x3e3a04d5	0.18165906
29	0x3e334ad5	0.17509015
30	0x3e9bf26c	0.3045839
31	0x3edf4d33	0.43613586
32	0x3ed7bea5	0.42137638
33	0x3e9fa8a2	0.31183344
34	0x3e477a6e	0.19480297
35	0x3da9407b	0.08264252
36	0x3e703130	0.23456264
37	0x3e7ef473	0.24897937
38	0x3f04de19	0.51901394
39	0x3eb4c925	0.3530971
40	0x3e836bbd	0.25668135
41	0x3dd21faa	0.10259946
42	0x3ecbc1ce	0.397963
43	0x3e8354bf	0.25650594
44	0x3f20a881	0.62757117
45	0x3ebe5d37	0.37180492
46	0x3dc93f3f	0.09826516
47	0x3eb52202	0.35377508
48	0x3ea8cce4	0.3296882
49	0x3e95797e	0.29194254
50	0x3e191bff	0.14952086
51	0x3eb2da33	0.34932098
52	0x3ead7190	0.33875704
53	0x3e7547a9	0.23953117
54	0x3e4c7904	0.19968039
55	0x3d9f7180	0.0778532
56	0x3eb2a01f	0.34887788
57	0x3e9d2b47	0.3069708
58	0x3e4b3e4f	0.19847988
59	0x3e3fe79a	0.18740693
60	0x3ed722c1	0.42018703
61	0x3ef54cb2	0.47910076
62	0x3dde264a	0.10847147
63	0x3e8f7491	0.2801862
64	0x3ed03378	0.40664268
65	0x3f090671	0.53525454
66	0x3e68468a	0.22683159
67	0x3e0b34f1	0.13594414
68	0x3f09a0f6	0.5376123
69	0x3ef4eb79	0.478359
70	0x3d54bde4	0.051938906
71	0x3ed6d2ac	0.41957605
72	0x3ea01016	0.31262273
73	0x3f112e88	0.56711626
74	0x3f0ab73a	0.5418583
75	0x3d0c914e	0.03431826
76	0x3e10f435	0.14155658
77	0x3f198e66	0.5998291
78	0x3eacbcd3	0.3373781
79	0x3e2a9af9	0.1666068
80	0x3e818c33	0.25302276
81	0x3ef2cfd0	0.47424173
82	0x3e202b8a	0.15641609
83	0x3d4eba45	0.05047061
84	0x3ea70fc7	0.32629225
85	0x3dff95aa	0.12479718
86	0x3f12db1a	0.5736557
87	0x3ee9ae34	0.4564072
88	0x3ef42a22	0.47688395
89	0x3e88b2a0	0.2669878
90	0x3dd27690	0.1027652
91	0x3ea0bb36	0.3139283
92	0x3ed6899b	0.4190186
93	0x3f01588e	0.5052575
94	0x3f1717f7	0.5902094
95	0x3eb20ddb	0.34776196
96	0x3e06955d	0.13142915
97	0x3d21c4bb	0.039494257
98	0x3dc91adf	0.098195784
99	0x3efa9cab	0.48947653
100	0x3eb2baaf	0.34908053
101	0x3ed428f5	0.41437498
102	0x3f00f120	0.5036793
103	0x3b9b3c6f	0.004737429
104	0x3cfebabd	0.031094903
105	0x3eb5607b	0.3542517
106	0x3ea493ad	0.32143918
107	0x3e60fa14	0.21970397
108	0xbdb7f498	-0.089821994
109	0xb9259914	-0.00015792652
110	0x3e67edc9	0.22649302
111	0x3e45873f	0.19289874
112	0x3f09f041	0.53882223
113	0x3d9da342	0.076971546
114	0x3e0b8e57	0.13628517
115	0x3f0702be	0.5273856
116	0x3ebf17c6	0.37322825
117	0x3e62ec3e	0.22160432
118	0x3d2e2f53	0.0425256
119	0x3e89b98f	0.26899382
120	0x3ec4ea1c	0.3845986
121	0x3e9d6f7d	0.3074912
122	0x3ec9bacb	0.39400324
123	0x3ecf632b	0.40505347
124	0x3dc40765	0.09571723
125	0x3e2bad5a	0.16765347
126	0x3ec16f33	0.3778015
127	0x3ef1cf03	0.4722825

feature_layer.model.2.weight f4 [128, 128]
0	0x3d52dfea	0.051483072
1	0x3d4b5a2d	0.049646545
2	0x3bde37b4	0.0067815427
3	0xbc82d51e	-0.015970763
4	0xbd332774	-0.043738797
5	0xbc575b7c	-0.01314437
6	0xbc892a6e	-0.016743865
7	0x3da3c8c7	0.079972796
8	0x3d6056b3	0.054770183
9	0x3d2ab043	0.041672003
10	0x3d91a8b3	0.07112255
11	0x3d46c51e	0.04852783
12	0x3c08fd50	0.008361176
13	0xbc631fb0	-0.013862535
14	0x3d922ac1	0.07137061
15	0xbd5774ca	-0.052601613
16	0x3d3346d7	0.04376873
17	0xbcc3f1e4	-0.023919053
18	0xbc389a9c	-0.0112673305
19	0xbcae2d74	-0.021261908
20	0xbd9a0a62	-0.075215116
21	0x3d98a4d9	0.07453317
22	0x3d8b286b	0.067948185
23	0x3d816307	0.06317716
24	0xbd8116ab	-0.06303152
25	0xbd82632f	-0.06366574
26	0x3d4ceae7	0.050028708
27	0xbda16986	-0.07881455
28	0x3ce8fcc8	0.028440848
29	0x3d7705fa	0.060308434
30	0x3ce6fdc8	0.028197184
31	0x3b431b3b	0.002977087
32	0x3cccbbaa	0.024991829
33	0x3d069de4	0.03286542
34	0xbcb25ac8	-0.021771803
35	0xbd983d24	-0.07433537
36	0xbcd4a4b7	-0.025957448
37	0x3c791dc8	0.015204854
38	0xbd0858b4	-0.03328772
39	0xbc7c885c	-0.01541337
40	0x3d337b0a	0.04381851
41	0x3b9b7c40	0.0047450364
42	0xbdae7b30	-0.0851959
43	0xbcae57d4	-0.021282114
44	0xbda1953f	-0.078897946
45	0x3d8f434c	0.06995258
46	0xbc20d9ef	-0.009817584
47	0xbb01df80	-0.0019817054
48	0xbbe668b0	-0.0070315227
49	0xbccfdf54	-0.025375046
50	0xba5aa000	-0.0008339882
51	0xbd359849	-0.044334684
52	0xbd9bc20c	-0.07605371
53	0xbd93dbda	-0.07219668
54	0xbbdebcc0	-0.006797403
55	0x3db31d07	0.08745771
56	0xbd75a186	-0.059968494
57	0x3d986742	0.0744157
58	0x3d8fcbe1	0.07021309
59	0x3d5e00fb	0.054200154
60	0xbdbf0d6e	-0.093287334
61	0xbd86d31d	-0.065832354
62	0xbd436383	-0.047702324
63	0xbbde67ce	-0.006787277
64	0xbd857c1a	-0.06517811
65	0x3d938228	0.0720256
66	0x3da11027	0.07864409
67	0xbd85bb10	-0.0652982
68	0x3cec54d0	0.028849036
69	0x3cf8a48d	0.030351901
70	0xbc03d058	-0.0080452785
71	0x3cec9a8c	0.028882287
72	0xbcf28a1c	-0.029606871
73	0xbd793a75	-0.060846765
74	0xbd38c520	-0.045109868
75	0x3d9fdeed	0.078061916
76	0x3d530db4	0.05152674
77	0xbc7174c1	-0.014737309
78	0xbd83a49d	-0.06427882
79	0xbd73f700	-0.05956173
80	0xbc896238	-0.016770467
81	0x3d57f3ca	0.05272273
82	0xbcd52ddf	-0.02602285
83	0xbd156bc0	-0.03647971
84	0x3ca89955	0.020580927
85	0x3c08fe40	0.008361399
86	0x3a317282	0.0006769077
87	0xbdad1008	-0.08450323
88	0x3ca1f248	0.019768849
89	0xbc996ead	-0.018729532
90	0x3d50515e	0.050858848
91	0xbd3d9188	-0.046281368
92	0x3cf541da	0.029938627
93	0xbdad0130	-0.08447492
94	0xbd7f9976	-0.06240221
95	0x3d9b8491	0.075936444
96	0x3d2440fc	0.040101036
97	0xbd785e44	-0.060636774
98	0xbc267128	-0.0101588145
99	0x3d8f164e	0.06986676
100	0x3d826ffc	0.063690156
101	0x3d8a73ae	0.067603454
102	0x3da4f640	0.08054781
103	0x3d97b4d0	0.07407534
104	0x3d2b9012	0.041885443
105	0x3da7cf1d	0.081938006
106	0x3d9a2dfd	0.07528303
107	0x3c4f005d	0.012634364
108	0xbdaef2cd	-0.08542404
109	0xbd648372	-0.05578942
110	0x3c8b1ce1	0.016981544
111	0xbd7839f4	-0.060602143
112	0x3cda7bf4	0.026670434
113	0xbd27cc80	-0.04096651
114	0x3d3e5af2	0.04647345
115	0xbdae49db	-0.085101806
116	0xbc904d91	-0.017615112
117	0xbd57f4fc	-0.05272387
118	0xbcfe60c3	-0.031051999
119	0x3d80f949	0.06297547
120	0xbd9b59a4	-0.07585457
121	0x3d7ad2ef	0.06123632
122	0xbda80dd5	-0.08205763
123	0xbd37a388	-0.04483369
124	0xbdaca4b3	-0.084298514
125	0xbc4b4010	-0.01240541
126	0xbd593004	-0.053024307
127	0x3d85b8fe	0.06529425
128	0x3d792483	0.060825836
129	0x3dcb4656	0.09925525
130	0x3e9b0bfd	0.30282584
131	0x3d88f50b	0.06687363
132	0x3e24122e	0.1602256
133	0x3cb58ec8	0.02216281
134	0x3df7d2ce	0.12100755
135	0x3e1b0348	0.1513797
136	0x3e2996fd	0.16561504
137	0x3e036e95	0.12835152
138	0xbd12798e	-0.035760455
139	0x3c8a7c38	0.016904935
140	0xbe4f7c1d	-0.20262189
141	0xbd32a4d0	-0.04361421
142	0x3cc5ba90	0.024136811
143	0x3e0b09da	0.13577977
144	0x3e5cc5a2	0.21559766
145	0x3e7b7205	0.24555214
146	0x3e10272d	0.14077444
147	0x3eaba2c6	0.33522624
148	0x3e956213	0.29176387
149	0x3d43b012	0.047775336
150	0x3e18f7c0	0.14938259
151	0xbc8a9142	-0.016914967
152	0xbdb1f19c	-0.086886615
153	0x3d7349ca	0.059396543
154	0x3de14b46	0.110006854
155	0xbda07122	-0.07834078
156	0xbd2bef4c	-0.04197626
157	0xbdba4518	-0.0909521
158	0xbe0a8a0c	-0.13529223
159	0x3e4a2738	0.19741523
160	0x3dece6e4	0.115674764
161	0xbe19c5f6	-0.15016922
162	0x3e31fc99	0.17381515
163	0x3dd6564a	0.10465677
164	0x3e18ad9b	0.14909975
165	0x3dd78caa	0.105248764
166	0x3db86346	0.0900331
167	0x3e07211c	0.13196224
168	0x3e22c13a	0.15894023
169	0xbde76f96	-0.1130058
170	0x3d9eae43	0.077480815
171	0x3db61f32	0.08892669
172	0x3e74dccf	0.23912357
173	0x3e43bf13	0.19115858
174	0xbdd4cf8c	-0.10391149
175	0x3eb7e54a	0.3591712
176	0x3d9ca48b	0.076485716
177	0xbcc52ae6	-0.024068307
178	0xbe879fba	-0.2648905
179	0x3e1248c1	0.14285566
180	0x3e7b2249	0.24524797
181	0x3c0a3f3e	0.00843793
182	0x3d3541f0	0.044252336
183	0x3e66e8b2	0.22549704
184	0xbd8cc929	-0.06874306
185	0x3dbd0c10	0.09230816
186	0x3e7b00f8	0.24512088
187	0x3d39f58c	0.045400187
188	0xbce94f32	-0.028480146
189	0x3eb6972a	0.35662204
190	0xbd915ec5	-0.07098154
191	0x3eb72609	0.35771206
192	0x3e592c69	0.21208347
193	0x3e3367ee	0.17520115
194	0x3e0bfba6	0.13670215
195	0x3e43615f	0.19080113
196	0x3e03d41c	0.12873882
197	0x3e182fab	0.14861934
198	0xbd2c3342	-0.04204107
199	0xbb9705a1	-0.0046088253
200	0x3e32901c	0.17437786
201	0x3d4720b8	0.048615187
202	0x3e2210d2	0.15826729
203	0x3cf17ebf	0.029479383
204	0xbce1c2f4	-0.027558781
205	0x3e1b9392	0.15193012
206	0xbdf7d708	-0.12101561
207	0x3d6511c0	0.05592513
208	0xbd434b27	-0.047679093
209	0xbd6a484e	-0.05719786
210	0x3eca0d88	0.3946345
211	0xbd30aacd	-0.04313164
212	0xbca6bd4c	-0.020353936
213	0xbe5edbca	-0.2176353
214	0x3de8a16d	0.113589145
215	0x3db69055	0.08914248
216	0x3ebbb228	0.3665936
217	0x3e3ca693	0.18422918
218	0xbe20ee5c	-0.15715927
219	0x3ebffd55	0.37497965
220	0x3e4eeed4	0.20208293
221	0x3e62f81c	0.22164959
222	0x3d7dde67	0.061979678
223	0x3ea06985	0.31330505
224	0x3e606521	0.21913578
225	0xbe318aae	-0.17338058
226	0x3ce3335a	0.027734447
227	0x3e23e837	0.16006552
228	0x3d1ad0eb	0.037796896
229	0x3e0d1fd8	0.13781679
230	0x3d1896da	0.03725324
231	0x3c02d009	0.00798417
232	0x3de03d4e	0.10949193
233	0x3e966f8c	0.2938198
234	0x3e5134a3	0.20430236
235	0x3e88044f	0.26565787
236	0xbd99fc72	-0.07518853
237	0xbd975d64	-0.0739086
238	0x3e9bd0a5	0.3043262
239	0xbd3d88d3	-0.046273064
240	0x3e272ab1	0.16324879
241	0x3dfc1843	0.12309315
242	0xbebe17b7	-0.37127468
243	0x3e6b34a3	0.22969298
244	0x3e75549f	0.23958062
245	0x3e233426	0.15937862
246	0x3de992c4	0.114049464
247	0xbd93624d	-0.07196484
248	0x3e4f1289	0.20221914
249	0x3d4d626a	0.050142683
250	0x3e6ebc80	0.23314095
251	0x3ea06d47	0.31333372
252	0x3e308870	0.17239547
253	0xbe87031e	-0.26369566
254	0x3ec846b8	0.39116454
255	0x3db083b1	0.08618868

feature_layer.model.2.bias f4 [128]
0	0xbd0305ff	-0.03198814
1	0x3e11f202	0.14252475
2	0x3e14e247	0.14539443
3	0x3e896847	0.2683737
4	0x3d553e8a	0.052061595
5	0x3dd8f97c	0.1059446
6	0x3da15dca	0.07879217
7	0x3e1090d8	0.14117754
8	0xbe204e57	-0.15654884
9	0xbdb0c72f	-0.08631741
10	0x3e88c50d	0.26712838
11	0x3d248653	0.040167164
12	0x3e33ed81	0.1757107
13	0x3eba05c9	0.3633254
14	0x3e3c6755	0.18398793
15	0x3d266c6d	0.040630747
16	0x3d59c784	0.05316879
17	0x3c3cde2e	0.011527581
18	0x3e8bfd94	0.27341902
19	0x3cbe6698	0.02324228
20	0xbdd9a310	-0.10626805
21	0x3e69f656	0.22847876
22	0x3da083dd	0.07837651
23	0x3e7f7318	0.24946249
24	0x3e9cf5bc	0.3065623
25	0x3d8a71e3	0.067600034
26	0x3e59531f	0.21223114
27	0x3d806188	0.062686026
28	0x3dab4d30	0.08364332
29	0x3e64825f	0.22315358
30	0x3e4dd2de	0.2009997
31	0x3d6b54f1	0.057454053
32	0x3e2b5ea6	0.16735324
33	0x3e3a462c	0.18190831
34	0xbc8965b0	-0.016772121
35	0xbc75dd0b	-0.015006314
36	0x3e1cbb76	0.15305886
37	0x3e89feb2	0.2695213
38	0x3c008df0	0.007846341
39	0x3e57ea5d	0.21085496
40	0x3e0eed1e	0.1395764
41	0x3e5a39a7	0.21311055
42	0x3ce0e014	0.027450599
43	0x3e702f21	0.23455478
44	0x3e6484ff	0.22316359
45	0xbd69ae2b	-0.057050865
46	0x3e85189e	0.25995344
47	0x3e77356d	0.24141474
48	0x3e643bb6	0.22288403
49	0x3da4be1d	0.08044074
50	0x3e0656e9	0.13119091
51	0x3e846d9a	0.2586487
52	0x3e5cbcb9	0.21556367
53	0x3d1faaf5	0.038981397
54	0x3e432d35	0.19060214
55	0x3e9882d1	0.29787305
56	0x3e147b1b	0.14500086
57	0x3c134b7a	0.008990163
58	0x3de0ad16	0.109705135
59	0x3ec59f88	0.38598275
60	0x3daf525f	0.08560633
61	0x3e093b1b	0.13401453
62	0x3dfaa5e7	0.122386746
63	0x3dfdf969	0.12401087
64	0x3da16f1d	0.07882521
65	0x3e4f0fed	0.20220919
66	0xbd3d1f47	-0.046172407
67	0x3eb558eb	0.35419402
68	0xbd81cb60	-0.06337619
69	0xbd20b42b	-0.03923432
70	0x3e9de36b	0.3083757
71	0x3d316ec4	0.043318525
72	0x3eab7b3d	0.3349246
73	0x3e913e16	0.2836768
74	0x3cf0f476	0.029413443
75	0x3df86f2f	0.121305816
76	0x3e84b020	0.25915623
77	0x3cb605b9	0.022219526
78	0x3dad67f1	0.08467091
79	0x3dd09cb3	0.10186138
80	0x3d1e4d77	0.038648095
81	0x3e786a1a	0.24259225
82	0x3e376d25	0.17912729
83	0x3e114633	0.14186935
84	0xbe2e8592	-0.1704314
85	0x3de8b4fa	0.113626435
86	0x3e8ef11b	0.27918324
87	0xbc86b35a	-0.016442943
88	0x3e110182	0.14160731
89	0x3e8deafd	0.27718344
90	0x3d9260c1	0.071473606
91	0x3df3713b	0.118868314
92	0x3ec99c87	0.39377233
93	0x3cf6d4aa	0.030130703
94	0x3ec7a97c	0.38996494
95	0x3e8d28ca	0.27570182
96	0x3e7a0429	0.2441565
97	0x3e723f78	0.23657024
98	0x3d83bac4	0.06432107
99	0x3de1a9d9	0.11018724
100	0x3e53e762	0.20693734
101	0xbd57e66d	-0.052709986
102	0xbd8f5bb6	-0.06999914
103	0xbb541428	-0.0032360647
104	0x3d177fb6	0.03698703
105	0x3d3ea45d	0.046543468
106	0x3e96b184	0.2943231
107	0xbd425178	-0.047440976
108	0xbd84ea88	-0.06490046
109	0x3e188a5f	0.14896534
110	0x3edc8aa5	0.43074527
111	0x3e180e9b	0.14849322
112	0x3d5c3363	0.053759944
113	0x3e495c07	0.19664012
114	0x3e002d3d	0.12517257
115	0x3e613f49	0.21996798
116	0x3e4df5fb	0.20113365
117	0x3cc79610	0.024363548
118	0x3ce72620	0.028216422
119	0x3e89aa6c	0.26887834
120	0x3d128400	0.035770416
121	0xbd9bd384	-0.07608703
122	0x3e1b0e22	0.1514211
123	0x3ba3e81e	0.0050020358
124	0x3e38c93a	0.18045512
125	0x3e9f6ca5	0.31137577
126	0xbd3ba9dc	-0.045816287
127	0xbb82624e	-0.003979004

value_stream.model.0.weight f4 [128, 128]
0	0x3d8fd85b	0.070236884
1	0xbcd83ae0	-0.026395261
2	0xbd8c407f	-0.06848239
3	0x3d414590	0.04718548
4	0x3d49e657	0.049291935
5	0xbd5b7ff6	-0.05358883
6	0x3d85d654	0.065350205
7	0x3d33a2f4	0.043856576
8	0xbcb3284d	-0.021869803
9	0x3bff9f68	0.007800985
10	0xbcb36658	-0.021899387
11	0xbb212204	-0.0024586925
12	0xbbb1a227	-0.0054209414
13	0xbd933685	-0.07188133
14	0xbe09cc60	-0.13456869
15	0xbcdd5ae1	-0.027020874
16	0xbd0a5c1e	-0.033779256
17	0x3d3ed6e3	0.04659165
18	0x3cf9d7d9	0.030498432
19	0xbd693304	-0.056933418
20	0x3d6de1b5	0.05807658
21	0xbc95669b	-0.018237403
22	0x3cef9881	0.029247524
23	0x3d1d074d	0.03833704
24	0x3d1be712	0.038062163
25	0x3d13023c	0.035890803
26	0x3d939795	0.07206646
27	0x3d68d7e6	0.05684652
28	0x3d77d03c	0.060501322
29	0xbc179592	-0.009251969
30	0xbd27aaaa	-0.040934242
31	0x3d35babe	0.044367544
32	0x3ce66723	0.028125351
33	0x3d09b2f1	0.033617917
34	0x3cbbb5c4	0.022913821
35	0xbda49ac8	-0.08037335
36	0x3d64408d	0.055725623
37	0xbd427662	-0.04747618
38	0x3c255248	0.010090418
39	0xbdacfa2c	-0.08446154
40	0x3b6dc77a	0.0036282227
41	0xbd4bb082	-0.049728878
42	0x3d66771e	0.056265943
43	0xbd1b6658	-0.0379394
44	0x3d40e13b	0.047089797
45	0x3db0f2c0	0.08640051
46	0xbc20ae4f	-0.009807183
47	0xbd1b8735	-0.03797074
48	0xbdb446a7	-0.08802538
49	0xbc42926a	-0.011875728
50	0x3b2efec2	0.002670214
51	0x3d277e2c	0.04089181
52	0x3d07808f	0.033081587
53	0x3d291d8d	0.041287947
54	0xbb81c116	-0.003959785
55	0xbcb22f50	-0.021751076
56	0xbd1339a9	-0.03594366
57	0xbcd41e59	-0.025893377
58	0x3d91ec31	0.07125128
59	0x3c347b85	0.0110157775
60	0xbdbc7bb1	-0.0920328
61	0xbdb74f5a	-0.08950682
62	0xbcca21d3	-0.024674332
63	0xbd1ef448	-0.038807184
64	0x3c9f6843	0.019458896
65	0xbc908ff9	-0.017646777
66	0x3d6cd02e	0.057815723
67	0x3c5ea3c1	0.013588847
68	0x3cac698c	0.021046422
69	0xbcaef720	-0.021358073
70	0xbd606b6e	-0.054789953
71	0xbcbafe6f	-0.022826402
72	0xbd897637	-0.06712001
73	0x3daa2b4b	0.08309039
74	0xbda897b9	-0.08232064
75	0xbd876842	-0.066116825
76	0xbda53c4b	-0.080681406
77	0xbdcdd061	-0.10049511
78	0x3da65c88	0.08123118
79	0x3da73b63	0.08165624
80	0xbd0803cd	-0.03320675
81	0x3db3e85d	0.08784554
82	0xbd306e57	-0.04307398
83	0xbd0fe34e	-0.035128884
84	0x3da0d5f8	0.07853311
85	0x3be83cbf	0.0070873196
86	0x3b233336	0.002490235
87	0xbbb2d970	-0.0054580495
88	0x3d277572	0.04088349
89	0x3d0bdc64	0.034145728
90	0x3d0e6e1f	0.03477299
91	0xbd874797	-0.066054516
92	0xbd50b942	-0.050957926
93	0x3da0c8eb	0.07850822
94	0x3b9df6aa	0.0048206644
95	0xbd8e949f	-0.06961941
96	0xbd3df674	-0.046377614
97	0x3d03b156	0.032151543
98	0x3da47cfd	0.08031652
99	0xbd37a091	-0.044830862
100	0xbd380428	-0.04492584
101	0x3d0212a0	0.031756043
102	0x3cd1af60	0.02559632
103	0xbbff9e44	-0.007800849
104	0xbd6129a4	-0.054971352
105	0xbd72bbf6	-0.059261285
106	0x3d5e5c0a	0.054286994
107	0x3ce453a1	0.027871909
108	0xbd1eb700	-0.03874874
109	0xbce236a7	-0.02761395
110	0x3b79d570	0.0038121603
111	0x3cb96b35	0.022634128
112	0x3d3109f7	0.043222394
113	0x3c33d160	0.010975212
114	0xbd65f09f	-0.056137677
115	0x3c2d39ae	0.010572834
116	0xbdb0b732	-0.08628692
117	0xbd96e1be	-0.07367276
118	0x3d80eac1	0.06294776
119	0xbd9365ae	-0.07197128
120	0x3c14e2ba	0.009087259
121	0xbd59d6fb	-0.053183537
122	0x3d1f620f	0.038911875
123	0xbdadd31b	-0.08487531
124	0xbda40719	-0.08009166
125	0x3d480316	0.048831068
126	0xbd814268	-0.06311494
127	0xbdb6bd9a	-0.089228824
128	0x3d65aeea	0.056075014
129	0x3d5d56c1	0.054037813
130	0xbd6c0d55	-0.057629902
131	0x3d0a5e45	0.03378131
132	0x3c128a7b	0.008944149
133	0xbdad21fa	-0.08453746
134	0x3d1e757e	0.038686268
135	0x3d92c2a3	0.0716603
136	0x3d6077fa	0.05480192
137	0xbdaa82e2	-0.08325745
138	0xbdae7cce	-0.08519898
139	0xbd94f840	-0.072739124
140	0xbd907fd2	-0.0705563
141	0x3cd63692	0.026149068
142	0xbda7c49a	-0.08191796
143	0x3d93fb88	0.0722571
144	0x3d2d9137	0.042374816
145	0xbd3be754	-0.04587491
146	0xbdb8e03a	-0.09027143
147	0xbd8be55f	-0.068308584
148	0xbd13ad8c	-0.03605418
149	0xbd9e71e7	-0.07736569
150	0xbcedef12	-0.029044662
151	0xbd8109b1	-0.063006766
152	0x3d4e642f	0.05038851
153	0x3d333974	0.043755963
154	0xbd1d52a1	-0.03840888
155	0x3d7c0050	0.061523736
156	0xbd112327	-0.035433915
157	0x3ce5e246	0.028061997
158	0x3d21e9b4	0.039529517
159	0xbdcaef71	-0.09908951
160	0x3ccfd53e	0.025370236
161	0x3d111fb6	0.035430633
162	0xbb9e09ed	-0.0048229606
163	0xbd944a5d	-0.07240746
164	0xbdc0ed91	-0.09420312
165	0x3d84d6e2	0.06486298
166	0xbb78e940	-0.0037980825
167	0x3d243789	0.040092025
168	0x3d53b8b4	0.05168982
169	0xbd95920f	-0.07303249
170	0x3d9bfc51	0.07616485
171	0xbd973f1a	-0.073850825
172	0xbbb14c39	-0.005410698
173	0xbc03186b	-0.008001427
174	0xbd912975	-0.070879854
175	0x3d5b767a	0.053579785
176	0xbd500a67	-0.05079117
177	0xbd91f45b	-0.07126685
178	0x3b211cbe	0.0024583782
179	0x3d2754c9	0.04085234
180	0x3d9aa5af	0.07551133
181	0xbd70c3cb	-0.058780473
182	0xbd8cd2e8	-0.06876165
183	0x3bae77d7	0.0053243446
184	0xbd3c0967	-0.045907404
185	0x3d82ed05	0.06392864
186	0x3d60c922	0.054879315
187	0x3da80747	0.08204513
188	0xbd88c57e	-0.06678294
189	0xbd334a96	-0.043772303
190	0x3d10fd73	0.035397958
191	0xbc95bf25	-0.018279621
192	0x3d854633	0.0650753
193	0x3d636ae6	0.05552187
194	0xbd791798	-0.060813516
195	0x3da04bc9	0.07826955
196	0x3d7b6adb	0.061381202
197	0xbda2aac5	-0.07942728
198	0x3d1f6d41	0.038922552
199	0x3d7538b3	0.059868526
200	0x3c2e1dc9	0.0106272185
201	0x3ca10bdd	0.019658977
202	0xbd4e2c81	-0.05033541
203	0xbd7178e9	-0.0589532
204	0x3cedf0ea	0.02904554
205	0xbd3b5a9c	-0.04574071
206	0x3d800dc3	0.06252625
207	0xbdae21a3	-0.085025094
208	0xbd11cf2d	-0.03559797
209	0x3d8e3a63	0.0694473
210	0xbdbf29ad	-0.09334121
211	0x3c26c4b1	0.010178731
212	0xbd7f53ac	-0.062335655
213	0x3d813372	0.063086405
214	0xbc8d4ae5	-0.017247627
215	0xbdaf3da2	-0.085566774
216	0xbdc89ee9	-0.09795935
217	0x3d94f5b2	0.07273425
218	0xbd6ad911	-0.057335917
219	0x3da0093c	0.07814261
220	0xbca1c899	-0.019748973
221	0x3c8ee22d	0.017441833
222	0x3c0113cd	0.007878256
223	0xbdbe2c5c	-0.09285805
224	0x3d548b58	0.0518907
225	0x3d7842ad	0.060610462
226	0x3c324c15	0.010882397
227	0xbc7f4b55	-0.015581925
228	0xbd90776b	-0.07054027
229	0x3caf174e	0.021373417
230	0xbbde97e0	-0.0067930073
231	0xbbafa2c1	-0.005359978
232	0xbd85a5e4	-0.06525782
233	0x3d73e9f5	0.05954929
234	0x3d30ecd4	0.043194607
235	0x3d875128	0.06607276
236	0x3d946e65	0.072476186
237	0xbcbbab4e	-0.022908833
238	0x3ca6c098	0.020355508
239	0x3d881e33	0.06646385
240	0xbd9548f3	-0.072893046
241	0xbd648771	-0.05579323
242	0x3d5eca3f	0.054392096
243	0xbd081f30	-0.033232868
244	0x3d0307e3	0.031989943
245	0x3d809a61	0.062794454
246	0x3d3b82b6	0.045778953
247	0x3d9652ee	0.07340036
248	0xbcedf55b	-0.029047659
249	0xbd803a67	-0.06261139
250	0x3b71c246	0.0036889478
251	0x3d1eaa1e	0.038736455
252	0xbca394d1	-0.019968422
253	0x3d8e8e2b	0.0696071
254	0x3d047067	0.032333758
255	0x3cb3f171	0.021965714

value_stream.model.0.bias f4 [128]
0	0x3d9267fc	0.0714874
1	0xbd8d5696	-0.069012806
2	0xbd9e9630	-0.0774349
3	0x3dbec975	0.09315769
4	0x3e13c94e	0.1443226
5	0x3d6b1ffb	0.057403546
6	0x3cf96e10	0.03044799
7	0x3db08cd2	0.08620609
8	0x3d662742	0.056189783
9	0x3d2079e6	0.03917875
10	0x3d9bffad	0.07617126
11	0x3d5df785	0.05419113
12	0x3d43ac10	0.047771513
13	0x3d908811	0.070572026
14	0xbdb02893	-0.08601489
15	0x3e4c7455	0.19966252
16	0x3e043ff8	0.12915027
17	0x3c993783	0.018703228
18	0x3dd5364c	0.10410747
19	0x3c6ec6c5	0.014573758
20	0xbb8aeef8	-0.004239913
21	0x3d6e23ed	0.05813973
22	0x3e1ef9b6	0.15524945
23	0x3d3558d6	0.044274174
24	0x3d85089b	0.06495782
25	0xbb19d491	-0.0023472647
26	0xbc3236d5	-0.010877331
27	0x3cd7e2d2	0.026353274
28	0x3c942e18	0.018088385
29	0x3db58010	0.088623166
30	0x3db8d4cd	0.090249635
31	0xbd0cf179	-0.034409974
32	0x3e16280c	0.14663714
33	0x3dfc0efe	0.12307547
34	0x3beab7d9	0.0071630296
35	0x3d6b2a3a	0.057413317
36	0xbdca0e61	-0.09866024
37	0xbcc8859d	-0.024477774
38	0xbc54ffd9	-0.013000452
39	0xbd8f702b	-0.07003816
40	0x3df2c9bc	0.11854884
41	0xbdabc8ba	-0.08387895
42	0x3db5cdbc	0.08877131
43	0x3d5d9d9b	0.054105382
44	0x3d2c7079	0.04209945
45	0xbd2a416e	-0.041566305
46	0x3e834e0d	0.25645486
47	0x3d6cb406	0.05778887
48	0xbd0c0821	-0.03418744
49	0x3d1b212e	0.03787344
50	0xbd139944	-0.036034837
51	0x3e270be7	0.16313134
52	0x3e0eabc2	0.13932708
53	0x3da854e8	0.082193196
54	0xbdb67f45	-0.089109935
55	0x3d3c0ab2	0.045908637
56	0x3d44d825	0.048057694
57	0x3d329e7a	0.043608166
58	0xbd661323	-0.056170594
59	0x3dc3374c	0.095320314
60	0x3d5318d3	0.051537346
61	0xbc3fea15	-0.011713524
62	0x3dd6e076	0.10492031
63	0xbd50a669	-0.05093995
64	0x3d171364	0.036883727
65	0x3c979600	0.018504143
66	0x3db9573d	0.090498425
67	0xbd7e43e8	-0.06207648
68	0x3d0bd43d	0.034137953
69	0xbd052fa7	-0.032516148
70	0x3d37586f	0.04476207
71	0x3d7acc5d	0.061230052
72	0xbd5af7f2	-0.053459115
73	0xba314f28	-0.00067638094
74	0x3d646ca3	0.055767667
75	0x3cf02568	0.029314712
76	0x3cc4ce8a	0.024024267
77	0xbc30035d	-0.010742989
78	0x3d8919dd	0.06694386
79	0xbdee3b79	-0.11632437
80	0xbd631b40	-0.05544591
81	0xbdbb8f33	-0.091581725
82	0x3e169e4a	0.1470882
83	0x3d4b543a	0.04964087
84	0xbdaa8ffb	-0.08328243
85	0x3cfd5dbe	0.030928489
86	0x3d855eb6	0.06512205
87	0x3e1285fd	0.14308925
88	0xbc1c9fcd	-0.009559584
89	0xbdbc808a	-0.092042044
90	0xba6b5980	-0.0008977875
91	0x3d1df89c	0.03856717
92	0x3e094f2a	0.13409105
93	0xbd36b5c8	-0.044606954
94	0x3e3e1140	0.18561268
95	0x3cde4d69	0.027136521
96	0xbcae9bcf	-0.02131453
97	0x3da5f8bf	0.08104085
98	0x3d50ca3f	0.050974127
99	0xbdea2e10	-0.11434567
100	0x3e015162	0.12628701
101	0x3cf87e74	0.030333735
102	0x3c23296c	0.009958606
103	0xbd82c918	-0.06386012
104	0x3dae17d3	0.08500638
105	0x3df60a32	0.12013663
106	0x3dba7c78	0.09105772
107	0x3c6580d9	0.01400777
108	0xbdaf8411	-0.085701115
109	0x3d00930c	0.031390235
110	0x3e1fa4b7	0.15590177
111	0x3db51ba1	0.088431604
112	0xbd436d54	-0.047711685
113	0x3d23d9d4	0.04000266
114	0x3d49e85b	0.049293857
115	0xbcafe5b9	-0.021471845
116	0x3e37f99b	0.1796631
117	0x3a74e3d7	0.0009341812
118	0xbcd65edb	-0.026168277
119	0xbd182c58	-0.037151664
120	0x3e2ccdcf	0.16875385
121	0x3d8e1df3	0.06939306
122	0x3cbceaa2	0.0230611
123	0x3de28564	0.110605985
124	0x3dc2a168	0.09503442
125	0x3ca8c925	0.020603726
126	0x3d95e09c	0.073182315
127	0x3d8fbf8b	0.07018956

value_stream.model.2.weight f4 [1, 128]
0	0xbc89a482	-0.016802076
1	0xbd1f9ea0	-0.038969636
2	0xbd862e1e	-0.06551765
3	0x3ebecd67	0.37266085
4	0x3eea147f	0.45718762
5	0x3edaba76	0.42720383
6	0xbe482404	-0.19544989
7	0x3ed15a21	0.40889075
8	0x3ead02b1	0.33791116
9	0x3ee30ead	0.44347134
10	0x3e92de06	0.28685015
11	0x3ee5c606	0.44877642
12	0xbd93dfa2	-0.07220389
13	0xbdab9b6a	-0.08379252
14	0xbd22cb21	-0.0397445
15	0x3ecfdff1	0.4060054
16	0x3ed66242	0.4187184
17	0x3eed73ba	0.46377355
18	0x3ec2ac60	0.38022137
19	0xbe2928d4	-0.16519481
20	0xbe0add12	-0.13560894
21	0x3ebe8c7a	0.3721655
22	0x3ecb1bee	0.39669746
23	0x3ebf8c6b	0.37411818
24	0x3ee9e557	0.45682785
25	0xbe44801a	-0.19189492
26	0xbe84b2b8	-0.25917602
27	0xbd85bcb0	-0.0653013
28	0xbeab487d	-0.33453742
29	0x3ec3e4eb	0.38260588
30	0x3e86bd19	0.26316145
31	0x3d863041	0.065521725
32	0x3eaa0884	0.33209622
33	0x3ebaa802	0.36456305
34	0x3ee5622f	0.4480147
35	0xbe5dbcfe	-0.21654126
36	0xbead750d	-0.33878365
37	0x3d1c68be	0.038185827
38	0x3ede24aa	0.43387347
39	0xbd107428	-0.035267025
40	0x3ead890e	0.33893627
41	0xbc0918e0	-0.008367747
42	0x3eea8ea4	0.4581195
43	0xbe1b549d	-0.15168996
44	0x3edbff49	0.42968205
45	0x3eff0444	0.49807942
46	0x3eafd5da	0.34342843
47	0x3ee1baec	0.44087923
48	0x3e93ddfc	0.28880298
49	0x3ee5d551	0.4488931
50	0xbd214f4e	-0.03938227
51	0x3ec50e4c	0.3848747
52	0x3eed4e47	0.46348783
53	0x3e9a6fd9	0.30163458
54	0xbe8aa8bc	-0.2708186
55	0xbbde07d0	-0.0067758337
56	0x3cfbfef6	0.030761223
57	0xbebf3f30	-0.37352896
58	0xbeb9df8d	-0.36303368
59	0x3ecd77c1	0.40130427
60	0x3c182db9	0.009288245
61	0x3b261626	0.0025342791
62	0x3ee956e5	0.45574108
63	0xbd551cf6	-0.052029572
64	0x3eb7ce90	0.35899782
65	0xbcc47c52	-0.023985062
66	0x3d8b56a2	0.06803633
67	0xbe812cb0	-0.25229406
68	0x3eb830a0	0.35974598
69	0x3ed9916c	0.4249376
70	0x3d3d869c	0.04627095
71	0xbd82f99d	-0.06395266
72	0x3d30d177	0.04316851
73	0xbc4baff5	-0.012432088
74	0x3ef0e737	0.47051403
75	0xbd92b8a3	-0.07164123
76	0x3ed047c2	0.40679747
77	0xbe583203	-0.21112828
78	0xbe5b6c16	-0.2142795
79	0xbe83d651	-0.25749448
80	0xbd5fab2f	-0.054606613
81	0xbdf6fcd9	-0.120599456
82	0x3ed00f43	0.40636644
83	0xbd08ec4a	-0.033428468
84	0xbe8c7a15	-0.2743689
85	0xbe61fb4f	-0.22068523
86	0xbe5a6747	-0.2132846
87	0x3ebcc1cf	0.36866614
88	0xbd51051a	-0.051030256
89	0xbd0ecd50	-0.03486377
90	0x3d4bf2af	0.049791988
91	0x3d8a448d	0.06751356
92	0x3eb79384	0.35854733
93	0xbd8dc991	-0.06923211
94	0x3ec20a95	0.37898698
95	0x3eea1fc3	0.45727357
96	0x3ec66c3b	0.38754448
97	0x3eddb62e	0.43303055
98	0x3dae5db8	0.08513969
99	0xbe86c965	-0.26325527
100	0x3eeca8a0	0.462224
101	0x3e88616e	0.26636833
102	0xbe66b0d8	-0.22528398
103	0x3ee12fe4	0.4398185
104	0x3da9dc37	0.08293956
105	0x3ea5948c	0.32339895
106	0x3eedf3b9	0.46475008
107	0xbe0f5420	-0.13996935
108	0x3d319988	0.04335931
109	0x3ee365ef	0.44413707
110	0x3ecfe954	0.40607703
111	0x3e9b24e4	0.30301583
112	0xbc334f44	-0.010944191
113	0xbe4ec546	-0.20192441
114	0xbd206fac	-0.039169
115	0xbe927dd2	-0.28611618
116	0x3ec0a0ff	0.3762283
117	0x3ee7a090	0.45239687
118	0x3eddc816	0.43316716
119	0xbdfacbdb	-0.122459136
120	0x3ee5db65	0.44893947
121	0x3ed6740a	0.41885406
122	0x3ec08a14	0.37605345
123	0x3ec5e614	0.38652098
124	0x3e9980d0	0.2998109
125	0x3ed4dd10	0.41574907
126	0x3e8d9ede	0.2766027
127	0xbd46b743	-0.048514616

advantage_stream.model.0.weight f4 [128, 128]
0	0xbcef9fef	-0.029251067
1	0x3e08b591	0.13350512
2	0x3e98b324	0.29824173
3	0x3e31b6fc	0.17354959
4	0xbe5fde79	-0.2186221
5	0x3dc0464e	0.093884096
6	0xbb8f6347	-0.0043758485
7	0x3e470ad0	0.19437718
8	0x3e3457c6	0.17611608
9	0xbd0f009c	-0.03491269
10	0x3e0fe9dc	0.14054054
11	0x3d245628	0.040121228
12	0x3e208c9f	0.15678643
13	0x3ec325b3	0.381147
14	0x3ed71cea	0.42014247
15	0x3c6e7517	0.014554284
16	0xbde65082	-0.112458244
17	0x3e4d6e86	0.20061693
18	0x3ea09d97	0.31370232
19	0xbe22f5a0	-0.15914011
20	0x3f06e8ad	0.52698785
21	0x3e0d1347	0.13776885
22	0x3c4cea3a	0.012507016
23	0x3d8f6b46	0.07002883
24	0x3dd0befd	0.10192678
25	0xbd8cd76f	-0.06877028
26	0x3e9fd5d9	0.3121784
27	0x3e9abff5	0.30224577
28	0x3e6aa4a8	0.22914374
29	0x3d81639f	0.06317829
30	0x3e19ee54	0.15032321
31	0xbde0ffa2	-0.10986258
32	0x3d93e3a5	0.07221154
33	0x3c7e925c	0.0155378245
34	0xbe0e5f61	-0.13903572
35	0x3ea192db	0.31557354
36	0x3e7b6d29	0.2455336
37	0x3ea9fe2f	0.3320174
38	0x3c691708	0.0142266825
39	0x3cfa5900	0.030560017
40	0x3d86292f	0.06550824
41	0x3e63d888	0.22250569
42	0xbd0a48c5	-0.033760805
43	0x3e832d3b	0.25620446
44	0x3dc8dfe7	0.09808331
45	0xbd9cf3c8	-0.07663685
46	0x3df4bc7b	0.11950012
47	0x3e57f22c	0.21088475
48	0x3e28f736	0.16500553
49	0x3daf4e45	0.085598506
50	0x3e5cd49a	0.21565476
51	0x3c6c77a4	0.014432821
52	0x3d5892a1	0.05287421
53	0x3db86fd9	0.09005708
54	0x3e474cc1	0.19462873
55	0x3e338bcf	0.17533801
56	0x3dce1e3e	0.10064362
57	0xbe5a8047	-0.21337996
58	0x3e06d92e	0.13168785
59	0x3e10908d	0.14117642
60	0x3e4718b8	0.19443023
61	0x3e3476f7	0.17623506
62	0x3edd4cb8	0.43222594
63	0xbdfce888	-0.12349039
64	0x3e5313d2	0.2061303
65	0x3ecc6e96	0.3992812
66	0xbd4844cb	-0.04889373
67	0x3db9b118	0.09066981
68	0x3ef70679	0.48247126
69	0x3e0c3193	0.13690786
70	0x3d742063	0.0596012
71	0x3e87993d	0.264841
72	0x3e43f66e	0.19136974
73	0x3ec90368	0.3926041
74	0xbdb77331	-0.08957518
75	0xbd68c2e7	-0.0568265
76	0x3e57df74	0.21081334
77	0x3eb05d94	0.34446394
78	0x3c8bfa71	0.017087193
79	0x3eaafec7	0.33397505
80	0x3db1eda2	0.08687903
81	0x3da2492d	0.079241134
82	0x3e8139db	0.25239453
83	0x3d9946fc	0.07484242
84	0x3e41c36f	0.18922208
85	0x3d313279	0.043261025
86	0x3eaa1e88	0.33226418
87	0x3db24219	0.087040134
88	0x3ea8da45	0.32979026
89	0x3e4d1055	0.20025761
90	0x3eb4ce61	0.35313705
91	0x3d045e8b	0.032316726
92	0x3edb987a	0.42889768
93	0xbc098369	-0.008393147
94	0x3e9f67af	0.31133792
95	0x3df1a414	0.117988735
96	0x3cad0e7e	0.021125074
97	0x3e98ef50	0.2987008
98	0x3e8a0f33	0.2696472
99	0x3e33be1d	0.17552991
100	0x3d0cf0d7	0.03440937
101	0xbe37c067	-0.1794449
102	0x3dae6049	0.08514459
103	0xbdd41ff3	-0.10357656
104	0x3ca7f29c	0.020501427
105	0x3dc3de22	0.09563853
106	0x3e111b1d	0.14170499
107	0x3dbec999	0.093157955
108	0xbe8ddaa8	-0.27705884
109	0x3e3416f6	0.17586884
110	0x3e29f3d9	0.16596927
111	0x3e433db9	0.19066514
112	0x3e33ba40	0.17551517
113	0x3ebe5700	0.3717575
114	0x3dcda79b	0.10041734
115	0x3e54d0c5	0.20782764
116	0x3e340858	0.17581308
117	0x3e9d7ad3	0.3075777
118	0xbd2fa8aa	-0.04288546
119	0x3d5a908b	0.053360503
120	0x3ebfd673	0.374683
121	0x3cdefb38	0.0272194
122	0x3ddb6dec	0.10714325
123	0x3e4733c7	0.19453345
124	0x3cba18a2	0.022716824
125	0x3dec3aff	0.1153469
126	0x3b004c62	0.0019576778
127	0xbe81b5a8	-0.25333905
128	0xbd08d5ab	-0.033406895
129	0x3d1cee81	0.038313393
130	0x3e8240f7	0.2544019
131	0x3d9decf7	0.07711213
132	0xbe3b32f0	-0.1828115
133	0x3d89f4d7	0.067361526
134	0xbcabba94	-0.02096299
135	0x3e859e05	0.26097122
136	0x3e274c32	0.1633766
137	0xbdcc7cbe	-0.0998473
138	0xbc6b3d8e	-0.0143579375
139	0x3d616da6	0.05503621
140	0x3dabd81e	0.083908305
141	0x3e9da3ba	0.30788976
142	0x3ec62903	0.38703164
143	0xbd55b94d	-0.05217867
144	0xbe186455	-0.14882024
145	0x3e8668b2	0.2625175
146	0x3ea50c48	0.32235932
147	0xbe0199f6	-0.12656388
148	0x3f033c27	0.5126366
149	0x3d86d782	0.065840736
150	0xbdae26fd	-0.0850353
151	0x3ce700b6	0.028198581
152	0x3bd2861d	0.006424679
153	0x3c7d7de5	0.01547191
154	0x3e286c24	0.16447502
155	0x3e66d5d8	0.22542512
156	0x3e54d9bb	0.20786183
157	0xbd91c4b5	-0.07117597
158	0x3ccefd81	0.025267364
159	0xbda53cab	-0.08068212
160	0xbce0061b	-0.027346661
161	0xbcf43cb7	-0.029814107
162	0xbe54ccb1	-0.20781209
163	0x3ebc96d0	0.3683381
164	0x3e5b6ac9	0.21427454
165	0x3e4cea5b	0.20011275
166	0x3d48b28a	0.048998393
167	0x3d11a71f	0.03555977
168	0xbca5cb52	-0.020238552
169	0x3e048386	0.12940797
170	0x3d4459ae	0.047937088
171	0x3e7437c7	0.23849402
172	0x3c5d8aed	0.013521892
173	0x3d871dbb	0.065974675
174	0x3c9fdc16	0.019514125
175	0x3c1ee3f6	0.009697905
176	0xbd6c98df	-0.057762977
177	0x3e027d9b	0.12743227
178	0x3e65547e	0.22395512
179	0xbbce4279	-0.0062945453
180	0x3df09190	0.11746514
181	0x3d19e237	0.03756925
182	0x3cff6c86	0.031179678
183	0x3c85f462	0.016351882
184	0x3ddf1e8c	0.10894498
185	0xbe6cda78	-0.23130214
186	0x3e22c9e3	0.15897326
187	0x3bcd2875	0.0062609264
188	0x3e3e3a37	0.18576895
189	0x3d5c9583	0.053853523
190	0x3e9af254	0.30263007
191	0xbe171eb3	-0.14757805
192	0x3e5d74a9	0.21626534
193	0x3eab7d99	0.3349426
194	0x3d1eff83	0.038817894
195	0xbd217dba	-0.039426543
196	0x3ee90a52	0.45515686
197	0x3dc62364	0.09674719
198	0xbcd63293	-0.026147163
199	0x3e8fb647	0.28068754
200	0x3dbeecfa	0.093225434
201	0x3e3fd629	0.1873404
202	0x3ccb8888	0.024845377
203	0xbdefe544	-0.11713651
204	0x3dc29675	0.09501354
205	0x3e9504b7	0.2910516
206	0x3c9500c6	0.018188845
207	0x3e189e1c	0.14904064
208	0x3d84a35c	0.06476471
209	0x3c2bdf5c	0.010490265
210	0x3e64e69d	0.22353597
211	0xbcc3c71f	-0.02389866
212	0x3e185eaf	0.14879869
213	0xbc3c31e2	-0.011486502
214	0x3eb98be5	0.36239544
215	0xbd521c3e	-0.051296465
216	0x3e88343d	0.26602355
217	0x3d966a30	0.073444724
218	0x3e7f28c1	0.2491789
219	0x3d3d4e85	0.04621746
220	0x3e97a1cd	0.29615632
221	0xbd59da43	-0.053186666
222	0x3e59c986	0.21268281
223	0x3d71354d	0.058888722
224	0x3d03df5f	0.032195445
225	0x3e666779	0.22500409
226	0x3e26a4e5	0.1627384
227	0x3dd0988a	0.101853445
228	0x3e265467	0.16243134
229	0xbdecb93d	-0.11558769
230	0x3d2a45e2	0.04157055
231	0xbda2af33	-0.07943573
232	0x3d1b9342	0.037982233
233	0xbbc06717	-0.0058716643
234	0x3d9717a1	0.07377554
235	0x3e39f6f0	0.18160605
236	0xbea51f10	-0.3225026
237	0x3e4f1bd5	0.20225461
238	0xbe0727b3	-0.13198738
239	0x3df49d24	0.11944035
240	0x3cd7f256	0.026360672
241	0x3e3ecd50	0.18633008
242	0x3df4d1d0	0.11954081
243	0x3e438bcd	0.19096299
244	0x3e224c50	0.15849423
245	0x3e2b2b38	0.16715705
246	0xbcb62b74	-0.022237517
247	0x3d84a6f4	0.06477156
248	0x3e99f955	0.30073038
249	0x3c89ad8d	0.016806388
250	0x3e43b9b4	0.19113809
251	0x3e2c3c4a	0.16819873
252	0x3cfa27b7	0.030536516
253	0x3e4796bb	0.19491093
254	0xbc8b11b2	-0.016976211
255	0xbe89c73d	-0.2690982

advantage_stream.model.0.bias f4 [128]
0	0x3d6ad3d1	0.05733091
1	0x3cb122c8	0.02162303
2	0x3cb4d3ef	0.022073714
3	0x3d0e1768	0.03469029
4	0x3cb7307e	0.02236199
5	0x3de2ef7d	0.11080835
6	0xbd816295	-0.06317631
7	0xbd827f69	-0.06371958
8	0xbda33d7d	-0.07970712
9	0xbc91a68c	-0.017779611
10	0xbcd93366	-0.026513766
11	0xbd5f42e5	-0.054507155
12	0x3c2a82db	0.010407175
13	0xbd472ef5	-0.048628766
14	0x3da21c14	0.07915512
15	0x3d4af50e	0.04955011
16	0x3c2a731f	0.010403424
17	0x3c5b3e32	0.013381528
18	0xbd117edc	-0.035521373
19	0xbc97cf0b	-0.018531343
20	0xbd9249cc	-0.07142982
21	0xbd2b1701	-0.041769985
22	0xbca8faf7	-0.020627482
23	0x3db613fb	0.0889053
24	0xbd6ab6ee	-0.05730336
25	0x3d67bf34	0.05657883
26	0xbd097a23	-0.033563744
27	0xbc81fb27	-0.01586683
28	0x3d704db9	0.058667872
29	0x3df4d91d	0.119554736
30	0xbd23246f	-0.039829668
31	0x3de9e8da	0.11421366
32	0x3a7f993a	0.00097503106
33	0xbd9ba6c0	-0.076001644
34	0xbdb85994	-0.09001461
35	0x3daf7ead	0.08569083
36	0xbd821bd1	-0.06352962
37	0x3cfc600d	0.03080752
38	0x3d24d0af	0.04023808
39	0x3da7613a	0.08172841
40	0x3d530b7b	0.05152462
41	0xbd9d4f84	-0.07681182
42	0xbd601190	-0.05470425
43	0x3d924679	0.07142348
44	0x3e076733	0.13222961
45	0xbdc06e73	-0.093960665
46	0x3d9505b0	0.072764754
47	0x3cc70abc	0.02429711
48	0xbd913b74	-0.07091418
49	0xbc3d1f2a	-0.011543075
50	0xbd8518b6	-0.06498854
51	0xbca17baf	-0.019712297
52	0x3d7d2f1e	0.061812513
53	0xbd930604	-0.07178882
54	0x3dd4d2c4	0.10391763
55	0xbc0eceb2	-0.008716272
56	0xbc55f7cf	-0.01305957
57	0x3d04bc16	0.032405935
58	0xbc039dd8	-0.008033238
59	0xbd3fe1da	-0.04684625
60	0x3d041bf6	0.032253228
61	0x3d6fbea3	0.058531415
62	0x3d2d4a90	0.042307436
63	0xba5a52ac	-0.0008328359
64	0xbd01208b	-0.031525176
65	0x3c91ec16	0.01781277
66	0x3d5a3345	0.05327155
67	0xbcf7a4d9	-0.030229973
68	0xbd5e6c55	-0.054302532
69	0xbcd9f3e6	-0.026605558
70	0xbdc1f4c9	-0.09470517
71	0xbd84c020	-0.064819574
72	0xbd402c21	-0.046917085
73	0xbd3a0579	-0.045415375
74	0x3daa5697	0.08317297
75	0xbc6f5fcc	-0.014610242
76	0xbcf3174d	-0.029674197
77	0xbc233af7	-0.009962789
78	0xbd57c04e	-0.05267363
79	0x3dc640ff	0.09680366
80	0xbcbea8c2	-0.02327383
81	0xbc5a7fae	-0.013336105
82	0x3c773499	0.015088224
83	0xbbb9b692	-0.005667516
84	0x3da6ab50	0.08138144
85	0x3cc2c2fa	0.023774613
86	0x3d468b20	0.048472524
87	0xbad4b186	-0.0016227223
88	0xbd977e88	-0.07397181
89	0x3ca9955d	0.020701105
90	0x3d2bb176	0.041917287
91	0xbd892f58	-0.06698483
92	0x3e104df0	0.14092231
93	0xbd8885d9	-0.066661544
94	0xbd8f9d2a	-0.070123985
95	0x3c12a779	0.008951061
96	0x3d095883	0.033531677
97	0xbd9486f4	-0.07252303
98	0xbbd6ada6	-0.006551462
99	0x3d3c1c94	0.04592569
100	0xbd5618da	-0.052269794
101	0xbdad32e6	-0.08456974
102	0x3d502785	0.05081894
103	0x3d42c49f	0.047550794
104	0x3dd7359c	0.10508272
105	0x3db18466	0.08667831
106	0xbcaf5ea0	-0.021407425
107	0xbcc85216	-0.024453204
108	0x3c98fdb6	0.018675666
109	0x3cc097a7	0.023509813
110	0x3b93c735	0.0045098313
111	0xbd089f55	-0.033355076
112	0x3d26e111	0.040741984
113	0x3dbf6015	0.09344498
114	0x3b122e55	0.0022305448
115	0xbcfbdfbd	-0.030746335
116	0xbcd74b13	-0.026280915
117	0x3b013243	0.0019713796
118	0x3d1cc231	0.038271133
119	0xbc9139be	-0.017727729
120	0xbd3e3b18	-0.046443075
121	0x3c47c393	0.012192625
122	0xbd56da56	-0.052454315
123	0xbdb29790	-0.087203145
124	0x3dfe92c9	0.12430341
125	0x3d107eda	0.035277225
126	0xbc8e6b58	-0.01738517
127	0xbcb68764	-0.022281356

advantage_stream.model.2.weight f4 [10, 128]
0	0xbda2bbe2	-0.07945992
1	0xbda28855	-0.079361595
2	0xbd510175	-0.05102678
3	0x3d0c7c51	0.034298245
4	0x3bb63127	0.0055600586
5	0xbd301272	-0.04298634
6	0xbdbb51d9	-0.091464706
7	0xbe01d109	-0.12677397
8	0xbda90e33	-0.082546614
9	0x3d80ce24	0.06289318
10	0x3de53fa2	0.111937776
11	0xbd964fac	-0.07339415
12	0xbe0b5d9d	-0.1360993
13	0x3d31456d	0.0432791
14	0xbc715935	-0.014730741
15	0x3d5119ad	0.051049877
16	0x3d2bd422	0.041950352
17	0xbdde8180	-0.10864544
18	0xbe6f4be4	-0.23368794
19	0xbe1c860a	-0.15285507
20	0xbb760dbe	-0.0037544812
21	0xbe8075d0	-0.25089884
22	0xbe0c12a1	-0.13678981
23	0xbd7db243	-0.06193758
24	0xbde632bb	-0.11240145
25	0xbe959cca	-0.29221183
26	0xbd8fd6a5	-0.07023362
27	0xbcf5e485	-0.030016193
28	0xbe509b0c	-0.20371646
29	0xbe5c5ebb	-0.21520512
30	0x3de37485	0.11106209
31	0xbcf18b9f	-0.029485522
32	0xbe098566	-0.13429794
33	0xbd5bb875	-0.05364271
34	0xbc77ff8b	-0.01513661
35	0xbe42236b	-0.18958823
36	0xbe8327a0	-0.2561617
37	0x3d2cda49	0.04220036
38	0x3b29f909	0.002593579
39	0x3d805a37	0.06267207
40	0x3b9ea8ed	0.004841915
41	0x39b34dfa	0.00034199638
42	0x3cce74bc	0.025202148
43	0xbd532fd2	-0.051559277
44	0xbe73abdf	-0.23796032
45	0x3d05efbc	0.03269933
46	0xbd01ccd1	-0.03168947
47	0x3d856cdb	0.06514903
48	0xbd07ad32	-0.033124156
49	0x3d2953b2	0.041339584
50	0xbc719eb2	-0.014747309
51	0x3da7f682	0.082013145
52	0x3db91789	0.09037692
53	0xbc92d38b	-0.017923137
54	0xbe8e79d0	-0.2782731
55	0xbe122975	-0.14273627
56	0x3d091fce	0.033477597
57	0xbde27c81	-0.110589035
58	0x3d07a237	0.033113685
59	0x3d14adab	0.036298435
60	0x3cc20879	0.02368568
61	0xbd9899b7	-0.07451194
62	0xbd0603f1	-0.032718603
63	0xbd40b062	-0.04704321
64	0xbea5930f	-0.3233876
65	0xbd8d4a36	-0.0689892
66	0xbe610869	-0.21975864
67	0x3c03a254	0.0080343075
68	0xbc07bd5a	-0.008284891
69	0xbd9755ab	-0.07389387
70	0x3d373df4	0.044736817
71	0x3cfc99de	0.030835088
72	0xbd2839b7	-0.041070666
73	0xbd5f3171	-0.05449051
74	0x3cb1e91f	0.021717606
75	0xbc136ce0	-0.008998126
76	0xbd4a3446	-0.049366258
77	0xbd8a96b6	-0.06767027
78	0xbe44214b	-0.19153325
79	0xbe7cf744	-0.247037
80	0x3dc45899	0.09587211
81	0xbd47da28	-0.048792034
82	0xbbbc5791	-0.0057477434
83	0xbd3cb33d	-0.046069372
84	0x3ca058a1	0.019573512
85	0xbe270991	-0.16312243
86	0xbc90eef1	-0.017692061
87	0x3dfea3a8	0.12433559
88	0xbe959d48	-0.2922156
89	0xbd996280	-0.074894905
90	0xbcf4e795	-0.029895583
91	0xbd55cd85	-0.05219795
92	0xbe13faf4	-0.144512
93	0x3c66a97f	0.014078497
94	0x3bbc1303	0.005739571
95	0xbc1ccd12	-0.009570377
96	0x3db29ef4	0.08721724
97	0xbd6f5ebb	-0.05843995
98	0x3d86b2df	0.06577086
99	0xbd08f4ff	-0.03343677
100	0xbcf5572d	-0.029948795
101	0xbd23e9db	-0.040017944
102	0xbd91c8c3	-0.071183704
103	0xbe81d8f3	-0.25360832
104	0x3db5aa3f	0.088703625
105	0xbe6d51bb	-0.23175709
106	0x3deb824d	0.11499462
107	0xbe094957	-0.13406883
108	0x3da1089b	0.078629695
109	0x3d92f9ff	0.07176589
110	0xbe575caa	-0.21031442
111	0xbde66bac	-0.112510055
112	0x3dc6cc4e	0.09706937
113	0xbd83632f	-0.06415402
114	0xbd0b9511	-0.034077708
115	0xbd411e10	-0.04714781
116	0xbeaa1cab	-0.33224997
117	0xbdf7ff95	-0.12109295
118	0x3d8a7571	0.067606814
119	0xbe61caa2	-0.22049955
120	0xbe3dd5cf	-0.18538593
121	0xbe8dae28	-0.27671933
122	0xbca7bff6	-0.020477276
123	0xbd3a6021	-0.045501832
124	0xbe0785ed	-0.13234682
125	0xbddf0afc	-0.10890767
126	0xbe42e621	-0.190331
127	0xbe603d80	-0.2189846
128	0xbe578d2e	-0.2104995
129	0xbe78c2c8	-0.24293053
130	0xbd5e136a	-0.054217733
131	0xbe2bbc50	-0.16771054
132	0xbd01aa88	-0.031656772
133	0x3e59cf7e	0.21270558
134	0xbe03e4e5	-0.12880285
135	0xbe9e9c15	-0.30978456
136	0x3d8f7f2a	0.070066765
137	0x3df583ae	0.119880065
138	0x3a981921	0.0011604169
139	0xbdcba6d3	-0.099439286
140	0xbe1c58ff	-0.15268324
141	0x3bc482ca	0.0059970366
142	0x3e2b882c	0.16751164
143	0x3db0fdff	0.08642196
144	0x3ca26bb1	0.019826742
145	0xbe3a8d63	-0.18217997
146	0xbe9741bb	-0.29542336
147	0xbe92cfd8	-0.28674197
148	0xbcdf8123	-0.027283257
149	0x3d19ca4f	0.037546452
150	0xbe3b6c14	-0.18302947
151	0xbc9947a7	-0.018710924
152	0xbedc7f28	-0.43065763
153	0xbea6d6b2	-0.32585675
154	0x3d95a6ab	0.0730718
155	0xbe7c5d38	-0.24644935
156	0xbd257df7	-0.040403333
157	0xbe468064	-0.19384915
158	0x3e25e84f	0.162019
159	0xbe810cd6	-0.25205106
160	0xbd13f200	-0.03611946
161	0xbd20d4b0	-0.039265335
162	0x3e57be8b	0.2106878
163	0xbdb732d7	-0.08945244
164	0x3e0657b2	0.1311939
165	0x3d7fdd30	0.0624668
166	0x3bb84a51	0.0056240936
167	0x3cb01bab	0.021497568
168	0xbdcead7f	-0.100916855
169	0x3d87118d	0.065951444
170	0xbd5eb4d3	-0.054371666
171	0xbe85a432	-0.26101834
172	0xbe1f8d39	-0.15581216
173	0xbc9658a1	-0.018352808
174	0x3d40c213	0.047060084
175	0x3cebf9ac	0.028805576
176	0xbe0ac5df	-0.13552044
177	0xbcb11d75	-0.021620492
178	0xbaa04111	-0.0012226423
179	0x3d3c11fc	0.04591559
180	0xbd53ab53	-0.05167706
181	0xbd57ea18	-0.052713484
182	0xbeaff0a3	-0.3436328
183	0xbda66794	-0.08125225
184	0x3d774651	0.060369793
185	0x3da9e7e5	0.082961835
186	0x3cf9d876	0.030498724
187	0x3d2537bd	0.04033636
188	0xbd6b7bf7	-0.05749127
189	0xbe990fa4	-0.29894745
190	0x3e118df3	0.14214306
191	0x3bff5c07	0.007792953
192	0xbe06b777	-0.13155924
193	0x3d627665	0.05528869
194	0xbe924553	-0.28568515
195	0x3e168f57	0.14703117
196	0xbb657759	-0.0035013764
197	0xbc1f40bb	-0.009720023
198	0x3d1febcd	0.039043237
199	0x3d4c5559	0.04988608
200	0x3e176d2a	0.14787737
201	0xbe71498a	-0.23563209
202	0x3d934136	0.071901724
203	0x3d347cfa	0.0440645
204	0x3d60bbaa	0.05486647
205	0xbe517cfc	-0.20457834
206	0x3d74da7f	0.059778687
207	0xbe9d0c51	-0.3067346
208	0x3dd23801	0.10264588
209	0x3dc9483b	0.0982823
210	0xbd1c0b08	-0.038096458
211	0xbd10b83a	-0.035331942
212	0xbd509cba	-0.050930716
213	0xbe915e8c	-0.28392446
214	0xbc5f8105	-0.0136416005
215	0xbc136dc9	-0.008998343
216	0xbe666ac5	-0.22501667
217	0xbe91c2a4	-0.28468812
218	0x3d347a3f	0.044061895
219	0x3c68bafb	0.014204736
220	0xbe5bcfbc	-0.21465963
221	0x3e5341e7	0.20630608
222	0xbd8d52d4	-0.06900564
223	0x3cbae014	0.022811927
224	0xbc9e2222	-0.019303385
225	0xbecbe569	-0.39823464
226	0xbc9d7f6c	-0.019225799
227	0xbd09bc62	-0.03362692
228	0xbcb909f5	-0.022587756
229	0x3b7d0072	0.0038605002
230	0x3c031e03	0.008002761
231	0xbe85615d	-0.26050845
232	0x3cfb3f4d	0.030669833
233	0x3d939cbf	0.07207631
234	0xbe03c5ca	-0.1286842
235	0xbe8d3029	-0.27575806
236	0x3d9d01c2	0.07666351
237	0x3dceb57c	0.10093209
238	0x3dc706f5	0.09718124
239	0x3c609d7b	0.013709421
240	0x3df7392f	0.12071454
241	0xbe98ceb2	-0.29845196
242	0xbe41d75f	-0.18929814
243	0x3e729055	0.23687871
244	0xbe282dbb	-0.16423695
245	0xbe5c8d1b	-0.21538202
246	0xbd6456d8	-0.055746883
247	0xbe92693a	-0.28595906
248	0xbe722e11	-0.23650385
249	0xbea7ecda	-0.3279789
250	0x3e4a7396	0.19770655
251	0xbda21b0c	-0.07915315
252	0xbe3698a8	-0.17831671
253	0x3e11dc89	0.14244284
254	0xbe8481ad	-0.25880185
255	0xbe85df29	-0.2614682
