logs/8-Naive-Again/42-DuelingDQN-random-max-Naive-WLKO-25_10_25_13-48-30/10/models/7000/DuelingDQN_checkpoint.pth (torch, 917195 bytes, 44 tensors)

feature_layer.model.0.weight f4 [128, 39]
000000 e5 71 5d 3d 74 83 d2 3d f5 b5 84 bd 68 82 ee 3d
       0.054063696 0.10278979 -0.06480018 0.11645967
000010 4f 1f e1 3d 34 f9 4e 3e d1 a7 93 3e 8f 7c cd 3e
       0.109923 0.20212251 0.2883897 0.40134093
000020 5a 3b 9a 3e fb 52 05 3e 98 2d 0c 3e 66 bd 7d 3e
       0.30123407 0.13019936 0.13689268 0.24779281
000030 bc a2 cc 3e ba 3e b2 3e 0a c5 ae 3e 61 49 f2 3e
       0.39967906 0.34813482 0.34134704 0.4732161
000040 e3 81 74 3e 9a 1b 45 3e f1 f5 3f 3e 5f 93 26 3e
       0.23877673 0.1924881 0.18746163 0.16267155
000050 57 64 57 3e d3 6f 67 3c cd b4 4f 3d 2a 82 c5 3d
       0.2103437 0.014125782 0.050709534 0.096439674
000060 91 c2 ec bd 1b d3 52 3d 66 9a 2a 3e 88 29 7a 3d
       -0.11560548 0.051470857 0.16660461 0.061074764
000070 83 9d fa 3d 6c ee 5d 3e e8 1a a5 3e 33 5a b4 3e
       0.12237074 0.21672982 0.3224709 0.35225067
000080 b7 df d2 3e 46 54 b7 3e e8 fe be 3e 75 ef 4b 3e
       0.41186306 0.35806483 0.37303853 0.19915564
000090 eb 6e cd 3e ec df 43 3e 97 13 ac 3e 07 4d 38 3e
       0.40123686 0.19128388 0.33608696 0.17998134
0000a0 6f f2 be 3e bc 50 98 3e 4a 63 f0 3d 44 b8 7a 3e
       0.37294337 0.29749095 0.11737688 0.24484354
0000b0 a4 24 8c 3e f2 f9 59 3e fe 28 a6 3e c9 2f e7 3e
       0.27371705 0.21286753 0.3245315 0.45153645
0000c0 37 b2 17 3e dd c4 be 3d 55 d6 6f 3e 8f 09 b3 3e
       0.14814077 0.093148924 0.23421605 0.3496823
0000d0 30 69 73 3e 1b da be 3e d6 3b 87 3e 4a 61 9f 3e
       0.23770595 0.37275776 0.2641284 0.31128913
0000e0 d8 ba 0f 3e 4f 58 77 3e 84 66 b4 3e d9 7f e8 3e
       0.14036119 0.24154781 0.35234463 0.4541004
0000f0 a1 53 37 3e 52 a0 00 3e c7 15 a4 3e 5b cd 83 3d
       0.17902996 0.12561157 0.32047865 0.06435653
000100 18 59 b9 3e e8 c9 df 3e f5 d8 c7 3e bc 2e 80 3e
       0.36200786 0.4370873 0.39032713 0.25035655
000110 1d bd 35 3e db fa 90 3e e1 f9 a8 3e d5 c6 58 3e
       0.17747922 0.28316388 0.33003142 0.21169598
000120 af 42 fa 3d e1 0c b5 3e 02 53 3d 3e eb 8f 80 3e
       0.1221975 0.35361388 0.18488696 0.251098
000130 20 9b 2c 3e 0e 9c 89 3e e2 94 f2 3d 5a 46 46 3d
       0.1685605 0.26876873 0.118448034 0.048406936
000140 8d 79 58 3d 90 ee cf 3d d0 65 fe 3e 98 1e cd 3e
       0.052850295 0.10152924 0.49687052 0.40062404
000150 93 a0 06 3f 79 66 af 3e 93 e6 ce 3e 17 c3 07 3f
       0.52588767 0.34257868 0.4041029 0.5303206
000160 3c 0c 59 3d a4 c7 c8 3e dc 12 a7 3e 8c ae 22 3f
       0.052990183 0.39214814 0.32631576 0.6354759
000170 93 4e 0a 3f 20 ed d9 3e 13 53 cb 3e 19 9e 9f 3e
       0.54026145 0.42563725 0.39711818 0.31175306
000180 29 dc a7 3e 9d 95 ce 3e 64 a9 c0 3e b3 ee 80 3e
       0.32785156 0.4034852 0.37629235 0.25182113
000190 d3 21 d0 3e 78 2e 00 3f f7 70 9a 3e d1 6d dd 3e
       0.40650806 0.50070906 0.3016431 0.43247846
0001a0 8d c3 2d 3e b3 f1 e1 3e 51 4d f1 3e 99 d3 f3 3e
       0.16969128 0.44129714 0.471293 0.47622374
0001b0 67 ea 8b 3e ed 2f a6 3e ab 27 0b 3f 7f f1 01 3f
       0.27327272 0.3245844 0.54357404 0.5075912
0001c0 95 14 12 3f f8 11 b7 3e 98 a5 0a 3f b2 6c ba 3e
       0.57062656 0.35755897 0.54158926 0.36411053
0001d0 fb c9 a8 3e cc 4b 60 bd 99 ab 0c 3c 25 ef 9a 3e
       0.329666 -0.054759786 0.008585834 0.30260578
0001e0 cb 8a a9 3e 66 11 c8 3e 3a f6 f4 3d ae b0 ae 3d
       0.33113703 0.39075774 0.119610265 0.08529793
0001f0 fa d6 bd 3e 6e 48 a4 3e 7b c4 d8 3d 04 6c 96 bc
       0.37078077 0.3208651 0.10584351 -0.018362053
000200 6f 94 76 3e 62 ed 1f 3e 90 8a c6 3e bf 2a c9 3e
       0.2408006 0.15617898 0.3877759 0.39290425
000210 97 fb ae 3e ea 95 da 3d 46 e4 9b bd b4 00 6a 3c
       0.34176323 0.10673125 -0.07611899 0.014282394
000220 f3 45 38 3e 38 29 e1 3e 69 9e 0f 3e 71 36 16 3e
       0.17995434 0.4397676 0.14025272 0.14669205
000230 39 40 85 3e 49 f8 14 3d ae 61 c1 3e de 84 19 be
       0.2602556 0.036369596 0.37769836 -0.14992091
000240 b8 ab 67 3e a6 0d c9 3e 92 76 c5 3e e5 9b bd bd
       0.22624099 0.39268225 0.38567024 -0.0925825
000250 a2 d6 13 3e fb 4c 02 3e ad 20 15 3d ed 92 a7 3e
       0.14437345 0.12724678 0.036408115 0.32729283
000260 16 5a 56 3e ac c3 88 3e 5d 1d a2 3e 4a 8c 2e 3e
       0.20932803 0.26711786 0.31663027 0.17045704
000270 01 c5 86 3e 76 f1 b3 3e af be a2 3e 11 6b 1f 3e
       0.26322177 0.35145158 0.31786105 0.15568186
000280 1f 90 09 3e 53 93 0d 3e df 49 47 3e 29 38 98 3e
       0.13433884 0.13825731 0.19461773 0.29730347
000290 ef 95 89 3e 6f a3 c5 3e 9c 65 37 bd e2 6f bb 3e
       0.26872203 0.38601252 -0.044774637 0.36608797
0002a0 ba 6f 04 3c 38 8f bf 3e c9 65 8d 3e 1d d7 cf 3e
       0.008083278 0.37413955 0.27616718 0.40593806
0002b0 77 51 59 3e 91 35 64 bb ae e5 b6 3e e8 a9 ae 3d
       0.21222483 -0.0034821967 0.35722107 0.08528501
0002c0 51 45 d5 3e 2f c7 5a 3e 5e 24 bf 3e d6 80 c7 3e
       0.41654447 0.21365045 0.37332433 0.38965482
0002d0 b4 be bf 3b d8 ed a4 3e 0f d5 9c 3e 34 4c f6 3e
       0.005851591 0.3221271 0.306313 0.48105013
0002e0 7c 7a a5 3e d5 5e 9a 3e b5 8f 35 3e 83 26 80 3e
       0.3232001 0.30150476 0.17730601 0.25029382
0002f0 c1 a3 c7 3e 74 de 99 3e 40 5e be 3e b6 22 a5 3e
       0.38992122 0.3005253 0.37181282 0.32253045
000300 3b 8d 3d 3e 4e 74 3f 3e b6 da b1 3e e8 63 60 be
       0.18510906 0.1869671 0.34737176 -0.21913111
000310 8e 98 b5 3d 07 5e 6e 3e b3 a7 29 be 27 2e 1a 3e
       0.08866988 0.23278056 -0.16567878 0.15056668
000320 cf 59 e6 bd a5 b6 82 3d 5a d7 8b 3e b7 ef e3 3e
       -0.112475984 0.06382493 0.27312738 0.44518825
000330 f1 5e 51 3e 17 a4 73 be 3a 8d ff 3e ef 70 21 be
       0.20446374 -0.23793064 0.49912435 -0.15765737
000340 67 b3 8a 3e 7a 12 f4 3e 28 79 ed 3e 96 72 55 be
       0.27089998 0.47670346 0.46381497 -0.20844492
000350 80 e5 c8 be cf 7d 9e 3d e3 04 4d 3d 01 6f 8d 3e
       -0.39237595 0.0773884 0.05005349 0.27623752
000360 21 fd c0 3e 59 3e b7 3e c8 e7 96 3e 6e c4 76 be
       0.37693122 0.35789755 0.2947371 -0.2409837
000370 17 33 96 3e fc 2d 45 be 8e c5 a7 3a 9b b0 ac 3e
       0.29335853 -0.19255823 0.0012799965 0.3372849
000380 19 93 01 3e 5f 07 aa be 58 1f 0e 3d 99 06 fa 3d
       0.1265377 -0.3320875 0.03469786 0.1220829
000390 ec 61 7b 3d 27 76 b7 3e 75 7f 63 3e e6 f8 8c 3d
       0.061372682 0.3583233 0.2221659 0.06883411
0003a0 83 9b b9 3e c9 37 ac 3e 64 85 92 3e 55 2d 9d 3e
       0.3625146 0.3363631 0.28617394 0.30698648
0003b0 7f 2f 83 3e 4b 52 2d 3e 2b 4b 3a 3e 1c d7 a1 3e
       0.25622174 0.16925924 0.18192737 0.31609428
0003c0 fd a8 78 3d a9 12 99 3e 1b fc 8f 3e ca 17 76 3e
       0.060708035 0.2989705 0.2812203 0.24032512
0003d0 76 8c 1e 3e 1e 05 30 3e 54 a8 34 3e e9 ba 54 bd
       0.15483269 0.17189452 0.17642337 -0.051936064
0003e0 96 ca 29 3c a2 af 64 3e 3b c8 dd 3d 27 31 14 3e
       0.010363242 0.22332624 0.108292066 0.14471875
0003f0 5b 28 96 3e d1 ce 8c 3e cc 0f e3 3d 5d bd 81 3e
       0.29327664 0.27501538 0.110869974 0.25339785

feature_layer.model.0.bias f4 [128]
000000 9b d5 11 3e 68 12 da 3e 5e de d1 3e 75 d8 c6 3e
       0.1424164 0.42592168 0.40989965 0.3883702
000010 70 b2 81 3e 34 42 dc 3d 8c e9 38 3e c4 8b b6 3e
       0.2533145 0.10754815 0.18057841 0.35653508
000020 de 72 06 3f 9a b8 2a 3e 2a c3 7e be 24 1f a3 bd
       0.52519023 0.16671982 -0.24879137 -0.07964924
000030 9c 5e c0 3e 91 34 84 bd ed 55 17 3f c2 26 c0 3e
       0.3757218 -0.06455339 0.5911549 0.3752957
000040 3e 5a 4a 3e 4b 8a cb bc d8 02 73 3e 47 c7 3c 3d
       0.19760987 -0.024846217 0.23731554 0.046088483
000050 01 b7 8c 3e 8c 72 98 3d 40 7f b3 3e 05 1c db 3c
       0.2748337 0.07443723 0.35058022 0.02674676
000060 bd 47 a6 3e 57 4a 39 3e 5b 44 6e 3d 6f e9 5e 3e
       0.32476607 0.18094765 0.058170658 0.21768735
000070 44 75 92 bd c4 06 58 3e 2d 74 9d 3e 28 ec 05 3f
       -0.07151273 0.21096331 0.30752698 0.5231347
000080 a5 eb 1a 3e 43 6e 87 bd 5a f9 03 bd 18 8c c4 bd
       0.15128954 -0.06612828 -0.032220222 -0.09597033
000090 9d dd 9a 3e 76 e0 bf 3e d9 d8 b7 bd 40 01 8f 3d
       0.30247203 0.37475938 -0.08976907 0.0698266
0000a0 ac 49 8c 3d 14 78 cf 3e 53 60 fa 3c 7a 5a 83 3e
       0.06849989 0.405213 0.03056351 0.25654966
0000b0 7a 9c 01 3f f5 bb b9 3e 1c f9 9a 3e db ea ca 3d
       0.5062939 0.36276212 0.3026818 0.099080764
0000c0 d9 ad cd bd ca 0b 1b 3e c2 1b 98 3e 74 da 86 3e
       -0.100429244 0.15141216 0.29708678 0.26338542
0000d0 55 1e 56 3e dc ab d5 3e 29 8f 58 3e 1b c1 6d 3e
       0.20910008 0.4173268 0.21148361 0.23218195
0000e0 34 6f 85 be ea 04 89 bd a9 94 96 3e cf 78 bc 3e
       -0.26061404 -0.066903904 0.29410294 0.3681092
0000f0 a3 40 8a be 65 e0 fe 3c e7 7b 33 3e 0e ed a1 bd
       -0.2700244 0.031112859 0.17527734 -0.07906543
000100 bb ac 78 3e 8e 3c e7 3e 68 97 cf 3e 91 ae a2 3e
       0.24284641 0.45163387 0.405452 0.3177381
000110 e5 cd 3e 3e 0b 61 f5 3e 84 5a 37 3c 0a 98 45 be
       0.1863323 0.479256 0.011191014 -0.1929628
000120 03 07 9b 3e 9d c6 b3 3e c7 92 db bd fa 24 4e 3d
       0.30278787 0.35112467 -0.10721355 0.050328232
000130 06 3a 84 3e cc f2 fe 3e b3 b9 d1 3d 36 d3 35 be
       0.25825518 0.49794614 0.102404974 -0.17756352
000140 bb 42 99 3e 5b 1b e4 3e b4 bc 88 3e 7a 30 28 3e
       0.29933724 0.4455212 0.2670647 0.16424742
000150 04 f2 8a 3e bb 17 76 be 85 fd e8 3e ac 55 79 3e
       0.27137768 -0.2403249 0.4550592 0.24349087
000160 59 07 c3 3e a9 a7 ae 3e 09 42 40 bd dd 77 3f 3e
       0.38091543 0.3411229 -0.046937976 0.18698068
000170 82 e4 b1 3e d1 2e 59 3e 78 16 96 3e 41 66 31 3d
       0.3474465 0.21209265 0.29314017 0.043310408
000180 a0 7f 06 bd eb 03 9e 3e 05 97 cb 3e 2a 80 98 3d
       -0.032836556 0.30862364 0.39763656 0.0744632
000190 21 f5 d7 3d 06 d0 93 3e 70 64 a9 3e 51 86 60 3e
       0.105448015 0.28869647 0.3308444 0.21926238
0001a0 bb 3e 27 3e ed 8d a9 3e 42 f0 c4 3e 54 d1 b2 bd
       0.16332524 0.33116093 0.38464552 -0.087313324
0001b0 a9 b3 da 3d 69 04 31 be 1a 47 a2 3e c5 09 bc 3e
       0.10678799 -0.17286839 0.3169487 0.36726204
0001c0 9b b6 14 3d 0f 8e 3d 3e 7d 07 34 3d d0 95 c6 3e
       0.03630696 0.18511222 0.043952454 0.38786173
0001d0 e7 ef ba 3a e6 4d b1 3e ca ba 1c bd 68 0a d0 3e
       0.001426217 0.34629744 -0.038264073 0.4063294
0001e0 d7 17 a0 bd 5b 04 37 3e 6d 83 04 3f ff b8 12 3e
       -0.07817047 0.17872755 0.5176304 0.14328383
0001f0 22 88 1a be af 85 ad 3e 63 ee 68 3e ed 23 e0 3e
       -0.15090993 0.33891055 0.22747187 0.4377741

feature_layer.model.2.weight f4 [128, 128]
000000 be cc 31 3e d7 9f f1 3d 3b 20 c8 3d a4 06 c7 3c
       0.17363259 0.11798065 0.097717725 0.024295159
000010 34 d4 97 3c 75 3d da 3c 60 97 27 3d 64 87 0a 3e
       0.018533804 0.026640633 0.040915847 0.1352821
000020 5c 97 0a 3e a0 87 2c 3e 25 dc 4d 3e 1e c5 46 3d
       0.13534302 0.16848612 0.2010351 0.04852783
000030 de fd 02 bb 34 50 cc 3d 86 cd 8c 3e 80 dd f5 bc
       -0.0019987742 0.09976235 0.27500552 -0.030012846
000040 2d c6 b8 3d 1b 41 94 3e 2b 42 a4 3d 67 ef 81 3e
       0.09022174 0.28955922 0.08020433 0.25377962
000050 a1 f5 fe 3c ed 31 c9 3d 47 0f fe 3d f7 0f 8f 3e
       0.031122984 0.09823976 0.12405258 0.27941868
000060 01 e2 87 bd 74 b7 e0 bc 28 8f 48 3e 90 6f d1 3c
       -0.06634904 -0.027431227 0.1958586 0.025565892
000070 00 2f 58 3e b0 88 02 3d 3f ec 58 3d 8d e3 4b 3d
       0.21111679 0.031868637 0.052959677 0.049777556
000080 2a 6c 1e bb b6 d1 09 3e ed c3 9f 3e b8 84 65 3e
       -0.0024173358 0.13458905 0.31204167 0.2241391
000090 3b 31 da 3c ed e4 7a 3d 80 68 04 3e f1 02 f3 3d
       0.026634803 0.061253477 0.12930489 0.118657954
0000a0 35 f1 3a 3e 30 f9 73 3d 08 4f 72 3d 71 40 37 3c
       0.18256076 0.059563816 0.0591574 0.011184798
0000b0 6e 74 ac bb 74 9d 61 3e eb e3 d7 3c 60 93 54 3c
       -0.005262903 0.2203272 0.026353797 0.01297459
0000c0 42 dc 08 3d b3 4f cd 3d 2c 7f c9 3d 80 87 f0 3b
       0.03341318 0.10024967 0.09838709 0.0073403716
0000d0 13 fa 1f bc f1 0f 55 be 50 7e 1f 3c 0b ef 0b 3e
       -0.009764212 -0.20806862 0.009734705 0.13665406
0000e0 1d 7c d5 3d b2 b5 61 3e ed f6 e1 3d df b0 07 3e
       0.10424063 0.22041968 0.110334255 0.13251065
0000f0 35 a9 f5 3d 9a 4a 64 3e 05 ed 37 bd fc 7e 76 3e
       0.11995164 0.22294083 -0.044903774 0.24071878
000100 24 ee 4f bd bc 25 e9 3d dc 0b 96 3d f9 59 a7 3b
       -0.050764218 0.113841504 0.07326481 0.005107161
000110 e1 ad 27 3e ec 7a eb 3d 7c 54 13 3c a2 d8 08 3e
       0.16374923 0.11498055 0.008992311 0.13363889
000120 e2 35 bd 3c 86 26 8b bc fe 84 85 3d 30 28 14 3e
       0.023096982 -0.016986143 0.06519507 0.14468455
000130 9f 0c ba 3d 5c 9a 7d 3d 7b 33 c3 bc 9b cf 06 3d
       0.090844385 0.061914787 -0.023828259 0.03291283
000140 43 80 f6 bc 3d 2f ac 3d b8 b2 ff 3d a6 6e d5 bb
       -0.030090457 0.084074475 0.1248526 -0.0065134345
000150 ae 1b a1 3d 4c 47 8a bc 19 e9 2b 3d 09 5e 38 3d
       0.078666076 -0.0168797 0.041970346 0.045011554
000160 c3 0d 28 3e 53 98 b7 3c 81 3e b5 3e de b4 7e 3d
       0.164115 0.022411501 0.3539925 0.062184207
000170 a0 19 30 3d a9 a1 ea 3d b5 17 bc bd 0c 70 ab 3e
       0.042993188 0.114566155 -0.09184209 0.33483922
000180 7c 8b 7b 3e 87 a7 e0 3c 95 a9 20 3e 6e 48 83 3e
       0.24564928 0.027423633 0.1568969 0.25641197
000190 27 75 5c 3e 96 a3 c2 3d 4f 12 10 3e 6b 9c d3 3d
       0.21529065 0.09503858 0.14069484 0.10332569
0001a0 84 07 b8 3d a5 b8 24 3e 35 4f ce 3d 33 77 52 3e
       0.089858085 0.16086061 0.10073701 0.20553283
0001b0 b9 e5 da bd 86 ee ac 3d 3b 62 a3 3d 7c d5 e2 3c
       -0.10688347 0.08443932 0.0797772 0.027689688
0001c0 4f 9e cb 3d 28 b4 b0 3c 23 78 cf bc 78 39 03 bd
       0.09942304 0.02157028 -0.02532584 -0.03203723
0001d0 90 a2 6e 3e 80 26 b6 3c 03 47 c9 3d 3a 5b f3 3d
       0.233042 0.022235155 0.098279975 0.118826345
0001e0 5b ed b9 3d 86 89 81 3e 54 0c 7d bc a3 48 25 3e
       0.09078475 0.25300235 -0.015444834 0.1614099
0001f0 6a a0 7f bc ac bc 0b 3e 2d 42 97 3d b7 85 0d 3e
       -0.015602211 0.13646191 0.07385669 0.1382054
000200 66 d7 32 3e 64 e5 cb 3c 52 2e 5c 3e e2 29 29 bc
       0.1746498 0.024889655 0.21502045 -0.010324927
000210 cd 8e fb 3d 2b 9c 65 bd 2d 5b 95 3d ce d9 2b 3e
       0.122830965 -0.056057137 0.07292781 0.16782305
000220 1f 15 b6 3d a6 75 93 3e 54 0c 03 3e 38 7c 8a 3c
       0.08890747 0.28800696 0.12797672 0.016904935
000230 a7 01 e1 bd 8a f7 e6 3d 56 d6 aa 3e 6d 35 f4 3d
       -0.10986643 0.11277683 0.3336665 0.11924253
000240 64 6f 6f bd 4d e6 6b 3e 3d 18 0b 3e a7 bf 6d 3e
       -0.05845584 0.23037072 0.13583465 0.23217641
000250 8f aa 6d 3e 80 3f 36 bd 86 c8 0d 3b 43 56 8e 3e
       0.23209594 -0.044494152 0.0021634414 0.27800187
000260 ba 85 df 3d c6 f1 46 3d 35 09 2f 3e 22 be 38 3e
       0.10914178 0.048570417 0.17093356 0.1804128
000270 c7 72 28 3e 75 a5 12 3d 21 26 4c be 90 00 04 bd
       0.16450034 0.035802323 -0.1993642 -0.0322271
000280 32 65 ad 3d 4a 68 b7 3d 56 e3 81 3e 3c 8f 53 3e
       0.08466567 0.089554384 0.25368756 0.20660108
000290 95 6f fb 3d aa 79 92 3d cc d9 c4 3d 0e 5a 42 3e
       0.12277142 0.07152112 0.09611854 0.18979666
0002a0 29 b7 4d 3e 0a 94 2a 3e 9e b0 fe 3c d8 da 58 bc
       0.20089401 0.16658035 0.031090077 -0.01323577
0002b0 e0 1a 42 3e bc 1d 11 3e 26 ca 0f be 4f 62 0e 3e
       0.18955564 0.14171499 -0.14041957 0.13904689
0002c0 39 71 22 3e cd 2b 11 3e 03 d5 a4 3c 8b 54 82 3d
       0.15863504 0.14176865 0.020121103 0.063637815
0002d0 2b bc cc 3d d3 99 e9 3d 87 af 0e 3e ed ef b4 3d
       0.09996828 0.11406293 0.13934146 0.08834825
0002e0 6e 5f 14 3c c3 c3 b9 3d 5a 04 02 3e 70 a5 2f 3e
       0.009055955 0.09070542 0.12696972 0.17152953
0002f0 8f 96 0b 3d e2 e1 8c 3e 92 ac 50 3d 99 cf a4 3e
       0.03407913 0.27516085 0.050945826 0.32189634
000300 53 1d 8b 3d 8a 2b db 3d 31 85 9f 3d 74 d5 05 3e
       0.067927025 0.10701664 0.07789076 0.13069707
000310 aa 33 94 3d 05 42 15 3e 41 77 87 bd 83 90 42 3c
       0.07236417 0.14575966 -0.06614543 0.011875275
000320 c9 5e dc 3d a7 a9 13 3d d5 9c 20 3e 26 16 56 3e
       0.10760266 0.036050465 0.15684827 0.20906886
000330 90 7f f5 bc 6d 33 ba 3d f5 d4 eb bc e9 94 7c 3d
       -0.029968053 0.0909184 -0.02878807 0.06166545
000340 ba 4d b7 bd 5f c1 0a 3c 86 26 2b 3e d1 ab 92 bd
       -0.08950372 0.008468955 0.16713914 -0.07161678
000350 b7 11 9a 3d d2 64 ad bd cf cb db 3d 3b 7c 0a 3e
       0.0752291 -0.084664956 0.10732233 0.13523953
000360 24 0d 9c 3e f8 4d 00 3e 1b fd a1 3d 38 4c 6d 3e
       0.30478776 0.12529743 0.07909604 0.23173606
000370 f8 06 88 bc 15 9a 7a 3e 99 97 64 bd 4e 46 c3 3e
       -0.016604885 0.2447284 -0.055808637 0.38139576
000380 b3 69 87 3e ef a1 8d 3d 60 74 bd 3e ed 2a 1b 3e
       0.2644783 0.06915652 0.3700285 0.15153094
000390 f7 e4 d0 3d 0c e0 a0 3d a8 a4 93 bb a2 cf 1c 3b
       0.101999216 0.078552336 -0.0045057125 0.002392747
0003a0 fc dc 01 bb fa 19 16 3e 37 eb 37 3e 75 8e 7a 3e
       -0.0019815555 0.14658347 0.17960821 0.24468406
0003b0 9b 8e 63 3c dc 74 2d 3d f6 25 68 3e 5d 16 8e 3e
       0.01388898 0.042347774 0.22670731 0.27751437
0003c0 8c 29 0e 3e 3d 28 62 3d 25 e1 5b bd 90 93 9a 3d
       0.13883036 0.055214155 -0.05368151 0.075476766
0003d0 ba 9c 80 3e 7c 75 b2 3d d1 1f 48 3e cc 17 b8 ba
       0.25119573 0.087138146 0.19543387 -0.0014045178
0003e0 92 77 4e 3e a6 fc e1 3d f5 a5 23 3e 62 02 1e 3e
       0.201628 0.11034517 0.15981276 0.15430596
0003f0 c4 50 09 3e e9 8c db 3d 7e d7 07 3e d0 da 11 3e
       0.13409716 0.10720236 0.13265797 0.14243627

feature_layer.model.2.bias f4 [128]
000000 66 5d 99 3d a9 8e db 3d 17 24 23 3e 0d 91 1d 3d
       0.074885175 0.1072057 0.15931736 0.03846841
000010 4b 7f 3b 3e 96 f7 30 3e bb b6 cc bc 0a 19 07 3e
       0.18310277 0.17281947 -0.024989476 0.13193145
000020 91 3b 06 be d0 7d 3e 3d 13 ec 42 3e 6d 71 70 bc
       -0.1310866 0.046506703 0.19035368 -0.01467548
000030 de 11 2f 3e f5 92 7b 3c e5 dc 3a 3d d1 a2 de 3c
       0.1709666 0.0153548615 0.045620818 0.027177246
000040 33 e0 de 3d b0 61 86 bd ea ea 1b 3e 56 78 4a 3e
       0.10882606 -0.06561601 0.15226331 0.19772467
000050 50 f5 29 bd 1e 85 30 3d 0b d8 b8 3c 25 22 97 3d
       -0.041493714 0.0430957 0.022563955 0.073795594
000060 27 10 2f 3e cc eb 66 3e 93 5a 53 be d5 db ed 3c
       0.17096005 0.22550887 -0.2064002 0.029035488
000070 1c 35 3e 3e 43 ad 07 3e e7 fb 04 3e d9 69 84 3c
       0.18574947 0.13249688 0.12986718 0.016163753
000080 63 fe 20 3e da bf 26 3e e2 2b f4 3d 8d 08 a5 bd
       0.15722041 0.16284123 0.119224325 -0.080582716
000090 b3 43 11 3e ee 55 33 3e be 29 40 3e 30 9b 2a 3e
       0.14185981 0.17513248 0.18765923 0.16660762
0000a0 87 b7 4d 3e 0d 1b bf 3d 14 e0 e0 3c 79 96 7e bc
       0.20089541 0.093313314 0.027450599 -0.015538805
0000b0 27 f3 26 3e c6 7f 7b bd cd ae 52 3e 49 93 b7 3d
       0.16303693 -0.06140115 0.20574494 0.08963639
0000c0 bc 3c 8b bd 0a d3 70 3e 05 75 8e 3d dd 72 f6 3d
       -0.067986935 0.23518005 0.069559135 0.12033627
0000d0 b4 36 d4 3d d9 85 26 3e 48 94 a2 3e 72 bc 24 3e
       0.10361996 0.16261996 0.31753755 0.16087511
0000e0 a5 b8 08 3e c5 05 fa bc 6d b4 22 bd 73 4c 10 bd
       0.13351686 -0.03052033 -0.03972285 -0.035229158
0000f0 11 33 c9 3c 00 a2 bd 3d f6 22 49 3e e2 f0 62 bc
       0.024560483 0.09259415 0.19642243 -0.013851376
000100 c6 6b d0 3d 53 a8 8a 3e 13 62 99 bc c5 02 1a 3d
       0.10176806 0.27081546 -0.018723523 0.037600297
000110 2c f7 f4 bd d8 e6 23 bc ad c6 9a bd f8 d0 21 3e
       -0.11961207 -0.010003768 -0.07557426 0.15802372
000120 90 a0 2e 3d 02 ed 68 3e 39 4d c0 3d 19 72 82 3e
       0.042633593 0.22746661 0.09389729 0.25477675
000130 eb ac b2 3d 92 e2 8d 3d 96 9c be bd cc 3c 46 3e
       0.08724388 0.069279805 -0.0930721 0.1935913
000140 1d 43 9c bc b9 db 62 3e 26 c9 00 3e 94 cb 4f bd
       -0.01907497 0.2215413 0.12576732 -0.050731257
000150 f6 81 e2 bd 51 e4 8a 3d 4b 8a 5d 3e 71 79 82 bc
       -0.11059944 0.06781829 0.21634786 -0.015927048
000160 f5 f8 66 3e 2d 99 6d 3e cf 24 bf bd fb 74 a4 bd
       0.22555907 0.23202963 -0.093331926 -0.08030125
000170 12 ac d4 3d 3f d4 d4 3d c2 61 82 bc 12 e1 31 3e
       0.10384382 0.10392045 -0.015915755 0.17371014
000180 57 b8 64 3e a7 e5 8a 3c b1 d4 9c bd 94 96 27 3e
       0.22335945 0.01695521 -0.07657755 0.16366035
000190 8e 0a b1 3e 0f bf 86 3d e5 d7 93 bd 91 dd 10 3e
       0.34578365 0.0657941 -0.07218913 0.14147021
0001a0 b6 7f 17 3d d0 c8 51 3d b3 b9 8f 3e e9 99 3d bc
       0.03698703 0.0512169 0.28071365 -0.01157234
0001b0 fe e6 6b bd d1 26 3f 3b 19 83 75 3e 4f 5d f7 3d
       -0.05759334 0.0029167423 0.23975791 0.12078344
0001c0 3d 37 09 3e ad 15 f3 3d e1 21 f2 3c 1a 69 48 3e
       0.13399978 0.11869369 0.02955717 0.19571343
0001d0 3b f7 f5 3d 87 e4 b8 3c e2 bf a4 3e b0 16 54 3e
       0.12010046 0.022569908 0.32177645 0.2071178
0001e0 0b 1f eb 3c ce 9c 73 bd 99 c3 cf 3d 1b 78 e9 bd
       0.028701326 -0.059475712 0.10144729 -0.113998614
0001f0 32 44 7b 38 09 e7 69 3e f9 be e3 3d f9 e0 24 3d
       5.9906575e-05 0.22842039 0.111204095 0.040253613

value_stream.model.0.weight f4 [128, 128]
000000 83 03 1a 3d af 9c 2e bd 7a 03 97 bd a6 93 b7 3d
       0.037601005 -0.042629894 -0.0737371 0.089637086
000010 23 3b 08 bd 25 ad 12 bd c6 70 8b 3d 0c 36 6e 3d
       -0.033259522 -0.035809655 0.06808619 0.058157012
000020 f4 c7 30 3c 7b 75 89 bc b8 0d df 39 0b 16 3e 3d
       0.01078986 -0.016779652 0.00042544096 0.04640774
000030 c0 3e f7 3a 5b 65 95 bd 8c a6 15 bc 73 27 15 3c
       0.0018863305 -0.07294723 -0.009133946 0.009103644
000040 1a 67 1a bd e3 0e 23 3d 02 23 d0 3c f5 08 41 be
       -0.03769598 0.03980912 0.025407318 -0.18851073
000050 12 d6 52 3d 81 80 43 3b de af 38 3e c0 8b 79 3b
       0.051473685 0.0029831233 0.18035838 0.0038077682
000060 b3 24 20 bd 39 2c 14 3d 4d 09 d2 3d 11 2c 8d 3d
       -0.0390975 0.036174987 0.1025568 0.068931706
000070 79 98 a1 3d 66 55 9b bd 7d 35 ed bc a6 d5 46 3d
       0.0789041 -0.07584648 -0.02895617 0.048543595
000080 1b d7 c9 3c b1 4f 13 3d 0f cf ac 3c 37 e0 99 bd
       0.024638703 0.03596467 0.021094827 -0.07513469
000090 87 4a 85 3d e1 06 fe bc 31 b8 d5 bc 82 9b 94 bd
       0.065083556 -0.03100914 -0.026088806 -0.07256223
0000a0 2b 76 89 3c 3a b4 36 bd 1e 77 66 3d a9 b8 b1 ba
       0.01677998 -0.04460547 0.056265943 -0.0013559061
0000b0 a4 0f 63 3d 1d 63 a7 3d 45 f9 eb bb fe a0 69 bd
       0.055434838 0.08173201 -0.007201346 -0.0570383
0000c0 02 b7 f9 bc b4 12 90 bc 04 bf b7 3c e2 0f 3f 3b
       -0.030482773 -0.017587043 0.02242995 0.0029153754
0000d0 21 f3 0d 3d 42 bd 10 3d 57 6d b3 bd e5 b3 a2 bc
       0.034655694 0.03533674 -0.08761089 -0.019861171
0000e0 61 14 e9 bc 0e c2 f3 3d 55 1a a2 3d 1c 5f 25 3e
       -0.0284521 0.11902247 0.07915179 0.16149563
0000f0 c2 d5 9c bd d2 dc 71 bd 4c d4 b0 bc b0 03 44 bc
       -0.076579586 -0.05904848 -0.021585606 -0.01196377
000100 b2 13 20 3d 98 7b 30 bc f8 65 8c 3d 99 4c fe 3c
       0.039081283 -0.010771655 0.068553865 0.031042384
000110 cf c5 11 3e e4 87 de bc 3e 8e ac 3b 03 a3 9f ba
       0.14235614 -0.027164407 0.00526598 -0.0012179319
000120 9a 1d 54 bd a3 d1 ba 3d cf c7 8b bd 3a 84 3d bd
       -0.051786043 0.09122016 -0.0682522 -0.04626868
000130 2d 8e f4 bd 69 c0 18 be 24 bc 08 3e 32 92 b9 3d
       -0.119411804 -0.14917149 0.1335302 0.09061088
000140 f7 de 87 3c 7f 0b 4a 3d 63 23 33 bd 12 c3 d7 bb
       0.01658581 0.04932737 -0.04373492 -0.0065845335
000150 79 e6 2f 3e a2 f8 a1 3c 57 fd 47 3b 70 d9 b2 bb
       0.17177762 0.019771878 0.0030515993 -0.0054580495
000160 53 30 54 3d 14 b4 66 3d 48 cd 59 3d 82 0d 12 3d
       0.051803898 0.05632408 0.053174287 0.035657413
000170 0e b1 d6 bc 19 3d 7b 3d 73 fb 04 3d ce 47 81 bd
       -0.026207473 0.061337564 0.032466363 -0.06312524
000180 3d 26 11 bd a7 45 17 3d c0 d7 08 3e 0f da 1f bd
       -0.035436857 0.03693166 0.13363552 -0.039026316
000190 c6 d5 86 be 4c 3a 36 3d 60 af d1 3c 5d 39 44 3c
       -0.2633497 0.04448919 0.02559632 0.011976567
0001a0 a4 29 61 bd 40 4c 24 bd f3 9d 4b 3d a3 2e 3e 3d
       -0.054971352 -0.04011178 0.04971118 0.046431195
0001b0 ed e3 c6 bc 67 69 f4 3b 78 34 b0 3b 2a 63 1f 3d
       -0.024278605 0.007458854 0.0053773485 0.03891293
0001c0 c4 24 36 3d c4 de fe 3b 33 96 32 bd 0a 8a 01 3c
       0.044468656 0.0077780206 -0.043600272 0.007906446
0001d0 f1 b6 ae bd 01 6c 44 bd ca a2 23 3d 39 81 b8 bd
       -0.08530987 -0.047954563 0.03995017 -0.09009022
0001e0 a0 64 9e 3b 8e 68 09 bd 39 18 3a 3d df e6 6d bd
       0.004833773 -0.033546977 0.045433257 -0.058081504
0001f0 bc 97 ac bd 42 81 5b 3d bb 33 c0 bd f7 59 ff bd
       -0.084273785 0.053590067 -0.09384867 -0.12468331
000200 01 db 34 3d 1c 1c 5a 3d 8c d4 c4 bd e8 6f 67 3d
       0.04415417 0.053249463 -0.096108526 0.056503206
000210 ea 1a 13 bd ad 67 a9 bd 47 5b 7b 3d f6 5f b9 3d
       -0.03591434 -0.08271728 0.061366346 0.09051506
000220 70 e8 98 3d 11 46 85 bd 76 73 a9 bd 37 cf 9d bc
       0.07466209 -0.06507505 -0.082739756 -0.019263847
000230 8f be 85 bd 96 f9 76 3d 13 ca ab bd b6 07 a2 3d
       -0.06530487 0.060296617 -0.08388152 0.07911627
000240 7b 34 e1 3c 73 17 3b bd bd eb c7 bd 56 46 16 be
       0.027490845 -0.04567666 -0.097617604 -0.14675269
000250 7a 5a 1a bd c9 0e 8f bd c4 ff 02 3e 3b 08 99 bd
       -0.03768394 -0.06985242 0.1279288 -0.07472273
000260 18 da 30 3c 84 1b 0f 3a d8 66 86 bc b2 16 b3 3d
       0.010794185 0.0005459117 -0.016406462 0.08744563
000270 7f c1 0a bc 6d 45 b7 ba 5e 91 3c 3d 05 e6 97 bd
       -0.008468985 -0.0013982482 0.04603707 -0.074169196
000280 e9 5c a4 bc cc f0 32 3d f3 64 31 bb e3 f8 88 bd
       -0.020063834 0.043686673 -0.0027068227 -0.066880964
000290 57 bd a5 bd 72 c9 87 3d 13 6e b4 bd 2f eb 1b 3d
       -0.08092754 0.066302195 -0.088100575 0.038066085
0002a0 44 ab 9b 3d b6 96 85 bd 51 fc 9b 3d 29 f6 45 bd
       0.07601026 -0.065228865 0.07616485 -0.04833046
0002b0 19 09 cf 3b f7 d1 9b bb 8a f6 7f bd 5d 1b 8d 3d
       0.006318223 -0.0047552544 -0.062490977 0.06889985
0002c0 92 58 f1 bc f6 56 9d bd 94 01 66 3c 5f be f1 3c
       -0.029461179 -0.07682602 0.014038462 0.029509721
0002d0 85 5f 9d 3d 8e 22 76 bd 2e 76 f6 bd b7 da 23 bd
       0.076842345 -0.060091548 -0.1203426 -0.040003505
0002e0 fb f4 1b bd a8 45 f4 3d 91 89 8b 3d 05 30 66 3e
       -0.03807543 0.119273484 0.06813348 0.22479255
0002f0 14 b4 55 bd 6f bb b2 bc 45 d3 3e 3c 1f 78 cf bb
       -0.05217369 -0.02181789 0.01164705 -0.006331458
000300 a3 e6 9a 3d 08 ed 99 3d 50 93 f1 bb 3d 1f c2 3d
       0.07563522 0.07515913 -0.0073722973 0.094786145
000310 5e a3 00 3e a8 dc a5 bd 04 3e 95 3d 6c 29 8f 3d
       0.1256232 -0.080987275 0.07287219 0.069903225
000320 bd c1 6f 3d d0 91 26 3d e8 dc d3 bc 44 b8 86 bd
       0.058534373 0.0406664 -0.025862172 -0.06578115
000330 d9 34 c9 3c 75 75 71 bd 94 90 e7 3d c7 8e 9b bd
       0.024561333 -0.058949906 0.11306873 -0.07595592
000340 8c 41 b0 bb 09 f8 58 3d b5 a1 b8 bd 6d bd e0 3c
       -0.0053789075 0.05297092 -0.09015218 0.027434075
000350 ef 4a 20 bc 1b 3d 96 3d 9e 9e 38 bd 23 15 b2 bd
       -0.009783491 0.07335874 -0.045073144 -0.08695438
000360 7b a4 e2 bd b8 62 a5 3d 8b 79 43 bd a8 71 1b 3e
       -0.110665284 0.0807547 -0.047723334 0.15180075
000370 55 9c d4 3c ce 79 bc 3c e0 a4 18 3d 69 1e b5 bd
       0.025953451 0.0230073 0.037266612 -0.08843691
000380 16 e5 51 3d be 56 83 3d 35 05 01 3d 67 96 55 ba
       0.051243864 0.06413029 0.031499106 -0.0008147717
000390 f9 41 4f be 1a 8b a4 3c e0 97 de bb 79 72 62 3c
       -0.2024001 0.02008586 -0.0067930073 0.013821238
0003a0 e4 a5 85 bd d7 92 4b 3d eb fc 17 3d 88 02 a9 3d
       -0.06525782 0.049700584 0.037106436 0.08252436
0003b0 9c b3 9c 3d c8 fd ad bc b1 d2 9d 3c 77 60 99 3d
       0.07651445 -0.021239176 0.019265505 0.07489102
0003c0 16 e0 85 bd 4d 20 6e bd b4 ac 82 3d 29 18 5c bd
       -0.065368816 -0.058136273 0.06380597 -0.05373398
0003d0 bd 55 32 3d d8 d4 a7 3d 77 21 be bc eb b9 77 3d
       0.043538798 0.081948936 -0.023209317 0.06048004
0003e0 20 ef 15 bc 86 16 e2 bd 70 f5 4f 3c 3f 6f 63 3d
       -0.00915125 -0.11039452 0.012692794 0.055526014
0003f0 21 b6 9b 3c 13 47 89 3d 5f 19 0e 3d 97 8c b2 ba
       0.019007744 0.067030095 0.034692165 -0.0013622221

value_stream.model.0.bias f4 [128]
000000 88 94 81 3d 46 cc b4 bd 5b ee db bd 0d f3 ca 3d
       0.06327158 -0.088280246 -0.10738822 0.099096395
000010 57 76 c4 3d 4a 48 2d 3c 4e f6 9f 3c 88 57 bd 3d
       0.09592884 0.010576317 0.019526627 0.09245211
000020 3c cd 8d 3d 1d 4b c4 3c ee b8 a2 3c a1 c8 54 3d
       0.06923911 0.023961598 0.019863572 0.051949147
000030 65 83 ed 3c 2c d5 91 3d 1f f9 e6 bd a8 66 02 3e
       0.028993318 0.071207374 -0.11277985 0.12734473
000040 20 ea 06 3e fe 40 54 3c f2 8d 83 3d 3b 2b 36 bc
       0.13175249 0.0129549485 0.06423558 -0.011118705
000050 3d 70 7e bc bd da 89 3d 85 97 11 3e 53 05 d0 3d
       -0.015529689 0.06731174 0.14217956 0.101572655
000060 ea f2 17 bc b0 77 42 3d 9d 21 85 bc af a9 03 3d
       -0.009274224 0.047477424 -0.01625138 0.032144245
000070 63 21 2b bb 9c ae 85 3d 85 0c a1 3d 79 f1 0c bd
       -0.002611243 0.06527445 0.07863716 -0.034409974
000080 9e 3e 41 3d 31 95 1d 3e 43 7b 86 3c ef ef 80 3d
       0.047178857 0.15388943 0.016416198 0.06295764
000090 77 49 b3 bd 2e 22 99 3c fd b3 b4 bb ff f8 82 bd
       -0.08754247 0.018693056 -0.0055146203 -0.063951485
0000a0 73 37 f5 3d 1a 03 93 bd 9e 09 14 3d a5 b3 35 3d
       0.11973467 -0.07178326 0.036141984 0.044360776
0000b0 42 89 a9 3d 83 a3 51 bd 83 16 3a 3d d6 3f 43 3d
       0.08278133 -0.051181328 0.045431625 0.0476683
0000c0 75 79 97 bb a2 7f e4 3c 5b be 59 bd 1f 2d 22 3e
       -0.004622633 0.027892891 -0.053160053 0.15837525
0000d0 5f d2 52 3d 2b c3 ee 3d c0 99 b6 bd 68 af 34 3d
       0.051470157 0.11658319 -0.08916044 0.044112593
0000e0 2c 49 0f 3e 73 09 9f 3c 04 63 38 bd a5 22 f3 3d
       0.13992757 0.019413685 -0.045016304 0.11871842
0000f0 51 4b 64 3d 77 ac 76 3e 63 a4 fd 3d 0f 9a 46 bd
       0.05573589 0.24089228 0.1238487 -0.048486765
000100 f8 f2 3d bc bf 38 2e ba cb 36 44 3e 96 e1 3d bd
       -0.011593573 -0.0006646029 0.19161527 -0.046357714
000110 c2 a8 e1 3c 91 a5 e0 bc a8 e5 2a 3d d0 33 7f 3d
       0.02754629 -0.027422698 0.041722924 0.06230527
000120 d8 61 4e 3d 24 30 2f bd db d5 95 3d 76 2a 29 3d
       0.05038628 -0.04277052 0.0731618 0.04130026
000130 88 83 37 3d 0b 65 3d bd d3 fe 6a 3d 16 50 a2 bd
       0.044803172 -0.04623894 0.057371926 -0.079254314
000140 02 dd 78 bd 91 92 e4 bd 9c 05 0c 3e e4 03 0c 3d
       -0.060757644 -0.11160768 0.13674015 0.034183398
000150 0a c1 2e bd 9c 4d 68 3c 08 4b 81 3d e7 d5 81 bd
       -0.042664565 0.01417866 0.06313139 -0.06339627
000160 94 0c 62 bb 19 92 b0 bd 89 1f 98 3a b0 a6 b7 3d
       -0.003449236 -0.08621616 0.0011606078 0.0896734
000170 5a a3 c7 3d 7b c6 91 bd af 8d d2 3d 86 37 82 3c
       0.09747954 -0.07117935 0.1028093 0.015895616
000180 19 ba 4d bc 35 f6 e0 bd 89 2c a2 3d 1d fb 04 be
       -0.012556576 -0.1098446 0.07918651 -0.12986417
000190 1f cf 0b 3e 8b 36 75 3d 45 6e cf 3b 60 fe 9c bc
       0.13653229 0.05986647 0.006330284 -0.019164264
0001a0 d3 17 ae 3d 20 9c 1c 3e f5 b2 c4 3d 9c 17 b8 b9
       0.08500638 0.15293932 0.09604446 -0.00035112805
0001b0 88 2e 38 bb 8b e4 54 3d 6e fa 1d 3e 57 c3 c4 bc
       -0.0028103907 0.051975768 0.15427563 -0.024018927
0001c0 f5 4b ed bd c3 ca 25 3d d2 97 4d 3d d2 42 1c bd
       -0.11586753 0.04047657 0.050193615 -0.038149662
0001d0 58 bc 26 3e 6c 3c ce bc 18 8a c3 bc a6 7d 19 bd
       0.16282785 -0.025175296 -0.02386956 -0.037473343
0001e0 46 75 ea 3d 34 fa 8d 3d 44 7d 44 3d 58 10 5e 3e
       0.114481494 0.06932488 0.047971025 0.21685922
0001f0 d0 0b 04 3e 65 0e fc 3c 94 1f 78 3d cd 5a a8 3d
       0.12895131 0.030768583 0.06057699 0.08220444

value_stream.model.2.weight f4 [1, 128]
000000 e8 df 8d bd 99 9c b2 bd 46 c2 0e be a6 a5 43 3e
       -0.06927472 -0.08721275 -0.13941297 0.19106159
000010 a3 f7 01 3e 8a 71 1c 3e c0 7c 0b be 53 0e 5d 3e
       0.12692122 0.15277687 -0.13621807 0.21587496
000020 21 f9 9b 3e f9 52 80 3e ce 63 9e 3c b7 65 19 3d
       0.30463508 0.25063303 0.0193347 0.03745052
000030 ae 28 46 be b7 63 ab bd 82 7e 0b be 69 06 52 3e
       -0.19351456 -0.083686285 -0.13622478 0.20510258
000040 f3 41 46 3e c4 ba 4d 3e e3 b5 19 3e a3 a9 e7 bd
       0.19361095 0.20090777 0.1501079 -0.113116525
000050 5c 56 e1 bd 97 ee 49 3e 96 64 84 3e 15 40 71 3e
       -0.110028 0.19719921 0.2585799 0.23559602
000060 c3 4b 3e 3d 12 c0 57 bb 71 c1 d3 bd 6e d1 6d be
       0.04645897 -0.003292088 -0.103396304 -0.23224422
000070 e1 ad 6e be f8 d6 20 3e 6f 1a 53 3e 41 30 86 3d
       -0.23308517 0.15707004 0.20615552 0.065521725
000080 9b e6 93 3d ed 1a 4c 3e a9 00 7b 3e d2 83 9a bd
       0.07221719 0.19932146 0.2451197 -0.07544674
000090 ed ca af bc 74 d3 06 3e 48 72 56 3e 2b f8 1c bd
       -0.021459067 0.131666 0.20942032 -0.03832261
0000a0 11 f2 8b 3e c2 1f 12 bd 86 83 06 3e 00 41 c2 bd
       0.2733312 -0.035674818 0.1313611 -0.09485054
0000b0 8b 11 5c 3e 4d 83 80 3e 42 d6 5f 3c 32 e7 7a 3e
       0.21491067 0.25100175 0.013661923 0.24502257
0000c0 07 1f 92 3e eb 8a 7b 3e 98 11 c6 bd 8e df 3d 3e
       0.28539297 0.24564712 -0.096713245 0.1854231
0000d0 48 d4 a1 3e 6b 94 9b 3e 81 89 2b be b6 fc b0 bb
       0.3160727 0.3038667 -0.16751672 -0.0054012192
0000e0 97 35 89 3e 6f a1 37 be 1e cf 61 bd 2b 46 52 3e
       0.26798698 -0.17932676 -0.055129163 0.2053458
0000f0 b7 98 59 bc 41 ed 61 3e 1f 10 93 3e 3c 2b 5f bd
       -0.013281039 0.22063161 0.28723237 -0.05448459
000100 f2 4e 86 3d fd 6f d8 bd ed 7f 5f 3e 06 37 2e bd
       0.065580264 -0.10568235 0.21826144 -0.042532943
000110 c3 88 30 3e 5f aa 5e 3e 2c 58 33 3d 10 3b 83 bd
       0.1723967 0.21744679 0.04378526 -0.0640775
000120 14 f8 82 3e f0 e0 01 be 15 9a 89 3e ba 44 93 bd
       0.25579894 -0.12683463 0.26875368 -0.07190843
000130 cb dc 81 3e 32 45 1f be 9b 84 81 bd 2b 19 7e bc
       0.25363764 -0.1555374 -0.063241206 -0.01550893
000140 7d 33 be bd 05 d3 92 bd 0a 70 41 3e 5b ec af bd
       -0.09287164 -0.07169155 0.18890396 -0.08590003
000150 a8 f8 21 be bf 43 1e be ba 8d c5 bd f5 8c de 3c
       -0.15817511 -0.1545553 -0.09646173 0.027166823
000160 08 40 61 bd de d8 24 bd d4 77 55 3d 3f db 48 3e
       -0.054992706 -0.040245883 0.05211623 0.19614886
000170 ab d9 29 3e a9 2c 3d be d2 03 58 3e 67 cc 5f 3e
       0.1658694 -0.18474068 0.21095207 0.21855317
000180 51 10 5b 3e 6b 24 ac bd 06 b6 2e 3e 6b 4e 2a be
       0.21392943 -0.08405384 0.17061624 -0.16631477
000190 5c 7e 8a 3e 66 15 77 3e 45 eb aa bd 0e ca 91 3e
       0.2704953 0.24129257 -0.08345655 0.28474468
0001a0 37 dc a9 3d 0a c0 89 3e f5 cd 84 3e 5f fb 8a bd
       0.08293956 0.26904327 0.25938383 -0.067862265
0001b0 bd 90 79 3e 2d bb 89 3e 5a 1b 58 3e 55 44 92 3c
       0.2437162 0.26900616 0.21104184 0.017854849
0001c0 07 6d 26 be 4c 61 9a bd 4c 05 25 bd e7 ab 64 be
       -0.16252528 -0.07538089 -0.040288255 -0.223312
0001d0 b2 a8 2e 3e 17 12 a1 3d 98 b7 75 3e 9e 6f 01 bd
       0.1705654 0.078647785 0.23995817 -0.031600587
0001e0 ad 72 43 3e 00 84 42 3e c9 b6 8a 3e 7a ec 6d 3e
       0.19086714 0.18995667 0.2709258 0.2323474
0001f0 a9 f5 97 3e b4 44 6b 3e 0f 04 5f 3e 76 f1 53 bd
       0.2967961 0.22975427 0.21778892 -0.051743947

advantage_stream.model.0.weight f4 [128, 128]
000000 2e d0 97 3e 0e ec 4d 3e 84 88 4a bd be 6a 84 3e
       0.29651016 0.20109579 -0.049446598 0.25862688
000010 2d a3 e2 bd 9d a8 f7 3d 24 ba 6b 3d a0 7e a8 3d
       -0.110662796 0.12092707 0.057550564 0.08227277
000020 24 ad 84 3e 39 79 b5 3d d1 6b cb 3d b3 5d 43 3e
       0.25913346 0.08861012 0.09932674 0.19078712
000030 a9 f8 35 3e 3f bc 2c 3e dc 70 b4 3e c3 18 57 3d
       0.17770638 0.16868685 0.35242355 0.05251385
000040 08 f0 e0 3d 47 6f 47 3d 73 cc 32 3d 43 d6 c3 bc
       0.10983282 0.048690107 0.04365201 -0.023905879
000050 25 b2 13 3d 21 43 65 3d cd 39 6f 3e 5c c1 59 3d
       0.036058564 0.055972222 0.23361893 0.053162917
000060 93 16 ba 3d 61 5a 07 be f3 a6 78 3e 17 6b 6d 3e
       0.09086337 -0.1321807 0.24282436 0.23185383
000070 4d 4e 1a 3d d1 b1 9c bc 9a 03 fa 3d 91 86 95 3c
       0.03767233 -0.019127758 0.12207718 0.018252643
000080 0e d5 52 3c f0 64 1b 3e d0 49 66 3d 93 d6 7a bd
       0.012868179 0.15175223 0.056222737 -0.06123979
000090 f9 5d 0b 3e d8 38 3b 3e 04 2d 3f be f1 dd 1e be
       0.13610066 0.18283403 -0.18669516 -0.15514351
0000a0 68 9e 8c 3e 54 88 37 3e c5 48 0a bd a0 dc 6f 3e
       0.27464604 0.17923099 -0.033760805 0.23424006
0000b0 b1 6e a8 3d ca 72 a8 bd 67 e8 9a 3c 11 16 8b 3e
       0.08224238 -0.08225019 0.018909646 0.27165273
0000c0 7a e4 84 3e aa bd 3e bd 3b 75 f0 3d 5f 0d 31 bd
       0.25955564 -0.046567596 0.1174111 -0.043225642
0000d0 d3 95 e6 3d 13 37 86 bd 86 1f 82 3c 64 63 33 3d
       0.112590455 -0.06553473 0.015884172 0.04379596
0000e0 d6 36 4d 3d 93 e5 32 3e c8 0f 37 3e a6 3b 8d 3e
       0.050101124 0.17470388 0.17877114 0.2758457
0000f0 8c d2 1f 3e 5e 0c e1 bc ff 11 95 3d 67 fd 05 bd
       0.15607661 -0.027471717 0.07278823 -0.032712366
000100 1c 65 ab 3d c3 ab db bd 9c 24 3f 3e 5d ea 27 bd
       0.083688945 -0.1072612 0.18666309 -0.04099499
000110 d3 6c 84 3e 39 98 cb 3c 75 d8 7b 3e f2 fe 9e 3d
       0.25864276 0.024852859 0.2459429 0.07763471
000120 ee ec 93 3e 03 d4 5b 3d 60 74 03 3d 5f 5a ff 3d
       0.288917 0.053668987 0.032093406 0.12468409
000130 5b b7 0f 3e 60 4e 1b 3e fb 7e e8 3d ba 06 27 3e
       0.14034788 0.15166616 0.113523446 0.1631116
000140 74 5f bf 3e a3 05 9c 3d a0 21 ec 3d 6f 7d 94 3e
       0.37377512 0.076182626 0.11529851 0.29001948
000150 bf 53 e9 3d 43 80 5d 3d 1d 5a 43 3d 94 ff b0 3d
       0.113929264 0.054077398 0.04769336 0.08642498
000160 dd 83 9a 3b ff 7a db 3d d1 e7 6d 3e db 19 54 3e
       0.0047154264 0.10716819 0.23232962 0.20712988
000170 26 93 63 3e b1 cd b2 bc cc 2f 17 3e 00 0d 02 3d
       0.22224101 -0.021826597 0.14764327 0.03175068
000180 64 aa 36 bd e8 b6 6a 3e 60 60 7a 3e e7 9a 08 3e
       -0.04459609 0.22921336 0.24450827 0.1334034
000190 4f a3 42 3b 51 e9 fd 3b ca 85 b0 3d 32 d2 9f bb
       0.002969939 0.0077487607 0.08619268 -0.004877352
0001a0 9c f2 a7 3c a4 ec 71 bd 35 f7 f9 3c 57 d6 7c 3d
       0.020501427 -0.05906357 0.030513385 0.061727848
0001b0 b0 de 22 bd dd cf cf 3c 3f 6d e3 3d 2a b4 0e 3e
       -0.039763153 0.025367672 0.111048214 0.13935915
0001c0 5f ba 15 3e 60 56 25 3e 75 06 80 3d f4 f3 1c 3c
       0.14621876 0.1614623 0.062512316 0.009579647
0001d0 17 5e 05 3e 0c 7b 93 3e a1 f3 37 be a7 5f 42 bd
       0.13024174 0.28804815 -0.17964031 -0.047454502
0001e0 64 90 58 bc 12 a1 9b 3c e1 fe 43 3d 72 ec 16 3e
       -0.013218019 0.018997703 0.047850493 0.14738634
0001f0 75 b6 b2 3d 69 64 2b 3d db ae 54 3e 29 df 20 bd
       0.08726207 0.041843805 0.20769827 -0.039275322
000200 3b 0b 81 3e e2 e8 34 3e 75 37 2d bd 7a 0e 53 3e
       0.2520388 0.17666963 -0.042289216 0.20610991
000210 c8 12 02 bc 6f 45 b3 3d 1c 57 54 3d d7 1c 38 3e
       -0.007939048 0.08753478 0.051840886 0.17979752
000220 d1 a9 6e 3e 79 b8 07 3e 18 9d 04 3b 38 2a 61 3e
       0.23306967 0.13253964 0.0020235237 0.21988761
000230 28 41 dc 3d b2 2e 1d 3e 32 c1 b4 3e 20 f0 fc bc
       0.10754615 0.15349844 0.35303646 -0.03087622
000240 3a ea 46 3d db 8d 29 3e 71 8c 0f 3e c3 27 30 bb
       0.04856322 0.1655802 0.14018418 -0.0026879169
000250 29 8e 9a 3d 18 9c 13 39 74 80 4f 3e f7 b6 dc 3d
       0.07546646 0.00014077162 0.20263845 0.10777085
000260 07 f1 6b 3d a8 cf 37 bd 26 0f 0b 3e d4 ad 53 3e
       0.05760291 -0.04487577 0.13579997 0.20671779
000270 6d 86 f0 3c e4 a7 df bc 59 30 42 ba 48 b5 9a 3d
       0.029360974 -0.027301736 -0.0007407717 0.07554108
000280 81 90 1b be 68 3f e1 3d 65 3b 5b 3d a3 a5 ce 3c
       -0.15191843 0.10998422 0.05352344 0.025225466
000290 3f 7b 05 3e de e4 c9 3d f1 e7 20 be 1e db d0 bd
       0.13035296 0.09858106 -0.15713479 -0.10198043
0002a0 92 b9 32 3e 79 65 bf 3d ae 59 44 3d 4b e2 80 3e
       0.17453602 0.09345526 0.047937088 0.25172648
0002b0 78 a2 9c 3d 1a fe a6 3d 16 db 3f bd 22 44 72 3e
       0.07648176 0.08153935 -0.046839796 0.23658803
0002c0 98 53 be 3d 98 ef 14 3d 30 32 13 3e 96 85 e7 3c
       0.09293288 0.036361307 0.14374614 0.02826194
0002d0 68 f3 41 3e 1d a6 70 bd 3c 21 c5 bb cf 22 aa bc
       0.18940508 -0.058752168 -0.0060159247 -0.020768551
0002e0 b7 e7 a7 3d 08 16 0c 3e 74 70 56 3e 6e fb 7d 3e
       0.08198493 0.13680279 0.20941335 0.24802944
0002f0 df 06 60 3e 65 7c 0f be 21 97 c1 3c 3d 75 7b bd
       0.21877621 -0.14012296 0.023631634 -0.061391104
000300 6b 54 e1 3d a5 f5 7b bd ff 55 7d 3e 6f ea 08 3d
       0.110024296 -0.06151356 0.24739836 0.0334267
000310 54 42 8a 3e 5e 39 22 bd 3f 0b 91 3e 91 e1 fe 3d
       0.2700373 -0.03960549 0.28328893 0.12445367
000320 42 98 b0 3e 80 34 9e 3c f5 22 0f 3e 55 74 24 3d
       0.34491163 0.019312143 0.13978179 0.040150005
000330 75 64 ab 3d 6d 98 9a 3e c0 30 fc 3d ff 6b b2 3b
       0.0836877 0.30194417 0.12313986 0.005445003
000340 9c ce a2 3e 48 2d 9f 3d ed 82 15 3e 1e 68 3c 3e
       0.31798255 0.077723086 0.14600725 0.18399093
000350 33 98 39 3e 65 7b 56 3c 61 3b fe 3d 85 86 5f bd
       0.18124466 0.013090943 0.124136694 -0.054571647
000360 ad 2c f0 3b a6 52 09 3c 0b 57 2b 3e 55 b2 78 3e
       0.0073295445 0.008381521 0.16732423 0.24286778
000370 25 2f 77 3e d7 01 36 bd e1 74 88 3d 38 2e a3 bc
       0.24139078 -0.04443535 0.06662918 -0.0199195
000380 b4 d3 73 b6 47 30 4e 3e c8 94 35 3e 15 08 b1 3d
       -3.633305e-06 0.20135604 0.17732537 0.0864412
000390 d8 76 07 3e 56 16 8f 3d 04 54 2a 3d ba 23 07 3d
       0.13228929 0.06986682 0.04158403 0.032993056
0003a0 42 93 1b 3d b6 af dc bd 4a bd 9b bc 23 cd 26 3e
       0.037982233 -0.10775702 -0.019011158 0.16289191
0003b0 fb e4 de bd 4b 91 a3 3d 96 c1 c3 bc 0f 35 b0 3d
       -0.10883518 0.07986697 -0.02389602 0.0860387
0003c0 ef 35 02 3c 3a 13 fd 3c 62 c1 c5 3d d5 f8 59 3d
       0.007947429 0.030892957 0.096560255 0.05321582
0003d0 e7 60 09 3e 73 de 33 3e ad d5 1b be 60 f4 b6 3d
       0.13415872 0.17565326 -0.1521823 0.089333296
0003e0 04 31 63 bc 00 7b be bc c0 72 1b 3e 05 f2 10 3e
       -0.013866667 -0.02325201 0.15180492 0.14154823
0003f0 66 36 8e 3d 66 b5 0d 3e 5c eb 88 3e 8c c2 97 bd
       0.069439694 0.1383873 0.26742065 -0.07410154

advantage_stream.model.0.bias f4 [128]
000000 6e e9 7f 3d 3e 19 56 3c 03 ea ec 3c 99 09 f2 3c
       0.062478475 0.013067542 0.02892018 0.029545592
000010 6c 1a 5d 3d b6 2f d5 3d f1 7a 75 bd b6 e7 e5 bd
       0.053980276 0.10409491 -0.0599317 -0.11225836
000020 d9 61 7e bd 04 26 1b bd c0 11 c7 3b 30 e6 31 bd
       -0.062105034 -0.03787805 0.006075114 -0.043432415
000030 6c 79 5d 3c b8 3d 45 bd b8 6d 73 3d e2 5a 21 3d
       0.013517719 -0.048154563 0.059430808 0.039393313
000040 39 e9 e9 3c 70 9f e3 3c 57 b2 27 bd ad 94 6a bd
       0.028553592 0.027785987 -0.040941563 -0.057270695
000050 cd f6 9d bd 68 36 75 bd 0f 1d a3 bc f0 31 a8 3d
       -0.07713089 -0.05986634 -0.019911317 0.0821265
000060 8e 0b b9 bd 28 37 1d 3c 53 2c 15 bc 7f 0e 0e bd
       -0.09035407 0.00959567 -0.009104806 -0.034681793
000070 e5 45 36 3d 97 17 fb 3d c4 42 49 bd ea e2 88 3d
       0.04450025 0.12260359 -0.04913594 0.066839054
000080 d8 fe eb bc aa c9 0b bd 83 ec ce bd a7 c7 11 3d
       -0.028808042 -0.03412787 -0.10103705 0.035590794
000090 6c 43 8c bd a5 4d a6 3c 70 44 73 3d 75 d9 77 3d
       -0.06848797 0.020300696 0.05939144 0.060510118
0000a0 1a 07 62 3d 5f 3a 6e bd 29 0f 63 bd b1 6c 5c 3d
       0.055182554 -0.058161136 -0.05543438 0.053814594
0000b0 3c ef 94 3d be 03 7f bd 7f ce d6 3d bc 0a c7 3c
       0.07272193 -0.06225943 0.10488605 0.02429711
0000c0 d6 2f 8e bd 13 a4 9f 3b 6f 16 85 bd 1c b0 db ba
       -0.06942718 0.004871854 -0.064984195 -0.0016760859
0000d0 a3 95 a2 3d fd 57 9a bd 8b d6 92 3d 81 0e 9b bd
       0.07938697 -0.07536314 0.07169827 -0.07571126
0000e0 0e 8c 8e bc 53 d5 d4 bb e7 8e cd bb 5e 4a 89 bd
       -0.017400768 -0.006495157 -0.006273139 -0.067036375
0000f0 cc ad 89 3d 62 54 3d 3d 99 2e b4 3c 29 46 c3 3b
       0.06722602 0.04622305 0.021994876 0.0059592915
000100 00 e5 12 bd 72 a5 12 3d 8a 6b 23 3c 4e 97 92 bc
       -0.035862923 0.035802312 0.00997437 -0.017894413
000110 e2 92 54 bd 53 bf 81 bc af e0 8c bd 28 47 02 bd
       -0.05189789 -0.0158383 -0.068787925 -0.03180614
000120 6f 63 06 bd 69 af 95 bd d9 58 cf 3d 0e 06 3c 3c
       -0.03280967 -0.073088475 0.10124368 0.011476053
000130 23 c3 82 bb 65 f7 03 bd 50 6d c7 bd 90 de f3 3d
       -0.0039905473 -0.032218356 -0.097376466 0.11907685
000140 bb b9 21 3c c8 b0 b9 bc 8e 79 71 3c 9d a0 1c bc
       0.009870942 -0.022667304 0.014738454 -0.009559778
000150 ec 54 e7 3d ef 07 d8 3c ee 85 47 3c 31 ad c1 3c
       0.112954944 0.02637097 0.012177927 0.023642154
000160 d1 c2 a5 bd 58 b2 fb 3c 2c aa bb 3c 00 66 62 bd
       -0.08093799 0.03072469 0.022908293 -0.055273056
000170 eb 03 f2 3d f2 0a c7 bc 16 48 75 bc ef f9 b2 bc
       0.118171535 -0.024297211 -0.0149708 -0.021847693
000180 fd 87 7b 3c 4e cf 57 bd 96 93 dc ba 48 c6 7d 3d
       0.015352246 -0.052687936 -0.0016828652 0.061956674
000190 f6 2e 4f bd 2e 55 92 bd b2 a2 3b 3d a3 e9 f7 b9
       -0.050581895 -0.07145153 0.045809455 -0.00047285584
0001a0 30 a7 bf 3d 8b 8b e8 3d 64 2a 9e bd b6 68 51 bc
       0.0935806 0.11354741 -0.07722929 -0.012781313
0001b0 68 01 9a 3c 98 cb 28 3c 9f fd 0d bc 75 60 08 bd
       0.018799499 0.010302447 -0.008666425 -0.033295114
0001c0 ed 32 39 3d da 1c 86 3d d9 0e 86 3b b5 ea c2 bd
       0.045214582 0.06548472 0.0040911254 -0.09517423
0001d0 70 71 2f bd be 25 49 3d 12 ae cf 3c f1 b7 72 bc
       -0.04283279 0.04910826 0.025351558 -0.014814363
0001e0 d4 0f 85 bd d0 08 9c 3b a8 43 6e bd 90 97 b2 bd
       -0.064971596 0.0047617927 -0.05816999 -0.087203145
0001f0 90 2c 0c 3e 46 72 b2 3c c7 cb cd bc f5 0c 27 bd
       0.13688874 0.021783005 -0.025121583 -0.04078384
