logs/39-DuelingDQN-random-max-BCS-wtypes-G99-25_10_25_11-27-40/10/models/13000/DuelingDQN_checkpoint.pth (torch, 917195 bytes, 44 tensors)

feature_layer.model.0.weight f4 [128, 39]
-0.052143916 0.04006155 -0.06827964 0.10358964 0.2839413 0.24890088 0.38497618 0.55735064
-0.071650706 0.23262285 0.4183334 -0.7300642 -0.6226165 -0.7187787 -0.65079224 -0.48755622
-0.8413459 0.2867085 0.35858032 0.31735805 0.30418885 0.11611954 0.102044754 -0.015014534
0.046979975 0.10158071 0.007974078 -0.134998 0.090802364 0.35488486 0.52707064 -0.6127573
-0.53636336 -0.49575356 -0.16670382 -0.1847599 0.30504212 0.23774602 0.39616436 0.072016224
0.1482437 0.16962212 0.0054062256 -0.13795473 -0.071020596 -0.110748746 -0.083576284 -0.55303115
-0.12780057 0.017722713 -0.9928732 -0.7620234 -0.97534776 -0.900656 -0.9568122 -0.8310409
-0.11482409 -0.240866 -0.013794402 0.1850049 -0.23669378 -0.23046598 -0.09360561 -0.05505308
0.027737545 -0.056034733 -0.09509095 -0.21930616 -0.1644082 -0.06632386 -0.76908904 -1.0053178
-0.9341731 -0.5629723 -0.6525888 -0.33751205 -0.13287683 -0.01211699 -0.1058486 -0.008321315
-0.03631803 -0.08935251 0.083900414 0.122858524 0.345699 0.09374702 -0.2043764 0.2649636
-0.15805387 -0.5748955 -0.5660564 -0.44032645 -0.50933003 -0.59992206 -0.61614376 0.27039644
-0.088553384 0.04041952 -0.048986312 0.032048125 0.060790237 -0.01138572 0.2506887 0.1934226
-0.017193163 0.25941953 -0.05792797 0.11691874 0.13373423 -0.5254398 -0.28770688 -0.2638735
-0.17830923 -0.28168154 0.1103464 -0.2198636 0.04530902 -0.13154812 0.009934726 0.15468313
0.23654522 0.18645142 -0.009261509 -0.0009955893 0.21822459 -0.37015557 -0.06461505 -0.17602177
-0.207061 0.11157612 0.24548763 0.22775424 0.024462251 -0.06935552 0.06377315 0.025897404
0.033258066 0.11547313 -0.06909803 -0.10759847 -0.0899518 -0.11300928 0.43487868 0.13239881
0.38985667 0.27509508 0.46629366 -0.16390368 -0.16385792 -0.05269786 -0.026249921 0.18301678
0.04558923 0.14372818 0.3454799 0.08988441 0.1172145 0.17227551 0.16266662 0.07539523
-0.05879616 -0.15012191 -0.06471277 -0.06828157 -0.8550639 0.18037105 -0.20528975 -0.8913177
-1.068984 -0.7591526 -0.9597116 -0.8101889 -0.9354606 -0.19186707 0.0499249 -0.29867178
0.10983377 -0.25308052 0.034572423 -0.04331711 -0.121001974 0.11309259 0.09521795 0.108122155
-0.071304165 0.012667417 -0.18411857 -0.8705435 -0.80036944 -0.7154524 -0.52405864 -0.5381531
-0.3742001 0.118712634 0.24255484 -0.17529239 0.05788325 0.17955084 -0.10760307 0.050531037
0.035798572 0.074971795 0.14437658 0.6245686 -0.053469624 -0.19695948 0.9889158 0.80803806
0.7763422 0.9971267 1.0345017 0.7970362 -0.11463949 0.20970953 0.14882313 0.12376964
0.20575123 0.12668072 -0.010403575 0.14682394 0.13395439 0.26901492 -0.059279554 0.124530695
0.049553428 0.04565489 0.89686036 0.96084756 0.9574877 0.78288174 0.4749479 0.16538791
0.22444174 0.25996378 0.09771403 0.12704515 0.12038249 0.06868807 0.061579525 -0.0024176154
-0.1688735 0.051771704 -0.60547286 0.092887215 0.0041701086 -0.87909895 -0.9257195 -1.0612193
-1.0492469 -0.8845396 -1.092578 -0.0920502 0.011832389 -0.044885095 -0.054495756 -0.06786173
00000000: dc94 55bd 9417 243d 32d6 8bbd ce26 d43d
00000010: c160 913e dfdf 7e3e 991b c53e 88ae 0e3f
00000020: 9bbd 92bd af34 6e3e cc2f d63e 7de5 3abf
00000030: cc63 1fbf e201 38bf 529a 26bf f8a0 f9be
00000040: 7262 57bf 75cb 923e d797 b73e c17c a23e
00000050: a4be 9b3e 15d0 ed3d d7fc d03d 85ff 75bc
00000060: 136e 403d 8c09 d03d b5a5 023c ea3c 0abe
00000070: 97f6 b93d 78b3 b53e 1aee 063f aadd 1cbf
00000080: 1c4f 09bf 69d3 fdbe 68b4 2abe b331 3dbe
00000090: 7b2e 9c3e b173 733e 0ed6 ca3e 3e7d 933d
000000a0: 32cd 173e 6cb1 2d3e b526 b13b 0144 0dbe
000000b0: 3f73 91bd 3dd0 e2bd 0b2a abbd 7393 0dbf
000000c0: 27de 02be 392f 913c f02c 7ebf f713 43bf
000000d0: 64b0 79bf 6491 66bf a5f1 74bf 19bf 54bf
000000e0: e428 ebbd 94a5 76be ea01 62bc ed71 3d3e
000000f0: db5f 72be 46ff 6bbe 4cb4 bfbd 577f 61bd
00000100: d939 e33c ad84 65bd 0bbf c2bd cb91 60be
00000110: a05a 28be ced4 87bd 05e3 44bf 41ae 80bf
00000120: f825 6fbf f41e 10bf 0f10 27bf 61ce acbe
00000130: dd10 08be 5786 46bc 27c7 d8bd 2056 08bc
00000140: 37c2 14bd 73fe b6bd fbd3 ab3d 409d fb3d
00000150: 76ff b03e 70fe bf3d 0c48 51be 4fa9 873e
00000160: e0d8 21be 5a2c 13bf 12e9 10bf 7872 e1be
00000170: 7463 02bf 7e94 19bf 99bb 1dbf 6771 8a3e
00000180: 7a5b b5bd f08e 253d dfa5 48bd e544 033d
00000190: 2fff 783d 2c8b 3abc 455a 803e 9310 463e
000001a0: add8 8cbc a3d2 843e e145 6dbd 1873 ef3d
000001b0: a0f1 083e 3983 06bf 514e 93be 6d1a 87be
000001c0: b296 36be 9038 90be 4bfd e13d ec23 61be
000001d0: f395 393d 8db4 06be 43c5 223c 4165 1e3e
000001e0: e938 723e 1fed 3e3e 96bd 17bc 6f7e 82ba
000001f0: 4476 5f3e 0885 bdbe e554 84bd 0d3f 34be
00000200: cc07 54be 0582 e43d 1c61 7b3e 6838 693e
00000210: 0f65 c83c 440a 8ebd 7f9b 823d cb26 d43c
00000220: 9c39 083d 2d7d ec3d 4583 8dbd 965c dcbd
00000230: a638 b8bd 6971 e7bd 6ba8 de3e 8e93 073e
00000240: 4b9b c73e 43d9 8c3e 0bbe ee3e 5ed6 27be
00000250: 5fca 27be b6d9 57bd 130a d7bc c068 3b3e
00000260: c6bb 3a3d 7b2d 133e bee2 b03e 5115 b83d
00000270: 280e f03d fe68 303e 1492 263e d068 9a3d
00000280: 3ed4 70bd 8fb9 19be 2188 84bd 35d7 8bbd
00000290: 78e5 5abf 30b3 383e 7a37 52be 662d 64bf
000002a0: 78d4 88bf d357 42bf a9af 75bf 8a68 4fbf
000002b0: 597a 6fbf cd78 44be 0d7e 4c3d 82eb 98be
000002c0: 87f0 e03d c593 81be d09b 0d3d 486d 31bd
000002d0: e2cf f7bd 169d e73d a101 c33d 266f dd3d
000002e0: eb07 92bd ff8a 4f3c 9489 3cbe f0db 5ebf
000002f0: 03e5 4cbf e327 37bf b528 06bf 67c4 09bf
00000300: 2897 bfbe 9c1f f33d 4c60 783e d97f 33be
00000310: fd16 6d3d 2ddc 373e 005f dcbd a2f9 4e3d
00000320: 86a1 123d d08a 993d 74d7 133e bae3 1f3f
00000330: f702 5bbd bfaf 49be 9629 7d3f 95db 4e3f
00000340: 5dbe 463f b243 7f3f 8d6a 843f 900a 4c3f
00000350: 1cc8 eabd 18be 563e 1765 183e f07a fd3d
00000360: 73b0 523e 97b8 013e c273 2abc 0459 163e
00000370: 572b 093e 53bc 893e 1ecf 72bd f309 ff3d
00000380: 89f8 4a3d 9f00 3b3d a498 653f 1bfa 753f
00000390: ea1d 753f f06a 483f 5f2c f33e 735b 293e
000003a0: 0ed4 653e f919 853e 4b1e c83d 2018 023e
000003b0: 188b f63d 55ac 8c3d d03a 7c3d db70 1ebb
000003c0: 2ded 2cbe 910e 543d 4500 1bbf a73b be3d
000003d0: 68a5 883b a10c 61bf f4fb 6cbf 09d6 87bf
000003e0: b94d 86bf 3071 62bf 99d9 8bbf d184 bcbd
000003f0: a3dc 413c 6fd9 37bd f136 5fbd 17fb 8abd

feature_layer.model.0.bias f4 [128]
0.23248193 -0.0075248526 0.049208935 0.26181123 -0.11556493 0.08212315 -0.12225515 0.20232376
0.21995673 0.4085307 -0.2749826 0.04492897 0.2998875 0.057091765 0.31844804 0.29093823
0.10985186 -0.08299036 0.017907443 0.036543805 0.15812305 0.018983841 0.15249851 0.036563966
0.19770902 -0.17006922 -0.07015646 0.10302422 0.14850464 0.0123654585 0.21458031 0.27014962
-0.064728945 0.116106585 0.12735474 -0.09220318 0.086611375 0.24028865 -0.024162779 -0.0130294915
0.1424105 0.25576904 0.22739653 -0.008037148 0.33995843 0.049279675 0.11323928 0.12274358
0.06367922 0.084789634 0.30660582 0.046221953 -0.14090496 0.186426 0.1631168 0.14674172
0.063275434 -0.14017989 0.08398807 0.13470778 0.10418644 0.17072833 -0.09720459 0.03546939
-0.03593344 0.26429445 0.07152165 -0.07852367 0.016408982 0.15010034 0.002391159 -0.17779395
0.10320578 -0.0064930487 0.23857053 -0.02656572 0.08590237 0.11571858 -0.0066904067 -0.120020896
0.25352824 0.1847499 0.02902232 0.05236641 -0.17190908 -0.1446778 0.26168787 0.08011914
0.13457939 0.13727759 0.20986891 -0.075410224 0.077715635 0.09199928 0.22250398 0.18943606
0.06803018 0.11183224 0.12687947 0.1765549 0.17881444 -0.11990449 0.1265966 -0.017658314
-0.035921156 0.25016594 0.20563707 -0.03706452 -0.1796279 -0.10856612 0.1972987 0.2713757
0.25244793 -0.18785454 0.031918142 0.24254468 0.008729272 0.13525984 -0.067060016 0.13864765
-0.14689319 0.076397516 0.27406844 0.14591569 0.030340837 0.4155857 -0.10366979 0.19953829
00000000: be0f 6e3e 0a93 f6bb 4f8f 493d 1f0c 863e
00000010: 4ead ecbd 2f30 a83d e860 fabd f62d 4f3e
00000020: 563c 613e f02a d13e 85ca 8cbe 7107 383d
00000030: db8a 993e 0ed9 693d 9f0b a33e dbf5 943e
00000040: 03fa e03d daf6 a9bd a1b2 923c f5ae 153d
00000050: 02eb 213e 0084 9b3c 9228 1c3e 19c4 153d
00000060: 3c74 4a3e a026 2ebe 31ae 8fbd 5dfe d23d
00000070: 9a11 183e 7e98 4a3c f1ba 5b3e 0d51 8a3e
00000080: 9c90 84bd 4ac9 ed3d 4869 023e 05d5 bcbd
00000090: 4e61 b13d 3a0e 763e 05f1 c5bc a679 55bc
000000a0: 0fd4 113e 29f4 823e a3da 683e 3eae 03bc
000000b0: 080f ae3e 7cd9 493d ffe9 e73d fc60 fb3d
000000c0: 406a 823d 30a6 ad3d 70fb 9c3e 3b53 3d3d
000000d0: 6449 10be 75e6 3e3e 1708 273e 7643 163e
000000e0: 8d96 813d 518b 0fbe f001 ac3d d6f0 093e
000000f0: b35f d53d 68d3 2e3e 3313 c7bd 5a48 113d
00000100: f12e 13bd 9a51 873e f179 923d 05d1 a0bd
00000110: 216c 863c e7b3 193e feb4 1c3b 9e0f 36be
00000120: 8d5d d33d a4c3 d4bb d54b 743e 5aa0 d9bc
00000130: 95ed af3d ddfd ec3d 333b dbbb 84cd f5bd
00000140: 74ce 813e 142f 3d3e 37c0 ed3c 297e 563d
00000150: ef08 30be 6b26 14be f4fb 853e 8115 a43d
00000160: 2ecf 093e 7f92 0c3e e0e7 563e ad70 9abd
00000170: 6029 9f3d 1e6a bc3d 15d8 633e 87fb 413e
00000180: 6853 8b3d 4d08 e53d b1ec 013e cfca 343e
00000190: 221b 373e 7c90 f5bd 8aa2 013e 2ba8 90bc
000001a0: 1022 13bd c015 803e 8692 523e f7d0 17bd
000001b0: 60f0 37be ea57 debd ac08 4a3e c1f1 8a3e
000001c0: db40 813e f15c 40be 99bc 023d a25d 783e
000001d0: 3805 0f3c 8e81 0a3e c356 89bd a6f9 0d3e
000001e0: 2b6b 16be 4d76 9c3d b352 8c3e ec6a 153e
000001f0: 598d f83c a6c7 d43e d450 d4bd c453 4c3e

feature_layer.model.2.weight f4 [128, 128]
-0.13175336 0.03747371 -0.120339565 -0.06353006 -0.060444735 0.06630442 -0.03545554 -0.18180597
0.10919474 0.041668054 0.011732364 0.2536524 0.020060841 -0.010374372 -0.18031906 -0.014777082
0.1687308 -0.08825715 0.053626135 -0.1486533 -0.036849946 0.12126167 0.092596814 0.016426936
-0.18911554 -0.12753455 0.11587635 -0.2941587 0.03789589 -0.09798141 0.027593164 0.13687529
-0.0049039274 -0.0700583 0.12207513 -0.15373573 0.029886737 -0.007622732 -0.18741262 -0.028892927
0.016660672 0.14763653 -0.024412617 -0.113535315 -0.049642272 0.19358516 0.02328523 -0.10342114
0.030742235 -0.015336732 0.08638888 -0.05457898 -0.11057811 -0.30815086 0.06583017 0.11918369
-0.033972047 0.14959356 -0.10494749 0.09293643 -0.09110733 0.067527495 -0.027536077 0.09666907
-0.21443711 0.14053635 -0.1096157 -0.0239647 0.0546942 0.08078991 -0.0080452785 -0.068588465
-0.021565117 -0.06921238 -0.040005453 0.096857704 0.06680627 0.019873857 -0.046931345 -0.042544402
-0.050521653 0.024699794 -0.05758601 -0.099872895 0.017336534 0.04510171 0.041041575 -0.04220403
0.17909406 0.08585353 0.12961103 -0.23154448 0.07979525 -0.027856119 -0.04628455 0.34382397
0.1104232 -0.11414413 0.17427157 0.1347713 0.075302154 0.053886004 0.12906885 0.047313884
0.077475496 0.37100244 -0.1644234 -0.22211953 0.036186855 -0.12540698 -0.07391419 0.0063579655
0.09950928 -0.08088488 0.0053763427 0.015967488 0.098290086 -0.072394684 0.0062853596 0.10073906
-0.04400689 0.15914755 -0.046121188 -0.056597658 -0.0440693 -0.17325415 -0.20564628 0.095436625
-0.21761625 -0.08236621 -0.30041745 0.0044949474 0.029828398 -0.06534959 -0.024158921 0.015623814
0.04212591 -0.014941012 -0.07721124 0.21645696 -0.099539176 0.035369124 -0.17963013 0.123171635
-0.024263883 -0.19614698 0.05436075 -0.12437742 0.23185697 -0.03509294 -0.0069999867 -0.18303311
0.044328075 -0.043860216 -0.033213466 0.023354214 0.20439476 -0.04770407 -0.019028146 0.0036044167
0.07573125 -0.20301192 -0.05911106 -0.140883 0.050264474 -0.05235979 -0.062225144 -0.14520921
-0.067237124 0.16183874 -0.0067800367 -0.06909326 0.11600331 -0.018032912 0.015120137 0.18489662
0.14568251 -0.17664729 -0.19507977 0.04508543 -0.05013279 -0.092408784 0.14946982 0.12414885
-0.067185186 -0.08776087 0.036019225 0.1431542 -0.13942267 0.11272894 0.026756512 -0.010008545
-0.025981586 0.059666257 -0.10072962 0.0378902 -0.20768303 0.03147643 -0.073854856 -0.097793914
0.08674902 -0.01723521 0.15743949 0.12586255 0.060154684 -0.05096583 -0.030831922 -0.055502165
0.117832765 0.07370791 -0.17366987 0.041527048 0.012172713 -0.24680243 0.11124392 0.021019291
0.115991704 0.10153641 0.08578827 0.06718543 -0.20555626 -1.702349e-05 -0.006887355 -0.028962981
0.11852875 0.07850575 0.28949642 0.05217485 -0.1832435 -0.064545065 0.0009958575 -0.11692137
0.013587044 0.060400426 -0.08723339 0.049670313 -0.015238157 -0.04646622 0.18342473 0.15546729
0.11967326 -0.07463193 -0.23297335 0.017497657 0.08916715 0.021888971 0.058696825 0.040231813
0.02269503 -0.09305729 0.14318022 -0.13175268 0.091700405 -0.17708237 -0.11754883 0.12006964
00000000: 5aea 06be 087e 193d 9774 f6bd 0c1c 82bd
00000010: e694 77bd 9dca 873d d439 11bd 582b 3abe
00000020: 7ea1 df3d 1fac 2a3d 1a39 403c bade 813e
00000030: a256 a43c 45f9 29bc 8fa5 38be 931b 72bc
00000040: c4c7 2c3e 2ac0 b4bd 14a7 5b3d 9238 18be
00000050: f8ef 16bd 0a58 f83d 66a3 bd3d c891 863c
00000060: 81a7 41be 6b98 02be 9450 ed3d f89b 96be
00000070: b938 1b3d 7aaa c8bd 0f0b e23c 0929 0c3e
00000080: 20b1 a0bb ba7a 8fbd 8702 fa3d e66c 1dbe
00000090: 08d5 f43c 1cc8 f9bb 18e9 3fbe dcb0 ecbc
000000a0: f67b 883c 082e 173e f8fc c7bc 3485 e8bd
000000b0: b255 4bbd 303b 463e abc0 be3c 76ce d3bd
000000c0: 24d7 fb3c eb46 7bbc a7ec b03d 358e 5fbd
000000d0: c776 e2bd f3c5 9dbe f8d1 863d 9416 f43d
000000e0: 4626 0bbd 0e2f 193e b6ee d6bd 7455 be3d
000000f0: 7b96 babd db4b 8a3d 5793 e1bc 6ffa c53d
00000100: 6795 5bbe c3e8 0f3e 327e e0bd 9e51 c4bc
00000110: 0707 603d 2e75 a53d 58d0 03bc 1c78 8cbd
00000120: 54a9 b0bc 38bf 8dbd c2dc 23bd 555d c63d
00000130: bad1 883d 80ce a23c 153b 40bd 0a43 2ebd
00000140: cbef 4ebd 3957 ca3c 4fdf 6bbd 298a ccbd
00000150: 5905 8e3c 92bc 383d 361b 283d 22de 2cbd
00000160: 6f64 373e fad3 af3d c1b8 043e ff19 6dbe
00000170: b16b a33d 8432 e4bc de94 3dbd b209 b03e
00000180: 8f25 e23d 66c4 e9bd 3f74 323e 7d01 0a3e
00000190: 0438 9a3d 92b7 5c3d a02a 043e 34cc 413d
000001a0: 79ab 9e3d 08f4 bd3e 9c5e 28be 4d73 63be
000001b0: ab38 143d b06a 00be 5360 97bd 7b56 d03b
000001c0: 85cb cb3d f9a6 a5bd 082c b03b 40ce 823c
000001d0: 504c c93d aa43 94bd 6bf5 cd3b 4850 ce3d
000001e0: 9240 34bd 93f7 223e 92e9 3cbd f2d2 67bd
000001f0: 0382 34bd 8969 31be f094 52be 4774 c33d
00000200: cbd6 5ebe 9eaf a8bd 51d0 99be 5a4a 933b
00000210: af5a f43c 01d6 85bd eee8 c5bc 07fb 7f3c
00000220: 388c 2c3d 25cb 74bc ed20 9ebd e5a6 5d3e
00000230: 32db cbbd 37df 103d f6f0 37be 6941 fc3d
00000240: 0dc5 c6bc c1da 48be 61a9 5e3d 97b9 febd
00000250: ea6b 6d3e 9dbd 0fbd 2560 e5bb 086d 3bbe
00000260: 5b91 353d c5a6 33bd d80a 08bd 5651 bf3c
00000270: dc4c 513e 5865 43bd eae0 9bbc 1438 6c3b
00000280: fc18 9b3d 5be2 4fbe 701e 72bd a243 10be
00000290: 1fe2 4d3d 3877 56bd cbdf 7ebd b9b1 14be
000002a0: 9eb3 89bd 0eb9 253e 122b debb c480 8dbd
000002b0: 2593 ed3d c2b9 93bc 73ba 773c 8a55 3d3e
000002c0: cc2d 153e 07e3 34be fec2 47be 80ab 383d
000002d0: 0a58 4dbd d140 bdbd 9e0e 193e c141 fe3d
000002e0: 6398 89bd f9bb b3bd e588 133d 0497 123e
000002f0: d1c4 0ebe 6ede e63d 7930 db3c e1fa 23bc
00000300: 56d7 d4bc 9b64 743d 554b cebd c132 1b3d
00000310: dcaa 54be 6eed 003d 3741 97bd 2d48 c8bd
00000320: 78a9 b13d db30 8dbc d137 213e 1de2 003e
00000330: c264 763d 8cc1 50bd 3a93 fcbc 3d56 63bd
00000340: 4e52 f13d 2cf4 963d 84d6 31be 4418 2a3d
00000350: 0f70 473c c7b9 7cbe dad3 e33d a630 ac3c
00000360: 0f8d ed3d 52f2 cf3d c3b1 af3d 8498 893d
00000370: 577d 52be abcd 8eb7 52af e1bb c643 edbc
00000380: 34bf f23d 9fc7 a03d e038 943e 4cb5 553d
00000390: 2fa4 3bbe 3430 84bd 6f87 823a 7974 efbd
000003a0: 319c 5e3c 7066 773d 6ba7 b2bd 1973 4b3d
000003b0: 76a9 79bc 5d53 3ebd b1d3 3b3e d132 1f3e
000003c0: 4117 f53d a0d8 98bd 9190 6ebe 3f57 8f3c
000003d0: 449d b63d 8050 b33c 156c 703d 1dca 243d
000003e0: edea b93c d294 bebd d69d 123e 2dea 06be
000003f0: 6ccd bb3d 1555 35be 71bd f0bd 12e7 f53d

feature_layer.model.2.bias f4 [128]
0.042353135 0.0892467 0.16335206 0.13775308 -0.005350047 0.017946579 0.110755414 0.13649578
-0.22623366 0.012884112 0.007524597 0.11123975 0.077945955 0.051062442 0.037454832 0.04626368
0.072244555 -0.06144539 0.15281224 0.103604004 -0.090206556 0.113443255 0.1468117 -0.11107443
0.07444515 0.1908308 -0.013048663 0.047275566 -0.0009417401 0.05267771 0.12003893 0.07384765
0.041747253 0.15220267 0.03879464 -0.098913245 0.082589515 0.07853606 0.0054200348 0.06685645
0.055223774 0.08299316 0.24517122 0.16100663 0.057673596 -0.09490531 0.09697607 0.031514674
0.08319708 0.02039963 -0.1007059 0.11725112 0.1302012 -0.02811639 0.24129595 0.1212854
0.046585713 0.06935633 0.10856569 0.17150873 0.16239412 0.044133827 0.1409492 0.19344446
0.085565954 0.10868709 -0.049513206 0.036278434 0.11077605 0.08639801 -0.058549922 -0.03205094
0.044913918 0.117641605 -0.13606264 0.032294318 0.117131315 -0.12814891 0.028644595 0.09288358
-0.044072337 0.030513134 0.036547896 0.04735817 -0.037649497 0.0001828226 0.17359747 -0.015813157
0.16763163 0.08305325 0.06653745 -0.0296828 0.13991399 -0.04036328 0.19876233 0.17227033
0.20244779 0.08091248 0.020712666 0.031113947 0.18640353 0.06028334 -0.06832842 0.04376505
0.03698703 0.038587924 0.0721248 -0.05306142 0.0023339991 -0.061834753 0.2676704 -0.05847618
0.021842778 0.10265791 -0.030069023 0.12039364 0.07146325 0.07049786 0.26293704 -0.022176465
0.11004055 0.08076958 0.040873144 -0.17431112 0.15429297 0.14065234 -0.06749353 -0.05184947
00000000: 7b7a 2d3d f9c6 b63d c345 273e 250f 0d3e
00000010: 724f afbb b404 933c bcd3 e23d 8dc5 0b3e
00000020: cca9 67be e217 533c e590 f63b abd1 e33d
00000030: 21a2 9f3d da26 513d 3d6a 193d fc7e 3d3d
00000040: f4f4 933d 29ae 7bbd d07a 1c3e 562e d43d
00000050: 37be b8bd f054 e83d ce55 163e fe7a e3bd
00000060: b376 983d 2669 433e 0fca 55bc 06a4 413d
00000070: 1cdf 76ba 95c4 573d f8d6 f53d 703d 973d
00000080: 2bff 2a3d 04db 1b3e 21e7 1e3d 0793 cabd
00000090: b124 a93d 84d7 a03d 8c9a b13b 09ec 883d
000000a0: 5332 623d 51f8 a93d 2a0e 7b3e ecde 243e
000000b0: 263b 6c3d b75d c2bd 649b c63d 8815 013d
000000c0: 3b63 aa3d 201d a73c e53e cebd 5b21 f03d
000000d0: 7753 053e 5854 e6bc 4916 773e 7b64 f83d
000000e0: a9d0 3e3d b10a 8e3d b057 de3d fc9f 2f3e
000000f0: a54a 263e acc5 343d fd54 103e 4e16 463e
00000100: 343d af3d 5697 de3d 5cce 4abd b298 143d
00000110: 8ede e23d 71f1 b03d 0bd2 6fbd d947 03bd
00000120: a8f7 373d 15ee f03d 0154 0bbe 0c47 043d
00000130: 8be2 ef3d 7839 03be 12a8 ea3c bf39 be3d
00000140: 3285 34bd aef6 f93c 3fb3 153d a4fa 413d
00000150: 5c36 1abd 11b4 3f39 89c3 313e 988a 81bc
00000160: a0a7 2b3e d317 aa3d c944 883d 5829 f3bc
00000170: 9d45 0f3e f753 25bd 5a88 4b3e a267 303e
00000180: 794e 4f3e 71b5 a53d 9cad a93c ade2 fe3c
00000190: 91e0 3e3e aaeb 763d c5ef 8bbd fb42 333d
000001a0: b67f 173d 5f0e 1e3d 2bb6 933d ee56 59bd
000001b0: 02f6 183b 7046 7dbd 180c 893e b884 6fbd
000001c0: a0ef b23c 4f3e d23d 5053 f6bc f190 f63d
000001d0: 535b 923d 2f61 903d af9f 863e 6bab b5bc
000001e0: f15c e13d 866a a53d 996a 273d 9d7e 32be
000001f0: fafe 1d3e 2b07 103e 0c3a 8abd 1c60 54bd

value_stream.model.0.weight f4 [128, 128]
-0.09028288 -0.012364062 -0.06733061 0.035925563 -0.047449075 -0.13067897 -0.005243082 0.064319074
0.2568888 -0.14185469 0.026462972 -0.037357148 0.022763116 -0.22162355 0.012722089 0.04355623
-0.011901039 0.08575319 -0.03321301 -0.11957579 0.12934753 0.020468835 -0.12409505 -0.082448445
0.04574451 0.019225737 0.12288961 0.20648643 0.006697614 0.028664872 -0.001975122 0.12237298
-0.00013741029 0.020518275 0.017108604 -0.0052814092 0.042950187 -0.028661944 0.010090418 -0.13257307
0.09245846 -0.012743852 0.053463798 -0.00811459 0.07472659 -0.034164894 -0.007539887 0.028608993
-0.025244484 -0.060448706 0.009346574 -0.04581984 0.07873647 0.13286608 -0.083826125 -0.075050615
-0.016125645 0.016700972 0.11168757 -0.124236174 -0.04622275 -0.097032785 -0.005385849 -0.1082254
0.08110469 -0.14018509 0.057815723 0.15126872 0.03300481 -0.08154991 0.12786125 0.019878924
-0.031384874 0.04692724 -0.06433875 -0.1324517 -0.15773076 -0.018912 0.10594681 0.09698567
0.10130961 0.13988042 -0.05918807 0.16015324 0.18821755 0.038052548 0.038005833 -0.0054580495
0.0298338 -0.21641232 0.07744458 0.07246211 0.14252903 -0.005588167 0.0150410915 -0.12091194
-0.15221742 0.06221542 0.20410787 -0.018648943 -0.010162829 -0.06621664 0.033528585 -0.06625403
-0.054971352 -0.11574857 -0.011016337 0.118576914 -0.08762208 0.013651966 -0.04362436 0.09605333
-0.03687259 0.021527033 -0.016323663 0.02598778 -0.059866175 0.18960351 0.114282995 -0.06749343
0.0750853 -0.2978899 0.024845067 0.001014361 -0.064421736 0.058751374 -0.2093167 -0.08477739
-0.06040368 0.04169015 -0.0064064176 0.045541596 -0.099759884 -0.1051748 0.0037760958 0.09756259
0.3037232 -0.2599096 -0.023391725 -0.10860967 -0.04553505 -0.08577439 -0.019606786 0.14295176
0.14097114 -0.0014917781 -0.17191254 -0.10850035 0.036584716 -0.033748657 -0.18278268 -0.18463555
0.056509983 0.08075812 -0.0150967 0.21823312 -0.053561915 0.041073106 0.07241827 0.015411969
0.09474165 0.03358322 -0.040877603 0.007832943 -0.091782 0.08286902 -0.0037980825 0.09480296
0.1548689 -0.02339137 0.112504855 -0.060069427 0.0063930624 -0.11781374 -0.059910852 0.103644885
-0.030548643 -0.06811899 0.046113025 -0.013497487 0.098973215 0.06503368 -0.14800914 -0.015167376
-0.022381345 0.0979282 0.093121335 -0.086594194 -0.027185313 -0.040444065 0.053246353 -0.021111114
0.12328474 -0.011286287 -0.06021464 0.2196136 0.0407411 -0.17069146 0.21246366 0.12810338
0.0049154907 0.021585796 -0.017021017 -0.09153332 -0.016357286 0.0805976 0.07155885 -0.066598065
0.11472003 0.10058406 -0.08906124 0.29564226 0.041458376 0.09253256 0.032020327 -0.085566774
-0.10809244 -0.15646468 -0.023992091 0.20733468 0.14564788 -0.0502096 0.013200987 -0.12089696
-0.016938925 0.08061151 0.11489554 0.01510714 -0.023830736 -0.012010843 -0.003411294 0.003205761
-0.06525782 0.054077562 0.0036040137 0.1832931 0.14873019 0.040899836 -0.017278787 0.15223138
-0.1319134 -0.061902683 0.09989027 -0.03741816 0.052977525 0.33322328 0.022813968 0.049529497
0.046298925 -0.30399045 0.010271857 0.1349976 -0.02795798 0.075238876 -0.11832264 0.03774684
00000000: 3be6 b8bd a292 4abc a1e4 89bd af26 133d
00000010: f659 42bd b5d0 05be 29ce abbb b8b9 833d
00000020: ee86 833e 5b42 11be e0c8 d83c cf03 19bd
00000030: b779 ba3c 49f1 62be 4f70 503c 0468 323d
00000040: 93fc 42bc 5e9f af3d 5d0a 08bd 27e4 f4bd
00000050: ae73 043e 42ae a73c 8c25 febd bbda a8bd
00000060: 985e 3b3d 4b7f 9d3c 8cad fb3d 2e71 533e
00000070: a977 db3b 98d2 ea3c 0c71 01bb af9e fa3d
00000080: cb15 10b9 f115 a83c 5827 8c3c ac0f adbb
00000090: 89ec 2f3d 74cc eabc 4852 253c 3cc1 07be
000000a0: dc5a bd3d 97cb 50bc dbfc 5a3d 0ff3 04bc
000000b0: 410a 993d 7df0 0bbd 2811 f7bb 685d ea3c
000000c0: 85cd cebc 1099 77bd 5f22 193c 96ad 3bbd
000000d0: 9640 a13d 0c0e 083e 08ad abbd 23b4 99bd
000000e0: ee19 84bc 7ad0 883c 74bc e43d 896f febd
000000f0: 1154 3dbd 20b9 c6bd c77b b0bb 47a5 ddbd
00000100: 371a a63d ae8c 0fbe 2ed0 6c3d 30e6 1a3e
00000110: 0d30 073d a403 a7bd 0fee 023e 20d9 a23c
00000120: 6d8d 00bd c736 403d 09c4 83bd 6ba1 07be
00000130: 2c84 21be 57ed 9abc a4fa d83d 6ca0 c63d
00000140: 6a7b cf3d d03c 0f3e 316f 72bd 36ff 233e
00000150: 1abc 403e fddc 1b3d 01ac 1b3d 70d9 b2bb
00000160: 0366 f43c 319b 5dbe 449b 9e3d 0467 943d
00000170: 21f3 113e f11c b7bb e96e 763c aea0 f7bd
00000180: e2de 1bbe 99d5 7e3d a701 513e abc5 98bc
00000190: ff81 26bc 979c 87bd 4555 093d 31b0 87bd
000001a0: a429 61bd 960d edbd de7d 34bc 74d8 f23d
000001b0: 3573 b3bd 7fac 5f3c 75af 32bd 9cb7 c43d
000001c0: b707 17bd 7659 b03c 34b9 85bc 53e4 d43c
000001d0: 3c36 75bd 6c27 423e 340d ea3d ff39 8abd
000001e0: 52c6 993d 0685 98be e287 cb3c 4ff4 843a
000001f0: 8bef 83bd 48a5 703d 1e57 56be c59f adbd
00000200: d969 77bd 4ac3 2a3d edec d1bb d389 3a3d
00000210: e94e ccbd e365 d7bd 6078 773b e5ce c73d
00000220: 9b81 9b3e df12 85be 01a0 bfbc bf6e debd
00000230: f682 3abd 7caa afbd 699e a0bc f261 123e
00000240: bd5a 103e c487 c3ba d709 30be 6e35 debd
00000250: dbd9 153d 083c 0abd 622b 3bbe 1a11 3dbe
00000260: 0377 673d 8364 a53d 2658 77bc 8178 5f3e
00000270: bd63 5bbd 463c 283d 0850 943d 7c82 7c3c
00000280: e907 c23d 8f8e 093d 466f 27bd bf55 003c
00000290: 34f8 bbbd 3cb7 a93d 40e9 78bb 0e28 c23d
000002a0: f495 1e3e 429f bfbc f268 e63d 5c0b 76bd
000002b0: e57c d13b 5548 f1bd 1565 75bd c543 d43d
000002c0: 2641 fabc f881 8bbd 03e1 3c3d 9024 5dbc
000002d0: 78b2 ca3d 6130 853d b58f 17be 9680 78bc
000002e0: 1559 b7bc 958e c83d 66b6 be3d 4c58 b1bd
000002f0: bcb3 debc ada8 25bd d918 5a3d 37f1 acbc
00000300: b67c fc3d 1eea 38bc a0a3 76bd 63e2 603e
00000310: 24e0 263d bec9 2ebe 1390 593e 882d 033e
00000320: 2012 a13b b2d4 b03c a96f 8bbc d275 bbbd
00000330: b7ff 85bc 5b10 a53d 728d 923d 9164 88bd
00000340: 56f2 ea3d 04ff cd3d bd65 b6bd 6c5e 973e
00000350: 42d0 293d b681 bd3d bf27 033d a23d afbd
00000360: 925f ddbd 4738 20be 108b c4bc 8b4f 543e
00000370: b824 153e 95a8 4dbd f448 583c d398 f7bd
00000380: 80c3 8abc a617 a53d 5a4e eb3d f083 773c
00000390: ad38 c3bc 20c9 44bc 0490 5fbb bf17 523b
000003a0: e4a5 85bd 6f80 5d3d 5131 6c3b 30b1 3b3e
000003b0: ba4c 183e 9686 273d 3e8c 8dbc 8be2 1b3e
000003c0: 4e14 07be ab8d 7dbd 4593 cc3d c943 19bd
000003d0: f6fe 583d 3e9c aa3e 5ce4 ba3c 71df 4a3d
000003e0: f1a3 3d3d a3a4 9bbe 4a4b 283c d03c 0a3e
000003f0: 2208 e5bc d716 9a3d 2453 f2bd 6e9c 1a3d

value_stream.model.0.bias f4 [128]
0.09618372 -0.04674129 -0.072317705 0.11037977 0.16858022 0.0626499 0.055169545 0.09783144
0.08280269 0.041365363 0.14116706 0.13170046 0.048107237 0.067682475 -0.085358046 0.10101626
0.1424793 -0.012488807 0.04863713 0.02696628 0.010058092 0.07656449 0.06401899 0.08302627
-0.016682655 0.03772629 0.020334302 0.023205794 0.023575965 0.077266514 0.01913177 -0.034409974
0.14367938 0.17627332 0.026973816 0.07890938 -0.08399802 0.037293535 0.0039858003 -0.050834797
0.1375705 -0.04973738 0.016179176 0.09860465 0.09265168 0.014133827 0.048446175 -0.014129598
-0.025181822 0.041322652 -0.02988297 0.166858 0.07947369 0.068156935 0.005689899 0.043969944
0.14561456 0.09186674 -0.02768246 0.13252358 0.10327463 0.116815805 0.1398932 -0.048486765
0.06791316 0.051433053 0.17192428 -0.04298809 0.03056817 -0.01649764 0.047220595 0.060459137
0.036205895 0.009175437 0.093286656 0.047558714 0.047818203 0.06532076 0.10804196 -0.016300704
-0.04803862 -0.053393226 0.14172085 0.04723655 -0.03792597 0.07118265 0.11633658 0.012647302
0.007827372 -0.050277423 0.087430045 0.026209943 0.09745125 -0.011346686 0.043201294 0.030160598
-0.00079490896 -0.04808341 0.10961082 -0.10947463 0.1758629 0.05997649 0.018378595 -0.0846446
0.08500638 0.17408648 0.09121537 0.037333857 0.00816505 0.04812971 0.16290653 0.052553136
-0.050007105 0.068992585 0.050193615 -0.012482102 0.17119005 -0.0241168 -0.013216511 -0.013234459
0.15534908 0.080000006 0.050529312 0.186147 0.13373572 0.039590586 0.09997316 0.1484782
00000000: f8fb c43d cb73 3fbd 4e1b 94bd ca0e e23d
00000010: 4ba0 2c3e 974e 803d 76f9 613d da5b c83d
00000020: 7594 a93d ba6e 293d 198e 103e 7cdc 063e
00000030: 180c 453d 1c9d 8a3d 33d0 aebd 9de1 ce3d
00000040: 18e6 113e da9d 4cbc ba37 473d 63e8 dc3c
00000050: b2ca 243c d8cd 9c3d 631c 833d ad09 aa3d
00000060: 10aa 88bc e286 1a3d 1f94 a63c 141a be3c
00000070: 6222 c13c e83d 9e3d 3bba 9c3c 79f1 0cbd
00000080: b020 133e fe80 343e 31f8 dc3c 3e9b a13d
00000090: 2707 acbd 1bc1 183d 519b 823b 2638 50bd
000000a0: 48df 0c3e 6cb9 4bbd 318a 843c 3cf1 c93d
000000b0: 2ac0 bd3d 9191 673c 7f6f 463d d47f 67bc
000000c0: 1c4a cebc f141 293d 21cd f4bc d3dc 2a3e
000000d0: 1ac3 a23d dd95 8b3d 5572 ba3b d419 343d
000000e0: fc1b 153e a124 bc3d 54c6 e2bc 43b4 073e
000000f0: a681 d33d 203d ef3d 2a40 0f3e 0f9a 46bd
00000100: 0e16 8b3d 77ab 523d eb0c 303e 4814 30bd
00000110: 196a fa3c 0f26 87bc 626a 413d 00a4 773d
00000120: a24c 143d 9254 163c 130d bf3d edcc 423d
00000130: 05dd 433d e4c6 853d 1a45 dd3d 0e89 85bc
00000140: 25c4 44bd dbb2 5abd 451f 113e 1d7b 413d
00000150: 4358 1bbd 36c8 913d df41 ee3d a136 4f3c
00000160: 613e 003c b3ef 4dbd 860e b33d 3cb6 d63c
00000170: 8594 c73d 73e7 39bc d7f3 303d 5c13 f73c
00000180: 7061 50ba 1cf3 44bd a37b e03d 3c34 e0bd
00000190: 6715 343e e8a9 753d b58e 963c 265a adbd
000001a0: d317 ae3d ba43 323e 20cf ba3d 63eb 183d
000001b0: b4c6 053c a923 453d f8d0 263e f541 573d
000001c0: 40d4 4cbd fc4b 8d3d d297 4d3d bb81 4cbc
000001d0: 724c 2f3e 9890 c5bc 118a 58bc 58d5 58bc
000001e0: d413 1f3e 0bd7 a33d d3f7 4e3d 529d 3e3e
000001f0: 04f2 083e bd29 223d babe cc3d ab0a 183e

value_stream.model.2.weight f4 [1, 128]
-0.2100511 -0.24509498 -0.26316184 0.18473522 0.29702008 0.28555647 -0.24530944 0.17471172
0.20908372 0.28346434 0.23897807 0.29217607 -0.06797057 -0.07962218 -0.014867198 0.16132347
0.17269783 0.082556814 0.06852334 -0.077472635 -0.24746169 0.17886226 -0.23188016 0.18300426
0.044741243 -0.15611188 -0.24625689 -0.39244023 -0.23439732 0.14349605 0.17300946 0.065521725
0.3334081 0.21275066 0.22678576 -0.2431415 -0.02846089 0.21752802 0.19139072 -0.30663505
0.24325341 -0.14492206 0.033942226 -0.19297116 0.18715157 0.42381287 0.01728849 0.19613376
0.219093 0.18914942 -0.23552005 0.1676746 0.30819222 0.29546943 -0.2535846 -0.0068050604
0.22925505 -0.24757059 -0.27739882 0.2182583 -0.24526791 0.17160033 0.25354996 -0.05448459
0.2714776 -0.19944046 0.27490184 -0.043843813 0.13017444 0.20310016 0.049310498 -0.06304684
0.24231094 -0.21382037 0.29185385 -0.33681738 0.19935012 -0.19305103 -0.19686241 -0.27317736
-0.20250803 -0.16456942 0.16543813 -0.025072517 -0.3183222 -0.21126272 -0.2306874 0.24164979
-0.36505947 -0.14551675 0.28236672 0.044335656 0.14513348 -0.27181372 0.039305136 0.21324214
0.21242599 -0.2799745 0.29305938 -0.20618293 0.415257 0.19101702 -0.36632872 0.29361555
0.08293956 0.29707304 0.24667822 -0.18885335 0.24021955 0.32034114 0.18250842 0.3394344
-0.17105725 -0.29577133 -0.040288255 -0.077831745 0.14836897 0.07971203 0.18070114 -0.20501806
0.19387269 0.1641222 0.23344144 0.3015843 0.24105483 0.21361189 0.20560007 -0.35345572
00000000: a317 57be 2efa 7abe 26bd 86be 3b2b 3d3e
00000010: 0413 983e 7534 923e 6632 7bbe a1e7 323e
00000020: 0b1a 563e 3d22 913e abb6 743e 1a98 953e
00000030: 2734 8bbd f410 a3bd 8c95 73bc fb31 253e
00000040: b3d7 303e 8c13 a93d f755 8c3d f9a9 9ebd
00000050: 9966 7dbe ab27 373e fe71 6dbe 7865 3b3e
00000060: 9842 373d cbdb 1fbe c42a 7cbe eded c8be
00000070: da05 70be a1f0 123e 6429 313e 4130 863d
00000080: 77b4 aa3e 4fdb 593e 873a 683e 16fa 78be
00000090: d026 e9bc aabf 5e3e eefb 433e 45ff 9cbe
000000a0: 6c17 793e 7366 14be 0107 0b3d 3b9a 45be
000000b0: a9a4 3f3e 00fe d83e 97a0 8d3c 4ad7 483e
000000c0: ea59 603e 63b0 413e 2b2c 71be e4b2 2b3e
000000d0: 5fcb 9d3e c547 973e d7d5 81be fcfc debb
000000e0: d6c1 6a3e 2583 7dbe 3807 8ebe 1b7f 5f3e
000000f0: 8327 7bbe ffb7 2f3e 4dd1 813e 3c2b 5fbd
00000100: 1dff 8a3e 1f3a 4cbe efbf 8c3e 9295 33bd
00000110: 734c 053e 7df9 4f3e cef9 493d b41e 81bd
00000120: 5c20 783e baf3 5abe de6d 953e 5473 acbe
00000130: 7022 4c3e 2baf 45be 4d96 49be e7dd 8bbe
00000140: 445e 4fbe e384 28be 9d68 293e e164 cdbc
00000150: 21fb a2be 4155 58be 5139 6cbe 0b73 773e
00000160: 13e9 babe 5802 15be 5f92 903e 4e99 353d
00000170: df9d 143e 2b2b 8bbe 6cfe 203d 265c 5a3e
00000180: 3386 593e d158 8fbe e10b 963e 9e21 53be
00000190: 919c d43e f799 433e 708f bbbe c754 963e
000001a0: 37dc a93d f519 983e 3799 7c3e c662 41be
000001b0: 1dfc 753e c103 a43e 7de3 3a3e 58ca ad3e
000001c0: a229 2fbe 576f 97be 4c05 25bd 4066 9fbd
000001d0: 09ee 173e 1040 a33d b809 393e 41f0 51be
000001e0: 9086 463e a60f 283e 460b 6f3e 4269 9a3e
000001f0: 14d7 763e 13bd 5a3e d388 523e 26f8 b4be

advantage_stream.model.0.weight f4 [128, 128]
-0.1688121 0.12724239 0.027343784 0.01923419 -0.1977703 0.17999822 -0.054113094 -0.055210542
0.12001663 -0.20005466 0.024036542 -0.07630668 0.108501546 -0.032589782 0.031770866 0.07021007
0.1483215 -0.03877812 -0.10767838 -0.16778079 0.07236107 0.1301102 -0.09527524 -0.23478678
-0.005930319 -0.025019448 0.1296083 0.1832005 -0.092344314 -0.002024492 0.106928006 0.11340331
0.11714878 0.008462977 0.010525433 0.040286094 0.011056173 0.080470964 0.016426884 -0.049245737
0.19064957 0.07194482 -0.09135351 0.019851085 -0.07540847 -0.20666899 -0.03999182 0.0940896
0.03181868 -0.10650352 -0.013483243 -0.044542547 0.0330487 0.07807731 -0.15075196 0.039356854
-0.01688592 -0.13537122 0.100262165 -0.11123494 -0.021019364 -0.03305825 0.12597324 0.06736854
0.05080266 -0.13464718 -0.046900358 0.02519633 -0.17197083 -0.030630019 -0.059146035 0.054767303
0.1514548 0.063918136 -0.08711237 -0.007458511 0.040213965 0.015437508 -0.032462686 0.08824058
0.16603172 -0.015767481 -0.049910087 0.106062174 -0.003467109 -0.025858227 0.053380396 0.0863738
0.00042743958 -0.2256817 0.17470263 0.17376253 0.052078333 -0.1283563 0.0040358664 0.05890563
-0.10106614 0.14604194 0.17722179 0.01927965 -0.2020631 0.023185808 0.087302685 -0.008185324
0.020501427 -0.033046547 -0.09523257 -0.002733094 -0.046251953 0.12723486 0.114501394 0.12994573
0.028445676 0.12469381 0.008365881 0.038440432 0.062417906 0.17956828 -0.19290747 -0.2267545
0.028285984 -0.13136408 -0.02803343 -0.012783703 0.017481579 -0.06005108 -0.23713782 -0.03906223
-0.040491253 -0.00721919 0.026552873 -0.10937291 -0.04219969 0.041011747 0.028941631 0.059565734
-0.107877515 0.03743205 -0.13926779 0.12116546 0.011581934 -0.09870598 0.016295815 -0.166913
-0.055384833 -0.0030927476 0.11714952 0.13403562 0.021126373 -0.07226272 -0.073386334 0.027974164
0.0705959 0.016357653 0.0050528366 -0.07425212 -0.027548967 -0.06574983 -0.09782137 -0.046428468
-0.14524683 -0.05531863 -0.0427294 -0.014125564 0.028632525 0.017025486 0.04666713 -0.104161076
-0.08170176 -0.031655777 0.18411112 0.10010005 -0.0412214 0.07269777 -0.08338278 -0.07000493
-0.07644113 0.0001527521 0.011394848 0.06422704 0.034223612 -0.03953092 0.07529616 0.100822344
0.010840399 -0.13513063 0.08643107 0.11566834 -0.023324551 -0.072838254 0.025862617 0.081622876
0.07873741 -0.0072231144 0.03966142 -0.08507074 0.31627578 0.10031211 -0.05912437 0.013503278
0.13571216 -0.0020238587 0.036070276 -0.08425194 0.06172134 -0.11051172 0.008892492 -0.09589187
-0.06810525 -0.12690967 0.027607871 0.00012370634 -0.039519187 -0.09389974 0.03861693 -0.051969722
0.02430018 -0.06770679 0.01572212 -0.017208392 0.17027675 -0.052115377 -0.12504554 -0.016763175
0.038122505 0.051002245 -0.084464915 -0.06192783 0.24966824 0.059165355 0.047054805 0.028081745
0.037982233 -0.09832047 0.060985774 -0.043898262 -0.19417632 0.03154895 0.07368375 -0.031189827
0.010071459 -0.0049315514 -0.021177657 0.032542948 0.037650753 -0.082281955 0.09944616 -0.08671627
0.009153513 0.24999765 0.11586329 -0.10806513 -0.008992842 0.09406548 -0.045731843 -0.035825033
00000000: 14dd 2cbe d44b 023e 1200 e03c 0591 9d3c
00000010: 4c84 4abe 7451 383e b1a5 5dbd 7324 62bd
00000020: 47cb f53d 21db 4cbe 48e8 c43c ad46 9cbd
00000030: 0f36 de3d dd7c 05bd 2b22 023d 4cca 8f3d
00000040: 97e1 173e ced5 1ebd 7c86 dcbd bace 2bbe
00000050: 0a32 943d 9c3b 053e aa1f c3bd f26b 70be
00000060: 1f53 c2bb 96f5 ccbc 0ab8 043e e998 3b3e
00000070: 041f bdbd 57ad 04bb 12fd da3d ff3f e83d
00000080: b3eb ef3d 4ca8 0a3c de72 2c3c 0803 253d
00000090: f324 353c f6cd a43d ac91 863c e6b5 49bd
000000a0: a439 433e ce57 933d 8d17 bbbd be9e a23c
000000b0: c26f 9abd 09a1 53be 76ce 23bd 0cb2 c03d
000000c0: 4e54 023d 841e dabd d2e8 5cbc 3f72 36bd
000000d0: 135e 073d ffe6 9f3d b95e 1abe a734 213d
000000e0: 5754 8abc c19e 0abe 4056 cd3d 25cf e3bd
000000f0: cd30 acbc 1668 07bd 21ff 003e 84f8 893d
00000100: 7316 503d f3e0 09be 971a 40bd 8968 ce3c
00000110: 1f19 30be ceeb fabc 1d43 72bd ae53 603d
00000120: f816 1b3e 83e7 823d f867 b2bd 8666 f4bb
00000130: 66b7 243d 9aed 7c3c 98f7 04bd 7ab7 b43d
00000140: 3804 2a3e ce2a 81bc 856e 4cbd 2037 d93d
00000150: 7038 63bb a2d4 d3bc 67a5 5a3d bfe4 b03d
00000160: f819 e039 1b19 67be 3fe5 323e ceee 313e
00000170: 1750 553d d56f 03be 4d3f 843b 0847 713d
00000180: c4fb cebd 058c 153e a179 353e 5bf0 9d3c
00000190: a1e9 4ebe 2af0 bd3c c0cb b23d bd1b 06bc
000001a0: 9cf2 a73c d15b 07bd 4b09 c3bd b51d 33bb
000001b0: b072 3dbd db49 023e b57f ea3d 7e10 053e
000001c0: e806 e93c 785f ff3d 0c11 093c b773 1d3d
000001d0: eba9 7f3d bfe0 373e 8989 45be 5532 68be
000001e0: 02b8 e73c 4e84 06be 5da6 e5bc bd72 51bc
000001f0: 8735 8f3c 1ff8 75bd 42d4 72be b8ff 1fbd
00000200: 28da 25bd f48e ecbb 6985 d93c e7fe dfbd
00000210: 95d9 2cbd effb 273d 0017 ed3c 33fb 733d
00000220: e3ee dcbd 5952 193d 379c 0ebe 9925 f83d
00000230: 27c2 3d3c 5c26 cabd cd7e 853c 3eeb 2abe
00000240: 35db 62bd b2af 4abb 16ec ef3d a240 093e
00000250: 3711 ad3c 7afe 93bd 934b 96bd 132a e53c
00000260: 9594 903d 7c00 863c 4492 a53b 7f11 98bd
00000270: 5fae e1bc d9a7 86bd 9256 c8bd c72b 3ebd
00000280: 96bb 14be ca95 62bd 0605 2fbd e96e 67bc
00000290: c28e ea3c 0879 8b3c 0826 3f3d 6752 d5bd
000002a0: 4153 a7bd 7da9 01bd a087 3c3e 4101 cd3d
000002b0: c5d7 28bd 92e2 943d 97c4 aabd bf5e 8fbd
000002c0: 2b8d 9cbd 142c 2039 75b1 3a3c 7789 833d
000002d0: 0f2e 0c3d 2deb 21bd e034 9a3d f27b ce3d
000002e0: ee9b 313c af5f 0abe c602 b13d 86e3 ec3d
000002f0: 2113 bfbc 392c 95bd d7dd d33c e529 a73d
00000300: 1441 a13d e0af ecbb 0374 223d 9139 aebd
00000310: e6ee a13e 6f70 cd3d 652c 72bd da3c 5d3c
00000320: 21f8 0a3e b7a2 04bb 6dbe 133d 488c acbd
00000330: 84cf 7c3d f853 e2bd d1b1 113c f562 c4bd
00000340: c47a 8bbd 9cf4 01be e729 e23c 2bb7 0139
00000350: dfde 21bd 824e c0bd c92c 1e3d 34de 54bd
00000360: 2c11 c73c dca9 8abd adcb 803c 9df8 8cbc
00000370: 075d 2e3e ef76 55bd f00b 00be ed52 89bc
00000380: 5826 1c3d bbe7 503d f1fb acbd 09a8 7dbd
00000390: 08a9 7f3e 5f57 723d 8abc 403d b00b e63c
000003a0: 4293 1b3d 3e5c c9bd 38cc 793d aace 33bd
000003b0: 28d6 46be 7939 013d 82e7 963d cf81 ffbc
000003c0: c302 253c da98 a1bb c47c adbc c14b 053d
000003d0: ad37 1a3d 7183 a8bd 6eaa cb3d 4d98 b1bd
000003e0: 9ef8 153c 62ff 7f3e bc49 ed3d 4051 ddbd
000003f0: b756 13bc 67a5 c03d 5051 3bbd 45bd 12bd

advantage_stream.model.0.bias f4 [128]
0.08188383 0.079012446 0.06566058 0.010583346 -0.023511259 0.10317207 0.061160583 -0.13376527
-0.005812141 -0.0930744 -0.069135845 0.047797125 0.05755908 -0.051496528 0.113524884 0.049569182
-0.014703721 -0.015274408 -0.040978678 -0.0776618 -0.12569022 0.03509419 0.07260661 0.097483546
-0.1321471 0.025364356 -0.041579667 -0.006925054 0.07415672 0.22067745 -0.005115622 0.12445717
0.066253066 -0.053416964 -0.06784615 0.04560433 -0.13066283 -0.046556134 0.1824177 0.04366316
0.044430662 0.0008948381 -0.13303949 0.16374107 0.17354567 -0.012036595 0.11393115 0.02429711
-0.01964714 0.031450883 -0.12319364 -0.003774728 0.063862555 -0.111429 0.109667756 -0.17026778
-0.010319382 0.042955272 0.009554055 -0.049703054 0.06645582 0.08112758 0.033420917 0.0030924717
0.043916292 0.08251199 -0.024499925 -0.038314257 -0.054454997 0.01965875 -0.12644349 -0.06881159
-0.12136267 -0.13041031 0.10124541 0.078136384 -0.09572371 -0.032218356 -0.107482076 0.21539313
0.032175124 -0.01881184 0.024558585 0.054290224 0.22238567 0.08092358 0.044346515 0.0025639785
-0.01736366 -0.04494328 0.018345604 -0.13086082 0.08754078 -0.042991284 0.0045032413 -0.054316267
-0.015313644 -0.053972304 -0.047268756 0.05684062 -0.049583666 -0.15540755 0.009354212 -0.010840214
0.07652244 0.10890391 -0.08761992 -0.15645814 0.018223822 0.010640776 -0.0092870705 -0.13616739
0.055328272 0.06942363 0.10314302 -0.08866157 0.044185728 -0.005360974 0.023781508 -0.023671158
-0.0072379173 0.05816808 -0.12468435 -0.087203145 0.2354198 0.0023693445 -0.033236418 -0.02473446
00000000: b6b2 a73d 47d1 a13d 0e79 863d c565 2d3c
00000010: af9a c0bc e14b d33d 8583 7a3d c3f9 08be
00000020: c673 bebb cb9d bebd 1897 8dbd ebc6 433d
00000030: 12c3 6b3d 06ee 52bd bc7f e83d 0e09 4b3d
00000040: e0e7 70bc 8341 7abc 42d9 27bd 260d 9fbd
00000050: f0b4 00be edbe 0f3d c6b2 943d 74a5 c73d
00000060: 9251 07be e9c8 cf3c 714f 2abd 90eb e2bb
00000070: 7adf 973d 45f9 613e f3a0 a7bb 67e3 fe3d
00000080: b0af 873d bfcb 5abd ecf2 8abd 9bcb 3a3d
00000090: 7acc 05be a5b1 3ebd b5cb 3a3e 24d8 323d
000000a0: edfc 353d 9193 6a3a 813b 08be bdab 273e
000000b0: f5b5 313e 2335 45bc bc54 e93d bc0a c73c
000000c0: 0af3 a0bc a4d2 003d f24c fcbd 6d61 77bb
000000d0: 5fca 823d e334 e4bd 7d99 e03d ad5a 2ebe
000000e0: a012 29bc def1 2f3d 9c88 1c3c 6e95 4bbd
000000f0: fd19 883d 3726 a63d 5fe4 083d 11ab 4a3b
00000100: 92e1 333d 0cfc a83d 11b4 c8bc 69ef 1cbd
00000110: 340c 5fbd 630b a13c 677a 01be 17ed 8cbd
00000120: fe8c f8bd 488a 05be c159 cf3d f805 a03d
00000130: cb0a c4bd 65f7 03bd 901f dcbd 0490 5c3e
00000140: 10ca 033d 4a1b 9abc 162f c93c 6d5f 5e3d
00000150: 12b9 633e 43bb a53d b1a4 353d 6c08 283b
00000160: 3c3e 8ebc 7216 38bd 8549 963c 6100 06be
00000170: 9548 b33d a117 30bd ed8f 933b bc7a 5ebd
00000180: 14e6 7abc 1012 5dbd e29c 41bd b6d1 683d
00000190: 3e18 4bbd 2823 1fbe 6942 193c 279b 31bc
000001a0: ccb7 9c3d 0309 df3d 1372 b3bd 9036 20be
000001b0: 204a 953c a656 2e3c cc28 18bc 776f 0bbe
000001c0: e69f 623d fa2d 8e3d a63c d33d 3294 b5bd
000001d0: 18fc 343d 1cab afbb 70d1 c23c 04ea c1bc
000001e0: 0d2c edbb a741 6e3d 825a ffbd 9097 b2bd
000001f0: e311 713e 0147 1b3b e922 08bd ec9f cabc

advantage_stream.model.2.weight f4 [10, 128]
0.15448049 0.05046641 -0.0620445 0.2023569 -0.13725494 -0.19993909 0.0782538 -0.026800765
-0.13140035 -0.011101818 0.0029110815 -0.0011090209 0.14199765 0.0410771 0.21391727 -0.068659745
-0.057058997 -0.13391335 -0.15958804 0.0570293 -0.045039024 0.047034156 0.12622233 -0.15847164
-0.09063002 -0.18643564 -0.07234602 0.0991174 -0.13108842 -0.03221771 0.106190585 0.06107694
-0.21183816 -0.1334858 -0.030620724 -0.0290843 -0.17358232 0.040031616 -0.05845422 -0.04506646
-0.1645277 0.028649267 -0.085988626 0.11719882 -0.10030124 0.08678699 -0.024976702 0.06514903
0.16733998 -0.0033574414 -0.12437074 0.13064897 0.07116556 -0.030574337 -0.15670766 -0.06169432
0.038693484 0.07083149 0.18397938 0.0081539685 -0.08412365 0.057652466 -0.10840199 -0.10925584
-0.074271806 0.026831161 -0.14528379 -0.12633698 -0.008462877 0.03313249 0.0053578224 0.028616097
-0.2150575 0.07946342 -0.050326142 -0.13206372 -0.0458735 0.08133476 -0.13620014 0.2332054
0.12106347 -0.21159254 -0.046856936 -0.13624163 0.12198444 -0.003541963 -0.13136165 0.016100818
-0.08475299 -0.06372651 -0.15938683 -0.18823981 -0.017867023 -0.08080819 0.007889045 -0.10066629
0.057893276 0.25707313 0.015096361 0.010100968 -0.029518073 -0.10539885 -0.10472226 -0.14096378
0.20295045 -0.037375458 -0.079212815 -0.06525379 -0.0040678154 0.08504731 -0.061799217 -0.2715685
0.08328982 0.030396923 -0.062451523 -0.1579987 -0.15320246 -0.038817134 0.025013855 -0.13754618
-0.07674992 -0.13098428 -0.18194441 -0.045501832 0.14281105 0.01858861 -0.090546906 -0.09864779
-0.04290794 -0.1083869 -0.17154081 -0.10629363 0.01832067 0.07595797 0.12726545 -0.12772039
0.17418571 0.03612055 -0.10002804 -0.13495992 0.07543768 0.005369019 0.108926155 0.03591681
-0.033869505 -0.15650216 -0.049787764 0.038680155 -0.09958256 -0.049253263 -0.0004067312 -0.04772746
-0.015447476 -0.09407418 -0.05545799 -0.08348572 0.02949212 -0.069369204 0.09436588 -0.09654918
0.018040603 -0.0999751 0.043881048 0.02489023 -0.020983322 0.08670474 0.050228864 -0.010099169
-0.15884072 0.017818362 -0.112580314 -0.04689933 0.00015997142 -0.06598515 -0.0022103973 0.028805576
0.06965322 -0.109091796 -0.10944079 0.012038942 -0.03991412 -0.07746352 -0.102203615 -0.057206653
0.058857687 0.018726971 0.062256034 -0.1155453 -0.04217825 -0.042895976 0.027118765 -0.020849537
0.013177005 0.0839396 -0.09247474 0.00016732598 -0.003341289 0.14311256 0.10388584 0.05260518
-0.0033437598 -0.035952955 -0.016938223 0.13446452 0.03393141 -0.03941199 -0.022213753 -0.038447503
0.063265815 0.13013934 -0.06525871 -0.0847857 -0.0006017168 -0.15035802 -0.06454865 -0.025360188
-0.03462111 0.028423315 -0.053619947 0.02999397 0.07374998 0.053663097 -0.12167388 -0.0020628588
-0.026375676 -0.15201715 -0.16599472 -0.10447023 -0.022157034 -0.1559478 -0.046679076 -0.093889534
0.03158718 -0.062178764 -0.038426295 -0.10942916 0.025952503 -0.01634267 0.0030671328 0.0116928965
0.02534615 0.010234339 -0.09924273 0.13557407 -0.06763068 -0.049734913 -0.09506888 -0.039057482
-0.058698997 -0.13585263 0.08537833 -0.07915315 -0.02610375 0.08543932 -0.13147807 -0.08345648
00000000: 2230 1e3e deb5 4e3d 6022 7ebd a636 4f3e
00000010: 8f8c 0cbe d5bc 4cbe 8743 a03d 478d dbbc
00000020: d08d 06be 66e4 35bc d8c7 3e3b 915c 91ba
00000030: d567 113e 7640 283d 210d 5b3e 7b9d 8cbd
00000040: b2b6 69bd 9520 09be 0c6b 23be 8e97 693d
00000050: d77a 38bd e3a6 403d 6d40 013e 6446 22be
00000060: 3b9c b9bd fce8 3ebe 262a 94bd 10fe ca3d
00000070: 0b3c 06be b8f6 03bd 737a d93d d02b 7a3d
00000080: 1aec 58be 80b0 08be 50d8 fabc 3342 eebc
00000090: 90bf 31be 31f8 233d b16d 6fbd 9c97 38bd
000000a0: f379 28be deb1 ea3c ce1a b0bd ef05 f03d
000000b0: bd6a cdbd 61bd b13d f19b ccbc db6c 853d
000000c0: 2c5b 2b3e 8508 5cbb 16b6 febd d8c8 053e
000000d0: 40bf 913d 0877 fabc f977 20be 2fb3 7cbd
000000e0: 0f7d 1e3d 1a10 913d 1765 3c3e 3998 053c
000000f0: 0549 acbd fe24 6c3d dd01 debd 87c1 dfbd
00000100: d11b 98bd 06cd db3c 46c5 14be 7b5e 01be
00000110: e1a7 0abc efb5 073d ac90 af3b 4e6c ea3c
00000120: 0938 5cbe b8bd a23d c922 4ebd b63b 07be
00000130: dae5 3bbd d792 a63d 0d78 0bbe 65cd 6e3e
00000140: 20f0 f73d b7ab 58be 0fed 3fbd ed82 0bbe
00000150: fad2 f93d 4720 68bb ab83 06be dde5 833c
00000160: fa92 adbd 0b83 82bd 4d36 23be f0c1 40be
00000170: dd5d 92bc c47e a5bd 0e41 013c 212a cebd
00000180: 8021 6d3d 179f 833e ba56 773c 887e 253c
00000190: e3cf f1bc 5adb d7bd a078 d6bd cf58 10be
000001a0: 3ed2 4f3e 0217 19bd 543a a2bd c7a3 85bd
000001b0: 4f4b 85bb 492d ae3d 2d21 7dbd 070b 8bbe
000001c0: da93 aa3d f802 f93c 2bcd 7fbd 69ca 21be
000001d0: 1be1 1cbe b7fe 1ebd dbe9 cc3c e8d8 0cbe
000001e0: 102f 9dbd be20 06be a34f 3abe 2160 3abd
000001f0: 0f3d 123e 2447 983c a870 b9bd da07 cabd
00000200: 3cc0 2fbd f3f9 ddbd 65a8 2fbe 7ab0 d9bd
00000210: 3b15 963c da8f 9b3d e051 023e 22c9 02be
00000220: bd5d 323e 24f3 133d 80db ccbd ef32 0abe
00000230: 127f 9a3d 99ee af3b ad14 df3d 811d 133d
00000240: c0ba 0abd 1a42 20be 41ee 4bbd 156f 1e3d
00000250: f1f1 cbbd cabd 49bd 8a3e d5b9 de7d 43bd
00000260: 6917 7dbc f7a9 c0bd eb27 63bd 90fa aabd
00000270: 7599 f13c 7111 8ebd e642 c13d 94bb c5bd
00000280: e3c9 933c bfbf ccbd 9dbc 333d 98e6 cb3c
00000290: 37e5 abbc 4192 b13d c8bc 4d3d fc76 25bc
000002a0: 24a7 22be d0f7 913c 8290 e6bd 8319 40bd
000002b0: 00be 2739 3923 87bd 50dc 10bb acf9 eb3c
000002c0: 59a6 8e3d 856b dfbd 7e22 e0bd fc3e 453c
000002d0: fd7c 23bd 32a5 9ebd 2150 d1bd 8651 6abd
000002e0: c214 713d 4e69 993c 2f00 7f3d 04a3 ecbd
000002f0: 1ac3 2cbd b1b3 2fbd 2c28 de3c a6cc aabc
00000300: 5de4 573c 86e8 ab3d 6663 bdbd 3a74 2f39
00000310: 87f9 5abb 198c 123e 19c2 d43d 8778 573d
00000320: fb22 5bbb 6843 13bd 07c2 8abc 11b1 093e
00000330: aafb 0a3d 786e 21bd 9ef9 b5bc 217b 1dbd
00000340: 8291 813d 3f43 053e 5ca6 85bd 20a4 adbd
00000350: 88bc 1dba 74f7 19be 1532 84bd 2bc0 cfbc
00000360: ddce 0dbd 03d8 e83c 97a0 5bbd eab5 f53c
00000370: 3b0a 973d d6cd 5b3d 2830 f9bd 0731 07bb
00000380: cd11 d8bc 62aa 1bbe 85fa 29be 7df4 d5bd
00000390: ab82 b5bc c8b0 1fbe 8f32 3fbd 2849 c0bd
000003a0: 8f61 013d 29af 7ebd e464 1dbd 651c e0bd
000003b0: 589a d43c 10e1 85bc f301 493b 9093 3f3c
000003c0: bba2 cf3c eead 273c c63f cbbd eed3 0a3e
000003d0: f481 8abd d6b6 4bbd 79b3 c2bd bdfa 1fbd
000003e0: 5c6e 70bd f41c 0bbe d5da ae3d 0c1b a2bd
000003f0: 88d7 d5bc cffa ae3d 30a2 06be 3beb aabd

advantage_stream.model.2.bias f4 [10]
-0.02176 -0.011507992 0.14153075 -0.06276831 -0.05230424 0.004560571 -0.050349806 -0.07911926
-0.07139605 0.0098722465
00000000: 0742 b2bc 048c 3cbc 70ed 103e ac8c 80bd
00000010: f93c 56bd d870 953b 993b 4ebd 4709 a2bd
00000020: 1838 92bd 34bf 213c
