logs/7-HIER-BCS/35-DuelingDQN-random-max-HIER-25_10_24_23-30-41/10/models/58000/DuelingDQN_checkpoint.pth (torch, 868043 bytes, 44 tensors)

feature_layer.model.0.weight f4 [128, 23]
000000 da 08 81 3d 6f b9 ba 3c 99 b8 bf bd 4e 9c cd 3d
       0.063005164 0.0227935 -0.09361381 0.100395784
000010 83 13 a7 bf 73 15 e0 3f 33 85 7e be fb 31 56 40
       -1.305283 1.7506546 -0.24855499 3.3468006
000020 6c d7 10 3f ef a9 a8 40 fb 78 81 c0 d4 76 fd c0
       0.5657871 5.270744 -4.046018 -7.9207554
000030 75 12 11 c1 c6 0c 1d c1 ba a1 ec c0 3f d8 bd be
       -9.067006 -9.8156185 -7.394742 -0.37079045
000040 11 17 d1 be 3a 22 17 40 df 73 13 40 f9 d5 28 40
       -0.4083791 2.361464 2.3039472 2.6380599
000050 21 71 c4 40 c5 98 e3 bf 6f c1 d5 bf 34 47 a2 bc
       6.1388097 -1.7780997 -1.6699656 -0.019809343
000060 a7 68 2f 3d 31 2e 8e 3b f5 a4 a4 3d f7 ec e1 be
       0.042824414 0.0043390025 0.080392756 -0.44126102
000070 2b f9 d8 be c0 c5 a2 bd 68 61 27 40 86 5f 7d 3f
       -0.423776 -0.07947874 2.6153202 0.9897388
000080 a6 e1 f1 40 5e 26 e7 40 51 0d d2 40 84 37 d7 40
       7.558795 7.2234335 6.5641255 6.725527
000090 4c 79 c2 40 da 73 db 40 0b dd 69 40 84 3c cf be
       6.0773067 6.857892 3.6541164 -0.40475857
0000a0 40 e6 b9 40 ac b6 d1 40 74 e4 e2 40 cc e6 ce 40
       5.8093567 6.553549 7.0903873 6.4656734
0000b0 ec a8 a7 40 80 d5 27 40 9d 7c c5 3c 90 4a f4 3e
       5.2393703 2.622406 0.024107272 0.47713137
0000c0 f9 85 57 bf aa ab 69 3e 04 32 c6 3f 55 5b d8 3d
       -0.841888 0.22819391 1.5484014 0.10564295
0000d0 c8 de 7c 3e ae 91 34 c0 70 57 65 bf fc cb a3 c0
       0.2469436 -2.8213916 -0.89586544 -5.1186504
0000e0 c6 cb 9c 40 5e 40 03 41 43 b6 0e 41 d7 ab 1c 41
       4.8998747 8.203215 8.9194975 9.791953
0000f0 39 06 f3 40 d2 6e 7f bf 58 d1 5c 3f cd 99 fd bf
       7.5945096 -0.99778473 0.86256933 -1.9812561
000100 87 94 c8 bf ad e6 c1 bf 56 38 a4 c0 c7 17 67 40
       -1.5670327 -1.5148522 -5.131877 3.6108263
000110 3f 2e 0c 40 d9 e2 84 3f 32 99 d9 3e 25 61 d1 be
       2.1903226 1.0381728 0.4249969 -0.40894428
000120 0b d7 2f bf 14 1b c5 3f a4 a2 0b 40 98 e0 23 3f
       -0.68687505 1.5398889 2.1818018 0.6401458
000130 e9 15 4c 40 c6 73 c5 3f c8 37 20 41 7d 24 c2 40
       3.1888373 1.5425956 10.013618 6.066954
000140 e8 52 7a 3f 22 04 0e 3d 1d e1 b4 be 02 5e 0a 40
       0.97782755 0.03467191 -0.35327998 2.1619878
000150 78 94 2d 40 96 8f d1 3f ce 3f c6 40 6a c8 13 41
       2.7121868 1.6371944 6.1952887 9.236429
000160 ed bd fb 40 91 69 ad 40 29 22 27 40 a3 70 23 40
       7.8669343 5.4191365 2.61146 2.5537498
000170 5a 02 1d 3f 28 02 6e be 7d 85 9d be 6c 8c b7 3e
       0.61331713 -0.2324301 -0.30765906 0.3584932
000180 c4 5a d6 bf 28 a8 2d 40 bd a4 ff bf 4a 31 10 40
       -1.674645 2.7133884 -1.9972149 2.2530084
000190 8a df a4 bf ff 8a 29 41 e7 64 b0 40 fd ed d4 3f
       -1.2880719 10.596435 5.512317 1.6635128
0001a0 f5 1b ef bf f6 ef 00 c0 51 2d 36 3f 45 89 ac bf
       -1.8680407 -2.014646 0.711629 -1.3479391
0001b0 fd 6c aa bf ae cd b0 40 86 83 e5 40 3d 6c 0c 41
       -1.331451 5.5251074 7.172305 8.776425
0001c0 ce 34 0d 41 41 4f fc 3f 43 d4 2d be ef d5 ef 3e
       8.825392 1.9711686 -0.16975503 0.46842906
0001d0 2d fc 15 3f 8b 00 4b bf 3c 20 8a 3d 86 23 16 40
       0.58587915 -0.79297704 0.067444295 2.3459182
0001e0 5e 13 71 40 42 95 08 40 a2 01 10 3e 47 1e ed be
       3.766807 2.13411 0.14063123 -0.46312162
0001f0 63 0e 1c c0 a9 2e 7f c0 9e cb 79 c0 52 9f c4 c0
       -2.438378 -3.987223 -3.9030528 -6.1444483
000200 34 c5 e2 c0 84 35 8d c0 7a 4f fb bf 18 90 c1 40
       -7.0865726 -4.4127827 -1.9633629 6.0488396
000210 1a 49 cb bf e7 23 34 c0 93 53 36 c0 20 c2 21 bf
       -1.5881684 -2.8146913 -2.848851 -0.63186836
000220 2a f3 b2 3e 18 e3 b8 3e 55 de c3 be 08 99 f5 be
       0.34951144 0.3611076 -0.38255563 -0.47968316
000230 17 f3 62 3d a3 b4 6a 3f e3 9d be bf a6 16 8c bc
       0.05540761 0.9168188 -1.4891933 -0.017100643
000240 ec 59 b0 bf af 74 bd 3f 53 39 fb bf e9 bd 52 40
       -1.3777442 1.4801234 -1.9626869 3.2928412
000250 4f f7 52 3f 63 7b d0 bf 5a a7 81 c0 1a 78 84 c0
       0.8240861 -1.6287655 -4.0516787 -4.139661
000260 3f 14 31 c0 d1 f7 ec bf 9b 86 17 c0 ee 7b 37 bf
       -2.7668607 -1.8513128 -2.3675907 -0.71673477
000270 51 5e ae 3f ff 83 ab 40 3b a9 16 40 7a a8 54 bf
       1.3622533 5.359863 2.354079 -0.83069575
000280 41 4e 03 c0 f5 04 ce be fe 31 af 3e 37 b9 0f bb
       -2.0516512 -0.40238157 0.3421783 -0.0021930465
000290 21 72 e4 bc 59 8c 43 3f 08 c7 9e 3e 30 f9 4f be
       -0.027886452 0.7638603 0.31011224 -0.20309901
0002a0 75 77 a7 3f 9f 96 e4 bf c8 be 8d c0 87 da cd c0
       1.308333 -1.7858466 -4.4295387 -6.4329257
0002b0 04 6c a1 c0 ba c5 d3 c0 68 30 a2 c0 ea 29 b2 c0
       -5.0444355 -6.6178865 -5.068409 -5.5676165
0002c0 0f bb 2e bf 9f 86 6a 3f 0c 01 63 c0 59 e0 54 c0
       -0.6825418 0.91611665 -3.546939 -3.326193
0002d0 11 02 99 c0 96 62 5d c0 15 65 5b c0 a4 0d b8 bf
       -4.7815022 -3.4591422 -3.4280446 -1.4379163
0002e0 78 1e 13 3f 68 5a 1c bf 47 ea 9d 3e 64 5f 20 3f
       0.57468367 -0.6107545 0.30842802 0.62645555
0002f0 7c 3d 1e 40 f9 20 b1 3f 3c 05 de 3f 8f 32 05 3f
       2.4725027 1.3838187 1.7345347 0.5203027
000300 8a aa 0d c0 d5 49 0f 3f 77 a5 4c 40 db f2 ff 40
       -2.2135339 0.55972034 3.1975992 7.9983954
000310 ef 78 ec 40 0f ee ff 40 17 fc d7 40 6c 2b 73 c0
       7.3897624 7.99781 6.7495227 -3.7995253
000320 4d 53 42 3e ad 5f 56 3f 15 58 49 bc fb a6 03 be
       0.18977089 0.8373974 -0.012289067 -0.12856667
000330 64 86 1f 40 70 85 c2 40 cc b8 74 40 1b f3 8e bb
       2.4925776 6.0787888 3.823779 -0.0043624765
000340 db 0d b6 be 4f ba 10 be 38 71 42 3f 93 a3 81 bf
       -0.35557446 -0.14133571 0.7595401 -1.0128044
000350 e7 22 f6 3e 2a 65 b2 bf a1 bc 4a 40 04 59 81 bf
       0.48073503 -1.3937123 3.167763 -1.010529
000360 f9 a5 1b 41 21 50 c4 40 a2 69 eb 3f 7f fe bc 3c
       9.728021 6.1347814 1.8391612 0.023070572
000370 51 bd 79 be 5f 3d a1 3f ab 78 f5 3e 22 ef 0c c0
       -0.24388625 1.2596854 0.47943625 -2.2020955
000380 52 d2 2e 40 ff a2 bb 40 f8 d6 19 41 d8 b6 c8 40
       2.731587 5.863647 9.614983 6.27232
000390 a2 22 0d 40 81 af 82 3d 71 bd 83 3e 09 aa aa be
       2.2052388 0.06381131 0.2573047 -0.33332852
0003a0 2b c1 6f 3e dd bc 22 3f f5 4a 8b 3f 26 c8 03 3f
       0.23413531 0.6356943 1.088225 0.5147728
0003b0 ff cf 16 40 0f 97 43 3f c8 d6 c5 3f 32 a5 a8 40
       2.356445 0.7640237 1.5456171 5.2701654
0003c0 48 c4 26 c0 3c a3 05 c1 d3 02 27 c1 ba e4 26 c1
       -2.60573 -8.352352 -10.4381895 -10.430841
0003d0 83 aa 0d c1 d5 d7 c5 bf 60 ab 5c 3f 14 24 ce 3f
       -8.854129 -1.5456492 0.86199 1.610476
0003e0 1f ce 00 40 be 81 7c 40 18 71 9e 40 2a e0 01 3f
       2.0125806 3.9454188 4.9513054 0.5073267
0003f0 50 48 17 bf 95 72 77 3f 0c 5a 3a bf 73 be a0 3d
       -0.59094715 0.96659213 -0.7279365 0.07848825

feature_layer.model.0.bias f4 [128]
000000 c8 6a b9 3e 4d 88 96 3e 42 83 e1 3e b4 a0 e9 3f
       0.3621428 0.29400864 0.44045454 1.8252168
000010 24 a6 bf be bb af 28 40 f7 e8 9d bf 57 6b 8b 3d
       -0.37431443 2.6357257 -1.233672 0.06807583
000020 67 a0 de 3f 60 94 d4 be ce ec b2 3f f6 73 37 40
       1.7392701 -0.4151945 1.3978517 2.8664527
000030 88 5f 04 40 75 08 81 3f 3d 95 46 be a9 d4 93 bf
       2.0683308 1.0080706 -0.19392867 -1.1549274
000040 57 4b ce 3f 03 ce 86 3e 37 cc ea 3d f1 9c 69 bf
       1.6116742 0.2632905 0.11464732 -0.912551
000050 f0 e3 d8 be 42 9a b6 3e 7c 93 a2 3f e6 fd 5a 3f
       -0.42361403 0.35664564 1.2701259 0.8554367
000060 81 e0 76 3e 0b b1 a1 3f 10 a9 72 3f df 03 3a 3f
       0.24109079 1.2632154 0.9478922 0.72662157
000070 60 66 1b 3f e3 9a 53 3e 6e 50 26 be 05 06 89 3d
       0.60703087 0.20664553 -0.16241619 0.06690601
000080 8c 2e 63 3f 22 fe 97 bf 4b d0 b4 bf ab dd 0d bf
       0.887429 -1.187443 -1.4126066 -0.55416363
000090 8c 1a cd 3e 15 ce 74 be a8 f0 9d 3f 24 6e a4 39
       0.40059316 -0.23906739 1.2339067 0.0003136258
0000a0 28 c6 92 3f 94 70 94 bf bf f3 55 40 e3 00 8d 3f
       1.1466722 -1.1596856 3.343002 1.1015896
0000b0 93 63 9a 3f 24 12 f2 be 75 31 52 3f 0d fd a3 3f
       1.2061638 -0.47279465 0.82106715 1.28116
0000c0 c6 d2 b0 3f 2c 22 a8 bf e9 02 d7 3e a7 a3 23 40
       1.3814323 -1.3135428 0.41994408 2.5568635
0000d0 a7 57 d3 3e a7 a1 e6 3f 62 36 5e be d9 1d ad 3d
       0.4127781 1.8018082 -0.21700433 0.084529586
0000e0 f4 c2 20 40 7d f1 8f 3c a4 8a 06 3d 22 e8 b0 be
       2.511899 0.017571205 0.03284706 -0.34552103
0000f0 8a 6a a8 3f 3a a6 95 be 24 bb 67 bf 72 bb 6a 3f
       1.3157513 -0.29228383 -0.9051993 0.9169227
000100 9e 57 4b be 24 e4 a2 bf 2d 90 32 40 bc 8a 5a 3f
       -0.19857642 -1.2725873 2.7900498 0.8536794
000110 d6 ce 81 3f 3a 2a 85 bf 29 78 84 3f f7 20 b3 3f
       1.0141246 -1.0403512 1.034917 1.3994435
000120 ec 3e 35 40 ed dc a4 3e ec ba 03 40 df 2b c3 3d
       2.8319654 0.32199803 2.0582838 0.09529852
000130 4f c9 00 3e b3 5b 87 3f d1 9d 59 bf b2 28 53 3f
       0.12576793 1.0574859 -0.85006434 0.8248397
000140 a0 f9 98 bd de f8 33 bf 9b d9 07 bf 15 9b 89 3f
       -0.07469487 -0.70301616 -0.53066415 1.0750452
000150 7c 27 62 3e 01 e1 d3 be e7 a8 b9 3f 5c 0c 4a 40
       0.22085375 -0.41382602 1.450467 3.1570044
000160 2e 94 94 bf 28 4c 86 3e 4f a2 74 3f eb 73 52 3e
       -1.1607721 0.26229978 0.95560163 0.20552032
000170 5f 83 b0 be 7d de d6 3e 0c f8 cd 3f 53 ec 64 3f
       -0.34475228 0.4196662 1.6091323 0.894231
000180 b3 07 d0 be 4d f7 4b 3f 0f e5 57 3f 95 57 54 bf
       -0.40630874 0.79674226 0.8433389 -0.8294614
000190 ed 44 28 3f c2 59 d2 3e 0e 39 42 3f 98 90 ac 3f
       0.6573017 0.41084105 0.7586831 1.3481627
0001a0 3c a9 0a 3d ea ce 18 3f 08 0c 75 3f 21 7a c0 3f
       0.0338528 0.59690726 0.95721483 1.5037271
0001b0 78 55 48 bb 13 14 85 3f 31 56 31 40 22 25 20 bf
       -0.0030568521 1.0396751 2.7708857 -0.6255666
0001c0 af 11 21 40 d2 15 53 3f e0 1a 18 40 93 4e b1 be
       2.5167043 0.8245517 2.3766403 -0.3463026
0001d0 82 29 c7 3e 48 99 e8 be cc 3c 2e 3f bb d9 32 be
       0.38898855 -0.45429444 0.6806152 -0.1746587
0001e0 fb 01 03 c0 29 00 cb be f3 5c 21 3f f0 8d 9d bf
       -2.0469959 -0.3964856 0.63032454 -1.2308941
0001f0 83 8d 50 3f e4 2b 37 3d 21 55 8b bf 4d 28 cb bd
       0.8146593 0.04471959 -1.0885354 -0.09919796

feature_layer.model.2.weight f4 [128, 128]
000000 3e 37 02 3d 81 9c 65 bd 2b 51 2c bd a3 c5 b3 bd
       0.031790964 -0.056057457 -0.042069595 -0.087779306
000010 83 78 8b bd c0 de cc bb 20 ee 3b 3d 2b d6 a9 bd
       -0.06810095 -0.00625214 0.04588139 -0.082928024
000020 af a9 57 3d f4 71 9d 3d 34 7b bd bd be 67 80 3d
       0.052652057 0.076877505 -0.09252015 0.06269787
000030 cc bc 64 bc 3e 5b 00 bd bf 88 7b bd 1a 6c b1 3c
       -0.013961028 -0.031337015 -0.061409708 0.021657992
000040 7f 20 2e bd 54 0b af bd 71 26 b1 bd 0a d1 8f bd
       -0.04251146 -0.085470825 -0.0864991 -0.07022293
000050 25 0b ab bd c3 91 03 bd 96 f2 9f bd ef a4 b3 3c
       -0.08351735 -0.03212143 -0.078099415 0.021929232
000060 08 4a 25 3c b2 60 12 3d 2c b2 86 bd 66 ac a1 bc
       0.010088451 0.035736747 -0.06576952 -0.019735526
000070 73 1e 3f 3d 6b c6 1c bd 60 b7 91 bd ff 7f 61 bd
       0.046659898 -0.038275164 -0.07115054 -0.055053707
000080 37 33 86 bb a6 f3 ff 3b 0b 55 0c 3d 45 84 09 bc
       -0.0040954608 0.0078110276 0.03426079 -0.008393352
000090 5f f3 7d 3d 9a 26 88 3d ce 57 96 3c e0 53 3a bb
       0.061999675 0.06647988 0.018352415 -0.002843134
0000a0 e4 75 13 3d ab 65 a3 bd ee 96 a6 bd 9f bc 8f 3d
       0.0360011 -0.07978376 -0.08134256 0.070183985
0000b0 81 c1 40 bd 81 98 60 bd 58 fa 7c 3d 4f 76 5c 3c
       -0.04705954 -0.05483294 0.061762184 0.013455941
0000c0 f8 2a 69 bd 02 bd 21 bd 8b 44 5e ba 23 c9 74 3d
       -0.056925744 -0.039486893 -0.00084788416 0.05976213
0000d0 c6 17 b1 bd 2c c8 91 3c ca f8 03 3a ba 80 2c 3d
       -0.086471125 0.017795645 0.0005034326 0.04211495
0000e0 ae dd 7a 3c c0 39 bd bb 1b 94 9d 3d b2 69 8c 3d
       0.015311642 -0.0057747066 0.076942645 0.06856097
0000f0 52 9f 98 3d dd ca c2 bd ce 63 58 bc 00 c6 bf bb
       0.07452263 -0.09511349 -0.013207389 -0.005852461
000100 03 4c a8 bc 0c e0 7b 3d 37 ae 8d 3d 6f cb 83 bd
       -0.020544058 0.061492965 0.069179945 -0.06435286
000110 ba f6 02 3d 54 e3 ba bc 41 ed 3c bd e6 a7 b0 bc
       0.031973578 -0.022813477 -0.0461247 -0.021564435
000120 fa c9 0b 3c ce 21 5f 3d f0 f5 66 bc 86 c9 c4 bd
       0.008532042 0.054475598 -0.014096722 -0.0960875
000130 47 65 a9 3c 0d 79 13 3b ae 33 4b bd 89 e4 12 bd
       0.020678176 0.0022502572 -0.049609832 -0.03586248
000140 0e 4c 94 bd e9 2c f3 bb 36 4f 69 3d d0 a3 39 bd
       -0.07241069 -0.007421125 0.056960307 -0.04532224
000150 07 a9 42 3c 00 58 84 3c 09 14 86 bd 26 9c 2b bd
       0.01188112 0.016155243 -0.0654679 -0.04189696
000160 0e 7a 22 bd 61 15 b0 3a a7 77 a2 3d c5 18 48 bd
       -0.03966718 0.0013434106 0.07932978 -0.048851747
000170 25 23 92 3d d6 80 a1 bd 15 47 b2 3d 69 16 7b bd
       0.071356095 -0.07885902 0.08704964 -0.06130067
000180 e4 75 9f bc 94 cd 4c 3d 22 ea 75 3d 82 bd c5 3c
       -0.019465394 0.050000742 0.06003774 0.024138216
000190 93 97 5e bd 4c be 7c 3d 7c 25 cb 3c 3b 4d 66 bd
       -0.05434377 0.06170492 0.024798147 -0.056225996
0001a0 62 64 8e bd 3e bb 0a bd 98 02 98 bc 09 33 d8 bb
       -0.0695274 -0.033869974 -0.018555924 -0.0065978807
0001b0 02 e3 b8 bd 96 07 48 3d ba 16 92 3d d3 f3 a2 3c
       -0.09027673 0.04883536 0.07133241 0.019891655
0001c0 93 23 80 3d 7c 4c 40 3d 95 f5 75 bd 59 a7 77 bd
       0.06256785 0.04694794 -0.06004866 -0.06046233
0001d0 3c 56 b9 bd 56 43 21 3d fb 2d 18 bd 6c 31 fe 3c
       -0.09049651 0.039370857 -0.037153225 0.031029426
0001e0 12 9a 0c bd e4 37 49 bd 5a 37 86 3d 8c 67 44 bd
       -0.03432662 -0.049125567 0.06553526 -0.047950312
0001f0 e0 8e b9 bc af 83 b1 3d e1 33 5e bd 40 4d c7 3a
       -0.022651136 0.08667695 -0.054248694 0.0015205517
000200 62 12 89 40 09 9e a5 c0 cb 57 aa bf 6f 81 9a 3e
       4.283494 -5.1755414 -1.3308042 0.30176875
000210 56 0b 4d bd 1a 2e 49 3f 79 31 a6 3e 40 65 31 40
       -0.05005964 0.7858597 0.3245962 2.7718048
000220 b1 d6 1c 3e b9 8e 2a be da a7 96 3f b7 bd 96 3f
       0.15316273 -0.16656007 1.1769974 1.1776646
000230 3c 2d 74 3f a0 fe 30 3e a0 c8 2b bf 07 69 92 3f
       0.9538152 0.17284632 -0.67103004 1.1438302
000240 03 0b 75 be c7 43 53 3f 36 f9 14 be d7 58 0e 3f
       -0.23929982 0.82525295 -0.14548191 0.5560431
000250 f2 40 8a 3f 40 4c a8 3e 7d f7 3c bf 5d 02 17 bf
       1.080107 0.32870674 -0.7381514 -0.5898798
000260 a3 26 29 40 da 86 a6 bf 1d ea b9 bf 81 de cc 3e
       2.6429832 -1.3009903 -1.4524571 0.40013507
000270 ac 01 2f 40 70 0b 8b 3d 38 ce a6 be ef 1f a8 bf
       2.734477 0.06789291 -0.32579207 -1.3134745
000280 ad 07 30 bf 2c 48 e0 3e db d8 82 bf 24 5f cb 3d
       -0.6876171 0.43805063 -1.0222429 0.09930256
000290 84 41 3f 3f b0 c6 f3 be 9d 41 24 40 04 fa c1 40
       0.74709344 -0.47612524 2.5665047 6.0617695
0002a0 f3 24 ac 3f fb 3b dd 3d 96 d5 84 3e db dc f2 bf
       1.3448776 0.10802456 0.25944203 -1.897365
0002b0 3b 3d 2c 40 82 8d 4e bf a8 09 eb 3f 85 90 4b bd
       2.6912372 -0.80684674 1.8362322 -0.04969837
0002c0 d0 47 80 3d 5d 2a d1 3e aa 91 26 bf fd fd 50 3f
       0.06263697 0.40852633 -0.65066016 0.81637555
0002d0 6e 19 36 bd ad ed 92 3e 90 b1 9f be f8 6a 99 bf
       -0.044457845 0.28696957 -0.31190157 -1.1985769
0002e0 e3 17 fc 3e 33 5b ad bf b6 98 3c 3f 34 41 8f bf
       0.49236974 -1.3543457 0.7367052 -1.1191773
0002f0 34 a4 23 be d4 fa 27 3d 9a b0 d9 3f 9b af 71 3f
       -0.15980607 0.041010693 1.700702 0.9440858
000300 d7 c6 16 40 99 c6 8a be 5e bb 82 3e 02 fb d4 3f
       2.3558862 -0.27104643 0.25533575 1.6639102
000310 f5 7b 00 3e c7 c0 f6 3f e7 12 90 3f 78 40 06 3e
       0.12547286 1.9277581 1.1255769 0.1311053
000320 0d df 71 3d aa 31 89 bf b8 13 08 40 32 a7 ff 3c
       0.05905061 -1.0718281 2.1262035 0.031207655
000330 cc e2 35 3e 1c 5f a7 be 12 37 cc be 5b d4 9d 3f
       0.17762297 -0.3268975 -0.39885765 1.2330431
000340 b6 8c 81 be 42 e1 0d 3f 40 c6 09 40 34 c4 de bd
       -0.25302666 0.5542184 2.1527252 -0.108772665
000350 40 e4 51 3f be 7d 84 3e 61 2d 97 be 64 7d 66 3f
       0.81988907 0.25877184 -0.2952681 0.9003508
000360 ba 42 19 be 76 5f 52 3f 2c 20 cd bf 7f 8e 0a 40
       -0.1496686 0.8217691 -1.6025443 2.1649473
000370 f5 ed ef 3f c4 93 15 40 c5 75 33 3f 63 c0 a5 bc
       1.8744494 2.337144 0.7010158 -0.020233339
000380 f7 82 fd 3e 5e 98 7b bc fa c3 93 3f d7 ca 14 3f
       0.4951398 -0.015356151 1.1544182 0.5812201
000390 f1 dc 05 3d 25 ce b1 bc f7 36 9f 3f 24 41 b6 bf
       0.03268141 -0.021704743 1.2438649 -1.4238629
0003a0 8e 38 36 3d 54 d8 6a be 5a 90 0c 40 53 06 cf bd
       0.04448753 -0.22934085 2.1963105 -0.10108628
0003b0 4a dc 02 3f 92 b3 b1 bf 84 5c 35 3f e8 b2 9c bf
       0.51117384 -1.3882926 0.7084429 -1.2242098
0003c0 81 80 84 3e 8d 73 ea be 84 cf 17 3e 57 43 5f 3f
       0.2587929 -0.45791283 0.14825255 0.8721213
0003d0 d9 a6 c3 be dd e3 0a bf d1 df f7 be 2e b4 2e 3f
       -0.38213232 -0.5425394 -0.48412946 0.6824368
0003e0 0e 07 9d 3e f7 f1 4f 40 13 41 05 bf 63 00 89 bf
       0.30669445 3.2491434 -0.5205242 -1.0703243
0003f0 b6 4e 88 40 32 24 ad 40 39 ca c4 3f 08 bd b1 bf
       4.2596083 5.4106684 1.5374213 -1.3885813

feature_layer.model.2.bias f4 [128]
000000 96 a2 a5 3d 22 48 91 3f 2b f5 3f 3d a4 45 d3 3f
       0.080876514 1.1350138 0.04686467 1.6505628
000010 bf ba 66 3f 24 23 e2 3e 27 e1 86 3f 59 84 aa 3f
       0.901287 0.44167435 1.0537461 1.3321639
000020 0f ad 8b 3f 3c 88 45 3d ff 6c c8 bd fa 1c 21 3f
       1.0912188 0.048225626 -0.09786414 0.6293484
000030 45 41 65 3f bd ff f0 be fd 68 a2 3f 6f c6 74 bd
       0.8955272 -0.47070113 1.268829 -0.059759554
000040 3d 9e 07 3e 5a 47 a7 bd 04 f1 bf 3e 40 b9 32 3f
       0.13243957 -0.08167906 0.37488568 0.6981392
000050 6e 8f a5 3f d1 0c 7b 3f 79 dc 33 3f 47 03 1c 3f
       1.2934396 0.9806643 0.7025829 0.609425
000060 d1 5d 41 3d 12 5e b1 3f 25 5e cd be 65 98 8f 3f
       0.04720861 1.3856833 -0.4011089 1.1218382
000070 66 7a 70 be 73 f5 d3 bb 1a c1 b6 3f 87 5a cc 3c
       -0.23484191 -0.006468469 1.427768 0.02494551
000080 35 8e ca be 48 c5 dc 3f d3 2f f2 bc 2c 0b a8 3e
       -0.3956162 1.7247705 -0.02956382 0.32821023
000090 e3 7b da bb 63 af 41 3f 7b a1 d3 bd 91 30 eb 3e
       -0.0066676005 0.75658244 -0.10333534 0.4593549
0000a0 a7 d2 d1 bd f0 0d 5a 3f 1c cc 88 3c ff 17 02 bf
       -0.10245257 0.85177517 0.01669889 -0.50817865
0000b0 22 85 26 3f 13 f3 cf 3c 55 f0 8a bf 2c 4b c6 bc
       0.65046895 0.025384462 -1.0854594 -0.024205767
0000c0 03 71 97 3e de 42 7d 3f 97 5d 47 3f 06 29 d4 3c
       0.2957841 0.98930156 0.7787718 0.025898468
0000d0 f8 57 ef 3f ad 79 a2 3f b7 80 e5 bc 96 80 76 3f
       1.8698721 1.2693383 -0.028015478 0.96289957
0000e0 6d 0d 8b 3d 5e f4 ea 3f e0 e5 eb 3b 22 c8 55 3f
       0.0678967 1.8355825 0.007199034 0.83508503
0000f0 60 e9 b0 bd 12 8d 65 3f 27 1e 96 3f cd 3d 21 3f
       -0.08638263 0.8966838 1.1727952 0.62984926
000100 70 2e 80 3c b5 6b 8c 3e 4e 6b 88 be 86 8c 1e 3d
       0.015647143 0.27425924 -0.26644367 0.038708232
000110 57 43 ad bf 7a 4d d7 3d e5 06 0b 3f a0 e9 b1 3e
       -1.3536175 0.10512824 0.54307395 0.34748554
000120 0e f0 39 3d 9f fb d8 bd 0a 91 ba bd c1 59 80 3f
       0.04539495 -0.10594868 -0.09109695 1.0027391
000130 9d f5 a8 bd 47 b6 9a bd 1f 26 c4 3f 68 4b c2 3f
       -0.08249972 -0.07554298 1.5324134 1.5179262
000140 f3 d9 81 3f 5a a3 1f 3f 96 e2 09 bd b4 55 f6 3e
       1.0144638 0.6235863 -0.033663355 0.4811226
000150 3c c3 10 3f fe ce 82 3e ff 08 f7 bb 01 b8 8e 3e
       0.56547904 0.25548548 -0.007538914 0.2787476
000160 c0 77 b0 3f e7 fd 37 40 d2 8e dc 3c 78 19 0b 3f
       1.3786545 2.874872 0.02692357 0.5433574
000170 52 c9 d0 3e 1e cf 24 bb 7b b4 56 3f 23 41 63 3f
       0.40778595 -0.0025147866 0.8386914 0.88771266
000180 3e 67 40 3f c5 e1 0a 3f d2 ca b9 3f a6 02 63 3f
       0.75157535 0.54250747 1.4515021 0.88675916
000190 c8 df 8a 3d 6b 8e 46 3f e5 b0 a0 3d 57 c3 37 bd
       0.06780964 0.7756106 0.0784624 -0.044864025
0001a0 a1 6f a7 3f 8f 11 55 3f 40 0d 00 be 71 52 e9 3f
       1.3080941 0.8322992 -0.12505054 1.8228284
0001b0 71 2b 5e 3d c7 45 ba bd 14 06 9d 3f 39 97 9b 3f
       0.054240648 -0.0909534 1.226748 1.2155524
0001c0 cc a8 48 bd 93 ec d9 3e 8b 15 40 3f 70 3e cc 3f
       -0.048989102 0.42563304 0.7503287 1.5956554
0001d0 53 b2 82 3c 2b 2f 28 bd c3 3a 44 3b f8 33 a6 3f
       0.015954172 -0.041060608 0.0029942251 1.298461
0001e0 0c 07 a0 bd 7a dd e1 3e 2a 3a c0 3f 13 46 3a bb
       -0.07813844 0.44114286 1.501775 -0.0028423115
0001f0 e6 ba cb bb 8b 33 5b 3c a9 21 0e 3d ca cc a1 3c
       -0.0062173484 0.013378988 0.03470007 0.019750971

value_stream.model.0.weight f4 [128, 128]
000000 fc aa 9e bc 57 55 33 40 80 df a9 3d 85 26 11 3f
       -0.019368641 2.8020837 0.08294582 0.566994
000010 32 b0 ae bc 5e 5a a3 3f 1c f0 d2 bd e5 36 7b 3e
       -0.02132425 1.2761953 -0.102997035 0.2453266
000020 5f 1b e9 3f aa f5 08 3d 5c 8f 9f bd 2e ad e7 bd
       1.8211478 0.03343741 -0.077910155 -0.11312328
000030 1e 2b 10 c0 fd c4 0f bf 7e fb ab 3e 97 b3 d7 3d
       -2.2526317 -0.56159955 0.3359031 0.10532301
000040 3a 1e cb bf a7 fb a2 bd e4 07 20 3f e4 12 2d 3f
       -1.58686 -0.07958155 0.6251204 0.6760695
000050 08 1d dd 3f 1f c6 58 3f 4f ca f8 3e 3d 7d f2 3e
       1.7274485 0.8467731 0.4859185 0.47361174
000060 21 0c df 3c 45 eb aa 3d 42 2a ea be 91 54 2b 3e
       0.027227463 0.08345655 -0.45735365 0.16731478
000070 3d 91 ba bf b5 8e 8b 3d 71 e7 38 3e c6 4e 5f 3d
       -1.4575573 0.068143286 0.18057038 0.054518484
000080 49 26 f8 bf 29 a9 b3 3e 07 26 4d bd f4 19 e3 bd
       -1.9386684 0.35089996 -0.050085094 -0.110889345
000090 4c 69 83 bd 07 6d 23 c0 f7 56 df bf d9 bc 2c be
       -0.06416568 -2.5535295 -1.7448415 -0.16868915
0000a0 69 ac b7 bd 1a a7 d7 bd 6e 9c 67 3b e2 53 6e be
       -0.089684315 -0.10529919 0.0035341042 -0.23274186
0000b0 1e 63 77 3f 20 0e 5c bb 05 b0 7e c0 f8 f0 04 bc
       0.96635616 -0.0033577755 -3.9794934 -0.008114092
0000c0 bc 04 ba bb 72 51 e1 be 69 30 55 40 bb b1 83 3d
       -0.005676834 -0.4400745 3.3310797 0.06430384
0000d0 67 d5 55 3e 58 49 0b c0 68 04 60 3c 56 a1 1f 40
       0.20882188 -2.1763515 0.0136729255 2.4942222
0000e0 e4 f2 f0 bf 76 19 80 be 9c 6a 4c bd c5 da 32 3f
       -1.8824124 -0.25019425 -0.049906358 0.69865066
0000f0 eb 58 9d 3d 35 52 07 bf 3d ff 9e bf 87 24 8e bf
       0.076829754 -0.5285981 -1.2421643 -1.1104897
000100 05 4d 89 3d 25 d5 91 3e 4c 50 33 3e fb b0 aa bb
       0.067041434 0.2848293 0.175111 -0.005209086
000110 f9 e2 ed be 70 97 a1 bc 4a 71 55 c0 07 fa f6 3c
       -0.4646223 -0.019725531 -3.3350396 0.03014852
000120 db ea 54 3d b2 27 16 3d 30 e9 b4 c0 89 88 d6 3e
       0.051981788 0.03665895 -5.6534653 0.41901043
000130 65 b0 5c bd d2 c6 81 bd 96 f1 73 bc 81 db c3 3e
       -0.05387916 -0.0633675 -0.014889142 0.38253406
000140 b3 5e 8f 3f b0 d0 fd bf 14 29 83 bc 39 4a 47 3b
       1.1200775 -1.9829311 -0.016010799 0.003040923
000150 e3 f7 f5 bf 63 5c 3d bf 60 0b 60 bd f1 08 11 40
       -1.9216274 -0.73969096 -0.054698348 2.2661707
000160 92 62 2b 40 e9 ee 19 3f 10 19 20 3d 03 ea d0 bd
       2.6778913 0.6013017 0.0390864 -0.10200884
000170 17 b3 a0 3d 30 69 0d 40 4f d5 81 3f 89 2e ba bf
       0.07846659 2.2095451 1.0143222 -1.4545451
000180 f3 75 d0 3d 4f 2d 2f 3f 1a 68 ab 3e 89 30 87 3f
       0.10178747 0.6842851 0.3347786 1.0561687
000190 4a 38 aa bd 19 6b 83 3f e1 d6 a6 3d c5 3d 4d 3c
       -0.083115175 1.0267059 0.08146454 0.012526934
0001a0 02 10 82 3f a8 79 95 be e1 07 90 bd 78 78 06 3f
       1.0161135 -0.2919438 -0.07032753 0.5252757
0001b0 ad f8 95 bc d8 ba 08 bd cc c9 78 3f 5c 70 be 3f
       -0.018307054 -0.033381313 0.9718292 1.4878039
0001c0 be 9e 5a 3c 4c ac 04 be 33 bc df bf ff dd b3 3e
       0.013343511 -0.12956351 -1.7479309 0.35130307
0001d0 06 c0 18 3d b3 c8 9c bd 16 90 12 bd 77 91 a6 bf
       0.037292503 -0.07655468 -0.035781942 -1.3013142
0001e0 a8 9e f9 bc d8 0f 20 3f cf c7 b6 be 8a 91 a9 bc
       -0.030471161 0.62524176 -0.35699317 -0.020699281
0001f0 00 53 55 bc 0e 2f 13 bd 91 d5 27 bc e3 b5 62 3c
       -0.013020277 -0.035933547 -0.010243789 0.0138373105
000200 b7 d7 51 3d 34 7a 21 c0 33 7a e1 bc d2 ed 68 3f
       0.051231112 -2.5230837 -0.02752409 0.90987885
000210 95 12 e8 bd 17 1e 84 bf 25 54 60 bf b6 ac 1d 3e
       -0.11331669 -1.0321683 -0.87628394 0.15397915
000220 f3 0f cb bf ac 99 3c bd 68 cc b2 3d ca 3b f5 be
       -1.5864242 -0.04604499 0.08730394 -0.47897178
000230 d1 6e c6 40 b3 90 88 3f 8a 4a dd bd b0 4e 70 3d
       6.2010274 1.0669159 -0.10805233 0.058668792
000240 d1 f9 f5 3f c4 45 99 3c 88 fa 1d 3f 25 a3 89 bd
       1.9216863 0.018710025 0.61710405 -0.067205705
000250 2f 81 ed bf 2b af d0 bf d9 87 b1 3f aa 24 71 3f
       -1.8555049 -1.6303457 1.3869582 0.9419657
000260 3b b7 19 bc c4 ef ae 3f 5b 5f aa 3f 94 46 14 bf
       -0.009382064 1.3666921 1.331035 -0.57920194
000270 47 9f 10 40 ac 77 77 3d 1c 4c 1a be a2 b0 12 3c
       2.2597215 0.060416862 -0.15068096 0.008953245
000280 37 8d 46 40 f0 58 72 3f e3 63 17 3c 39 61 74 40
       3.102369 0.9466696 0.009240123 3.818434
000290 a9 2d 28 3d 4b 49 d5 40 89 44 03 40 1c 25 6a 40
       0.04105917 6.665197 2.051058 3.658515
0002a0 31 8c 21 bb 94 47 1f bf e1 c1 a1 bd 67 41 6b 3f
       -0.002465021 -0.62218595 -0.078983076 0.9189667
0002b0 a1 19 a6 3f a5 63 b9 bc 70 55 9b 40 ec 2c 18 3c
       1.2976571 -0.022630522 4.8541794 0.009288054
0002c0 79 91 48 bf 93 30 86 be 36 df 3a c0 bc fb 47 3d
       -0.78346974 -0.26208934 -2.9198737 0.048824057
0002d0 fe 22 5c 3f 2f d1 98 40 b5 93 8a bd 48 fd 3f c0
       0.85990894 4.775535 -0.06766454 -2.999834
0002e0 cf 0e 2a 40 f2 eb 6a 3f 60 e0 99 3d 4e 53 7c 3f
       2.6571538 0.91766274 0.07513499 0.9856461
0002f0 e8 7a cc 3b 3f c2 0c be d1 16 0e 40 15 a0 d9 3f
       0.0062402375 -0.13745974 2.2201426 1.7001978
000300 f3 ff be 3b ed 76 9b 3f 51 7c 5f 3f f8 9b 45 bd
       0.0058288514 1.2145668 0.87299067 -0.048244447
000310 54 9e e7 3f 21 2c be 3d 41 d0 e9 40 ea 75 83 40
       1.8095193 0.09285761 7.3066716 4.108144
000320 0f a3 a7 3d 45 82 26 3d 46 cc 0d 41 5d ed e5 3f
       0.08185398 0.04065158 8.862371 1.7963063
000330 fa 58 90 3b ca d3 30 3c 87 6d 9e 3e b7 70 df bf
       0.004405138 0.010792682 0.30942938 -1.7456273
000340 93 05 e3 bf fd 0b 12 40 fc c1 50 bd 72 47 14 40
       -1.7736076 2.2819817 -0.050966248 2.3168607
000350 8c 24 10 40 81 65 3e 3f ac da ba 3d 94 56 0b c0
       2.2522306 0.7437363 0.091237396 -2.1771593
000360 25 a3 22 c0 83 59 9f 3f 7d 7e 90 bd fc a2 33 40
       -2.5412076 1.2449192 -0.07055376 2.8068228
000370 56 47 e1 3e 53 1f 15 c0 76 6f a0 bf 68 0d b1 40
       0.43999738 -2.3300369 -1.2534015 5.5328865
000380 1b 79 e9 3d 52 6c 4c 3f ec e5 3a be a1 f6 6e bf
       0.11400052 0.79852784 -0.1825177 -0.93345076
000390 43 19 a0 3d f6 d1 95 bf 40 1d d3 3c d4 12 6e 3d
       0.07817318 -1.17047 0.025770783 0.058123425
0003a0 bb 40 8c bf 6d dd 47 3f 77 1a 95 3d 7e ef b0 3f
       -1.0957254 0.78072244 0.072804384 1.3823087
0003b0 e3 81 48 bd e5 13 a0 3d 4d 5d 1e bf 72 31 1a c0
       -0.048951995 0.078162946 -0.61861116 -2.409268
0003c0 9d 72 6a 3d db 04 79 40 bb c7 a9 40 e4 d9 bf 3e
       0.05723821 3.8909214 5.305631 0.37470925
0003d0 34 64 55 bd ce 73 2e 3c 5e 61 99 bd ec 77 be 3f
       -0.052097514 0.010647727 -0.074892744 1.4880347
0003e0 57 d9 fb bc 96 10 46 3f d2 ca f7 3e 8d 22 9e bd
       -0.030743284 0.7736906 0.48396927 -0.07721434
0003f0 06 9f 6b bd 18 27 0d 3d 67 e3 30 bd 77 07 56 3d
       -0.057524703 0.03446111 -0.043185618 0.052253213

value_stream.model.0.bias f4 [128]
000000 79 8b 4e 3f 32 f2 95 3e 73 c9 46 3f 03 28 f8 3e
       0.8068157 0.29286343 0.7765114 0.48468027
000010 ee 70 e2 3e b5 de f9 3e a7 2f 34 bc 04 5f 67 3f
       0.44226784 0.48802724 -0.010997689 0.9037936
000020 4f 9f 2d 3d 4b 98 51 3e fa 4d da 3e 2f 2c 38 3d
       0.042388257 0.20468251 0.42637616 0.04496401
000030 c5 8b ca 3e 5d 20 9c bd 04 73 4d bc 75 7c a4 3e
       0.3955976 -0.0762336 -0.012539629 0.32126203
000040 aa de 9c 3e 1b f2 60 3e 12 13 82 3f b8 c1 b0 3e
       0.3063863 0.21967356 1.016207 0.34522796
000050 ba 1e 28 3e ce 3d ba 3d 5b 07 00 be c9 f8 3a 3e
       0.16417971 0.090938196 -0.12502806 0.18258967
000060 a2 86 87 3c a4 4b bf 3e 32 d3 e9 bd 02 23 a4 3e
       0.01654369 0.37362397 -0.114172354 0.3205796
000070 c8 af 53 3f 10 a7 e5 bd 57 40 2e 3f 42 87 8a bd
       0.82690096 -0.11213505 0.68066925 -0.0676408
000080 60 5d 3b 3f a3 fa 16 3f 13 ee 5b 3e 73 ff 8d 3d
       0.73189354 0.5897619 0.21477537 0.06933489
000090 dd 5f 26 3f 53 eb 81 3e 11 60 d9 3d fc 65 8c 3e
       0.64990026 0.2537485 0.10614026 0.27421558
0000a0 09 1f f5 3e 67 5a 93 3e 8d 6e 33 3c 11 2c 94 bd
       0.4787524 0.2877991 0.01095165 -0.072349675
0000b0 ec 2a 2a bd 78 41 78 3f 93 65 00 3e 83 6e 72 3d
       -0.04154484 0.969749 0.12538747 0.059187423
0000c0 4d 17 c9 3e 3f 37 3d 3f 7e 04 c2 3c a8 ed 40 3e
       0.3927559 0.73912424 0.023683783 0.18840659
0000d0 46 8c da 3b 17 5b 7f 3e 0e 5f 55 3e ed 44 d1 bd
       0.006669554 0.24937092 0.20837042 -0.10218225
0000e0 5e 60 21 3e 06 0d 54 3e c0 ae c9 3e d5 2b ab 3e
       0.15759417 0.20708093 0.39391136 0.3343188
0000f0 f5 a6 5b 3f d6 7a 8f 3e 89 08 5a 3d 3d fb ee bd
       0.8580163 0.28023404 0.053230796 -0.11669014
000100 09 be 2e 3f 90 b6 f7 bc c9 66 5e bf 50 b3 30 3f
       0.6825872 -0.03023842 -0.8687559 0.6902361
000110 ac 4e 83 3e 77 c8 b3 3e 33 a3 17 be 86 77 2d 3f
       0.2564596 0.3511388 -0.1480835 0.67760503
000120 18 58 36 3f e9 2f 9a bd cc 17 2a 3f 6c 8e 61 3f
       0.7122817 -0.075286694 0.6644256 0.88107944
000130 8b 34 f5 3e ea a0 63 3e e6 6b 24 3e 73 eb e1 3e
       0.4789165 0.22229353 0.16056785 0.44124946
000140 f4 d4 c6 3e 80 c9 72 3e 14 99 29 3f 56 71 8e 3e
       0.38834345 0.23709679 0.66249204 0.27820843
000150 8d 4d 70 3e dd bd 2a 3f 5f 1e 58 3d f4 94 36 3d
       0.23467083 0.6669596 0.05276334 0.044575647
000160 df 0b 80 3e 53 09 08 3f 98 ff 5b 3e 51 ec d4 3e
       0.25009057 0.5313923 0.2148422 0.41586545
000170 08 f5 b3 3e 17 8b e1 bc 61 47 af 3e 63 22 ac 3e
       0.35147882 -0.027532144 0.34234145 0.33619985
000180 3e e0 f8 3c 42 6f b8 3e ed 14 4d 3e a3 13 12 3f
       0.030380365 0.36022383 0.20027514 0.57061213
000190 a3 22 66 3f 91 36 62 3f e9 57 c4 3b 9f 13 06 3c
       0.898966 0.8836451 0.005991925 0.008183389
0001a0 cd 9e 4d 3d 97 3f 45 3f d8 a7 ea bd 10 a6 ce 3e
       0.050200272 0.77050155 -0.11457795 0.4036107
0001b0 c6 06 e9 3e 49 27 96 3e 10 16 8a 3f 85 e1 bf 3e
       0.4551298 0.29326847 1.0787983 0.37476745
0001c0 98 08 5a 3e e1 2e 6a be 5c 7e 7a bd 4c 67 40 3f
       0.21292341 -0.22869445 -0.061155662 0.7515762
0001d0 45 df 42 3c 79 18 5f bd e0 a3 70 bd f1 c9 b4 3f
       0.011894052 -0.0544667 -0.058750033 1.4124128
0001e0 e4 0a 79 3f 6d c1 78 3d 1f c1 25 3f 4e 23 9a 3e
       0.9728224 0.06073134 0.64747804 0.3010506
0001f0 40 c9 42 3e 16 31 a8 bd 90 92 2b bc 93 d7 26 bd
       0.19022083 -0.082124874 -0.010471955 -0.04073293

value_stream.model.2.weight f4 [1, 128]
000000 16 42 40 c0 e0 89 33 40 f8 89 46 c0 fb 9e 41 c0
       -3.0040336 2.8052902 -3.102171 -3.0253284
000010 b1 1a 3d 41 61 26 5f c0 b7 a9 85 40 60 14 a6 40
       11.819016 -3.4867175 4.176967 5.189987
000020 6f 50 50 40 ae d6 5e 40 33 d2 12 c0 39 52 45 3d
       3.2549093 3.481853 -2.2940795 0.048174117
000030 80 7e 3a c0 4d ad ce 3b a7 89 75 3a 73 22 1e 40
       -2.913971 0.00630728 0.000936652 2.4708526
000040 99 b5 28 40 80 83 29 40 7f 53 ac 40 44 46 58 40
       2.6360838 2.6486511 5.3851924 3.3792887
000050 59 a0 35 40 7c 41 5e 40 0c 4c 41 40 5b c6 32 40
       2.8379118 3.4727468 3.0202665 2.7933567
000060 df 5b bb bc eb 10 32 40 56 e2 b5 3d a9 b5 5a c0
       -0.022870956 2.7822826 0.08881061 -3.4173377
000070 0c d8 a9 40 53 55 38 40 aa 0e 95 40 f7 7a c2 40
       5.307623 2.8802078 4.65804 6.0775104
000080 d0 04 3c c0 b9 62 29 c0 d5 ec 54 40 cc be 75 bd
       -2.9377937 -2.6466506 3.326955 -0.05999641
000090 52 53 2b c0 c3 74 3e 41 3d 5f 4c 40 45 de 5d 40
       -2.6769605 11.903506 3.193313 3.4666913
0000a0 6f 69 12 c0 82 bc 4a c0 86 c9 9e bf 98 92 fb bb
       -2.2876852 -3.1677556 -1.240525 -0.0076773874
0000b0 ca 00 73 bd 99 aa a7 40 c3 2b 22 40 c7 61 14 3d
       -0.059326924 5.239575 2.533921 0.03622606
0000c0 a1 8e 30 c0 84 35 49 41 2c 39 68 bd 91 60 1d 40
       -2.7587054 12.575565 -0.05669515 2.459019
0000d0 54 8d 5d 3a 8e 00 3b 41 40 4a 3c 40 d2 14 4a 40
       0.00084515405 11.687635 2.9420319 3.1575208
0000e0 72 54 2d 40 52 e9 31 40 e5 b3 88 40 c0 f2 4f c0
       2.7082791 2.7798657 4.27196 -3.2491913
0000f0 e3 4e a6 40 d6 41 3c c0 87 91 5b bc 8e 67 0e 3d
       5.1971297 -2.9415183 -0.013401396 0.034766726
000100 27 bf 65 c0 5b 60 a1 bd 2d 7e 02 41 fe 7b a6 40
       -3.589792 -0.078797065 8.155805 5.202636
000110 e9 ca 28 40 76 25 44 41 e4 a0 2c 40 53 b3 a6 40
       2.6373847 12.259146 2.69732 5.20939
000120 57 e2 21 c0 2f 84 2f bd 4f 02 46 41 8e fd a9 40
       -2.5294397 -0.04285067 12.375564 5.3122015
000130 74 a8 2f c0 d6 7d 36 40 6f 2a 71 40 0c c5 2f 41
       -2.7446566 2.8514304 3.768215 10.985607
000140 9a 03 27 c0 71 83 4d 41 9a 2d 90 40 ca 92 3e 40
       -2.6095948 12.84459 4.5055666 2.9777093
000150 18 72 35 41 28 43 22 c0 a6 08 a1 bc 50 bb 09 bb
       11.340355 -2.535349 -0.019657444 -0.0021016188
000160 a6 6e 8b 40 78 c3 88 40 73 1d 2a 41 86 70 4b c0
       4.357257 4.273861 10.63219 -3.178743
000170 00 b6 45 41 0b fa 60 40 4f 7f 4a 41 37 db 4b 41
       12.356934 3.5152614 12.656081 12.741019
000180 e8 e6 fc bc 46 26 4a 41 15 99 3e 40 c6 b4 c2 40
       -0.030871823 12.634344 2.9780934 6.084567
000190 96 5e a3 40 41 2e 49 41 31 37 2d 40 72 7b dd bd
       5.105296 12.573792 2.7064936 -0.10814561
0001a0 3a 6e a5 bd b5 a7 5b c0 57 70 27 bd a9 7e 4f c0
       -0.08077665 -3.432111 -0.04087862 -3.2421057
0001b0 87 9a 45 c0 e1 f5 2d 40 60 cc 51 c0 e6 10 38 40
       -3.0875566 2.7181323 -3.278099 2.8760314
0001c0 e7 c6 25 40 c9 cf 51 40 4a cd 7d bd 6e 86 3f c0
       2.590265 3.2783072 -0.061963357 -2.99258
0001d0 00 f1 42 41 1a 54 3b bc 51 50 59 bc 63 4e 49 41
       12.183838 -0.011433626 -0.013263778 12.581637
0001e0 cc 33 37 c0 0c e0 af bd 2d 78 9a c0 97 78 29 40
       -2.8625364 -0.085876554 -4.82717 2.6479852
0001f0 7f 11 28 40 2d 15 90 bd b7 8d 24 bd 29 78 ed bc
       2.6260679 -0.07035289 -0.040174212 -0.02898796

advantage_stream.model.0.weight f4 [128, 128]
000000 dc 11 a2 bd 0c 41 8c bd 69 a0 3d 3d 24 47 7d bd
       -0.07913563 -0.06848344 0.046295557 -0.061835423
000010 87 a7 41 3d 08 c7 3d 3d 56 7d 37 bd 76 74 fe bc
       0.047278907 0.04633239 -0.044797264 -0.031061392
000020 2d 7a 15 3c b7 62 0c 3c 15 3b 62 bd ba 84 ab bd
       0.009123367 0.008568457 -0.055232126 -0.08374925
000030 e2 62 79 bc 5d bc 10 3d 9f a0 7d 3d 13 3a 95 3d
       -0.015221329 0.035335887 0.06192076 0.072864674
000040 eb 07 83 3d 79 0b ac 3d d0 df ce bd ea 83 a5 bd
       0.063979946 0.08400626 -0.101012826 -0.08081801
000050 b1 b4 59 bd de b4 c5 bc 74 1b af bd ae bd 23 3d
       -0.053150836 -0.024134096 -0.08550158 0.039975815
000060 00 25 5b bc ff 0e 3d 3b 13 28 2b 3b 7c 26 e4 bc
       -0.013375521 0.002884805 0.0026116415 -0.027850382
000070 63 9f 61 bb 08 5a 52 bc 82 0b 70 bd 38 a8 d8 bc
       -0.0034427277 -0.012838848 -0.058604725 -0.0264474
000080 e8 0b f5 3c 1d d2 57 bd 49 0f 9a bd 9e 3b 86 bd
       0.029912904 -0.052690614 -0.07522447 -0.0655434
000090 57 81 27 bd b5 e7 92 bd 36 ae 23 3d ef e7 cd 3c
       -0.040894832 -0.07173101 0.039961062 0.025135009
0000a0 73 a2 93 3d 89 e1 f3 3b 9d 23 21 3d b0 28 b0 bd
       0.07208719 0.0074426574 0.039340604 -0.086015105
0000b0 4d 96 ec bb df 8a 9f 3d c3 72 1e bd 80 81 2b 3b
       -0.0072200657 0.077901594 -0.038683664 0.0026169717
0000c0 fb 5c 4f 3d 0e 22 0b bd 4e a6 17 3d 7f 1f ae bd
       0.050625782 -0.033968024 0.037023835 -0.08502101
0000d0 2c 03 93 3d cc 1e 0f 3d bc 6c 8a bd e0 8d 2d 3d
       0.07178339 0.03494148 -0.06759021 0.04237163
0000e0 3b f1 ae bc 9d 39 63 bd 99 7a a8 3d 67 a6 85 bd
       -0.021355262 -0.055474866 0.08226509 -0.06525879
0000f0 eb e9 45 3c a3 70 85 bd 03 0c 63 bc 73 15 d5 bb
       0.012079696 -0.065156244 -0.013857844 -0.006502801
000100 2b b0 18 bd 34 76 ad bd 97 ee 3a bb 0a 58 af bd
       -0.037277382 -0.08469811 -0.0028523558 -0.08561714
000110 64 c6 dc bb b9 65 2d 3c 38 c1 8a bd 97 b5 84 bb
       -0.006737517 0.010583335 -0.06775135 -0.0040499675
000120 a3 51 8d 3d e9 94 ce bc d8 83 58 3d de d2 87 bd
       0.069003366 -0.02521749 0.05286011 -0.066320166
000130 d3 33 83 3d be a5 76 3d 74 5d 3b 3c 66 cb 6d bd
       0.06406369 0.060216658 0.011435855 -0.058055304
000140 2a 41 56 3c ba f5 5b bd c8 80 2b bc 2e 52 9f 3d
       0.01307706 -0.05370114 -0.010467716 0.077793464
000150 51 56 7b 3c e8 1b 6a 3c 22 22 04 bd 59 db 5b 3c
       0.015340404 0.01428888 -0.032259114 0.013418996
000160 6e bc 43 3c c7 34 31 bd 57 07 ad bc 66 a1 08 bd
       0.011946781 -0.043263223 -0.021121664 -0.033357047
000170 c5 de ab bc 67 e1 3a bd 1f 3e 98 bd 4e db 6b bd
       -0.020980248 -0.045625117 -0.07433724 -0.057582192
000180 dd ce 1c 3d 3d a8 48 bc 06 66 88 bd 8c 39 84 bd
       0.038283218 -0.012247142 -0.066600844 -0.06456289
000190 b0 5d fa 3c 14 c4 36 3d a4 cc a8 bd f2 e6 78 3d
       0.030562252 0.04462059 -0.08242157 0.06076712
0001a0 49 ce 26 3a e6 c6 e3 bb 9b 11 66 bd 04 30 eb 3c
       0.00063631363 -0.006951201 -0.056169134 0.02870942
0001b0 eb 55 a6 bd aa f8 69 3d 2f 01 14 bd 8c 47 8f 3d
       -0.08121856 0.05712191 -0.03613394 0.06996068
0001c0 cc bf a6 bd ab 52 d5 bc 57 59 92 3c d6 de 8d bd
       -0.08142051 -0.026040396 0.017864866 -0.06927268
0001d0 a0 ee 82 3b e0 05 e3 bc 38 e1 9d 3d 62 bf b6 bc
       0.0039957315 -0.027712762 0.07708973 -0.022308055
0001e0 ea 22 55 3d e1 27 9d bb ea 4e b2 3c ab 85 0a bd
       0.05203525 -0.0047960137 0.021766145 -0.033818882
0001f0 4d db 9c bd 90 4c 27 bc 63 24 ae bd 60 32 57 3b
       -0.07659016 -0.010211125 -0.08503034 0.0032836422
000200 d4 8e 4a bd cb 7c ae c0 04 a0 19 3d 37 c5 8d 3f
       -0.049452618 -5.4527335 0.03750612 1.107581
000210 97 b1 a9 c0 3e d4 b3 3f c0 53 bc c0 47 8a 9a c0
       -5.3029284 1.4049146 -5.8852234 -4.8293796
000220 3d 7a a9 c0 4d 12 30 3b 62 8f 09 3d 2c ec b5 c0
       -5.2961717 0.0026866377 0.033584006 -5.6850796
000230 e0 b4 86 40 73 16 de 3e 23 3f 99 c0 b6 7f ba bc
       4.2095795 0.43376502 -4.788957 -0.022765975
000240 56 bc 6b c0 e3 35 9e bd 95 da 64 3f 83 e5 83 c0
       -3.68337 -0.07725122 0.8939603 -4.1217666
000250 05 9d a5 c0 ee 52 bb c0 6d 77 9c 3f 6a 2e 84 3f
       -5.1754174 -5.8538733 1.2223946 1.0326664
000260 50 d0 44 bc 7a 86 d0 3f f8 85 b7 c0 23 1d bc c0
       -0.012012556 1.6291039 -5.7351036 -5.8785567
000270 8c ac 67 40 5a 91 fd bc f1 8f 86 c0 e1 4b 17 3c
       3.6199064 -0.030953098 -4.205071 0.0092344
000280 49 2d 6a 40 8e 91 99 3f b0 30 88 bd a7 2c fb 3e
       3.659014 1.1997545 -0.066499114 0.49057505
000290 83 19 4e bc f3 e4 87 40 9b 46 60 c0 0b 13 d5 3e
       -0.012579325 4.246698 -3.5043094 0.4161609
0002a0 be b8 9d 3d 9c 26 c5 c0 5a ef 09 3d 8e 57 e3 3e
       0.077012524 -6.160963 0.03367553 0.44402736
0002b0 6f d1 bc 3f 76 ab 52 3d 34 dc a8 3f 0b d6 8d bd
       1.4751414 0.05143305 1.3192201 -0.06925591
0002c0 61 be c1 c0 3e fe ae c0 13 76 82 c0 62 ff 00 bd
       -6.0544896 -5.4685354 -4.0769134 -0.031493552
0002d0 fe 18 f6 3f a9 98 56 40 b4 e0 4a bd 7a 7b e7 bf
       1.9226377 3.3530676 -0.0495307 -1.8084557
0002e0 17 e0 b3 bf 4e e8 ed 3f a4 d6 fb 3c c4 8c ab 3f
       -1.4052762 1.8586519 0.030741997 1.3402333
0002f0 31 9d d5 3c db a8 a9 c0 e1 ee a9 bd 90 fa c9 3e
       0.026075931 -5.3018622 -0.08297516 0.39448977
000300 31 1d 92 bd a3 82 5c 3f 01 66 65 3d 6e 02 82 3d
       -0.07134474 0.86136836 0.05600548 0.0634812
000310 ba 07 38 40 b9 13 00 3c f3 f5 89 40 eb 1b d4 3e
       2.8754716 0.007817202 4.311273 0.4142755
000320 12 f6 e9 bc 04 71 93 3d 59 72 a6 40 c1 9d 01 40
       -0.028559718 0.071992904 5.2014585 2.0252535
000330 4e c3 27 3d d4 51 a9 bc da c4 54 c0 c0 7f a0 c0
       0.04095774 -0.020668902 -3.3245149 -5.0155945
000340 f3 d6 b2 c0 d6 f7 3c 40 00 98 bf 3a bf 04 0d 3f
       -5.588739 2.9526267 0.0014617443 0.55085367
000350 af 1c 19 c0 a8 a2 17 c0 a0 a0 4e 3c 0d b7 92 c0
       -2.3923757 -2.3693027 0.012611538 -4.584845
000360 0a 49 af c0 bb 3f 90 3f d0 75 72 bd 47 e5 e5 3e
       -5.477666 1.1269449 -0.059194386 0.44901487
000370 5c 3a 27 3f 3c 49 8b 3e 72 97 bc c0 f7 e1 7f 40
       0.65323424 0.2720431 -5.893487 3.9981668
000380 b5 3a 20 40 5c d1 52 3f 38 78 ab c0 af 66 b5 c0
       2.5035832 0.8235071 -5.358425 -5.6687846
000390 32 2b 5c 3d 90 f2 c0 c0 72 05 58 3d cc 7b 2c bd
       0.05375213 -6.0296097 0.052739568 -0.04211025
0003a0 c9 6a a1 c0 bc 1d 97 3f 23 8a 82 bd 21 c1 9e 3f
       -5.0442853 1.1805949 -0.06374004 1.2402688
0003b0 41 8a 90 3d 3c 00 51 bd bd 93 a7 c0 b5 29 b8 c0
       0.0705762 -0.051025614 -5.2367845 -5.755091
0003c0 1a 53 93 bd e6 5d 0d 3f 5a 8c 80 40 7e 5d 96 c0
       -0.07193585 0.552214 4.0171328 -4.6989126
0003d0 b0 33 95 bd 01 7a 1d bd 96 9e 79 bd c9 46 b3 3d
       -0.07285249 -0.03844643 -0.060942255 0.087537356
0003e0 f0 f3 26 bd 0d 67 62 3f c1 ee 86 c0 c6 7a 82 3d
       -0.04075998 0.88438493 -4.216645 0.063710734
0003f0 e0 f1 26 bb 35 c9 35 bd c3 84 a4 bd 76 5e 18 bd
       -0.0025473759 -0.04438134 -0.08033135 -0.03719946

advantage_stream.model.0.bias f4 [128]
000000 b6 46 5f bd 75 ed ab 3e 39 f2 94 bb 28 e4 ae 3e
       -0.054510795 0.33579603 -0.0045454768 0.34158444
000010 66 21 cd be 44 06 d9 3f b1 9b 3b 3f e3 b0 fc 3e
       -0.40064543 1.6955037 0.7328444 0.49353704
000020 42 1c 40 3e a4 31 b4 3e 19 03 ab bd 19 94 34 40
       0.1876078 0.35194123 -0.083502 2.8215392
000030 79 fe e8 bd 11 90 38 3d 84 da 92 3e 31 c3 08 bf
       -0.11376662 0.045059267 0.2868234 -0.5342284
000040 e9 f5 63 3e f8 0d 76 40 9a eb 4a 3e 37 5d 44 3d
       0.22261776 3.8446026 0.19816437 0.04794046
000050 5c cb fa be 4c 43 0d 3d c8 25 0c 3f ef 51 23 3f
       -0.48983276 0.034488007 0.5474515 0.63796896
000060 00 c6 47 bf 29 1c 07 3f 68 8b 91 be 2b 3e 5b be
       -0.780365 0.52777344 -0.2842667 -0.21410434
000070 33 e9 4f bd e2 e2 3a 40 ef 65 91 40 7e 22 99 3f
       -0.050759505 2.9200978 4.543693 1.1963651
000080 ed b5 a0 bd d1 08 31 40 ff 53 c3 3f 06 0d f0 be
       -0.078471996 2.766163 1.5260009 -0.46884936
000090 55 e4 f8 3c f8 85 96 3f e4 4e 32 40 f2 eb 80 3f
       0.030382315 1.1759634 2.786065 1.0072005
0000a0 b5 32 0a 40 7a ec e1 3b e0 84 1d 3f 4c 97 93 3e
       2.159345 0.0068946453 0.61530876 0.28826368
0000b0 ca a1 cd 3f 20 7f 29 bc 2c b0 4b 40 c5 6a 61 3c
       1.6064999 -0.01034525 3.1826277 0.013758366
0000c0 d2 de ff be 47 70 46 3f 63 35 52 40 cf 7e 4f bc
       -0.49974686 0.7751507 3.2845085 -0.012664511
0000d0 2b 5c 54 40 d0 79 8c 3e 2f 43 8b 3e ca 44 36 3e
       3.3181255 0.27436686 0.27199695 0.17799678
0000e0 e1 43 f8 be 67 58 d7 3e 4b 76 6d bd a6 4c db bd
       -0.48489287 0.42059633 -0.05797414 -0.10707979
0000f0 22 5a 03 3f ce ae d4 3e 26 3d 48 3f 8b 2f cd bd
       0.51309407 0.41539615 0.78218305 -0.10018834
000100 14 fb ac be cc 5b 2a 40 33 c2 b1 3e fe e7 83 bc
       -0.33785307 2.6618528 0.34718475 -0.016101833
000110 94 63 79 40 0a f0 27 3e bd 84 99 3f 65 47 4f 40
       3.8967028 0.16400161 1.1993634 3.2387326
000120 7f c9 9d bc 06 c7 02 3f e0 fd 3f 3f e6 32 6f 3c
       -0.01926112 0.51084936 0.7499676 0.0145995375
000130 2f a6 b1 bf d4 75 04 3f 2b 9f 35 bd f7 9d 71 3e
       -1.387884 0.5174229 -0.044341248 0.23595415
000140 bf 6a 80 3f 3f be ca 3f a0 3c 43 bc e3 02 67 40
       1.0032576 1.5839309 -0.01191631 3.6095512
000150 a3 32 4a 3d a8 12 0e 3e e3 1f 38 3f 4b fc 58 40
       0.049364697 0.13874304 0.71923655 3.3903987
000160 a8 54 a8 3e 70 c9 0a 3f 47 2b 15 3f c4 bf 34 3e
       0.32877088 0.5421362 0.5826916 0.17651278
000170 30 05 07 bf 1a 24 8b 3e 56 f7 4d 40 be bf 69 40
       -0.5274229 0.2717598 3.2182212 3.652328
000180 74 0c 86 3e 41 ed f6 3d 6e 3f 8f 3f 44 0c 4e 3f
       0.26181376 0.12056971 1.1191232 0.80487466
000190 a8 48 2e 3f d0 a7 cf 3e 6e 4e 54 3e 33 aa f7 3f
       0.68079615 0.40557718 0.20733044 1.9348816
0001a0 56 b7 6a bd 2d ff 59 40 83 68 1a 3f cf b1 ca be
       -0.05730375 3.4061997 0.6031572 -0.39588782
0001b0 64 b8 22 3f 6c 69 d1 be fa 61 90 40 c5 7c d6 3f
       0.6356261 -0.40900743 4.51196 1.6756827
0001c0 c0 b3 cb 3f 99 15 2c 3e eb 49 92 3d c8 3b 76 3e
       1.591423 0.16805114 0.07143005 0.24046242
0001d0 10 3f 2e 3f 55 87 f2 3e 51 1e bd 3f 46 b6 81 40
       0.68064976 0.47368875 1.4774877 4.0535
0001e0 1a 0f 83 40 a0 61 3c 40 bc 9d 8c 3e 9b 89 8f 3f
       4.0955935 2.9434586 0.27464092 1.1213869
0001f0 79 0f 42 bd 22 fe f9 bc 43 78 b2 3e df fd ad bd
       -0.047378037 -0.030516688 0.34857377 -0.08495688
