logs/34-DuelingDQN-random-max-BC-simple-25_10_24_19-19-25/10/models/52000/DuelingDQN_checkpoint.pth (torch, 884427 bytes, 44 tensors)

feature_layer.model.0.weight f4 [128, 23]
1.8337501 0.23365885 0.35248762 1.9445727 3.312099 4.8377643 3.6827407 4.966353
3.0884745 5.182422 2.986472 2.4556086 2.7682736 5.162544 5.5239706 2.976709
3.0088327 4.605222 5.0708427 3.5028675 3.679699 3.6884623 3.706172 1.6778905
0.24962868 0.9923723 -0.43054977 4.359998 4.552081 4.5104933 5.005341 4.553747
4.5230823 3.8677478 3.836944 4.0600963 4.269399 4.108094 4.2012486 4.9259763
3.6810765 4.318567 4.4697556 4.309759 4.473503 4.5735493 1.7414807 0.3016349
0.33161876 2.0222108 3.1025348 5.0374627 3.7375813 4.535084 3.765287 5.1146016
3.4783156 2.8233545 2.8998246 4.734307 4.825204 2.8536716 3.452834 4.390081
4.430121 3.9009764 3.94514 3.9522316 3.9308946 1.8001565 2.564086 1.7870162
-0.83248824 4.318521 3.6104033 4.123227 3.5154042 5.2096124 3.4345977 4.828688
4.818601 5.1358795 3.7058709 3.6196916 4.7582316 4.528016 3.0894377 3.8321025
4.7776284 4.5285144 4.453938 4.6965055 2.1578746 -0.14282885 0.40701053 2.1547353
3.2754805 4.926918 3.3497415 4.723669 3.2136943 5.684321 3.233054 2.577759
2.6655617 5.440078 5.6078415 2.9126072 3.1409702 4.680795 5.0553603 3.507694
3.909446 3.8618653 4.102937 1.6482053 2.0218754 1.55193 -1.2897993 3.5776517
4.9048414 4.565681 4.776973 3.7742527 4.5419703 3.5162454 2.9008355 3.621161
3.7523386 4.382522 4.0267916 3.898256 3.734211 4.22905 4.232938 3.6609852
4.323576 4.4979544 1.7898726 -0.7381265 0.3412951 2.3487067 3.7870228 4.576921
3.3908527 4.7290626 3.2402518 5.2532854 3.2582366 2.4172888 2.634244 5.075301
5.2098155 2.6560094 3.3096206 4.4031496 4.9274187 3.694448 4.0154157 3.99916
3.7568793 1.427142 2.3136573 1.6798395 -1.261751 5.071646 4.830078 4.830472
4.8687663 4.7719474 5.0184855 5.201691 4.84886 4.975523 5.202945 4.99079
4.651422 4.6519423 4.938318 5.098011 5.3344727 5.1814713 5.4425554 5.3030424
-0.70932096 2.2160668 1.6946067 2.543054 5.2903404 4.602196 3.8065896 4.162121
5.459492 3.5559857 5.670802 5.0469646 5.1388187 4.0997286 4.055127 4.2905936
4.6538677 3.7010093 4.408941 5.678692 5.332442 5.09397 5.2342815 -1.1318141
2.3254685 1.8222418 2.7463346 4.8667374 3.9784367 3.7598805 3.7233684 5.8375473
3.471376 5.568788 5.002219 4.9616394 3.4980786 3.6832464 4.4758015 4.866357
3.0610054 3.6426523 5.5823693 5.3578544 5.2943096 5.2375827 1.6589329 -0.76112884
0.56113386 2.1233218 3.9045994 5.169842 3.6857014 5.020746 2.7903652 5.7639074
2.4311104 2.5295281 3.2237504 5.608359 5.5935593 2.3722029 2.97387 4.599402
5.261934 3.483192 3.6424177 3.88357 4.0456276 1.9787663 -0.9744701 0.7861976
00000000: 53b8 ea3f 4444 6f3e 4279 b43e c2e7 f83f
00000010: 6ef9 5340 f7ce 9a40 06b2 6b40 5dec 9e40
00000020: 91a9 4540 67d6 a540 5b22 3f40 b128 1d40
00000030: 652b 3140 8f33 a540 5ec4 b040 6682 3e40
00000040: b790 4040 fb5d 9340 5844 a240 fb2e 6040
00000050: 3080 6b40 c40f 6c40 ec31 6d40 1ec5 d63f
00000060: a99e 7f3e 1c0c 7e3f 0571 dcbe 1b85 8b40
00000070: a6aa 9140 f655 9040 c12b a040 4cb8 9140
00000080: 17bd 9040 2e89 7740 7e90 7540 4fec 8140
00000090: eb9e 8840 8275 8340 a170 8640 99a1 9d40
000000a0: c296 6b40 b331 8a40 3d08 8f40 8ce9 8940
000000b0: f026 8f40 845a 9240 d7e8 de3f e46f 9a3e
000000c0: efc9 a93e e76b 0140 ee8f 4640 e532 a140
000000d0: 8834 6f40 681f 9140 76fa 7040 d1aa a340
000000e0: b99c 5e40 d7b1 3440 ba96 3940 717f 9740
000000f0: 1268 9a40 8ea2 3640 3bfb 5c40 8b7b 8c40
00000100: 8dc3 8d40 99a9 7940 2c7d 7c40 5df1 7c40
00000110: c793 7b40 876b e63f fc19 2440 f2bc e43f
00000120: f31d 55bf 5331 8a40 d910 6740 7af1 8340
00000130: 62fc 6040 25b5 a640 73d0 5b40 9d84 9a40
00000140: fb31 9a40 2059 a440 fd2c 6d40 07a9 6740
00000150: 6f43 9840 82e5 9040 59b9 4540 2b41 7540
00000160: 55e2 9840 97e9 9040 a986 8e40 c649 9640
00000170: 9e1a 0a40 ba41 12be af63 d03e 2fe7 0940
00000180: 79a1 5140 50a9 9d40 2a62 5640 4c28 9740
00000190: 2bad 4d40 f5e5 b540 5bea 4e40 01fa 2440
000001a0: 9098 2a40 1e15 ae40 7073 b340 2868 3a40
000001b0: a805 4940 13c9 9540 83c5 a140 0f7e 6040
000001c0: 5d34 7a40 cd28 7740 434b 8340 64f8 d23f
000001d0: 6866 0140 a4a5 c63f 2518 a5bf 3ff8 6440
000001e0: 76f4 9c40 0f1a 9240 f6dc 9840 5b8d 7140
000001f0: d257 9140 2a0a 6140 4aa7 3940 1ac1 6740
00000200: 5126 7040 9f3d 8c40 7adb 8040 077d 7940
00000210: 50fd 6e40 6154 8740 3a74 8740 954d 6a40
00000220: bc5a 8a40 3eef 8f40 8c1a e53f dcf5 3cbf
00000230: 3bbe ae3e 3651 1640 955e 7240 2376 9240
00000240: bb03 5940 7b54 9740 4960 4f40 ea1a a840
00000250: f386 5040 dcb4 1a40 7497 2840 de68 a240
00000260: cfb6 a640 0ffc 2940 d3d0 5340 9ae6 8c40
00000270: 6aad 9d40 d671 6c40 497e 8040 3df2 7f40
00000280: b670 7040 97ac b63f f612 1440 fb04 d73f
00000290: 0f81 a1bf ed4a a240 0090 9a40 3a93 9a40
000002a0: efcc 9b40 cbb3 9840 6f97 a040 4174 a640
000002b0: dc29 9b40 7c37 9f40 877e a640 8db4 9f40
000002c0: 73d8 9440 b6dc 9440 b306 9e40 e822 a340
000002d0: 00b4 aa40 9dce a540 6a29 ae40 86b2 a940
000002e0: 0f96 35bf 0ad4 0d40 dfe8 d83f 66c1 2240
000002f0: 784a a940 3145 9340 2a9f 7340 1830 8540
00000300: 29b4 ae40 4595 6340 3677 b540 bc80 a140
00000310: 3471 a440 fa30 8340 9ac3 8140 8b4c 8940
00000320: 7cec 9440 56dd 6c40 0b16 8d40 d8b7 b540
00000330: 5da3 aa40 cd01 a340 3c7f a740 49df 90bf
00000340: 7ad4 1440 383f e93f f2c3 2f40 50bc 9b40
00000350: b59e 7e40 e2a1 7040 ab4b 6e40 30cd ba40
00000360: 062b 5e40 8333 b240 2e12 a040 c0c5 9e40
00000370: 85e0 5f40 4fba 6b40 c439 8f40 32b9 9b40
00000380: 83e7 4340 3721 6940 c5a2 b240 8b73 ab40
00000390: fc6a a940 479a a740 ea57 d43f 57d9 42bf
000003a0: 78a6 0f3f 81e4 0740 f5e4 7940 586f a540
000003b0: 88e2 6b40 f4a9 a040 5895 3240 ee71 b840
000003c0: 5097 1b40 cae3 2140 ed51 4e40 ad77 b340
000003d0: 70fe b240 2cd2 1740 e353 3e40 4d2e 9340
000003e0: c361 a840 9eec 5e40 5f1d 6940 698c 7840
000003f0: c875 8140 3748 fd3f df76 79bf 3f44 493f

feature_layer.model.0.bias f4 [128]
3.743779 4.6855297 3.8715925 4.2972894 3.925417 4.175622 3.7227736 5.1354914
5.162031 4.935255 3.716402 4.1442695 4.441361 3.936915 4.1432667 4.523223
3.7497928 4.6025443 4.2325554 5.056208 4.3712726 4.0006766 5.08159 4.092474
4.1629195 3.6825094 4.548566 3.8949888 4.408531 4.2164617 4.0282373 3.9122822
4.4568377 4.059818 4.552595 4.9073596 4.0897846 5.073572 4.847813 4.597656
3.90455 3.643322 5.0535283 5.1154194 3.9553592 4.8036046 4.0794797 5.3118134
4.763809 4.1479707 3.8014178 3.9662857 3.5407581 3.7761085 4.0809226 4.021686
3.687935 4.2022743 4.1495037 3.9140313 4.576151 5.1080546 3.4016666 3.8931742
3.832945 3.8366277 4.1714134 3.5771317 3.6342602 4.527272 3.89172 3.9675062
5.0491047 3.737313 4.1114907 3.7888968 4.9599495 4.920857 4.1184297 4.032589
3.8781357 4.692687 3.6304715 4.0107713 4.8119044 4.4972258 4.1045327 4.051976
3.387878 5.285993 4.682354 3.9823167 3.6489923 4.18325 3.966423 4.235419
4.05712 3.997881 5.3187127 3.9014869 4.7369876 4.502024 3.540057 4.038568
0.0338528 4.8944116 4.6873617 5.4567065 4.36938 3.625159 4.449976 4.6447234
4.049377 4.0661864 3.6460829 3.553747 3.9574316 3.6694164 4.0754943 4.6589117
4.0183043 4.7507043 4.0047526 3.4437673 -0.04644717 4.466931 3.8022287 3.8730314
00000000: 139a 6f40 dcef 9540 2cc8 7740 6583 8940
00000010: 083a 7b40 b29e 8540 ec41 6e40 f255 a440
00000020: 5c2f a540 9ced 9d40 88d9 6d40 db9d 8440
00000030: a11f 8e40 6af6 7b40 a495 8440 3ebe 9040
00000040: 9bfc 6f40 0b48 9340 1871 8740 75cc a140
00000050: 77e1 8b40 8b05 8040 639c a240 8cf5 8240
00000060: a336 8540 3cae 6b40 da8d 9140 7f47 7940
00000070: b012 8d40 41ed 8640 52e7 8040 d562 7a40
00000080: 6a9e 8e40 07ea 8140 dcae 9140 1709 9d40
00000090: 84df 8240 b45a a240 4921 9b40 ff1f 9340
000000a0: 26e4 7940 302c 6940 81b6 a140 84b1 a340
000000b0: 9b24 7d40 21b7 9940 198b 8240 60fa a940
000000c0: 2071 9840 2dbc 8440 6e4a 7340 a0d7 7d40
000000d0: c89b 6240 c3ab 7140 eb96 8240 a7b1 8040
000000e0: 2107 6c40 0879 8640 bcc8 8440 7d7f 7a40
000000f0: d46f 9240 2f75 a340 e8b4 5940 c429 7940
00000100: f94e 7540 4f8b 7540 387c 8540 baef 6440
00000110: b897 6840 6adf 9040 f111 7940 9feb 7d40
00000120: 4492 a140 2330 6f40 5591 8340 497d 7240
00000130: e8b7 9e40 a977 9d40 2dca 8340 f80a 8140
00000140: 6033 7840 7e2a 9640 a559 6840 3d58 8040
00000150: 1ffb 9940 46e9 8f40 5558 8340 caa9 8140
00000160: fed2 5840 db26 a940 d8d5 9540 47de 7e40
00000170: 1789 6940 2fdd 8540 e0d9 7d40 8d88 8740
00000180: edd3 8140 48dd 7f40 e532 aa40 f6b1 7940
00000190: 6795 9740 9510 9040 4b90 6240 f33b 8140
000001a0: 3ca9 0a3d 059f 9c40 defe 9540 579d ae40
000001b0: f6d1 8b40 9b02 6840 3466 8e40 93a1 9440
000001c0: 7f94 8140 331e 8240 6c59 6940 9770 6340
000001d0: 8f46 7d40 b8d7 6a40 736a 8240 ce15 9540
000001e0: f395 8040 c505 9840 ef26 8040 af66 5c40
000001f0: 633f 3ebd 19f1 8e40 b757 7340 bfdf 7740

feature_layer.model.2.weight f4 [128, 128]
3.3267152 3.2589488 2.7441547 1.4711424 3.1250973 2.9688792 3.2519088 2.5838287
2.277727 2.258854 3.6258736 3.7225156 2.196073 2.9172852 3.6165788 1.9707365
3.096886 1.960667 1.8637149 2.0623174 1.9907516 3.1732404 2.1616423 3.027671
2.8449068 2.6758642 2.081526 2.5914128 3.4443612 3.4404292 3.4440854 2.7954364
3.0471728 3.6335742 2.0757568 2.093148 2.796996 2.3465588 2.2284613 3.3889058
3.3479745 1.0664513 2.856469 3.3645458 3.4273 1.9709291 3.4792838 2.1802416
1.9764259 1.5965014 3.4178174 3.6059535 1.2315136 3.4428618 3.612962 3.9287956
2.8255293 3.172026 3.5265603 3.909068 2.0322793 2.0485935 1.061803 3.3887498
3.606712 3.1907494 2.8278577 3.3386414 3.4236753 1.9539249 2.7717092 3.2098608
2.2521372 3.5870352 2.9776797 3.4964597 2.0232823 2.1298847 3.6275923 3.0529566
3.4568434 2.2117581 3.8103104 2.6247134 3.0339322 3.1179292 2.3812904 3.4026167
3.1410644 2.253294 3.5297337 3.5552483 1.3651906 2.3676794 3.3467684 3.3439348
2.77739 3.1267323 2.934567 3.603291 2.1031764 1.7140402 2.9899046 3.709444
-0.0695274 2.0811827 3.149413 2.239902 1.7378485 2.6106098 2.4151573 2.2563956
2.7055027 3.1385078 1.2720765 3.1801074 3.227025 2.7733192 2.5698326 2.0777845
1.8246876 2.9804149 3.2623875 3.300932 -0.0341188 3.4749908 3.1007454 3.5417612
3.6870902 3.2311144 3.3305418 2.5400603 3.3960423 3.9014924 3.5044334 3.3425293
2.4997833 2.4231198 3.7728753 3.6831195 2.653096 3.3282533 3.50281 2.3840976
3.5350277 2.4716458 2.4751256 2.597451 2.670446 3.750864 2.6948388 3.2942371
3.759416 2.9657114 2.4656928 3.14885 3.6236727 3.32285 3.613861 3.6919792
3.4307637 3.6102886 2.1008496 2.6039398 3.1344981 2.5832102 2.295556 3.8785343
3.442356 1.6630356 3.4616156 3.7777882 3.3929737 2.2922764 3.8198986 2.6779723
2.3413672 2.2407863 3.4139001 3.5827463 1.8496339 3.6080582 3.6363044 3.757747
3.2158186 3.2844827 3.4478502 3.731215 2.4794047 2.423808 2.1002095 3.8856757
3.5895727 3.335776 3.2921832 3.1826587 3.6438217 2.247855 3.1124737 3.2751129
2.5476384 3.622558 3.5892718 3.5143235 2.4435935 2.4016666 3.7543645 3.5895512
3.3309007 2.715937 3.659338 3.1952815 3.0958595 2.8041432 3.758919 3.4753256
3.3646483 2.716846 3.3271244 3.5024967 1.8595517 3.869049 3.3900237 3.3660884
3.1044066 3.4662547 3.226255 3.5391748 2.5943444 2.424174 3.357064 3.5736928
0.04448753 2.530914 3.1946929 2.84129 2.2445402 2.9412117 3.4516733 2.4081118
3.7106845 3.603344 1.6773721 3.456579 3.5384257 3.0544145 3.3198981 2.3925643
2.165141 3.173901 3.3549612 3.270655 0.0022411281 3.0886571 3.4039366 3.6922386
00000000: e7e8 5440 9e92 5040 3ba0 2f40 654e bc3f
00000010: 9801 4840 1e02 3e40 461f 5040 735d 2540
00000020: 47c6 1140 1091 1040 500e 6840 b23d 6e40
00000030: 768c 0c40 cdb4 3a40 0776 6740 1841 fc3f
00000040: 6133 4640 23f7 fa3f 368e ee3f 02fd 0340
00000050: f3d0 fe3f 5f16 4b40 5958 0a40 5dc5 4140
00000060: f412 3640 5c41 2b40 b937 0540 b5d9 2540
00000070: 6a70 5c40 fe2f 5c40 e56b 5c40 6ee8 3240
00000080: e104 4340 7b8c 6840 33d9 0440 23f6 0540
00000090: fc01 3340 052e 1640 1c9f 0e40 d5e3 5840
000000a0: 3745 5640 7a81 883f 63d0 3640 b854 5740
000000b0: e258 5b40 6847 fc3f 96ac 5e40 1489 0b40
000000c0: 86fb fc3f 285a cc3f 85bd 5a40 f1c7 6640
000000d0: 3da2 9d3f d957 5c40 c53a 6740 6371 7b40
000000e0: 79d5 3440 7902 4b40 2ab3 6140 2c2e 7a40
000000f0: dd10 0240 281c 0340 29e9 873f 47e1 5840
00000100: 5fd4 6640 3d35 4c40 9ffb 3440 4dac 5540
00000110: 7f1d 5b40 361a fa3f af63 3140 5c6e 4d40
00000120: 0423 1040 fc91 6540 4e92 3e40 ffc5 5f40
00000130: 757d 0140 0850 0840 792a 6840 a463 4340
00000140: ec3c 5d40 728d 0d40 20dc 7340 4efb 2740
00000150: f22b 4240 278c 4740 1067 1840 79c4 5940
00000160: 3307 4940 f835 1040 28e7 6140 3089 6340
00000170: 91be ae3f 0f88 1740 7431 5640 0703 5640
00000180: c2c0 3140 621c 4840 f2cf 3b40 529c 6640
00000190: 719a 0640 ab65 db3f 995a 3f40 8867 6d40
000001a0: 6264 8ebd 1932 0540 fc8f 4940 8e5a 0f40
000001b0: d271 de3f 3b14 2740 f091 1a40 c968 1040
000001c0: f526 2d40 50dd 4840 67d3 a23f e186 4b40
000001d0: 9487 4e40 107e 3140 2378 2440 6cfa 0440
000001e0: 5d8f e93f 1ebf 3e40 f5ca 5040 7842 5340
000001f0: 28c0 0bbd 4066 5e40 9d72 4640 37ac 6240
00000200: 49f9 6b40 94ca 4e40 9927 5540 5990 2240
00000210: c258 5940 0db2 7940 a348 6040 00ec 5540
00000220: 73fc 1f40 6514 1b40 ca76 7140 3bb8 6b40
00000230: 53cc 2940 1a02 5540 0a2e 6040 0e95 1840
00000240: e53d 6240 722f 1e40 7568 1e40 a33c 2640
00000250: 96e8 2a40 280e 7040 3d78 2c40 c8d4 5240
00000260: 469a 7040 37ce 3d40 e9cd 1d40 c286 4940
00000270: 41ea 6740 93a9 5440 8049 6740 6349 6c40
00000280: a291 5b40 f80e 6740 5274 0640 f3a6 2640
00000290: 9e9b 4840 5153 2540 64ea 1240 e839 7840
000002a0: 904f 5c40 5ade d43f 1c8b 5d40 48c7 7140
000002b0: 7b26 5940 a8b4 1240 3879 7440 e663 2b40
000002c0: f6d8 1540 0b69 0f40 577d 5a40 b74b 6540
000002d0: cec0 ec3f 6dea 6640 36b9 6840 ed7e 7040
000002e0: f9cf 4d40 f734 5240 94a9 5c40 3acc 6e40
000002f0: 91ae 1e40 ac1f 1b40 d569 0640 e9ae 7840
00000300: 8fbb 6540 5b7d 5540 21b3 5240 aeb0 4b40
00000310: 6034 6940 dbdc 0f40 c532 4740 739b 5140
00000320: 820c 2340 fed7 6740 a1b6 6540 adea 6040
00000330: d663 1c40 e8b4 1940 8247 7040 35bb 6540
00000340: 7a2d 5540 e9d1 2d40 9832 6a40 7e7f 4c40
00000350: 9022 4640 1577 3340 2192 7040 bc6b 5e40
00000360: 6656 5740 cee0 2d40 9bef 5440 e828 6040
00000370: ca05 ee3f 809e 7740 26f6 5840 fe6d 5740
00000380: 99ae 4640 1ed7 5d40 f67a 4e40 d781 6240
00000390: bd09 2640 ab25 1b40 23da 5640 62b7 6440
000003a0: 8e38 363d 7ffa 2140 d975 4c40 b2d7 3540
000003b0: 8ca6 0f40 d03c 3c40 37e8 5c40 811e 1a40
000003c0: db7b 6d40 309d 6640 21b4 d63f 9738 5d40
000003d0: 9175 6240 877b 4340 3679 5440 c61f 1940
000003e0: ac91 0a40 3221 4b40 afb7 5640 6952 5140
000003f0: e4df 123b 8fac 4540 19da 5940 a34d 6c40

feature_layer.model.2.bias f4 [128]
2.482768 2.9814699 0.021747958 2.0595672 0.024607468 2.7980127 -0.13087124 -0.0042109923
2.9619136 -1.8863587 3.9319015 2.7380435 2.8490677 2.388624 2.6262739 2.3237777
2.7478228 3.3438106 2.8617861 -0.21554472 2.2011614 2.2988536 2.5542526 2.7131896
3.701572 2.0077407 2.6938913 1.89266 2.6131408 2.5150824 2.1856885 2.8414443
0.044850845 2.269645 2.4837766 2.0948613 -0.01889706 2.8494978 2.6490078 0.0041953735
3.5347486 -0.033789195 2.8719866 -0.053357616 3.7166166 0.038593926 3.2512562 -0.024051052
-0.0795997 2.6695793 3.305048 2.7456574 2.8325446 2.106119 2.4911122 2.7238474
2.7845445 2.6436632 2.601216 2.6010907 2.4759033 2.7287052 2.4992468 2.7316718
2.6318195 3.0883439 -0.13342267 2.7752848 2.4608953 2.3133886 -0.04745482 2.2113366
3.061767 2.8667154 2.3569436 -0.07674429 -0.15275173 2.5163753 2.4702346 2.7309968
-0.039809663 2.4636357 -0.028610276 -0.042151596 0.03226254 2.9623818 -0.004006795 2.5354621
3.3138378 0.061252996 0.061317503 -0.04828539 2.2780595 2.536079 2.4365375 2.678898
2.5177083 2.7231784 2.137835 2.9330668 0.07392653 3.044573 0.0784624 2.483266
2.656178 2.619295 -0.23171414 2.8099031 3.8232245 -0.06861409 2.685587 2.8235433
2.0899608 2.747319 2.3525028 2.5037014 0.023587324 -0.032333653 2.0061314 3.4351137
-0.068439 2.8465724 2.3018327 -0.0021332607 2.3710322 -0.017245382 2.9593792 2.994291
00000000: ace5 1e40 67d0 3e40 c628 b23c f3cf 0340
00000010: 9a95 c93c a412 3340 1c03 06be 5dfc 89bb
00000020: fe8f 3d40 3474 f1bf 46a4 7b40 1b3c 2f40
00000030: 2057 3640 37df 1840 df14 2840 c6b8 1440
00000040: 54dc 2f40 fe00 5640 8127 3740 c1b7 5cbe
00000050: d4df 0c40 6b20 1340 e078 2340 e6a4 2d40
00000060: 8ee6 6c40 d37e 0040 b768 2c40 af42 f23f
00000070: b33d 2740 1cf7 2040 52e2 0b40 39da 3540
00000080: 85b5 373d dd41 1140 32f6 1e40 3512 0640
00000090: 02ce 9abc 2c5e 3640 5889 2940 5879 893b
000000a0: 5239 6240 8a66 0abd a1ce 3740 848d 5abd
000000b0: 0cdd 6d40 aa14 1e3d 9514 5040 b606 c5bc
000000c0: 2b05 a3bd 63da 2a40 e885 5340 dab8 2f40
000000d0: 6948 3540 a7ca 0640 626e 1f40 8453 2e40
000000e0: fa35 3240 c731 2940 537a 2640 4578 2640
000000f0: 3375 1e40 1ba3 2e40 a9f3 1f40 b6d3 2e40
00000100: bb6f 2840 6da7 4540 f49f 08be 449e 3140
00000110: 4f7f 1d40 8f0e 1440 fc5f 42bd 8a86 0d40
00000120: fef3 4340 4478 3740 2ad8 1640 1c2c 9dbd
00000130: f36a 1cbe 4b0c 2140 5318 1e40 a7c8 2e40
00000140: 750f 23bd 35ac 1d40 1960 eabc 27a7 2cbd
00000150: ba25 043d aa97 3d40 6f4b 83bb 0345 2240
00000160: eb15 5440 6ce4 7a3d 1028 7b3d e7c6 45bd
00000170: bacb 1140 1e4f 2240 3bf0 1b40 1173 2b40
00000180: 2222 2140 8e48 2e40 4ad2 0840 5eb7 3b40
00000190: cb66 973d 49da 4240 e5b0 a03d d5ed 1e40
000001a0: d2fe 2940 87a2 2740 7946 6dbe 74d5 3340
000001b0: b6af 7440 8b85 8cbd a8e0 2b40 efb4 3440
000001c0: ebc1 0540 13d4 2f40 688f 1640 a53c 2040
000001d0: 343a c13c 4b70 04bd 7564 0040 e7d8 5b40
000001e0: bf29 8cbd 3e2e 3640 3a51 1340 2dce 0bbb
000001f0: febe 1740 3046 8dbc 7866 3d40 77a2 3f40

value_stream.model.0.weight f4 [128, 128]
0.0065826704 -0.041870154 0.07379599 0.041782834 0.032418095 -0.00048741803 -0.08795893 -0.05199191
0.0061725113 0.027569197 -0.076220244 -0.03537346 0.0020403434 -0.020677257 0.06588782 0.07061271
0.07164578 -0.07194929 0.012171875 0.07622506 0.046147283 -0.012576486 -0.024873946 -0.101719745
0.028954959 -0.081930004 0.07906988 -0.012796444 0.027318636 0.061809532 -0.031241769 0.0423806
0.02985493 -0.095629804 -0.04614629 -0.05452768 -0.0662885 0.046951 -0.009120479 -0.023492862
-0.1126093 -0.041147914 -0.025704158 0.087347366 0.038679995 -0.0033577755 0.04706407 -0.008114092
-0.0020952215 -0.026205366 -0.08152393 0.04744244 0.025748245 0.15911713 0.06757505 -0.07666444
-0.07972265 -0.009215953 -0.0558426 -0.024290098 0.08659664 -0.06963901 -0.05597863 -0.059636664
0.06008478 0.06958338 0.004341058 -0.0046864953 0.055843018 -0.019685863 -0.07134303 0.03838275
0.048890304 0.041726846 0.0066755298 -0.038780104 -0.1005432 -0.07681831 -0.05426191 -0.06060955
-0.061684232 0.080819964 -0.016010799 -0.074267395 0.026114509 -0.08262862 -0.046474684 -0.0893333
-0.0024033827 0.006321773 0.037836738 0.07830801 -0.016027031 0.046003416 0.047398727 -0.014966261
0.038005084 0.005418555 -0.09687582 -0.008956027 -0.083115175 -0.06983997 0.08146454 -0.016210675
-0.035272058 -0.062938794 -0.03452762 0.08116722 -0.08006102 -0.032128587 0.008748535 -0.044786736
-0.015498069 -0.060706045 -0.075710475 0.0310095 0.037292503 -0.08079445 -0.03524185 0.0040279035
-0.030471161 -0.024091294 0.04001328 -0.027163941 0.00042471022 -0.037345994 -0.039225627 -0.011020332
2.958758 3.1015127 -0.024493089 2.0706892 0.04153294 2.9510345 -0.15441519 -0.066753425
3.3189948 -1.183512 3.0553238 2.971304 3.1328351 3.1417286 3.1257133 2.8313494
3.0237877 3.0984483 3.2604878 -0.090178266 2.324609 2.0748417 3.0247066 3.1502085
4.0234747 2.1305556 3.4362433 1.7780952 3.0891109 3.2280257 2.3796782 3.412601
0.06603192 2.2069514 2.949244 2.77824 0.051715 2.9964569 2.8750455 0.024956668
3.3522167 0.052594047 3.322765 0.05046215 3.7436068 -0.035851352 3.3072214 0.0002959243
-0.013356084 3.1942358 3.3626218 3.4708967 3.1171741 3.0540092 2.836318 2.972352
3.21442 3.120774 3.2762182 2.9011118 3.1421602 2.999732 2.979126 3.1942062
3.5059807 3.2835712 -0.09005307 3.1328578 3.0033555 2.988263 -0.06743009 2.9898527
3.2823923 3.274993 3.1877813 0.007032226 -0.02739289 3.1260905 3.0630815 3.2976985
0.0763996 2.5610142 -0.034597326 0.07581501 -0.050001018 2.9959755 0.06717554 3.163898
3.2572494 -0.042340744 -0.06423954 0.02388431 2.9641058 3.083622 2.9522321 3.0669038
2.9041595 3.0891366 2.2117035 3.0960493 0.09702292 3.1537724 0.025770783 3.1960926
3.051242 3.0229454 -0.114483505 3.3723457 3.409051 0.0839322 3.2438092 3.1627178
2.479738 3.1651282 3.1227448 2.961233 -0.062785536 -0.0027161029 2.8442917 3.2572794
-0.015434958 3.1202443 2.8419154 -0.07121714 3.1553512 0.056125183 3.3104606 3.1485388
00000000: 71b3 d73b 0a80 2bbd 5a22 973d 7a24 2b3d
00000010: d6c8 043d 248c ffb9 d023 b4bd 78f5 54bd
00000020: c742 ca3b ccd8 e13c 5c19 9cbd c3e3 10bd
00000030: 48b7 053b 5a63 a9bc 32f0 863d 669d 903d
00000040: 06bb 923d 265a 93bd 8b6c 473c e21b 9c3d
00000050: ef04 3d3d 9b0d 4ebc 72c4 cbbc 7152 d0bd
00000060: f332 ed3c ebca a7bd 64ef a13d 2da8 51bc
00000070: 55cb df3c fe2b 7d3d bdee ffbc 4897 2d3d
00000080: 5392 f43c 8fd9 c3bd e403 3dbd 6b58 5fbd
00000090: 44c2 87bd b14f 403d 106e 15bc 1a74 c0bc
000000a0: b49f e6bd b78a 28bd 8791 d2bc 2de3 b23d
000000b0: ea6e 1e3d 200e 5cbb 41c6 403d f8f0 04bc
000000c0: fc4f 09bb a3ac d6bc 05f6 a6bd 0153 423d
000000d0: fced d23c 9aef 223e ca64 8a3d 3f02 9dbd
000000e0: a145 a3bd 82fe 16bc 36bb 64bd 07fc c6bc
000000f0: 9459 b13d e69e 8ebd d949 65bd 9345 74bd
00000100: 751b 763d bb81 8e3d 6f3f 8e3b 2c91 99bb
00000110: a6bb 643d 3f44 a1bc 4b1c 92bd 3b37 1d3d
00000120: 3341 483d c5e9 2a3d 67be da3b e3d7 1ebd
00000130: 98e9 cdbd eb52 9dbd bd41 5ebd b841 78bd
00000140: 9ba8 7cbd f084 a53d 1429 83bc 8119 98bd
00000150: 18ee d53c 3239 a9bd 3d5c 3ebd 61f4 b6bd
00000160: 1282 1dbb e026 cf3b b2fa 1a3d f35f a03d
00000170: 1f4b 83bc 146e 3c3d 2b25 423d 0c35 75bc
00000180: 38ab 1b3d 228e b13b d466 c6bd 4dbc 12bc
00000190: 4a38 aabd 4208 8fbd e1d6 a63d 40cc 84bc
000001a0: 6f79 10bd 0ee6 80bd d56c 0dbd 003b a63d
000001b0: 08f7 a3bd 4499 03bd 0456 0f3c 4c72 37bd
000001c0: 9deb 7dbc e7a6 78bd 180e 9bbd a307 fe3c
000001d0: 06c0 183d 9077 a5bd c259 10bd 81fc 833b
000001e0: a89e f9bc 1b5b c5bc f7e4 233d ea86 debc
000001f0: a4ab de39 1df8 18bd 0dab 20bd 9f8e 34bc
00000200: 4b5c 3d40 2f7f 4640 bba5 c8bc 2c86 0440
00000210: 721e 2a3d c0dd 3c40 041f 1ebe 05b6 88bd
00000220: 696a 5440 527d 97bf 6d8a 4340 d829 3e40
00000230: 5f80 4840 1512 4940 b00b 4840 d434 3540
00000240: bd85 4140 fa4c 4640 d5ab 5040 62af b8bd
00000250: 65c6 1440 35ca 0440 cb94 4140 049d 4940
00000260: 4ec0 8040 065b 0840 69eb 5b40 a098 e33f
00000270: feb3 4540 f997 4e40 a64c 1840 0e68 5a40
00000280: be3b 873d b13e 0d40 6ac0 3c40 afce 3140
00000290: 1cd3 533d f3c5 3f40 bf00 3840 ed71 cc3c
000002a0: b88a 5640 db6c 573d 2fa8 5440 66b1 4e3d
000002b0: 4197 6f40 ded8 12bd 84a9 5340 4a26 9b39
000002c0: 7ad3 5abc 5c6e 4c40 3235 5740 2c23 5e40
000002d0: c87f 4740 e374 4340 3c86 3540 043b 3e40
000002e0: 0fb9 4d40 c3ba 4740 8fad 5140 d1ab 3940
000002f0: 2719 4940 9cfb 3f40 00aa 3e40 e06d 4c40
00000300: fd61 6040 0826 5240 be6d b8bd be80 4840
00000310: fa36 4040 b33f 3f40 c918 8abd bf59 3f40
00000320: b712 5240 7c99 5140 9c04 4c40 966e e63b
00000330: 0e67 e0bc de11 4840 8709 4440 7e0d 5340
00000340: 6577 9c3d a8e7 2340 edb5 0dbd e644 9b3d
00000350: decd 4cbd 10be 3f40 5493 893d 4e7d 4a40
00000360: c676 5040 7d6d 2dbd 0590 83bd 07a9 c33c
00000370: e9b3 3d40 105a 4540 5ff1 3c40 2748 4440
00000380: c0dd 3940 6ab4 4540 8d8c 0d40 ac25 4640
00000390: f4b3 c63d 68d7 4940 401d d33c c88c 4c40
000003a0: 8d47 4340 f077 4140 5476 eabd 83d4 5740
000003b0: e42d 5a40 a5e4 ab3d 929a 4f40 f869 4a40
000003c0: 07b4 1e40 7691 4a40 0ddb 4740 d784 3d40
000003d0: b495 80bd a500 32bb e008 3640 4477 5040
000003e0: e8e2 7cbc 15b2 4740 f1e1 3540 4bda 91bd
000003f0: 46f1 4940 85e3 653d 96de 5340 a981 4940

value_stream.model.0.bias f4 [128]
0.018788531 0.5656704 -0.038869698 0.8506829 0.7248443 -0.08656292 -0.09686231 0.6817844
0.48470855 0.58812976 0.03427056 0.52350396 -0.016045393 -0.099074095 -0.0108991545 0.5356891
0.59979445 0.46793425 0.73257124 0.71718127 0.43468204 0.63378704 0.52229196 0.44692227
0.032361254 0.63979304 -0.08173562 -0.09360347 0.6421765 1.1649392 0.480375 0.4395802
0.81145763 0.023826985 0.640859 0.014791267 -0.10237927 0.8684253 0.4967822 0.54234296
-0.009652496 -0.0955844 -0.11539908 -0.065644614 -0.04771059 1.031254 0.85924673 0.07316335
-0.010072086 0.041827206 0.050746415 0.43617988 0.028960507 0.5742303 0.5250825 0.006170839
0.41829818 0.4766669 0.7927672 -0.09657876 0.7922141 -0.11063497 0.02887725 -0.08325139
-0.07484152 -0.04441712 0.63046306 0.5940636 0.46074238 0.59009445 -0.057879124 0.5416354
0.026243906 -0.05164372 0.001305372 -0.012523905 -0.059577957 0.50639313 0.60506785 0.65235275
-0.040079363 0.6632032 0.6659879 0.5104045 -0.038332283 0.015866106 0.027299318 -0.020648975
0.0044170585 0.06858888 0.5050941 -0.01308558 0.020370033 0.6221735 0.89200175 0.016077109
0.027396677 0.47565493 0.4918006 0.6454771 0.6511862 0.4111816 0.50920546 -0.047878254
0.0625184 0.030417671 -0.13852611 0.051987458 -0.01608905 0.5392184 -0.056802828 0.68805814
0.4352868 0.7594357 -0.09271225 0.010923073 0.9597478 -0.0657585 -0.060453027 1.0389485
0.04686483 -0.038159214 -0.08505152 0.54702884 0.44665456 -0.08533277 -0.009227422 -0.053298
00000000: 68ea 993c c6cf 103f d535 1fbd 5bc6 593f
00000010: 658f 393f e647 b1bd bf5f c6bd 6c89 2e3f
00000020: b82b f83e ac8f 163f 495f 0c3d 5b04 063f
00000030: a171 83bc 5ce7 cabd 5e92 32bc ec22 093f
00000040: 218c 193f 1495 ef3e ca89 3b3f 3199 373f
00000050: a58e de3e de3f 223f edb4 053f ffd2 e43e
00000060: 3c8d 043d 7ac9 233f 0165 a7bd 2db3 bfbd
00000070: ae65 243f ba1c 953f b6f3 f53e a810 e13e
00000080: b0bb 4f3f cf30 c33c 560f 243f 1257 723c
00000090: 39ac d1bd 1f51 5e3f 3d5a fe3e fdd6 0a3f
000000a0: 8125 1ebc c1c1 c3bd 5a56 ecbd af70 86bd
000000b0: 2e6c 43bd 2200 843f 98f7 5b3f abd6 953d
000000c0: 6405 25bc 0153 2b3d 79db 4f3d f852 df3e
000000d0: 963e ed3c c200 133f cf6b 063f c034 ca3b
000000e0: 2e2b d63e af0d f43e cbf2 4a3f 16cb c5bd
000000f0: 8bce 4a3f 9694 e2bd fc8f ec3c b47f aabd
00000100: 8346 99bd baee 35bd 0766 213f 8d14 183f
00000110: 6de6 eb3e 6e10 173f a912 6dbd 9ea8 0a3f
00000120: 76fd d63c 5e88 53bd 0419 ab3a 1131 4dbc
00000130: 0408 74bd fba2 013f bae5 1a3f 9700 273f
00000140: 422a 24bd afc7 293f 2f7e 2a3f dfa9 023f
00000150: 5002 1dbd a3f9 813c d2a2 df3c 0a28 a9bc
00000160: f9bc 903b 5478 8c3d d94d 013f e764 56bc
00000170: 0edf a63c c346 1f3f 3a5a 643f 24b4 833c
00000180: ff6e e03c 0b89 f33e 4acd fb3e fd3d 253f
00000190: 24b4 263f 6586 d23e 4a5b 023f fd1b 44bd
000001a0: a609 803d 7b2e f93c cad9 0dbe cdf0 543d
000001b0: 2fcd 83bc 380a 0a3f 15aa 68bd 9424 303f
000001c0: e9dd de3e 616a 423f ecdf bdbd b0f6 323c
000001d0: 08b2 753f 64ac 86bd 989d 77bd 44fc 843f
000001e0: 56f5 3f3d d64c 1cbd 7e2f aebd 150a 0c3f
000001f0: e8af e43e f3c2 aebd 9d2e 17bc 014f 5abd

value_stream.model.2.weight f4 [1, 128]
-0.0059688077 3.5234778 -0.01561372 3.6176214 3.9461963 -0.0718806 0.047808856 3.582144
3.8217535 3.716351 -0.094401106 3.6308532 -0.047556337 -0.00066878385 -0.21891373 3.676761
4.05956 3.6816905 3.7156794 3.761674 3.560459 3.8790438 3.6061563 3.6146276
-0.03410982 3.5069559 0.08368188 -0.06992179 4.019848 3.6848893 3.5632265 3.6910484
3.5738459 -0.46758774 3.614727 -0.117923506 -0.050727457 4.1761947 3.6093004 3.568184
-0.3563225 -0.06256942 -0.11145925 -0.022984264 -0.05628192 3.60468 3.9552214 0.050197132
-0.01842516 -0.001820331 -0.04238258 3.6099656 -0.58857673 4.392766 3.5282834 -0.009849919
3.60946 3.5888789 4.120975 -0.24860291 3.4393818 -0.02763055 -0.03190774 0.0005339396
-0.008944307 -0.07543621 3.5442731 4.17521 3.587676 3.6026425 0.00019442478 3.9159865
-0.12638925 -0.035560094 0.03709711 -0.60912997 -0.06162854 3.83142 4.427685 3.542809
-0.09630869 4.302653 4.3860607 3.5536144 0.045342665 -0.0014187659 -0.0023226861 -0.5076077
0.024974734 0.049748816 4.0638347 -0.060712624 0.030029148 4.2717476 4.225181 0.018356273
-0.037111335 3.683452 3.550007 3.7058063 3.8560379 3.5959673 3.5991032 0.020634092
-0.07997967 -0.06320368 -0.23411448 -0.3213397 -0.09782934 3.6897523 0.0034224626 4.0518484
3.5660641 3.979763 -0.8290142 -0.052034535 4.1095777 -0.29820427 -0.0049319095 4.250507
0.007233372 -0.118115366 -0.29459524 3.5560873 3.8379176 -0.25024337 -0.046584792 -0.026349166
00000000: fd95 c3bb a980 6140 b0d0 7fbc 1c87 6740
00000010: 7b8e 7c40 2336 93bd 38d3 433d d941 6540
00000020: 9c97 7440 b2d8 6d40 5e55 c1bd e65f 6840
00000030: 6fca 42bd 5351 2fba ec2a 60be 0d50 6b40
00000040: eae7 8140 d1a0 6b40 b1cd 6d40 44bf 7040
00000050: 8fde 6340 4142 7840 44cb 6640 0f56 6740
00000060: bdb6 0bbd f771 6040 6861 ab3d 2833 8fbd
00000070: 98a2 8040 3ad5 6b40 e70b 6440 233a 6c40
00000080: e4b9 6440 a967 efbe b057 6740 e181 f1bd
00000090: 98c7 4fbd 63a3 8540 c7fe 6640 205d 6440
000000a0: e76f b6be 6524 80bd bf44 e4bd 7f49 bcbc
000000b0: df87 66bd 14b3 6640 5922 7d40 829b 4d3d
000000c0: 5cf0 96bc 2c98 eeba 5b99 2dbd ad09 6740
000000d0: f7ac 16bf 8a91 8c40 65cf 6140 8e61 21bc
000000e0: 6501 6740 31b0 6540 07df 8340 c391 7ebe
000000f0: d51e 5c40 7759 e2bc b1b1 02bd 14f8 0b3a
00000100: 258b 12bc 4d7e 9abd 5fd5 6240 529b 8540
00000110: 7c9c 6540 b291 6640 81de 4b39 869f 7a40
00000120: 2f6c 01be 76a7 11bd 24f3 173d f1ef 1bbf
00000130: 356e 7cbd fc35 7540 98af 8d40 62bd 6240
00000140: 7e3d c5bd 55af 8940 9c5a 8c40 6b6e 6340
00000150: 3bb9 393d e2f5 b9ba 3538 18bb 94f2 01bf
00000160: d097 cc3c 6ac5 4b3d ef0a 8240 cdad 78bd
00000170: b0ff f53c 28b2 8840 af34 8740 e55f 963c
00000180: 0e02 18bd adbd 6b40 5133 6340 ee2b 6d40
00000190: 53c9 7640 5424 6640 b557 6640 d408 a93c
000001a0: 62cc a3bd ee70 81bd b5bb 6fbe a386 a4be
000001b0: c05a c8bd e724 6c40 654b 603b bea8 8140
000001c0: 653a 6440 70b4 7e40 463a 54bf 2a22 55bd
000001d0: a981 8340 3bae 98be db9b a1bb 2704 8840
000001e0: ec05 ed3b 78e6 f1bd 30d5 96be ef96 6340
000001f0: 71a0 7540 e61f 80be b2cf 3ebd 35da d7bc

advantage_stream.model.0.weight f4 [128, 128]
-0.07913563 -0.06848344 0.047466595 -0.07144606 0.04528637 0.052689247 -0.047895294 -0.037214514
0.0007869868 0.0052408203 -0.055232126 -0.08527751 -0.019666854 0.03332582 0.057667248 0.066662475
0.056032974 0.079284824 -0.096755154 -0.0729759 -0.045684364 -0.03690722 -0.08921998 0.041756324
-0.013375521 4.945811e-06 -0.010259312 0.013499774 -0.00840285 -0.012838848 -0.060275428 -0.0264474
0.029912904 -0.043988526 -0.08315992 -0.0633433 -0.040894832 -0.07175836 0.054548033 0.019651419
0.06905858 0.021416686 0.030537222 -0.0746072 -0.0037284717 0.077901594 -0.03317274 0.0026169717
0.050610058 -0.03295851 0.037023835 -0.07873633 0.06975375 0.029255217 -0.06759021 0.0569325
-0.015048015 -0.0592389 0.08226509 -0.0692438 0.006088421 -0.075138785 -0.019495565 0.005526202
-0.043747336 -0.091586255 -0.007318269 -0.0861127 -0.0036252514 0.0009750649 -0.061751045 -0.01679377
0.06087698 -0.0349148 0.058712564 -0.075663604 0.06406369 0.047515966 0.02050369 -0.05274881
0.020773023 -0.04953475 -0.010467716 0.072499014 0.01420726 0.01428888 -0.032259114 0.010579025
0.04135918 -0.043263223 -0.024555996 -0.03969599 -0.023590656 -0.046168953 -0.071784966 -0.06754248
0.039457224 -0.017534558 -0.06626354 -0.053384483 0.030562252 0.042480018 -0.08242157 0.06076712
-0.0032831733 -0.011088084 -0.059854813 0.025062244 -0.07911815 0.05712191 -0.040540557 0.065637074
-0.08142051 -0.033335283 0.017197467 -0.07143701 0.0039957315 -0.027712762 0.0683235 -0.0045741647
0.05203525 -0.0137927495 0.019709764 -0.033818882 -0.082753696 -0.010211125 -0.09713855 0.0032836422
2.1031108 2.0056174 0.029512329 0.68442583 -0.024575155 2.3773828 -0.42543146 0.054307766
2.5842597 1.0328653 2.1463287 1.857654 2.0360243 1.908681 2.109858 1.5287411
2.1759057 2.0787282 2.0725548 -0.1860317 1.2868558 1.3574556 2.2688174 2.1972775
1.6322854 0.5507342 2.548893 0.6128041 1.7230881 1.2197624 0.7483271 2.1031063
-0.03373349 0.7660582 1.6337236 1.7674482 0.00606907 2.2120528 2.2030015 -0.06417728
2.0097198 0.024079189 2.0468998 -0.04116525 2.4484775 0.05143305 2.0180304 -0.06925591
0.014264229 2.278524 1.8772508 2.1685278 1.8688201 2.0666535 2.3098867 2.2519977
2.2765622 1.7673702 2.4002912 2.0894647 1.8505611 1.8044827 2.14518 2.272829
2.8894491 2.037759 -0.25628796 2.1489093 2.0732727 1.9961903 -0.08233238 1.8625146
2.2541592 2.165351 2.1451175 -0.029048871 0.023590092 2.204315 1.8955199 2.21937
-0.031224657 1.201524 0.0014617443 0.069192946 0.023846203 2.6777465 0.023437504 2.0499513
2.3933327 -0.021391403 -0.051134083 -0.036190193 2.0389464 1.6254345 1.9881057 1.9545623
1.8926467 2.1240337 0.6150644 2.0131547 0.061509486 2.314817 0.052739568 2.0282316
2.212078 1.9325874 -0.112937346 2.037387 2.6040998 -0.078872345 2.3137887 2.1237285
0.6530335 2.2556703 2.272514 1.6148185 -0.07285249 -0.03844643 2.0114722 2.1493657
-0.028466064 2.1200233 1.4124138 0.0718053 1.4663941 -0.028992034 1.9284198 2.09776
00000000: dc11 a2bd 0c41 8cbd 556c 423d 5052 92bd
00000010: 337e 393d aed0 573d db2d 44bd 3f6e 18bd
00000020: ca4d 4e3a 30bb ab3b 153b 62bd faa5 aebd
00000030: 621c a1bc a880 083d 7e34 6c3d 5686 883d
00000040: d582 653d 1560 a23d 9127 c6bd 6374 95bd
00000050: 871f 3bbd 062c 17bd f7b8 b6bd ae08 2b3d
00000060: 0025 5bbc 31f4 a536 ac16 28bc 282e 5d3c
00000070: 1bac 09bc 085a 52bc 5ee3 76bd 38a8 d8bc
00000080: e80b f53c 502d 34bd c04f aabd 22ba 81bd
00000090: 5781 27bd 0cf6 92bd c26d 5f3d 03fc a03c
000000a0: 966e 8d3d 0c72 af3c 3229 fa3c a9cb 98bd
000000b0: 6059 74bb df8a 9f3d 24e0 07bd 8081 2b3b
000000c0: 7e4c 4f3d 81ff 06bd 4ea6 173d 8340 a1bd
000000d0: 0edb 8e3d a3a8 ef3c bc6c 8abd 0e32 693d
000000e0: f38b 76bc 7da4 72bd 997a a83d b2cf 8dbd
000000f0: 6181 c73b 5de2 99bd 2ab5 9fbc 2415 b53b
00000100: 6830 33bd 9391 bbbd 17ce efbb db5b b0bd
00000110: a095 6dbb 7f9b 7f3a aaee 7cbd 1793 89bc
00000120: 245a 793d d202 0fbd 967c 703d 85f5 9abd
00000130: d333 833d 1aa0 423d 5bf7 a73c 230f 58bd
00000140: 302c aa3c f3e4 4abd c880 2bbc 5d7a 943d
00000150: 91c5 683c e81b 6a3c 2222 04bd a653 2d3c
00000160: 3e68 293d c734 31bd a829 c9bc 4398 22bd
00000170: 3141 c1bc a81b 3dbd ff03 93bd b653 8abd
00000180: e69d 213d a2a4 8fbc 2eb5 87bd b0a9 5abd
00000190: b05d fa3c 87ff 2d3d a4cc a8bd f2e6 783d
000001a0: 822a 57bb ccaa 35bc 522a 75bd 564f cd3c
000001b0: b208 a2bd aaf8 693d db0d 26bd bb6c 863d
000001c0: ccbf a6bd 948a 08bd b4e1 8c3c 914d 92bd
000001d0: a0ee 823b e005 e3bc 31ed 8b3d e0e2 95bb
000001e0: ea22 553d fcfa 61bc 5f76 a13c ab85 0abd
000001f0: c57a a9bd 904c 27bc 93f0 c6bd 6032 573b
00000200: 5e99 0640 095c 0040 d7c3 f13c 8836 2f3f
00000210: d651 c9bc 0a27 1840 27d2 d9be d271 5e3d
00000220: 8364 2540 ee34 843f 735d 0940 9bc7 ed3f
00000230: 394e 0240 a94f f43f ea07 0740 caad c33f
00000240: 0a42 0b40 e209 0540 bda4 0440 187f 3ebe
00000250: b1b7 a43f 1bc1 ad3f 4e34 1140 32a0 0c40
00000260: baee d03f ebfc 0c3f 1021 2340 bbe0 1c3f
00000270: 278e dc3f 2d21 9c3f 5d92 3f3f 4b99 0640
00000280: 212c 0abd 641c 443f db1d d13f be3b e23f
00000290: 0ddf c63b 4692 0d40 fafd 0c40 616f 83bd
000002a0: 409f 0040 b841 c53c 6800 0340 e59c 28bd
000002b0: dbb3 1c40 76ab 523d 6927 0140 0bd6 8dbd
000002c0: 83b4 693c 56d3 1140 c149 f03f 29c9 0a40
000002d0: 7f35 ef3f 0d44 0440 2fd5 1340 bb20 1040
000002e0: 32b3 1140 3039 e23f 5f9e 1940 cab9 0540
000002f0: 30df ec3f 4af9 e63f a14a 0940 0876 1140
00000300: bcec 3840 a56a 0240 2d38 83be bb87 0940
00000310: 80b0 0440 2a83 ff3f e19d a8bd e166 ee3f
00000320: 2544 1040 1c95 0a40 9b49 0940 e6f7 edbc
00000330: 0240 c13c 7f13 0d40 65a0 f23f 280a 0e40
00000340: daca ffbc 8acb 993f 0098 bf3a 08b5 8d3d
00000350: 1d59 c33c 3360 2b40 0200 c03c 6732 0340
00000360: 5d2c 1940 063d afbc f971 51bd 2b3c 14bd
00000370: 197e 0240 3d0e d03f 3f7a fe3f 192f fa3f
00000380: 3f42 f23f 2bf0 0740 dc74 1d3f 87d7 0040
00000390: 5ff1 7b3d f625 1440 7205 583d 8cce 0140
000003a0: b092 0d40 065f f73f b24b e7bd 8c64 0240
000003b0: 92a9 2640 d387 a1bd 1d15 1440 2beb 0740
000003c0: 342d 273f e75c 1040 df70 1140 5fb2 ce3f
000003d0: b033 95bd 017a 1dbd f6bb 0040 358f 0940
000003e0: aa31 e9bc 76ae 0740 fac9 b43f a80e 933d
000003f0: cdb2 bb3f b480 edbc 76d6 f63f b341 0640

advantage_stream.model.0.bias f4 [128]
-0.054567568 0.096669756 -0.07471855 0.071838304 -0.0944277 0.009498756 -0.049457747 0.021350678
-0.07954696 0.039018054 -0.1362211 -0.02664549 0.07512808 0.05905997 0.026778454 -0.14968419
0.014727336 -0.034758747 0.10118112 0.07365238 -0.07268398 0.072593935 -0.054074325 0.0065149926
-0.16198246 -0.008360224 0.054768413 0.017630653 -0.02778105 0.1570634 -0.040209617 -0.006674821
-0.06268618 0.030324785 -0.017457006 0.073770575 0.07833 0.07122613 0.0043243445 0.18228516
0.015843233 0.03408096 -0.043141913 -0.07463165 -0.09056784 -0.049648795 0.0404088 -0.06336232
0.03306091 -0.055403985 -0.13489209 -0.116057105 -0.055345077 -0.051836386 0.041982573 -0.048826303
-0.09441092 0.13035697 -0.1177392 -0.08218369 -0.008175618 -0.0322958 -0.07104594 -0.08241627
0.092802666 -0.050370555 0.17436922 0.009483684 -0.1321864 -0.13839918 0.07884295 -0.018565435
0.02871356 -0.006787009 -0.006683077 0.10917936 -0.10114528 -0.010164925 -0.045636706 0.006491892
-0.06424545 -0.043915045 0.032621592 0.0060707685 0.057035018 0.08803392 -0.021341031 0.020358063
0.07763906 0.04384972 -0.018931024 0.057895463 -0.004496532 -0.037615545 -0.111095324 -0.028294146
-0.03527052 -0.01545019 0.002379807 0.034441438 0.053734716 -0.031917088 -0.07206321 -0.040150274
-0.09021912 0.11466169 -0.124984466 0.033661295 0.076469116 0.07779837 0.014627971 -0.082930274
-0.082586154 0.0022405793 0.15128134 0.13477139 0.032143872 0.01854541 -0.0039131716 -0.052168604
-0.012088049 -0.05963305 0.023768932 0.07772716 0.07317604 -0.005098128 -0.05386547 -0.05980092
00000000: 3e82 5fbd cbfa c53d 0a06 99bd f61f 933d
00000010: 4f63 c1bd aca0 1b3c 3594 4abd 9ee7 ae3c
00000020: 84e9 a2bd 65d1 1f3d 8b7d 0bbe a547 dabc
00000030: c0dc 993d dee8 713d 7d5e db3c d046 19be
00000040: ed4a 713c 305f 0ebd 0c38 cf3d 0fd7 963d
00000050: 57db 94bd 21ac 943d 0a7d 5dbd b87b d53b
00000060: bbde 25be 52f9 08bc d854 603d 296e 903c
00000070: 1695 e3bc 3ad5 203e d7b2 24bd 75b8 dabb
00000080: 9d61 80bd af6b f83c ff01 8fbc 0715 973d
00000090: 7b6b a03d 01df 913d 3bb3 8d3b f6a8 3a3e
000000a0: abc9 813c 7a98 0b3d 93b5 30bd 7ad8 98bd
000000b0: a27b b9bd 895c 4bbd b383 253d 1bc4 81bd
000000c0: e06a 073d 4aef 62bd 2721 0abe 59af edbd
000000d0: 85b1 62bd 6452 54bd ebf5 2b3d 17fe 47bd
000000e0: 835a c1bd 4c7c 053e 4021 f1bd ec4f a8bd
000000f0: 07f3 05bc 9a48 04bd 8980 91bd ddc9 a8bd
00000100: 530f be3d 5b51 4ebd d88d 323e 7461 1b3c
00000110: df5b 07be 84b8 0dbe 6a78 a13d 8a16 98bc
00000120: b338 eb3c 8f65 debb b7fd dabb 6e99 df3d
00000130: 4225 cfbd c98a 26bc 8eed 3abd f0b9 d43b
00000140: 1e93 83bd 43e0 33bd 389e 053d 4ced c63b
00000150: 8d9d 693d 214b b43d 63d3 aebc f4c5 a63c
00000160: 3a01 9f3d c49b 333d 3c15 9bbc cb23 6d3d
00000170: a557 93bb c212 1abd f285 e3bd 20c9 e7bc
00000180: d277 10bd cb22 7dbc 89f6 1b3b 7712 0d3d
00000190: ef18 5c3d 7ebb 02bd e095 93bd 9d74 24bd
000001a0: cdc4 b8bd c0d3 ea3d dbf7 ffbd 6de0 093d
000001b0: d79b 9c3d c054 9f3d 28aa 6f3c 59d7 a9bd
000001c0: ee22 a9bd afd6 123b 7fe9 1a3e 8301 0a3e
000001d0: 4ba9 033d 8bec 973c 103a 80bb bfae 55bd
000001e0: f40c 46bc c941 74bd 10b7 c23c 6b2f 9f3d
000001f0: 52dd 953d 330e a7bb 0aa2 5cbd cff1 74bd

advantage_stream.model.2.weight f4 [10, 128]
0.0021640526 -0.88444203 -0.8139919 -1.0731019 -1.047946 -0.368205 -0.97846115 -0.7261009
-0.39217454 -0.9152537 -0.9209306 -0.91905797 -0.25097013 -0.7478465 0.06334521 -0.99072003
0.028471358 -0.059348803 -0.1120209 -0.89121807 -1.1756802 0.071677454 0.04317382 -0.94308835
-0.875615 -0.3220996 -0.36052993 -1.0825956 0.072169006 -0.746263 -0.074475504 -1.0511326
-0.25386578 -1.1623981 0.07582539 -0.37182668 -1.0026841 -0.81458277 -0.39069182 -0.7642177
-0.12673607 -0.89245325 -0.717329 -1.2581894 0.013166364 -0.19411243 -1.1435406 -1.2904862
-1.0997449 -0.9207793 -0.9542744 -0.7621953 -0.9205923 -0.07018349 -0.079698004 -1.0342416
-0.9871486 -0.36058855 -0.5936335 -0.10350816 -0.27160624 -0.6993293 -1.0541041 -0.5373353
-0.21417722 -0.87886554 -0.95857525 0.0016815915 -0.44087481 -0.8933157 -0.31456643 -0.9501139
-0.83706677 -1.0479442 -0.38478386 -0.20942928 -0.84212965 -0.9613834 0.07190097 -0.7808535
0.017480733 -1.0210555 -0.060853098 -0.99482095 0.014251592 -0.950422 -0.9594723 -0.92810994
-0.17816664 -0.8151572 -0.2995768 -0.91867226 -0.10559103 0.07830738 -1.0172937 -1.0734928
-0.13087584 -0.8936769 -1.0000701 -0.80100006 -0.0035430272 -0.46375656 -0.8770186 -0.7981785
0.07015328 -0.93936086 -0.9767867 -0.9799072 -0.964828 -1.0013988 -0.9038606 -0.93254256
-0.44184613 -0.013950983 -0.9546292 -0.7991323 0.046038143 -1.0124656 -0.9005409 -0.30057356
0.012317759 -1.0346901 -1.1862015 -0.5214458 -1.0093077 -0.18146239 -1.1772772 0.022353416
-0.05287215 -1.1229777 -0.97183955 -1.3988937 -1.2623029 -0.5637519 -1.165836 -0.955784
-0.43024945 -1.1985859 -1.006425 -1.1608521 -0.06651225 -0.88571167 0.016345914 -1.1166672
-0.020127812 -0.04742021 -0.31170082 -1.0866868 -1.0686417 -0.086769894 -0.04888908 -1.2150096
-1.0661378 -0.31662408 -0.3518484 -1.233599 0.074597135 -1.2591887 -0.045800705 -1.2401277
-0.69802445 -1.1314142 -0.031199995 -0.82615614 -1.0044044 -1.101867 -0.6336592 -0.7183966
-0.4986053 -1.0827688 -0.59901774 -1.1472633 -0.04596583 -0.5245631 -1.5447383 -1.22352
-1.0709636 -1.1006929 -1.132156 -1.2663949 -1.1108233 0.066126674 -0.23669684 -1.1905303
-1.4604046 -0.73462003 -0.1907453 0.023184108 -0.40629596 -1.2212716 -1.193544 -0.4641198
-0.2643864 -1.2249829 -1.2037919 0.040317997 -0.49207056 -1.1159127 -0.3135253 -1.2877008
-1.3633983 -1.1638297 -0.31319606 0.42313635 -1.1084142 -1.137049 -0.05634262 -1.1692729
-0.0070551597 -1.0425813 -0.04840712 -1.1636492 -0.038857065 -1.0562549 -1.3621225 -1.0707706
-0.22790504 -1.2359202 -0.29360494 -1.4097909 7.883302e-05 -0.026920445 -1.2368345 -1.5720949
-0.24153712 -0.9388791 -1.0830289 -1.3554928 -0.0030604932 -0.54813933 -1.2633462 -1.1022819
0.06551662 -1.0768505 -1.1120471 -1.1264589 -1.3050728 -1.2427466 -1.0830897 -1.1405271
-0.6274053 -0.075248264 -1.4453627 -1.2609369 -0.097527765 -1.2209612 -1.1549697 -0.25149032
-0.03205836 -1.1476859 -1.3681109 -0.5466768 -1.2268045 -0.15841326 -1.1538609 0.028983796
00000000: c7d2 0d3b cb6a 62bf c661 50bf 675b 89bf
00000010: 1823 86bf 5e85 bcbe 6e7c 7abf c0e1 39bf
00000020: 1acb c8be 114e 6abf 1cc2 6bbf 6247 6bbf
00000030: 287f 80be de72 3fbf 22bb 813d d49f 7dbf
00000040: c43c e93c bb17 73bd 376b e5bd de26 64bf
00000050: b07c 96bf a1cb 923d 08d7 303d 3d6e 71bf
00000060: 4e28 60bf 3dea a4be 6197 b8be 7e92 8abf
00000070: 58cd 933d 180b 3fbf 9d86 98bd 838b 86bf
00000080: b2fa 81be 76c9 94bf 584a 9b3d 1160 bebe
00000090: f457 80bf 7f88 50bf c208 c8be c5a3 43bf
000000a0: 1ac7 01be d177 64bf e0a2 37bf 5a0c a1bf
000000b0: bcb7 573c 69c5 46be 8a5f 92bf a72e a5bf
000000c0: 71c4 8cbf 31b8 6bbf 544b 74bf 3b1f 43bf
000000d0: f0ab 6bbf 5dbc 8fbd b538 a3bd 0762 84bf
000000e0: c5b5 7cbf 109f b8be 5df8 17bf 16fc d3bd
000000f0: f90f 8bbe 3f07 33bf e2ec 86bf ce8e 09bf
00000100: 4651 5bbe 55fd 60bf 3065 75bf d968 dc3a
00000110: 58ba e1be 56b0 64bf da0e a1be aa3a 73bf
00000120: 024a 56bf 0923 86bf 6402 c5be a174 56be
00000130: cf95 57bf 391d 76bf d140 933d 04e6 47bf
00000140: c133 8f3c f2b1 82bf 1941 79bd 96ac 7ebf
00000150: 827f 693c db4e 73bf fa9f 75bf 9d98 6dbf
00000160: 5171 36be 24ae 50bf 2162 99be 1b2e 6bbf
00000170: 1c40 d8bd 9f5f a03d ae36 82bf 3668 89bf
00000180: 5104 06be 02c8 64bf 4c02 80bf 570e 4dbf
00000190: 2232 68bb 8071 edbe 4a84 60bf 6d55 4cbf
000001a0: 86ac 8f3d f479 70bf b10e 7abf 33db 7abf
000001b0: f8fe 76bf d62d 80bf 6963 67bf 1cbb 6ebf
000001c0: a839 e2be aa92 64bc 9462 74bf ef93 4cbf
000001d0: 7e92 3c3d 7998 81bf d989 66bf c7e4 99be
000001e0: 6dd0 493c ba70 84bf 73d5 97bf 797d 05bf
000001f0: ff30 81bf 47d1 39be 05b1 96bf 831e b73c
00000200: 7890 58bd bcbd 8fbf 7aca 78bf f30e b3bf
00000210: 2493 a1bf 0b52 10bf 1d3a 95bf 43ae 74bf
00000220: a849 dcbe 436b 99bf 89d2 80bf cd96 94bf
00000230: 9337 88bd 00be 62bf dee7 853c f3ee 8ebf
00000240: 15e3 a4bc b23b 42bd 4097 9fbe 8e18 8bbf
00000250: 40c9 88bf 6ab4 b1bd ea3f 48bd 6f85 9bbf
00000260: 3477 88bf 8d1c a2be 7925 b4be 92e6 9dbf
00000270: 62c6 983d 182d a1bf 8599 3bbd 81bc 9ebf
00000280: bbb1 32bf 2ed2 90bf 2297 ffbc f87e 53bf
00000290: 5390 80bf fa09 8dbf 7d37 22bf d7e8 37bf
000002a0: 3249 ffbe 2b98 8abf 3a59 19bf 86d9 92bf
000002b0: ab46 3cbd c449 06bf fcb9 c5bf 4e9c 9cbf
000002c0: 5615 89bf 81e3 8cbf 7dea 90bf 3a19 a2bf
000002d0: 752f 8ebf 6c6d 873d a860 72be 4c63 98bf
000002e0: 8aee babf 0f10 3cbf bc52 43be 99ec bd3c
000002f0: 0606 d0be a152 9cbf 0dc6 98bf 1ca1 edbe
00000300: a75d 87be 3dcc 9cbf da15 9abf 7c24 253d
00000310: acf0 fbbe 3ad6 8ebf 6386 a0be 61d3 a4bf
00000320: d683 aebf 5ff8 94bf 3c5b a0be 54a5 d83e
00000330: 84e0 8dbf d28a 91bf 85c7 66bd bcaa 95bf
00000340: f82e e7bb 4e73 85bf 8b46 46bd 75f2 94bf
00000350: 9628 1fbd 5c33 87bf 085a aebf 030f 89bf
00000360: f05f 69be a232 9ebf 6353 96be 0774 b4bf
00000370: 2853 a538 4488 dcbc 9850 9ebf 683a c9bf
00000380: 8255 77be 615a 70bf b1a0 8abf ca80 adbf
00000390: 8e92 48bb dc52 0cbf 54b5 a1bf 9317 8dbf
000003a0: 942d 863d 3dd6 89bf 8f57 8ebf ce2f 90bf
000003b0: a00c a7bf 5212 9fbf afa2 8abf cbfc 91bf
000003c0: a29d 20bf c31b 9abd a501 b9bf 6166 a1bf
000003d0: a3bc c7bd 7548 9cbf 0cd6 93bf 57c3 80be
000003e0: a04f 03bd 5fe7 92bf 421e afbf 03f3 0bbf
000003f0: ee07 9dbf 1637 22be b7b1 93bf 6d6f ed3c

advantage_stream.model.2.bias f4 [10]
-0.105536215 -0.11023473 -0.029245382 0.03463647 -0.01435439 0.015272522 0.06513725 -0.009176397
-0.19441918 -0.007091587
00000000: 5f23 d8bd bfc2 e1bd 0394 efbc f9de 0d3d
00000010: ad2e 6bbc 9a39 7a3c ae66 853d 9958 16bc
00000020: d215 47be 8b60 e8bb
