logs/7-HIER-BCS/40-DuelingDQN-random-max-BCS-wtypes-G0-resumedLong-25_10_25_12-56-05/10/models/27000/DuelingDQN_checkpoint.pth (torch, 917195 bytes, 44 tensors)

feature_layer.model.0.weight f4 [128, 39]
-0.0025612055 -0.011130968 -0.050988432 0.029427668 -0.0923284 -0.017347725 0.10313021 0.24827184
-0.040359266 -0.0010200387 0.057415325 -0.03344392 0.15834889 0.09374703 0.06980313 0.19233444
-0.06579216 0.053638045 0.064203665 0.014578609 0.0052952464 -0.13947682 -0.12201081 -0.16783096
-0.22957185 -0.19943002 -0.03029717 -0.16412449 -0.1696247 0.073701225 0.019362535 0.25145066
0.092001 0.019107284 0.07825769 -0.08771157 0.14302611 0.08902838 0.20386915 0.037967436
0.08931903 0.094208345 -0.027019642 -0.09837698 -0.00026688803 -0.036930252 -0.0021099767 0.43463635
-0.2237314 0.026102545 -0.020794258 0.15830417 -0.062167287 0.005180222 -0.1105402 0.076396205
-0.07669673 -0.031884033 0.12676951 0.05557999 -0.17249426 -0.15964803 0.0056493687 -0.07163881
-0.15562594 0.123755544 0.026311373 -0.09844464 -0.14789264 0.29689053 0.29482323 0.0303824
-0.047595166 0.0554185 -0.1317502 -0.06742281 -0.29004127 0.020949556 -0.052941684 -0.16655888
-0.13017084 -0.012893605 0.102004565 -0.02597873 0.12507784 -0.08148288 -0.04372186 0.151512
-0.15747204 0.008943175 -0.046546295 0.20301713 0.07175777 -0.04092024 -0.047085084 0.09629747
-0.013491878 0.0520582 -0.044082362 -0.10331724 0.033669703 0.05971989 0.14627829 0.055693083
-0.09765882 0.05406503 0.13878338 0.10297023 -0.012196657 -0.005432154 0.1018235 0.099255204
0.15618867 -0.043821767 0.14472768 -0.06664453 0.0063644378 -0.064947866 -0.040187284 0.09499213
0.11501886 0.08253933 -0.12121893 -0.027454143 0.06555471 -0.3831636 -0.19587038 0.009554349
-0.21507373 -0.13736482 -0.047608677 -0.16328596 -0.050425522 -0.1145685 -0.15221919 -0.14410044
0.027760448 0.17058301 -0.08294686 -0.15445133 -0.12505998 0.15881197 0.23257811 -0.26383746
0.11684267 0.016669467 0.10202252 -0.1138022 -0.16934666 -0.31778744 -0.2701306 -0.0020031447
-0.11120735 -0.010489774 -0.04640487 -0.15398522 0.063602634 0.074845605 0.08748767 -0.014407465
-0.22614412 -0.19579548 -0.027009586 -0.10821433 -0.8424091 0.06615886 -0.16937694 -0.3392537
-0.4680924 -0.18700896 -0.19970523 -0.032160327 -0.036907014 -0.19866896 0.13372107 -0.19495331
0.09290267 -0.15091988 0.073693894 0.023834804 0.0735198 -0.032161836 0.1533815 0.11619144
-0.045740366 -0.11079839 -0.5549017 -0.37218124 -0.12891735 -0.07991578 -0.08307312 -0.09401224
-0.20868906 -0.17828454 0.04028713 -0.11157717 0.017828118 0.12393674 -0.13706294 -0.13767304
-0.17612286 0.07024402 0.10322141 -0.032892626 0.016649606 0.09562182 0.07532501 -0.056558132
-0.074286014 0.03316917 0.078753814 -0.063402556 -0.22760421 -0.027816039 0.009793669 0.122241475
0.112907715 0.002906225 -0.025904251 -0.026892591 0.017350787 -0.07913909 -0.21135935 -0.0048691058
-0.0882038 -0.29044348 -0.06574064 -0.025182486 0.06211452 0.09226979 -0.012420001 -0.14858112
0.0733344 0.076960996 0.077838525 0.08023695 0.07670599 0.028116174 -0.061108608 0.0046935207
-0.19308777 0.03523605 0.22283943 0.037001155 -0.1894775 -0.10063838 -0.009973519 -0.26383615
0.056279972 0.07224955 -0.07173769 -0.07340737 0.10387015 -0.07414125 -0.16428721 -0.0037675945
00000000: e6d9 27bb aa5e 36bc 3fd9 50bd 4b12 f13c
00000010: ac16 bdbd d11c 8ebc ee35 d33d f93a 7e3e
00000020: c24f 25bd d2b2 85ba 552c 6b3d 7efc 08bd
00000030: 3626 223e 71fe bf3d f2f4 8e3d 52f3 443e
00000040: 0abe 86bd 91b3 5b3d 367d 833d 1edb 6e3c
00000050: bf83 ad3b 03d3 0ebe cee0 f9bd e1db 2bbe
00000060: e214 6bbe 6237 4cbe c531 f8bc 4010 28be
00000070: 19b2 2dbe abf0 963d 2e9e 9e3c 24be 803e
00000080: 056b bc3d e186 9c3c 9145 a03d 20a2 b3bd
00000090: 7075 123e 8354 b63d 13c3 503e be83 1b3d
000000a0: e5ec b63d 4ef0 c03d 4c58 ddbc df79 c9bd
000000b0: 1bed 8bb9 2d44 17bd 8947 0abb a888 de3e
000000c0: d819 65be 01d5 d53c b858 aabc 7d1a 223e
000000d0: 20a3 7ebd dabe a93b e662 e2bd 9d75 9c3d
000000e0: 2d13 9dbd d598 02bd decf 013e d8a7 633d
000000f0: 56a2 30be c67a 23be 571e b93b 5eb7 92bd
00000100: 685c 1fbe 8c73 fd3d f38a d73c 589d c9bd
00000110: 2b71 17be 0902 983e 12f3 963e 83e4 f83c
00000120: 26f3 42bd 82fe 623d 86e9 06be f814 8abd
00000130: 4a80 94be 679e ab3c 61d9 58bd 698e 2abe
00000140: 814b 05be b33f 53bc c5e7 d03d 58d1 d4bc
00000150: 6814 003e 7fe0 a6bd b115 33bd f625 1b3e
00000160: 5a40 21be 6586 123c 54a7 3ebd b9e3 4f3e
00000170: bdf5 923d fb9b 27bd 4adc 40bd 9c37 c53d
00000180: 0a0d 5dbc fb3a 553d b58f 34bd fd97 d3bd
00000190: 3ee9 093d d89c 743d fac9 153e 6e1e 643d
000001a0: 5901 c8bd 4b73 5d3d 3b1d 0e3e 0ee2 d23d
000001b0: 7dd4 47bc 3600 b2bb d788 d03d 5046 cb3d
000001c0: ecef 1f3e 747e 33bd 7e33 143e ed7c 88bd
000001d0: c68c d03b 6303 85bd 6c9b 24bd 3c8b c23d
000001e0: 028f eb3d 610a a93d a141 f8bd 83e7 e0bc
000001f0: 8c41 863d 052e c4be 3f92 48be d889 1c3c
00000200: 4a3c 5cbe 5da9 0cbe 5101 43bd 6f34 27be
00000210: fe8a 4ebd e4a2 eabd 59df 1bbe 118f 13be
00000220: e169 e33c 50ad 2e3e 0be0 a9bd 7d28 1ebe
00000230: b90f 00be 9b9f 223e f528 6e3e b415 87be
00000240: 364b ef3d 688e 883c 2ff1 d03d 2111 e9bd
00000250: 3669 2dbe 09b5 a2be 8f4e 8abe 3147 03bb
00000260: aec0 e3bd 4ddd 2bbc 0813 3ebd 4dae 1dbe
00000270: 1942 823d a748 993d bc2c b33d 4a0d 6cbc
00000280: 5392 67be 9c7e 48be 3543 ddbc 7a9f ddbd
00000290: 1fa8 57bf 4c7e 873d 2671 2dbe a9b2 adbe
000002a0: cfa9 efbe 477f 3fbe 877f 4cbe 8cba 03bd
000002b0: cf2b 17bd e06f 4bbe 2dee 083e d7a1 47be
000002c0: c143 be3d be8a 1abe d3ec 963d 3541 c33c
000002d0: 8d91 963d 21bc 03bd 0a10 1d3e c7f5 ed3d
000002e0: 405a 3bbd 44ea e2bd 0a0e 0ebf 8a8e bebe
000002f0: e902 04be e2aa a3bd 3d22 aabd 7d89 c0bd
00000300: 96b2 55be 3990 36be 1e04 253d 9282 e4bd
00000310: 460c 923c 8cd2 fd3d 3a5a 0cbe 29fa 0cbe
00000320: 8d59 34be 19dc 8f3d bf65 d33d 6bba 06bd
00000330: c164 883c 5fd5 c33d 0044 9a3d 80a9 67bd
00000340: 4423 98bd 65dc 073d ae49 a13d 33d9 81bd
00000350: 1411 69be 76de e3bc a075 203c bd59 fa3d
00000360: 293c e73d 5d76 3e3b 2735 d4bc da4d dcbc
00000370: 3d23 8e3c ad13 a2bd 966e 58be 058d 9fbb
00000380: 32a4 b4bd 02b5 94be 07a3 86bd 804b cebc
00000390: cc6b 7e3d f2f7 bc3d 437d 4bbc a625 18be
000003a0: 5930 963d ba9d 9d3d ce69 9f3d 4553 a43d
000003b0: 0818 9d3d e453 e63c 054d 7abd 1bcc 993b
000003c0: cdb8 45be ad53 103d 0530 643e 868e 173d
000003d0: 6406 42be 7f1b cebd f867 23bc 8815 87be
000003e0: d485 663d 92f7 933d 36eb 92bd 9a56 96bd
000003f0: e0b9 d43d 5ed7 97bd e83a 28be bfe9 76bb

feature_layer.model.0.bias f4 [128]
-0.07804364 0.10042673 0.006144792 0.11331241 -0.15325968 -0.11288265 -0.062831834 0.12926582
0.12621504 0.1716933 -0.16400039 -0.07964924 0.058027785 0.109296106 0.18892685 0.15775862
-0.056799512 -0.03719752 -0.17919497 -0.041638687 -0.06663767 -0.12571141 0.021845141 -0.035219602
0.023712592 -0.063472725 0.041534044 0.0076443925 0.039441682 0.06519894 0.07844876 0.17859271
-0.03865794 0.062111754 -0.01382041 -0.116532266 -0.11495587 0.09400209 -0.04901283 0.011161232
0.032345816 0.06499909 0.11369499 -0.08138455 0.11496688 0.026729586 0.05156714 -0.17927901
-0.13493483 0.1112236 0.098026454 -0.070165396 -0.14311548 0.09854206 0.094726436 -0.04199178
-0.19547667 -0.08428216 -0.015550344 0.07817853 -0.040179398 -0.0524229 -0.12095394 -0.23105589
-0.10002469 0.08782181 0.048930123 -0.16077052 -0.036318142 0.0957716 0.0052760043 -0.06162531
-0.06645504 0.0616261 -0.0033752667 -0.19821529 -0.0065049133 0.14482577 0.07591619 -0.0898889
0.07726214 0.08315521 -0.085589096 -0.10645858 -0.03507116 -0.09366257 0.06917443 0.09691346
0.0024712237 0.012710627 0.0097763995 -0.09472951 -0.007214449 0.09357259 0.08705574 0.029145626
-0.0007275945 -0.01310101 0.02107232 0.061100166 0.06644425 0.055591602 -0.022189928 -0.10464885
-0.13797082 0.12309822 0.023442434 -0.098075345 -0.15621671 -0.1175623 -0.0053363424 0.10727186
0.04368983 -0.12663703 0.02150742 0.07478506 -0.07859019 0.016364522 -0.0950621 0.07696326
-0.047645766 0.08893135 0.17346193 0.14035815 -0.2181041 0.22181675 -0.14346252 0.12527275
00000000: 58d5 9fbd 88ac cd3d 405a c93b 5610 e83d
00000010: 1bf0 1cbe 052f e7bd faad 80bd 425e 043e
00000020: 843e 013e 5ed0 2f3e b8ef 27be 241f a3bd
00000030: 8bae 6d3d a3d6 df3d 0a76 413e 7a8b 213e
00000040: 9ba6 68bd 6d5c 18bd e37e 37be 548d 2abd
00000050: 5579 88bd 7eba 00be 95f4 b23c 6e42 10bd
00000060: e940 c23c fdfd 81bd 9a1f 2a3d d07d fa3b
00000070: 9a8d 213d 0687 853d bea9 a03d 02e1 363e
00000080: ca57 1ebd e568 7e3d 006f 62bc 78a8 eebd
00000090: fc6d ebbd 2b84 c03d adc1 48bd 9add 363c
000000a0: 0c7d 043d 3e1e 853d ebd8 e83d f1ac a6bd
000000b0: c173 eb3d 01f8 da3c 1138 533d eb94 37be
000000c0: 5b2c 0abe 33c9 e33d 18c2 c83d e0b2 8fbd
000000d0: dd8c 12be 6bd0 c93d efff c13d 93ff 2bbd
000000e0: 092b 48be 209c acbd dfc6 7ebc 111c a03d
000000f0: 2793 24bd 65b9 56bd b3b6 f7bd ea99 6cbe
00000100: bfd9 ccbd ecdb b33d f46a 483d 07a1 24be
00000110: 55c2 14bd e723 c43d 55e2 ac3b d26a 7cbd
00000120: 9419 88bd a66b 7c3d 9433 5dbb f3f8 4abe
00000130: 2b27 d5bb 354d 143e f379 9b3d ac17 b8bd
00000140: 9d3b 9e3d 474d aa3d 5649 afbd f506 dabd
00000150: c7a6 0fbd 29d2 bfbd 53ab 8d3d 907a c63d
00000160: 41f4 213b 3c40 503c 312d 203c 8c01 c2bd
00000170: 2f67 ecbb fca2 bf3d 484a b23d cfc2 ee3c
00000180: 0abc 3eba 9ea5 56bc dc9f ac3c 2b44 7a3d
00000190: ec13 883d 05b4 633d a7c7 b5bc 2352 d6bd
000001a0: 3948 0dbe eb1a fc3d 590a c03c badb c8bd
000001b0: 46f7 1fbe 81c4 f0bd 7cdc aebb 59b1 db3d
000001c0: 1bf4 323d 23ad 01be 5430 b03c e928 993d
000001d0: e5f3 a0bd e40e 863c ebaf c2bd ea9e 9d3d
000001e0: 3528 43bd a421 b63d 01a0 313e 0cba 0f3e
000001f0: ae56 5fbe ee23 633e d7e7 12be 8047 003e

feature_layer.model.2.weight f4 [128, 128]
0.09906971 0.05380192 0.0432839 -0.026288008 -0.03667031 -0.0088423975 -0.029219292 0.09031251
0.058899134 0.043510295 0.082563795 0.04852783 0.01197836 -0.008644456 0.012795671 -0.082235396
0.02452165 -0.035193972 -0.0036395413 0.02516459 -0.088986 0.068655215 0.06639844 0.085901275
-0.07030127 -0.0832326 0.074897125 -0.12620622 -0.042031027 0.0545574 0.02494452 -0.038027003
0.01010572 -0.0053466423 -0.011910545 -0.06396433 -0.11419625 0.0027474898 -0.07501369 -0.0026901006
0.059738502 0.014082546 -0.07561324 -0.02336353 -0.075571574 0.07716048 -0.008004262 0.04000617
0.0020835337 -0.023259409 0.0020942693 -0.050724596 -0.07873887 -0.07959491 0.0029895823 0.062339887
-0.07871708 0.06167192 0.097080745 0.060712796 -0.118240364 -0.11354649 -0.06615012 -0.042703085
-0.06392251 0.10505145 0.086614065 -0.06919158 0.021338956 0.029052489 -0.0080452785 0.012564163
-0.035664875 -0.05952726 -0.060745303 0.06432532 0.052597195 -0.012638131 -0.07410881 -0.050561324
-0.03528152 0.059156496 -0.05386846 -0.029420815 0.020138966 -0.0069147223 0.025981251 -0.09934518
0.011261541 -0.050215993 0.050648745 -0.041068476 0.07306323 -0.11243596 -0.08572588 0.031101905
0.03993634 -0.11476676 -0.004383376 0.07252659 0.078854226 -0.02785063 0.090228006 0.06379227
0.053233914 0.04732194 0.076126784 0.012631564 -0.09529724 -0.07918545 0.018835474 -0.0841838
0.028971242 -0.04157401 0.04647345 -0.100604706 0.0048151184 -0.050436456 -0.021936899 0.057437785
-0.059573196 0.04265036 -0.0742458 -0.085294954 -0.13675483 -0.0015895964 -0.06761682 0.07149324
0.04355625 -0.0720295 0.027844815 -0.0063753915 0.03595526 -0.07238625 -0.01876606 0.058569666
-0.030116733 0.08150688 0.015616514 0.016904935 -0.076792054 0.044664748 0.0118490495 0.018434053
-0.14261729 0.060180817 -0.008113225 0.028027013 0.045451824 -0.011621776 -0.01574926 0.095608726
0.020865198 -0.016015632 0.021238424 0.06456102 0.083285496 -0.018696032 -0.07638295 -0.06433949
0.018704608 -0.005423214 -0.121462464 -0.0151659725 -0.02134439 -0.0025007322 -0.00470903 0.011828559
0.01839145 -0.038587756 -0.08974567 -0.06270329 0.07576748 0.0060428716 -0.05892963 0.05412473
0.08109631 -0.09025952 -0.086146556 0.01732521 0.019268358 -0.02447796 0.07298044 0.063309275
-0.08997984 -0.07527426 0.059588388 0.08307843 -0.08389091 -0.008116949 -0.007973438 0.07056536
-0.028013503 -0.019539272 -0.06415111 0.030547291 0.010732797 0.007954773 -0.075193904 -0.06592383
0.043388512 -0.01645811 0.074283384 0.08248557 0.01702668 -0.052935533 -0.07119895 -0.03378611
0.08331792 0.0074452986 0.00306049 0.008517797 0.015462766 -0.06425965 0.021427887 -0.048864346
-0.0080004595 -0.011690847 -0.061097395 0.096490346 -0.05644829 0.0350985 -0.037222713 -0.013055824
0.03329289 -0.07877306 -0.01750153 -0.011625926 -0.20820932 -0.047368407 -0.07664246 0.03187311
0.063531265 0.08734361 -0.10331869 0.066306435 -0.04973948 -0.030953674 0.07750398 0.07419072
0.017671997 -0.03020084 -0.053762227 -0.00081230595 -0.009953622 -0.017786462 0.027051399 -0.03238211
0.015156387 -0.059899 0.061069716 0.11149602 0.014049523 -0.042345684 -0.03816982 0.06271976
00000000: 0fe5 ca3d 675f 5c3d 754a 313d f359 d7bc
00000010: 9b33 16bd b4df 10bc 4c5d efbc c4f5 b83d
00000020: 3840 713d da37 323d 3517 a93d 1ec5 463d
00000030: e240 443c 7aa1 0dbc efa4 513c 086b a8bd
00000040: a1e1 c83c 8e27 10bd 5f85 6ebb f825 ce3c
00000050: 4b3e b6bd 1b9b 8c3d e8fb 873d 02ed af3d
00000060: 1dfa 8fbd da75 aabd aa63 993d 343c 01be
00000070: ba28 2cbd 9577 5f3d 7358 cc3c 34c2 1bbd
00000080: 7692 253c e332 afbb 7224 43bc bbff 82bd
00000090: b9df e9bd 3b0f 343b c7a0 99bd 664c 30bb
000000a0: 5cb0 743d 7bba 663c 1ddb 9abd e064 bfbc
000000b0: 45c5 9abd 5006 9e3d 4f24 03bc 82dd 233d
000000c0: e58b 083b 848a bebc 0240 093b 98c4 4fbd
000000d0: d841 a1bd a802 a3bd deec 433b 1c58 7f3d
000000e0: 6c36 a1bd b29b 7c3d 45d2 c63d fbad 783d
000000f0: 0128 f2bd 108b e8bd b779 87bd 6ee9 2ebd
00000100: cee9 82bd 3725 d73d b762 b13d 51b4 8dbd
00000110: 09cf ae3c 7cff ed3c 58d0 03bc ebd9 4d3c
00000120: 5515 12bd dbd2 73bd 11d0 78bd febc 833d
00000130: 2870 573d 2a10 4fbc 5cc6 97bd 6419 4fbd
00000140: 5b83 10bd 154e 723d 2da5 5cbd ec03 f1bc
00000150: 79fa a43c e594 e2bb a2d6 d43c 7c75 cbbd
00000160: 5482 383c 49af 4dbd 0f75 4f3d 6b37 28bd
00000170: 2da2 953d d344 e6bd 0d91 afbd 6cc9 fe3c
00000180: 4a94 233d d60a ebbd 6ca2 8fbb d288 943d
00000190: 537e a13d 0127 e4bc 76c9 b83d 86a5 823d
000001a0: ce0b 5a3d a7d4 413d 5ce8 9b3d 9ff4 4e3c
000001b0: 332b c3bd fb2b a2bd da4c 9a3c 8e68 acbd
000001c0: 1955 ed3c 8249 2abd f25a 3e3d d709 cebd
000001d0: 24c8 9d3b 7596 4ebd 03b5 b3bc e243 6b3d
000001e0: 0603 74bd 25b2 2e3d 2f0e 98bd 1faf aebd
000001f0: 7509 0cbe 015a d0ba b07a 8abd 0c6b 923d
00000200: 0a68 323d 3484 93bd cf1a e43c a9e8 d0bb
00000210: d345 133d 3e3f 94bd 48bb 99bc bfe6 6f3d
00000220: 5eb7 f6bc 14ed a63d 68dc 7f3c 387c 8a3c
00000230: 2745 9dbd 62f2 363d 8422 423c 0303 973c
00000240: 440a 12be 2980 763d 55ed 04bc e898 e53c
00000250: b12b 3a3d 4369 3ebc 9804 81bc 82ce c33d
00000260: 7eed aa3c 3733 83bc 34fc ad3c 9138 843d
00000270: 9691 aa3d 6c28 99bc aa6e 9cbd 6cc4 83bd
00000280: 683a 993c 37b5 b1bb 50c1 f8bd b37a 78bc
00000290: 6eda aebc 53e3 23bb 354e 9abb 93cc 413c
000002a0: aba9 963c 320e 1ebd 94cc b7bd 956a 80bd
000002b0: fb2b 9b3d 4803 c63b 3260 71bd e5b1 5d3d
000002c0: d215 a63d fcd9 b8bd 9b6d b0bd 99ed 8d3c
000002d0: add8 9d3c 0186 c8bc c576 953d 4ba8 813d
000002e0: 5a47 b8bd 6429 9abd f412 743d 0625 aa3d
000002f0: ffce abbd f4fc 04bc 06a3 02bc 9284 903d
00000300: 937c e5bc d310 a0bc a861 83bd 503e fa3c
00000310: 9dd8 2f3c bc54 023c 43ff 99bd 1303 87bd
00000320: 27b8 313d 29d3 86bc e321 983d 32ee a83d
00000330: 897b 8b3c eed2 58bd c1d0 91bd 4e63 0abd
00000340: 96a2 aa3d b1f7 f33b 8092 483b 3b8e 0b3c
00000350: 8b57 7d3c 909a 83bd 8989 af3c fb25 48bd
00000360: 5c14 03bc f78a 3fbc 4341 7abd bb9c c53d
00000370: 5236 67bd 72c3 0f3d d876 18bd 18e8 55bc
00000380: 205e 083d c553 a1bd 5e5f 8fbc ab7a 3ebc
00000390: d334 55be 6005 42bd b9f6 9cbd 618d 023d
000003a0: ae1c 823d 35e1 b23d c098 d3bd abcb 873d
000003b0: a0bb 4bbd 8f92 fdbc 68ba 9e3d 4ef1 973d
000003c0: ddc4 903c c167 f7bc c835 5cbd eef0 54ba
000003d0: 8414 23bc eab4 91bc e59a dd3c 1aa3 04bd
000003e0: 7f52 783c a758 75bd 3d24 7a3d 0658 e43d
000003f0: f82f 663c ab72 2dbd f557 1cbd 3873 803d

feature_layer.model.2.bias f4 [128]
-0.035343662 -0.044718694 0.058115765 0.11588398 0.10215716 0.0358201 -0.0054563894 -0.0078494605
-0.08749911 -0.046540685 0.14462943 0.014502489 0.07817629 0.053684328 -0.021840889 0.09782641
0.08559344 -0.09565973 0.06595025 -0.023216248 -0.042689554 0.039134618 0.076676905 -0.015643151
0.0024307466 0.124260925 -0.006686175 0.092884116 0.013069533 -0.022968668 0.082056366 0.02349929
-0.03983919 0.11311229 0.02158307 -0.08619799 -0.0634153 0.041975956 0.0016096773 0.04755037
0.08597324 -0.029394014 0.024427496 0.08123159 0.038311988 -0.04414787 0.08089961 0.014522104
0.040585395 0.06552959 -0.006924823 -0.013561738 0.025058404 0.026398387 0.06458065 0.04756486
-0.07052335 0.02638274 -0.10403443 0.08529511 -0.058374662 0.1336186 0.08613463 -0.018444901
-0.036528032 0.036516897 -0.048339933 0.05556258 -0.029262599 0.042460695 -0.022370813 0.05220073
0.05696098 0.008216061 0.047110077 0.09030382 -0.036756746 -0.042552218 -0.0256618 -0.008647826
0.07341977 0.13118443 -0.03851878 -0.08367255 0.015034693 -0.10016473 0.022594836 -0.017952297
0.074800536 0.14200072 0.012173992 -0.033402532 0.07873748 -0.0059831715 0.07339186 0.053233936
0.13167687 0.043645144 0.031339485 0.06998144 0.030511022 -0.012217891 -0.065764725 0.002872351
0.038113013 -0.060047198 0.11041811 0.09505243 -0.06867271 -0.030961651 0.108470514 -0.017769909
0.0332263 0.0099723395 -0.039868385 0.050107237 -0.034600522 0.024522921 0.025046956 -0.030422037
0.02520732 -0.038118783 -0.00022500893 -0.031646535 0.058349006 0.07262519 -0.0061330395 -0.033647027
00000000: 84c4 10bd f32a 37bd cc0a 6e3d 9554 ed3d
00000010: c637 d13d 19b8 123d 83cb b2bb 069b 00bc
00000020: bc32 b3bd 72a1 3ebd bd19 143e d99b 6d3c
00000030: e41a a03d 19e4 5b3d aaeb b2bc 3659 c83d
00000040: 9d4b af3d 40e9 c3bd ed10 873d 0030 bebc
00000050: 3edb 2ebd 9f4b 203d c808 9d3d 1126 80bc
00000060: 294d 1f3b 837c fe3d b317 dbbb 073a be3d
00000070: 9821 563c ca28 bcbc 2b0d a83d 9581 c03c
00000080: 6b2e 23bd 6ba7 e73d face b03c 9288 b0bd
00000090: e1df 81bd fbee 2b3d cffb d23a 2dc4 423d
000000a0: bd12 b03d b7cb f0bc 2c1c c83c bf5c a63d
000000b0: 08ed 1c3d 66d4 34bd b2ae a53d 1eee 6d3c
000000c0: df3c 263d 6134 863d a0e9 e2bb 0d32 5ebc
000000d0: 4847 cd3c 6e41 d83c dc42 843d 5fd3 423d
000000e0: 8c6e 90bd 9e20 d83c 0110 d5bd 34af ae3d
000000f0: 451a 6fbd 50d3 083e 5a67 b03d c319 97bc
00000100: 6b9e 15bd be92 153d 1800 46bd 9695 633d
00000110: 1eb8 efbc 44eb 2d3d ff42 b7bc 6fd0 553d
00000120: eb4f 693d a89c 063c 7ff6 403d 36f1 b83d
00000130: 3e8e 16bd 3c4b 2ebd b238 d2bc 9caf 0dbc
00000140: 1b5d 963d 3655 063e dec5 1dbd 845c abbd
00000150: 1354 763c 2a23 cdbd ce18 b93c b210 93bc
00000160: 0631 993d a368 113e 6c75 473c 18d1 08bd
00000170: 1e41 a13d 7b0e c4bb 794e 963d d40b 5a3d
00000180: 4dd6 063e 40c5 323d d55d 003d 6e52 8f3d
00000190: 40f2 f93c 8d2d 48bc a8af 86bd 0e3e 3c3b
000001a0: 641c 1c3d 0df4 75bd e422 e23d d9aa c23d
000001b0: 47a4 8cbd 4aa3 fdbc ca25 de3d 3392 91bc
000001c0: 4d18 083d 0663 233c 084d 23bd 3f3d 4d3d
000001d0: 47b9 0dbd 4be4 c83c 462f cd3c a337 f9bc
000001e0: 957f ce3c 7122 1cbd 60f0 6bb9 cc9f 01bd
000001f0: 5eff 6e3d 84bc 943d aaf7 c8bb 77d1 09bd

value_stream.model.0.weight f4 [128, 128]
0.07078513 -0.016831879 -0.07733508 0.03896154 0.08260634 -0.052309 0.024047446 0.07008427
-0.026140299 0.010564886 -0.014205589 0.004641819 0.0150460955 -0.09323377 -0.03478075 -0.017130226
-0.040912014 0.03928265 0.04089862 -0.008844856 0.040887516 -0.0018698808 0.011937951 0.04469708
0.06495054 0.028680438 0.078576215 0.035686493 0.06335936 -0.007400484 -0.033837467 0.0032273873
0.07278756 0.053143866 0.018084072 -0.083363354 0.071391456 -0.017712012 0.010467273 -0.08635428
0.030802257 -0.028768875 0.056265943 -0.04649067 0.05128044 0.0535463 -0.009146413 -0.03066064
-0.086140774 -0.0045959465 0.00088782056 0.07447879 0.029349143 0.027311517 -0.009427556 -0.004035956
-0.037278373 -0.0012544161 0.074897155 0.022217862 -0.10891988 -0.06783649 -0.00031726912 -0.0074939188
0.021743357 -0.012638934 0.0020116307 0.030517815 0.023255702 -0.030523667 -0.03023215 -0.04450767
-0.041041195 0.087305866 -0.12822515 -0.047636677 -0.091732755 -0.09902428 0.094768494 0.06363307
-0.024568321 0.072564386 -0.020960076 -0.025213834 0.074196815 0.00055941276 0.0015709328 -0.00791767
0.008521393 0.03823056 0.023270993 -0.051776268 -0.0012870299 0.07862382 0.01795097 -0.047014628
-0.030574923 0.044407073 0.06989873 -0.05022679 -0.011269509 0.055688515 0.036250547 -0.0052065547
-0.04538212 -0.0561323 0.060671415 0.055560343 0.016719889 -0.03574895 0.00031287502 0.037012875
0.06017627 0.013227267 -0.0258298 0.0369704 -0.0703669 -0.078303844 0.06294776 -0.06185535
0.0021974118 -0.038066965 0.0054056314 -0.09699234 -0.08232524 0.02217507 -0.097315155 -0.052225683
0.042572036 0.058837593 -0.06941224 0.0055491687 0.019575186 -0.08859172 0.050237607 0.062487494
0.056148987 -0.08469301 -0.13520211 -0.046900034 -0.06113388 0.005005791 -0.10683671 0.08742168
0.067834996 -0.030387541 -0.17984338 -0.02739766 -0.045934495 -0.05893089 -0.088644035 -0.041021653
0.08103921 0.0565849 -0.025342472 0.017155388 -0.00978613 0.025048606 0.025856312 -0.08076516
0.023734597 0.011695007 0.014852747 -0.07044874 -0.11159954 0.09369614 -0.0037980825 0.042730372
0.06273629 -0.058212433 0.07616485 -0.1108593 -0.024250023 0.01655875 -0.048707888 0.06378928
-0.031861983 -0.07222585 -0.00415325 0.029057082 0.076880895 -0.019570528 -0.0149933025 0.038541615
-0.050367802 0.028299117 0.06823529 0.12952949 -0.07583978 -0.03520504 0.039091747 -0.006760571
0.07012864 0.05334185 -0.09193703 0.066023946 0.020504119 -0.07570216 0.035342563 0.07403666
0.0028733644 0.011446727 -0.022540051 -0.05258695 -0.00051186176 -0.079369955 0.08295951 -0.0706161
-0.096780606 0.0696353 -0.038002215 0.012203485 -0.06134792 0.075224236 -0.008982077 -0.08773466
-0.101953216 0.08242935 -0.004776351 0.08967662 -0.04063106 0.027877076 0.018803848 -0.1033132
0.05988969 0.06797048 -0.013428499 -0.012030867 -0.05971735 0.04658852 -0.039374657 -0.032477308
-0.058961276 0.029265093 0.06107296 0.061279614 0.0879721 -0.032468405 0.020981709 0.06792217
-0.01692916 -0.06143685 0.07060325 -0.0041197767 0.055170298 0.073634885 0.045778953 0.09610207
-0.025903367 -0.04536303 0.006788434 0.021741092 -0.013606739 0.055102203 0.026412573 0.032378234
00000000: cbf7 903d 02e3 89bc db61 9ebd 2396 1f3d
00000010: 832d a93d f641 56bd 26ff c43c 5788 8f3d
00000020: 2e24 d6bc 5818 2d3c 8fbe 68bc 661a 983b
00000030: e683 763c 59f1 bebd 4276 0ebd b054 8cbc
00000040: 5b93 27bd d8e6 203d 5085 273d 04ea 10bc
00000050: ab79 273d ca16 f5ba 6597 433c 4914 373d
00000060: ca04 853d 3df3 ea3c 91ec a03d 002c 123d
00000070: 8dc2 813d c27f f2bb 2899 0abd 9382 533b
00000080: a511 953d 62ad 593d 0c25 943c 68ba aabd
00000090: af35 923d c818 91bc ed7e 2b3c 83da b0bd
000000a0: 0455 fc3c b4ac ebbc 1e77 663d 006d 3ebd
000000b0: 700b 523d 5d53 5b3d d6da 15bc 062c fbbc
000000c0: 936a b0bd 9899 96bb a1bc 683a 5688 983d
000000d0: 9d6d f03c 67bc df3c 0976 1abc 0e40 84bb
000000e0: 35b1 18bd 386b a4ba ae63 993d 3c02 b63c
000000f0: 6311 dfbd dced 8abd 2457 a6b9 8c8f f5bb
00000100: 201f b23c 8813 4fbc 90d5 033b 7f00 fa3c
00000110: be82 be3c c50c fabc 6aa9 f7bc ad4d 36bd
00000120: d01a 28bd 6bcd b23d 744d 03be ad1e 43bd
00000130: 62de bbbd 3ecd cabd fc15 c23d 0e52 823d
00000140: 8143 c9bc a39c 943d 77b4 abbc 3e8d cebc
00000150: 80f4 973d 8ea5 123a c2e7 cd3a 1db9 01bc
00000160: 509d 0b3c a697 1c3d cfa2 be3c 5a13 54bd
00000170: 8fb1 a8ba 8605 a13d ea0d 933c 6992 40bd
00000180: 4378 fabc 31e4 353d 1127 8f3d 9bba 4dbd
00000190: bfa3 38bc a419 643d 747b 143d bf9b aabb
000001a0: 9ae2 39bd fcea 65bd 9782 783d 3e93 633d
000001b0: 26f8 883c 7e6d 12bd 6009 a439 d09a 173d
000001c0: 647b 763d 2eb7 583c 0499 d3bc 466e 173d
000001d0: 851c 90bd c45d a0bd c1ea 803d 095c 7dbd
000001e0: 7402 103b 1bec 1bbd b921 b13b eca3 c6bd
000001f0: 239a a8bd 7ea8 b53c 2b4d c7bd 99ea 55bd
00000200: 0460 2e3d b0ff 703d 0128 8ebd cdd5 b53b
00000210: 245c a03c 936f b5bd f3c5 4d3d e3f2 7f3d
00000220: 7bfc 653d 8773 adbd 6c72 0abe 401a 40bd
00000230: 8567 7abd 9e07 a43b 34cd dabd 230a b33d
00000240: 13ed 8a3d 4bef f8bc dd28 38be 0f71 e0bc
00000250: cf25 3cbd 8461 71bd 018b b5bd 5206 28bd
00000260: e3f7 a53d 91c5 673d 049b cfbc 7589 8c3c
00000270: 0156 20bc bc32 cd3c 9ed0 d33c 3468 a5bd
00000280: 0f6f c23c 6a9c 3f3c f058 733c 6e47 90bd
00000290: 4d8e e4bd c3e3 bf3d 40e9 78bb 0b06 2f3d
000002a0: e27b 803d 2970 6ebd 51fc 9b3d 330a e3bd
000002b0: fca7 c6bc 37a6 873c ec81 47bd f4a3 823d
000002c0: b681 02bd 25eb 93bd fc17 88bb 1e09 ee3c
000002d0: bb73 9d3d 5f52 a0bc 78a6 75bc d0dd 1d3d
000002e0: 784e 4ebd 8dd3 e73c f2be 8b3d 61a3 043e
000002f0: e351 9bbd 2933 10bd ab1e 203d c887 ddbb
00000300: 9b9f 8f3d fc7c 5a3d 7b49 bcbd 9037 873d
00000310: 41f8 a73c bc09 9bbd 5dc3 103d 88a0 973d
00000320: 0e4f 3c3b 0e8b 3b3c eaa5 b8bc 6a65 57bd
00000330: 762e 06ba b78c a2bd ade6 a93d 2d9f 90bd
00000340: e934 c6bd f49c 8e3d 36a8 1bbd 20f1 473c
00000350: f547 7bbd 2a0f 9a3d 9029 13bc 3bae b3bd
00000360: d9cc d0bd b8d0 a83d f082 9cbb 60a8 b73d
00000370: c16c 26bd 775e e43c 870a 9a3c df95 d3bd
00000380: e44e 753d 1b34 8b3d 3503 5cbc 1d1d 45bc
00000390: 2e9a 74bd 9bd3 3e3d 5247 21bd ed06 05bd
000003a0: 6181 71bd 59bd ef3c a427 7a3d 5500 7b3d
000003b0: b72a b43d 97fd 04bd d5e1 ab3c c71a 8b3d
000003c0: 06af 8abc 35a5 7bbd 7098 903d 31ff 86bb
000003d0: 40fa 613d e3cd 963d b682 3b3d 29d1 c43d
000003e0: 4c33 d4bc 96ce 39bd 8371 de3b 601a b23c
000003f0: cdee 5ebc d9b2 613d 2e5f d83c 0a9f 043d

value_stream.model.0.bias f4 [128]
0.048267793 -0.11428669 -0.101101495 0.08427389 0.08445063 -0.005506461 0.006395194 0.06086194
0.032628067 -0.05058678 0.06894602 0.05657409 0.042891655 0.08761477 -0.087413736 -0.05450536
0.13217667 0.013266423 0.06579275 -0.0063278023 -0.03780501 0.0639065 0.03639157 -0.07635525
0.024897909 0.05546475 -0.06552973 -0.02849837 -0.015863393 -0.015485769 -0.115162484 -0.012524888
0.060456745 0.14048435 0.019307494 0.04272846 -0.061544262 0.012669917 -0.009258596 -0.104710855
0.029540822 -0.08920261 0.07371993 0.065361075 -0.00861117 -0.08472986 0.082459755 -0.036398057
-0.057179503 -0.007118146 -0.06847081 0.09468053 -0.014857721 0.031105766 -0.044945225 0.07847609
0.072232075 0.026711235 -0.055248216 0.11166055 0.060364977 -0.037751816 0.15856591 -0.035379566
0.019025516 0.0008359611 0.09901829 -0.029051043 -0.010440973 -0.026446149 0.10739393 0.046001643
-0.06717603 -0.043425623 0.07478054 0.015639948 0.04088511 -0.0028017275 0.028836869 -0.12400472
-0.07140958 -0.11641268 0.1165508 0.055187363 -0.07025914 0.038347933 0.04515012 -0.021143852
-0.063284814 -0.087838985 0.026502643 0.02799774 0.027003849 -0.053630758 0.07274539 -0.017004801
-0.015305162 -0.10913355 0.1045356 -0.11039589 0.10729364 0.00054167554 -0.019733205 -0.09680885
0.062230308 0.07187707 0.034053657 -0.017497828 -0.0560384 0.06970832 0.115190946 -0.023202231
-0.03027974 -0.007858545 0.05186455 -0.037921008 0.1213981 0.0023399713 -0.01372732 -0.07259237
0.05116555 0.065625824 0.01439137 0.11201676 0.1125345 0.023800407 0.08809109 0.08097467
00000000: 73b4 453d 240f eabd 4d0e cfbd ca97 ac3d
00000010: 74f4 ac3d 8b6f b4bb c78e d13b 5f4a 793d
00000020: 02a5 053d 1534 4fbd 9233 8d3d 3cba 673d
00000030: 29af 2f3d 5f6f b33d f905 b3bd 0341 5fbd
00000040: 5259 073e 695b 593c 59be 863d 7459 cfbb
00000050: 6dd9 1abd 69e1 823d 540f 153d 2460 9cbd
00000060: b3f6 cb3c 012f 633d 7334 86bd 6a75 e9bc
00000070: f2f3 81bc 06b8 7dbc 4fda ebbd 3035 4dbc
00000080: 7ea1 773d 21db 0f3e c02a 9e3c 0a04 2f3d
00000090: d615 7cbd 7c95 4f3c 5eb1 17bc a572 d6bd
000000a0: 98ff f13c dcaf b6bd 7afa 963d 07dc 853d
000000b0: dd15 0dbc d986 adbd a9e0 a83d 2116 15bd
000000c0: 0e35 6abd 563f e9bb 6d3a 8cbd dee7 c13d
000000d0: cc6d 73bc 85d1 fe3c 7c18 38bd 13b8 a03d
000000e0: 69ee 933d 85d1 da3c f44b 62bd 49ae e43d
000000f0: 4441 773d a6a1 1abd 1a5f 223e 2aea 10bd
00000100: 66db 9b3c 6624 5b3a 1aca ca3d 74fc edbc
00000110: 9d10 2bbc 98a5 d8bc 59f1 db3d 386c 3c3d
00000120: 9693 89bd 11df 31bd 8a26 993d 591f 803c
00000130: 2577 273d 309d 37bb 4c3b ec3c 30f6 fdbd
00000140: 303f 92bd c569 eebd 30b2 ee3d 250c 623d
00000150: 06e4 8fbd b912 1d3d 55ef 383d df35 adbc
00000160: 789b 81bd ede4 b3bd 121c d93c 845b e53c
00000170: 2d37 dd3c edab 5bbd 89fb 943d a74d 8bbc
00000180: 81c2 7abc 6981 dfbd c316 d63d 3e17 e2bd
00000190: c5bc db3d 3bff 0d3a 88a7 a1bc b843 c6bd
000001a0: 35e5 7e3d 4934 933d d97b 0b3d 9b57 8fbc
000001b0: 8588 65bd 3cc3 8e3d 3be9 eb3d 9b12 bebc
000001c0: 380d f8bc 20c1 00bc ec6f 543d 0f53 1bbd
000001d0: 919f f83d 345a 193b 8ee8 60bc 4fab 94bd
000001e0: f892 513d d566 863d c8c9 6b3c 0b69 e53d
000001f0: 7d78 e63d 12f9 c23c 1a69 b43d 0cd6 a53d

value_stream.model.2.weight f4 [1, 128]
-0.0066880914 -0.033854056 -0.052423898 0.02316578 0.061079033 0.105533384 -0.05097466 0.026110224
0.038523678 0.07315749 0.11137812 0.12621851 -0.10452773 -0.10020815 -0.015406617 -0.048630994
0.027212216 0.061999194 0.12522897 -0.007447333 -0.0629672 0.037900273 0.06986566 -0.02063487
0.13550463 -0.054947145 -0.03213381 -0.038838364 -0.08406007 0.009334245 -0.036193326 0.073038824
0.04304164 0.003445857 0.060528893 -0.038011488 -0.08471108 0.025551459 0.031313315 -0.07400001
0.06953985 -0.022045176 0.041157346 -0.029120205 0.046495344 0.124690205 0.03967922 0.07033612
0.056535933 0.03799067 -0.028026393 0.024401255 0.19574681 0.062384922 -0.020710243 0.052566066
0.087146044 -0.07778705 -0.07704211 0.033183098 -0.04946769 -0.026494876 0.046806935 -0.075863265
0.089402676 -0.024794592 -0.008803432 -0.08043008 0.004640936 0.038733892 0.1114954 -0.066790275
0.048938673 -0.016999891 0.04120093 -0.10960245 0.036078304 -0.011119111 -0.037673745 -0.037329834
-0.039843768 -0.017887231 0.012564197 -0.044423934 -0.03207208 -0.048362594 -0.021954887 0.015372034
-0.041876458 -0.06309951 0.10044514 0.09432247 0.0041511455 -0.044974595 0.13658763 0.029415613
0.043455414 -0.016548939 0.069643386 -0.029967083 0.11346615 0.01962211 -0.053741235 0.12729777
0.08289123 0.027925 0.17122166 -0.04187951 0.027949832 0.05708778 0.0267493 0.03958177
0.043589603 -0.05042124 -0.09756308 -0.05167366 0.0025522634 0.09190245 0.030584548 -0.021367323
0.05772173 0.016483914 0.05797704 0.03212668 0.05138602 0.036924463 0.023861643 -0.08278805
00000000: c727 dbbb 8daa 0abd 71ba 56bd 29c6 bd3c
00000010: 022e 7a3d e321 d83d ceca 50bd 1ce5 d53c
00000020: 01cb 1d3d 98d3 953d 361a e43d 6d3f 013e
00000030: a212 d6bd ee39 cdbd 096c 7cbc 4b31 47bd
00000040: 27ec de3c def2 7d3d 063c 003e c208 f4bb
00000050: f3f4 80bd 513d 1b3d ba15 8f3d 750a a9bc
00000060: bac1 0a3e 4210 61bd be9e 03bd fa14 1fbd
00000070: b027 acbd a9ee 183c 743f 14bd 6195 953d
00000080: 6e4c 303d e3d3 613b 25ed 773d efb1 1bbd
00000090: 017d adbd 4b51 d13c 6442 003d 518d 97bd
000000a0: e96a 8e3d 1698 b4bc 9b94 283d 7f8d eebc
000000b0: e771 3e3d 945d ff3d ae86 223d 620c 903d
000000c0: 3992 673d 1b9c 1b3d 9b97 e5bc 24e5 c73c
000000d0: da71 483e 5587 7f3d 87a8 a9bc 844f 573d
000000e0: a079 b23d d14e 9fbd 41c8 9dbd 00eb 073d
000000f0: a29e 4abd c80b d9bc a1b8 3f3d 335e 9bbd
00000100: c018 b73d 071e cbbc 453c 10bc 87b8 a4bd
00000110: fe12 983b 6ea7 1e3d b357 e43d 57c9 88bd
00000120: eb73 483d 5b43 8bbc 4ec2 283d 4077 e0bd
00000130: d8c6 133d ef2c 36bc c94f 1abd 2be7 18bd
00000140: 3833 23bd 3e88 92bc 10da 4d3c dff5 35bd
00000150: 035e 03bd db17 46bd bcda b3bc fcda 7b3c
00000160: a686 2bbd 513a 81bd 2eb6 cd3d 242c c13d
00000170: 5506 883b 4837 38bd a1dd 0b3e 03f9 f03c
00000180: 4efe 313d a491 87bc 31a1 8e3d 877d f5bc
00000190: f160 e83d 8cbe a03c c51f 5cbd 595a 023e
000001a0: e1c2 a93d f8c2 e43c bb54 2f3e d989 2bbd
000001b0: 0cf7 e43c e0d4 693d 5921 db3c 7e20 223d
000001c0: 038b 323d 8186 4ebd 27cf c7bd c2a7 53bd
000001d0: e043 273b 5a37 bc3d 728c fa3c 860a afbc
000001e0: 9f6d 6c3d 4609 873c 5579 6d3d 4497 033d
000001f0: 267a 523d 1b3e 173d 7e79 c33c c88c a9bd

advantage_stream.model.0.weight f4 [128, 128]
0.03141693 0.007843043 -0.04746366 0.008962878 -0.054789808 0.06473039 0.07060556 -0.077156745
0.023484038 -0.10872862 0.03596301 0.02035897 0.09036784 0.082625695 -0.06911669 -0.015140765
0.1257575 -0.059996337 -0.04599707 -0.030086752 0.033602793 -0.0022459812 0.035896342 0.043574426
0.03543817 -0.13878408 0.040419344 0.03754096 -0.046447314 -0.01326948 0.07104424 -0.02953795
0.016525092 0.0116311405 -0.047712084 -0.047404908 -0.0038104586 0.054072052 0.011860218 -0.08959224
0.08994277 0.027259503 -0.030407825 0.0022519748 -0.09636261 -0.08033654 0.009061498 0.008953784
0.066652134 -0.05066342 -0.014635997 -0.1049477 -0.055652626 -0.023510255 -0.05623146 0.03136031
-0.05230442 -0.075542115 -0.008514268 -0.020198746 -0.11120826 0.034585603 0.12816572 -0.041121542
-0.037550867 0.0011505546 -0.0007044672 0.002516333 0.03674407 0.00017875986 -0.06407818 0.020448767
0.041343104 0.04388316 -0.023390306 -0.032894783 0.04378591 0.010018318 -0.09954814 0.035474204
0.09772564 -0.0046223314 -0.059985947 0.0083759315 -0.053795293 -0.06667825 -0.038408827 0.086050384
0.014091694 0.029337445 0.090798 0.02124159 0.0072622416 -0.0066180634 -0.04007773 -0.017230745
-0.16230343 0.09542711 -0.012732282 -0.003595382 -0.12875573 -0.0064973985 -0.013743016 -0.005438315
0.033442784 -0.04621881 0.007011328 -0.0595894 -0.04564642 0.018140089 0.09333401 0.061792616
0.05665614 0.075517565 -0.03690553 -0.00780853 0.023255404 0.110668845 -0.046038505 -0.088519335
0.040480196 -0.009193267 -0.037052132 -0.065237075 0.008267736 -0.06712675 0.0144886 -0.054087944
-0.055185873 -0.034881555 0.03934186 -0.03793117 -0.02613623 0.025756972 0.036892522 0.059379574
0.034539033 -0.12464014 -0.006573665 0.06684212 0.04423113 -0.033085644 0.03489351 -0.041459203
0.045187287 0.041627247 0.024941023 0.022292463 0.07895735 -0.033389565 -0.04831565 0.025213651
-0.004235919 0.022963505 0.013778654 0.020778304 -0.043701917 -0.01750594 -0.09084889 0.11068349
-0.09842815 -0.041414555 -0.05178229 0.028951718 0.017296426 -0.020482574 0.045804378 -0.023989148
0.011825891 -0.056306772 0.04448978 0.055237934 -0.038885213 0.074748725 -0.10710182 -0.046032134
-0.098035604 0.024702417 0.060222253 -0.016864633 0.06497625 -0.029125884 -0.057000436 0.052407086
0.03332847 0.021643253 0.06272603 0.044547457 -0.018686071 -0.07956537 0.020390214 -0.06137162
0.041899815 -0.0128888 0.07127914 0.012523054 0.039535616 -0.044301115 -0.07267615 0.06398352
0.020282568 -0.04473502 0.05231203 -0.07927748 -0.030453052 -0.0035183232 -0.0770344 -0.05699784
0.0009467105 -0.0352226 0.03312927 -0.037947882 0.05020599 -0.057002336 0.04535894 -0.056178804
0.005077693 -0.053262897 0.008718194 0.041390024 0.056975294 -0.04862619 -0.040752403 -0.04087426
-0.087178275 0.031376917 -0.026479991 -0.034853403 0.073961526 0.072684206 -0.026823785 0.046325386
0.037946153 -0.079401575 -0.05826346 0.08561018 -0.04292523 0.076337956 -0.01427459 0.018055765
-0.007405321 -0.004956681 0.015165738 0.021756575 0.020624705 -0.0027256801 -0.025387997 0.06641915
0.02075329 0.045804124 0.073045254 -0.043665927 -0.00064439734 0.076099925 0.019940322 0.0033869497
00000000: 0aaf 003d 1b80 003c 4169 42bd 09d9 123c
00000010: 476b 60bd 5e91 843d a699 903d 5b04 9ebd
00000020: 9961 c03c 1cad debd f34d 133d dbc7 a63c
00000030: c612 b93d a937 a93d 0d8d 8dbd f910 78bc
00000040: 93c6 003e b8be 75bd 6c67 3cbd 7e78 f6bc
00000050: 15a3 093d 5031 13bb 0b08 133d 197b 323d
00000060: 9d27 113d 6a1d 0ebe c18e 253d 8dc4 193d
00000070: 8a3f 3ebd 3c68 59bc a47f 913d 92f9 f1bc
00000080: a15f 873c 8a90 3e3c bf6d 43bd a62b 42bd
00000090: e3b8 79bb a87a 5d3d 5c51 423c 237c b7bd
000000a0: ea33 b83d 524f df3c d519 f9bc de95 133b
000000b0: c359 c5bd 7c87 a4bd ad76 143c e4b2 123c
000000c0: ea80 883d 7284 4fbd d2cb 6fbc d2ee d6bd
000000d0: 02f4 63bd 9498 c0bc f652 66bd ab73 003d
000000e0: 293d 56bd d3b5 9abd 6e7f 0bbc d777 a5bc
000000f0: 28c1 e3bd a2a9 0d3d e03d 033e 106f 28bd
00000100: f0ce 19bd 35ce 963a feab 38ba 10e9 243b
00000110: f380 163d 7c71 3b39 6c3b 83bd 2c84 a73c
00000120: 6357 293d d4be 333d 079d bfbc aebc 06bd
00000130: db58 333d df23 243c e5df cbbd 664d 113d
00000140: 6124 c83d ed76 97bb d3b3 75bd 343b 093c
00000150: 7458 5cbd 9b8e 88bd 9352 1dbd 2f3b b03d
00000160: d9e0 663c 1555 f03c 4df4 b93d d802 ae3c
00000170: 19f8 ed3b 57dc d8bb 8c28 24bd 7e27 8dbc
00000180: df32 26be 4a6f c33d 109b 50bc 80a0 6bbb
00000190: 8bd8 03be 21e8 d4bb 632a 61bc e533 b2bb
000001a0: 4dfb 083d ef4f 3dbd 48bf e53b 0414 74bd
000001b0: bef7 3abd 869a 943c e725 bf3d 411a 7d3d
000001c0: 4510 683d f4a8 9a3d 412a 17bd b2de ffbb
000001d0: 1e82 be3c 59a6 e23d df92 3cbd a049 b5bd
000001e0: 90ce 253d 5b9f 16bc fac3 17bd 049b 85bd
000001f0: 6675 073c c079 89bd 9861 6d3c 528b 5dbd
00000200: 950a 62bd f6df 0ebd ee24 213d b75d 1bbd
00000210: a61b d6bc 4900 d33c 9d1c 173d ff37 733d
00000220: cd78 0d3d 5443 ffbd e667 d7bb 85e4 883d
00000230: b42b 353d d084 07bd 7fec 0e3d 20d1 29bd
00000240: 4e16 393d 5581 2a3d 1e51 cc3c af9e b63c
00000250: 64b4 a13d 7fc3 08bd a2e6 45bd dc8c ce3c
00000260: 77cd 8abb f61d bc3c ddbf 613c 4337 aa3c
00000270: c800 33bd 9e68 8fbc fc0e babd 07ae e23d
00000280: b394 c9bd 4fa2 29bd ab19 54bd 272c ed3c
00000290: 3cb1 8d3c 12cb a7bc 5f9d 3b3d e484 c4bc
000002a0: 62c1 413c eea1 66bd ea3a 363d 2c41 623d
000002b0: 1a46 1fbd dc15 993d 3358 dbbd 318c 3cbd
000002c0: e4c6 c8bd b95c ca3c 9cab 763d b327 8abc
000002d0: 4512 853d 6899 eebc 4a79 69bd d0a8 563d
000002e0: 6f83 083d 314d b13c 8176 803d 6577 363d
000002f0: 8813 99bc 2bf3 a2bd 6109 a73c cf60 7bbd
00000300: 249f 2b3d 8c2b 53bc ccfa 913d 7f2d 4d3c
00000310: 19f0 213d 1675 35bd 3cd7 94bd cb09 833d
00000320: a127 a63c 113c 37bd 2445 563d 3b5c a2bd
00000330: ae78 f9bc ab93 66bb 36c4 9dbd 9176 69bd
00000340: ab2c 783a 9345 10bd 8fb2 073d 3d6f 1bbd
00000350: cca4 4d3d 487b 69bd 4cca 393d bf1b 66bd
00000360: c762 a63b 322a 5abd c2d6 0e3c 9688 293d
00000370: ed5e 693d 412c 47bd feeb 26bd c56b 27bd
00000380: 868a b2bd 1585 003d 91ec d8bc 71c2 0ebd
00000390: 2479 973d 75db 943d 8ebd dbbc b0bf 3d3d
000003a0: 6d6d 1b3d 4b9d a2bd aaa5 6ebd 6454 af3d
000003b0: 5ed2 2fbd 1357 9c3d f8df 69bc afe9 933c
000003c0: 56a8 f2bb a76b a2bb b779 783c d83a b23c
000003d0: 24f5 a83c 53a1 32bb 7dfa cfbc c306 883d
000003e0: ce02 aa3c 1b9d 3b3d c098 953d 0bdb 32bd
000003f0: c6ec 28ba 47da 9b3d e359 a33c 96f7 5d3b

advantage_stream.model.0.bias f4 [128]
0.12448091 0.005530583 0.034514308 0.0003005981 0.053857945 0.1662971 -0.1208953 -0.10743817
-0.01773705 -0.039155822 0.05683238 -0.021759838 -0.02243366 -0.026818616 0.019446567 0.01527055
0.08504965 0.0730636 -0.045198567 -0.05274142 -0.054461956 -0.093961336 -0.034910314 0.13517202
-0.05307544 0.007542031 -0.005049809 -0.12388737 -0.021415219 0.05041261 -0.05069323 0.06956354
-0.038104076 -0.024508325 -0.14755982 0.04541394 0.028295731 0.093491465 0.05977988 0.049571734
0.08687149 -0.11627159 -0.020936422 0.08125922 0.10939656 -0.08214275 0.120843075 0.025277965
-0.050370388 0.011847734 0.014548272 -0.026088884 0.019947495 0.02647766 0.11443325 0.012942504
0.004798664 0.009058939 0.06997931 0.030663105 0.055793844 0.013187029 -0.018212881 0.0038877393
-0.054153197 0.013599461 0.09514755 -0.025957605 -0.02534547 -0.07207438 -0.07109851 -0.046042178
0.012401578 -0.044234093 0.085373335 -0.019074813 -0.012840491 0.012365923 -0.029019762 0.08799528
0.037816834 0.041500505 0.020593446 0.047564857 0.042929098 0.050876576 0.07806454 -0.012520936
-0.03224588 -0.043351073 0.064654075 -0.03229356 0.054586403 0.048455123 -0.045657236 0.0769531
0.0610833 -0.081397384 0.11461459 0.121754035 -0.02768842 0.003428415 0.05239784 0.01073686
0.05924226 0.10873218 -0.011370265 -0.027330795 -0.035389997 0.04602015 0.05940245 0.015967755
0.068818666 0.07787704 -0.00992366 -0.09543733 -0.050607644 0.0049237586 0.027481385 0.002140423
-0.07908563 -0.061625544 0.061586447 -0.026243845 0.08376853 0.10468821 0.0054445365 -0.06462253
00000000: d9ef fe3d e539 b53b e05e 0d3d 9899 9d39
00000010: 269a 5c3d c949 2a3e f497 f7bd 8b08 dcbd
00000020: 4a4d 91bc db61 20bd 12c9 683d b041 b2bc
00000030: ccc6 b7bc b7b2 dbbc 684e 9f3c 5431 7a3c
00000040: 832e ae3d 5ea2 953d 2222 39bd 6307 58bd
00000050: 8013 5fbd cd6e c0bd 1efe 0ebd 896a 0a3e
00000060: a265 59bd 2423 f73b de78 a5bb a9b8 fdbd
00000070: f86e afbc 747d 4e3d b4a3 4fbd 5477 8e3d
00000080: 0513 1cbd afc5 c8bc ec19 17be f803 3a3d
00000090: 73cc e73c 7478 bf3d bfdb 743d bb0b 4b3d
000000a0: aee9 b13d cd1f eebd dc82 abbc 3c6b a63d
000000b0: 4e0b e03d 753a a8bd 937c f73d bc13 cf3c
000000c0: 2e51 4ebd 001d 423c e05b 6e3c 5bb8 d5bc
000000d0: ee68 a33c ade7 d83c fb5b ea3d cc0c 543c
000000e0: 1c3e 9d3b f26b 143c 5051 8f3d 3131 fb3c
000000f0: 1688 643d 690e 583c 2e33 95bc 71c9 7e3b
00000100: becf 5dbd 46d0 5e3c b8dc c23d 0ba5 d4bc
00000110: 4ea1 cfbc bc9b 93bd 189c 91bd b996 3cbd
00000120: fd2f 4b3c cf2e 35bd 37d8 ae3d c842 9cbc
00000130: ec60 52bc 719a 4a3c daba edbc df36 b43d
00000140: d3e5 1a3d 6ffc 293d 96b3 a83c 5ed3 423d
00000150: 6cd6 2f3d f563 503d 4de0 9f3d 9d24 4dbc
00000160: 4214 04bd e590 31bd 5b69 843d 4146 04bd
00000170: fe95 5f3d e178 463d 1503 3bbd 9699 9d3d
00000180: 7b32 7a3d acb3 a6bd 0ebb ea3d 2e5a f93d
00000190: d3d2 e2bc 42af 603b 1e9f 563d a8e9 2f3c
000001a0: 03a8 723d faae de3d 594a 3abc d5e4 dfbc
000001b0: 1af5 10bd a07f 3c3d fc4f 733d cfce 823c
000001c0: cdf0 8c3d ff7d 9f3d d996 22bc a674 c3bd
000001d0: f649 4fbd 7b57 a13b a420 e13c 5746 0c3b
000001e0: a6f7 a1bd 116b 7cbd 1242 7c3d 55fd d6bc
000001f0: d68e ab3d c666 d63d 1568 b23b d158 84bd

advantage_stream.model.2.weight f4 [10, 128]
0.05545316 0.027300894 -0.019266585 0.08435898 -0.010927894 -0.032145765 0.003774811 0.041956615
-0.055841774 0.046034876 0.031173531 0.0041815545 0.008612915 0.04634021 0.15977916 -0.0068082334
-0.0051297396 -0.068952814 -0.06966456 0.058906537 0.0778229 -0.019611116 0.023801977 -0.046941064
0.018085789 -0.06406826 -0.08539264 0.05392937 -0.06323305 -0.039450422 0.048557986 0.048335936
-0.03099953 -0.062223528 -0.022175025 -0.027459824 -0.08318239 0.027467001 -0.0041743224 0.05008899
0.029372094 0.00890811 0.024320226 -0.016035924 0.014889545 0.046569236 -0.014815117 0.04823563
0.017282547 -0.0025681516 -0.030614618 0.010370112 0.09317048 -0.023275279 -0.059637118 -0.007504093
0.036353305 0.023667792 0.04895306 0.020263078 0.048451852 0.043648575 -0.07632168 -0.040627226
-0.1252802 -0.012768296 -0.0130775245 -0.03824062 -0.035990685 0.0039501153 0.032091964 0.019538926
-0.08492123 0.1604584 -0.014655516 -0.027905196 0.062468193 -0.053811885 -0.068336055 0.015992988
0.03554168 0.005455441 -0.033071175 0.00076769246 -0.045463376 -0.0154758645 -0.007986125 0.04481701
0.008313016 0.020502504 -0.043137338 -0.09422512 0.014983332 -0.007999589 0.003954428 -0.010895025
0.053839125 0.03664056 0.020051539 -0.020296445 -0.02826345 -0.07862063 -0.0945247 -0.0499743
0.060727846 -0.05553282 0.0074517294 -0.025838735 0.029448861 0.07096351 -0.07574853 -0.0859191
0.052911412 0.07518108 -0.0032011766 -0.006347851 -0.020383885 0.019618964 0.015443165 -0.04130407
-0.013091851 -0.0076535447 -0.062016204 -0.0612114 0.020091556 -0.037509818 -0.043550316 -0.038925126
0.011275802 -0.0014432891 -0.107016295 0.006457998 -0.032962587 0.07233404 0.056820743 -0.039258488
0.07934294 0.03485095 -0.053294938 -0.020006163 0.042091157 0.016255548 0.09489901 0.012113592
-0.0043254057 -0.07651638 -0.012741499 -0.02731406 -0.120670326 0.008938771 0.040862113 0.023236392
-0.08367453 -0.01924406 -0.036121443 -0.031205809 0.055088177 0.0062176287 0.062799565 -0.039231364
0.0060249353 -0.03666263 0.052253928 0.030156977 0.029241433 0.0142337745 -0.04099468 0.040032737
-0.068983175 0.060677487 -0.026036417 -0.0060652336 0.0016386996 -0.029754924 0.028498208 0.031530023
0.009757326 -0.080945075 -0.075825445 0.00073375594 0.0053104362 -0.051258966 -0.12961686 0.028866434
0.086341545 0.0097878035 0.014273208 -0.033841703 -0.05523823 -0.0055720257 0.07963972 0.006852584
0.22280446 0.05570632 0.04161423 0.049945746 -0.05954026 0.07143695 0.0007539375 0.090382144
0.026776582 0.030558921 -0.005560671 0.024449391 0.018664623 -0.060582735 0.023156345 -0.026556494
0.055098407 0.13288337 -0.016267395 -0.12978248 0.09259874 -0.07141962 6.1746556e-05 -0.016651094
0.053951807 0.02472097 0.030347746 0.04440293 0.07158928 0.024481563 -0.1346582 0.0070513496
-0.021881655 -0.030377723 -0.05999242 -0.014220458 -0.1331117 -0.042332076 0.034258187 -0.0035982733
-0.03376337 -0.020429164 -0.0937895 -0.065619044 0.05771535 -0.012388448 -0.03077003 0.043448027
0.030821424 0.0020341882 -0.021428026 0.12252697 -0.04397811 0.010811077 -0.04551282 -0.04643898
0.01052368 -0.0759487 0.06075274 -0.10149083 0.023449147 0.099355675 -0.07442617 -0.014035721
00000000: da22 633d 20a6 df3c f5d4 9dbc 67c4 ac3d
00000010: e90a 33bc 47ab 03bd d262 773b b3da 2b3d
00000020: 58ba 64bd 118f 3c3d a25f ff3c 6c05 893b
00000030: 2f1d 0d3c 3bcf 3d3d 269d 233e 9a17 dfbb
00000040: 6017 a8bb 2237 8dbd 4bac 8ebd fb47 713d
00000050: 9d61 9f3d 7ea7 a0bc 5dfc c23c 4645 40bd
00000060: a628 943c 3836 83bd 56e2 aebd 0be5 5c3d
00000070: 5480 81bd c496 21bd bde4 463d e7fb 453d
00000080: baf2 fdbc 19de 7ebd 66a8 b5bc 6df3 e0bc
00000090: 875b aabd 7a02 e13c c1c8 88bb 1d2a 4d3d
000000a0: bf9d f03c 52f3 113c 363b c73c c55d 83bc
000000b0: 47f3 733c 62bf 3e3d 1bbb 72bc b992 453d
000000c0: 2194 8d3c 6f4e 28bb 82cb fabc 67e7 293c
000000d0: 2ad0 be3d ccab bebc 0d46 74bd e5e4 f5bb
000000e0: 34e7 143d f5e2 c13c 0183 483d c1fe a53c
000000f0: 7375 463d d9c8 323d 8a4e 9cbd bc68 26bd
00000100: 7449 00be 1d32 51bc 1d43 56bc 32a2 1cbd
00000110: f86a 13bd f86f 813b dd72 033d 1910 a03c
00000120: 2feb adbd 354f 243e b01d 70bc 7099 e4bc
00000130: a6de 7f3d da69 5cbd c6f3 8bbd ba03 833c
00000140: 2794 113d 8ec3 b23b a475 07bd f83e 493a
00000150: ce37 3abd 7b8e 7dbc 3cd8 02bc 0b92 373d
00000160: 5133 083c def4 a73c c7b0 30bd 1af9 c0bd
00000170: a67c 753c b510 03bc 2594 813b 0c81 32bc
00000180: 6a86 5c3d 6914 163d 2043 a43c bb44 a6bc
00000190: c088 e7bc da03 a1bd 2a96 c1bd dab1 4cbd
000001a0: c3bd 783d 6276 63bd a32d f43b c1ab d3bc
000001b0: bd3e f13c 5155 913d 0c22 9bbd 5af6 afbd
000001c0: a3b9 583d 8af8 993d d5ca 51bb a201 d0bb
000001d0: 1bfc a6bc f3b7 a03c 5405 7d3c 752e 29bd
000001e0: 347f 56bc 96ca fabb b404 7ebd ceb8 7abd
000001f0: 0c97 a43c e5a3 19bd d161 32bd f46f 1fbd
00000200: 24be 383c bf2c bdba 5c2b dbbd 9d9d d33b
00000210: c703 07bd df23 943d debc 683d 82cd 20bd
00000220: 8d7e a23d dfbf 0e3d cb4b 5abd f7e3 a3bc
00000230: c767 2c3d 5b2a 853c 6a5a c23d 1678 463c
00000240: 22bc 8dbb 9fb4 9cbd b8c1 50bc bcc1 dfbc
00000250: 0122 f7bd ec73 123c 085f 273d 3f5a be3c
00000260: 8d5d abbd b8a5 9dbc 14f4 13bd 53a3 ffbc
00000270: 24a4 613d 40bd cb3b 0f9d 803d 11b1 20bd
00000280: d26c c53b 8e2b 16bd 3708 563d c40b f73c
00000290: bb8b ef3c c734 693c 0aea 27bd 5ef9 233d
000002a0: 0d47 8dbd f588 783d 534a d5bc debe c6bb
000002b0: a2c9 d63a 99c0 f3bc 1375 e93c a025 013d
000002c0: 31dd 1f3c 88c6 a5bd 5f4a 9bbd 8759 403a
000002d0: 2b03 ae3b ecf4 51bd 48ba 04be 4d79 ec3c
000002e0: d6d3 b03d 065d 203c 2cda 693c 999d 0abd
000002f0: 7b41 62bd 8a95 b6bb 261a a33d a48b e03b
00000300: da26 643e 4f2c 643d af73 2a3d e993 4c3d
00000310: 7de0 73bd 894d 923d e4a3 453a 461a b93d
00000320: 905a db3c b456 fa3c 4a36 b6bb 174a c83c
00000330: 8de6 983c 9a25 78bd 60b2 bd3c 018d d9bc
00000340: deae 613d 9412 083e 3343 85bc b3e5 04be
00000350: 68a4 bd3d 7344 92bd ee7d 8138 e067 88bc
00000360: 92fc 5c3d a283 ca3c d69b f83c d9df 353d
00000370: 679d 923d 8f8d c83c d7e3 09be 020f e73b
00000380: 2841 b3bc b4da f8bc 9dba 75bd edfc 68bc
00000390: 6f4e 08be 6664 2dbd 5052 0c3d 02d1 6bbb
000003a0: 764b 0abd 105b a7bc b614 c0bd 4763 86bd
000003b0: ee66 6c3d ebf8 4abc 6e11 fcbc 8ff6 313d
000003c0: 367d fc3c 0450 053b d489 afbc 6cef fa3d
000003d0: 6422 34bd f220 313c a76b 3abd cd36 3ebd
000003e0: 836b 2c3c fe8a 9bbd ddd7 783d 6dda cfbd
000003f0: 6d18 c03c fd7a cb3d bf6c 98bd 15f6 65bc

advantage_stream.model.2.bias f4 [10]
-0.09949564 -0.09082259 -0.0032973455 -0.057884812 -0.0384218 -0.0468793 0.051510535 0.0075699277
0.015448339 0.008578301
00000000: 5fc4 cbbd 3201 babd 4718 58bb a018 6dbd
00000010: 2d60 1dbd 8204 40bd b6fc 523d 280d f83b
00000020: 081b 7d3c 018c 0c3c
