logs/6-Dueling-noNoisy/31-DuelingDQN-random-max-POM-G0-resumed-25_10_24_18-14-04/10/models/111000/DuelingDQN_checkpoint.pth (torch, 833227 bytes, 44 tensors)

feature_layer.model.0.weight f4 [128, 4]
-0.08390584 -0.06486166 -0.22481866 0.017340828 -0.2883183 -0.16876243 -0.068188086 -0.010579427
-0.025839604 -0.13335873 0.017799417 -0.05316481 -0.09343799 -0.1173689 -0.08300937 -0.02922991
-0.16385207 -0.08874615 0.05542911 -0.033120763 -0.047887564 -0.44248277 -0.43130398 -0.44992995
-0.48924357 -0.4656747 -0.37878096 -0.45096827 -0.2933457 -0.06723371 -0.026687354 -0.015239267
0.032561976 -0.024940912 0.029961947 -0.08712183 -0.004012599 -0.089659385 0.0012415996 -0.023017919
-0.005568502 0.020571798 -0.09688066 -0.08952961 -0.02196362 -0.13343078 -0.07098493 0.049784742
-0.1985497 -0.109986484 -0.43110925 0.11805675 -0.22391582 -0.14170653 -0.16067035 0.028910428
-0.084088765 -0.1295862 0.013209762 0.018274812 -0.09832187 -0.8382456 -0.05949149 0.012162124
-0.037406676 0.1532607 -0.021170994 -0.117447995 -0.117496505 0.08021447 0.21590148 -0.18546252
-0.32344615 0.031415794 -0.16888173 -0.24501315 -1.0311902 -0.0031945838 -0.17860341 -0.15323432
-0.14750919 -0.11764973 0.05043721 -0.119320795 0.096238434 -0.07798168 -0.10348125 0.19920826
-0.33316544 -0.38080168 -0.26487887 0.26351342 1.3404406e-05 -0.3021759 -0.18938717 -0.18756005
-0.12864144 0.057566717 -0.21600138 -0.13126606 -0.039466526 0.052962814 0.10729521 -0.030951872
-0.13604784 -0.0015933563 -0.05130446 -0.031722832 -0.16575797 -0.13525143 -0.062425397 -0.0028457812
0.04063118 -0.25983784 -0.081671715 -0.2700598 -0.044094317 -0.16595556 -0.035469264 0.20002206
0.23410921 -0.101708755 -0.09626992 -0.12990524 0.19761138 -0.19823344 -0.12181726 -0.10748001
-0.5002199 -0.06727983 -0.06597213 0.019465985 -0.11904889 -0.07307261 -0.3022604 -0.3301189
0.038057413 0.1463054 -0.25729305 -0.4297814 -0.2715241 0.27121973 -0.026933217 -0.248534
-0.041115455 -0.037315633 0.14328286 -0.08123435 0.026833441 -0.0895811 -0.99324936 -0.070696004
-0.24171585 -0.031344414 -0.110410154 -0.40441358 -0.13767445 0.030807536 -0.012936508 -0.15940382
-0.47214407 -0.39984155 -0.052542686 -0.051872253 -0.21794146 0.088997595 -0.14735302 -0.11109658
-0.17677449 -0.09981887 -0.1352493 0.012220598 0.0063781 -0.33339614 0.35001376 -0.38103566
0.00024248449 -0.10773533 -0.015720664 -0.029698335 -0.08878952 -0.08706975 0.0871892 0.05890158
-0.09029526 -0.08708887 -0.060558192 -0.0001868567 0.055006493 0.07260395 0.0078058643 -0.05713824
-0.44871497 -0.2044341 0.17505294 -0.49496427 -0.20760317 0.2593997 -0.272697 -0.2812825
-0.1518275 0.024886072 0.016054286 0.06663616 -0.09555029 -0.17373565 0.16574253 -0.15332088
-0.29728055 0.028872473 0.074123286 -0.310029 -0.62058216 0.0036597895 0.024039702 0.00045738337
0.0045309854 0.008449739 -0.39293152 0.009939566 0.00027291605 -0.079607 -0.18121892 -0.087052666
-0.0026518102 -0.113856755 0.12619424 0.012721545 2.6736598e-05 -0.031131903 -0.22398007 -0.25581792
-0.069738686 -0.05045986 0.0006247302 -0.0028621452 0.015547593 -0.034802523 -0.07897424 -0.00998404
-0.18809825 -0.0011245314 -0.06284456 -0.059482686 -0.048788723 0.07934017 -0.035195924 -0.39180562
-0.032442715 0.20754507 -0.1457683 -0.12561508 0.06381762 -0.0036325832 -0.05609593 0.01070579
00000000: d3d6 abbd 31d6 84bd dd36 66be 5a0e 8e3c
00000010: 759e 93be 0fd0 2cbe 32a6 8bbd 5555 2dbc
00000020: 94ad d3bc 318f 08be 15d0 913c 58c3 59bd
00000030: 6b5c bfbd 1b5f f0bd d100 aabd 9073 efbc
00000040: d6c8 27be 8bc0 b5bd a209 633d a3a9 07bd
00000050: c025 44bd 1a8d e2be e0d3 dcbe 385d e6be
00000060: 227e fabe ea6c eebe 94ef c1be 50e5 e6be
00000070: 6831 96be d4b1 89bd 709f dabc 1eae 79bc
00000080: b55f 053d e250 ccbc c272 f53c ee6c b2bd
00000090: 1f7c 83bb 579f b7bd 2bbd a23a 1390 bcbc
000000a0: fb77 b6bb 3086 a83c 5e69 c6bd 4d5b b7bd
000000b0: 0ded b3bc 14a2 08be 8c60 91bd 16eb 4b3d
000000c0: 9d50 4bbe 9840 e1bd 5aba dcbe bdc7 f13d
000000d0: 304a 65be 841b 11be c586 24be 90d5 ec3c
000000e0: bb36 acbd 3fb2 04be c26d 583c 0fb5 953c
000000f0: fa5c c9bd 4397 56bf 59ad 73bd a543 473c
00000100: be37 19bd 5ff0 1c3e cb6e adbc 9388 f0bd
00000110: 02a2 f0bd 7c47 a43d 4715 5d3e e3e9 3dbe
00000120: bc9a a5be d9ad 003d 55ef 2cbe bae4 7abe
00000130: 0afe 83bf 395c 51bb d0e3 36be 75e9 1cbe
00000140: a60c 17be 57f2 f0bd 3f97 4e3d 765e f4bd
00000150: a818 c53d dcb4 9fbd faed d3bd 40fd 4b3e
00000160: a994 aabe 70f8 c2be 349e 87be 3beb 863e
00000170: 7ce3 6037 cdb6 9abe b6ee 41be be0f 40be
00000180: 95ba 03be 14cb 6b3d 772f 5dbe 9c6a 06be
00000190: a7a7 21bd 89ef 583d 97bd db3d c88e fdbc
000001a0: 2050 0bbe 2ad8 d0ba a024 52bd cdef 01bd
000001b0: 75bc 29be 5a7f 0abe c6b1 7fbd 4980 3abb
000001c0: e16c 263d 7709 85be 8043 a7bd 4745 8abe
000001d0: 3e9c 34bd 41f0 29be 3848 11bd 95d2 4c3e
000001e0: 53ba 6f3e ae4c d0bd 2a29 c5bd e105 05be
000001f0: a35a 4a3e b5fd 4abe 547b f9bd 7b1e dcbd
00000200: 690e 00bf 02ca 89bd 651c 87bd 2177 9f3c
00000210: e8cf f3bd 18a7 95bd e0c1 9abe 5805 a9be
00000220: 17e2 1b3d 15d1 153e eabb 83be 4f0c dcbe
00000230: 3505 8bbe 50dd 8a3e 0da3 dcbc b27f 7ebe
00000240: ae68 28bd 47d8 18bd beb8 123e 325e a6bd
00000250: ced1 db3c 4c76 b7bd 9745 7ebf 11c9 90bd
00000260: 5c84 77be 0063 00bd b81e e2bd 4c0f cfbe
00000270: 88fa 0cbe 1660 fc3c a6f3 53bc c13a 23be
00000280: debc f1be 08b8 ccbe 0037 57bd 0078 54bd
00000290: 0c2c 5fbe 5f44 b63d b6e3 16be 9b86 e3bd
000002a0: 5f04 35be d66d ccbd cb7e 0abe e738 483c
000002b0: 61ff d03b e6b2 aabe 0135 b33e 1b17 c3be
000002c0: 6f43 7e39 57a4 dcbd 9fc8 80bc ec49 f3bc
000002d0: 48d7 b5bd a051 b2bd 4090 b23d c842 713d
000002e0: b9ec b8bd a65b b2bd de0b 78bd f7ee 43b9
000002f0: 7d4e 613d 61b1 943d 56c8 ff3b ca09 6abd
00000300: f8bd e5be 2c57 51be 1441 333e f56b fdbe
00000310: ed95 54be 0ad0 843e f19e 8bbe 4304 90be
00000320: ab78 1bbe e0dd cb3c 4784 833c 8a78 883d
00000330: dfaf c3bd c2e7 31be 69b8 293e 2600 1dbe
00000340: 2835 98be f785 ec3c f3cd 973d 1fbc 9ebe
00000350: 79de 1ebf 14d9 6f3b e9ee c43c f5cc ef39
00000360: a978 943b c670 0a3c 522e c9be 90d9 223c
00000370: 2c16 8f39 ff08 a3bd 7491 39be ab48 b2bd
00000380: fec9 2dbb bb2d e9bd 1039 013e 076e 503c
00000390: 6848 e037 5508 ffbc 085b 65be 91fa 82be
000003a0: 28d3 8ebd 00af 4ebd efc4 233a d492 3bbb
000003b0: 55bb 7e3c 178d 0ebd 3fbd a1bd 1994 23bc
000003c0: d49c 40be 0365 93ba a6b4 80bd 1ea4 73bd
000003d0: afd6 47bd 197d a23d 9a29 10bd bf9a c8be
000003e0: a7e2 04bd b286 543e 4944 15be 3da1 00be
000003f0: d0b2 823d a210 6ebb d9c4 65bd 5667 2f3c

feature_layer.model.0.bias f4 [128]
-2.0070832 0.12244366 1.8457812 0.25840795 -2.1220868 -0.0059349043 -0.43214464 -0.0013791885
-0.021803794 -0.65084434 -1.6184697 -1.8390329 -1.100955 0.1457743 0.5880146 0.68901473
-0.035294183 0.50943524 -0.26058564 -0.022416973 1.3192794 -0.2973998 0.754124 -0.43595338
0.33574682 -0.95797133 1.0286999 -0.02852893 -1.1086404 -0.73126835 -0.93641794 0.07250574
0.9959326 -0.14322221 -0.9173858 -1.2198851 -0.021248031 0.7896889 -0.26059967 -2.436843
-0.26060736 -0.34558624 0.4112231 -0.33635175 -1.2561105 0.014582747 -1.3098477 0.30371988
-2.194276 -0.15177174 -0.874855 -1.7230042 -0.4338476 1.7162771 1.7873828 -0.6090754
-0.89087856 -0.03601282 -0.50271785 1.8927454 -0.21902719 1.4033197 -1.2527058 -0.8307145
0.71469134 -0.93537134 -1.1135333 0.11760899 1.328942 -0.08471608 -0.0010249128 0.08658868
0.48913115 -0.6701169 -0.42168662 0.9606173 -0.2853801 0.39017388 0.6960117 -1.4982209
-0.7572172 -1.2230076 -0.3649431 0.35451454 1.4161863 0.32867548 1.4835637 0.54781586
-1.1392337 0.31625423 0.75844014 0.26957524 1.6019207 -0.7433242 0.29509524 -0.092749596
1.7745701 0.8784954 -0.879646 -0.4731819 -0.8621922 0.07926283 0.107104555 -2.5065584
0.42818668 0.6924492 -0.24508244 0.8098411 -2.140997 1.0400997 1.254474 0.86875653
-0.088788725 -0.0019262399 -0.4170528 -0.17642708 0.82335895 -1.9719008 -0.02282132 -0.78437877
-0.03816094 0.81608206 -0.00032542227 0.039609957 -0.49729255 0.96544266 -1.7586957 0.53608996
00000000: 0d74 00c0 bec3 fa3d 8f42 ec3f 0c4e 843e
00000010: 45d0 07c0 9679 c2bb 1042 ddbe e3c5 b4ba
00000020: df9d b2bc bc9d 26bf 042a cfbf 6e65 ebbf
00000030: 18ec 8cbf dc45 153e 2088 163f 4563 303f
00000040: a290 10bd 596a 023f 7b6b 85be cda3 b7bc
00000050: 26de a83f c944 98be 450e 413f 4835 dfbe
00000060: 02e7 ab3e 9c3d 75bf 70ac 833f 81b5 e9bc
00000070: eee7 8dbf 6734 3bbf 16b9 6fbf e47d 943d
00000080: 70f5 7e3f d8a8 12be ccd9 6abf 3225 9cbf
00000090: 5a10 aebc 0d29 4a3f 526d 85be 3cf5 1bc0
000000a0: 546e 85be aef0 b0be d68b d23e 4c36 acbe
000000b0: 3bc8 a0bf 79ec 6e3c 17a9 a7bf 2c81 9b3e
000000c0: 056f 0cc0 0d6a 1bbe 7ff6 5fbf 678b dcbf
000000d0: 4621 debe f8ae db3f f6c8 e43f 5eec 1bbf
000000e0: 9e10 64bf 2e82 13bd 1eb2 00bf 7b45 f23f
000000f0: aa48 60be fb9f b33f aa58 a0bf b5a9 54bf
00000100: 03f6 363f 7f74 6fbf 4288 8ebf fbdc f03d
00000110: c51a aa3f a07f adbd 5e56 86ba 6855 b13d
00000120: 666f fa3e c88c 2bbf 4fe7 d7be 04eb 753f
00000130: 571d 92be dfc4 c73e d32d 323f b4c5 bfbf
00000140: fdd8 41bf 838b 9cbf d2d9 babe ee82 b53e
00000150: 9845 b53f 2748 a83e 6ae5 bd3f a93d 0c3f
00000160: 69d2 91bf 13ec a13e 2229 423f c405 8a3e
00000170: bd0b cd3f 7f4a 3ebf b916 973e 80f3 bdbd
00000180: 1d25 e33f 13e5 603f 7b30 61bf e644 f2be
00000190: a1b8 5cbf 8d54 a23d a259 db3d 746b 20c0
000001a0: 493b db3e 5a44 313f e4f6 7abe bf51 4f3f
000001b0: 1806 09c0 fd21 853f 9b92 a03f d466 5e3f
000001c0: ddd6 b5bd e379 fcba f287 d5be 4da9 34be
000001d0: a7c7 523f 3f67 fcbf c7f3 babc 0ccd 48bf
000001e0: a54e 1cbd c1ea 503f 709d aab9 0d3e 223d
000001f0: 219d febe 4027 773f f11c e1bf 313d 093f

feature_layer.model.2.weight f4 [128, 128]
-0.08643285 -0.00980435 -0.03852613 -0.050143592 0.009111651 -0.0845417 -0.057830594 0.0074773454
0.036256876 0.046989698 0.0017481458 -0.082715966 -0.00040099412 0.065916635 0.016119774 0.06607393
-0.03495998 -0.09230041 -0.07407527 0.0592786 0.059209764 -0.02422017 0.056995038 -0.09494548
0.056506604 -0.10509298 -0.03891016 -0.08290495 -0.112796396 0.05998859 -0.0023834298 0.0035437362
-0.030881371 -0.055237416 -0.06975413 -0.086111285 -0.038832564 -0.0915865 -0.07769314 0.04602541
-0.035699286 -0.057111762 -0.06231564 0.056288444 -0.06315256 -0.013682173 0.035279147 -0.0034628743
0.048981503 -0.023787018 -0.13138026 -0.09612349 0.028942214 0.059631955 -0.096749045 -0.0892403
-0.0013971681 0.021887487 -0.028697371 -0.08636858 0.020178529 -0.0015244632 0.009837141 -0.00034060335
0.026351342 -0.10776269 -0.0831913 -0.051118903 -0.034718756 0.0076051108 0.029813414 -0.061088108
0.022505775 -0.07415932 -0.07235655 -0.12460836 -0.11640137 -0.06954129 0.017245902 0.015084859
-0.0232173 0.0027922925 0.028461406 -0.038646825 -0.02279458 -0.055905618 -0.022504685 -0.07586266
-0.041450866 -0.019799527 -0.02839968 -0.006368308 0.08256964 -0.02310834 -0.004812284 -0.052703053
0.012581904 -0.0905175 -0.07113316 0.0073283883 0.011193477 -0.035933364 -0.11696721 -0.020013852
-0.109934434 0.021151192 -0.0009022355 0.046195827 0.03649061 0.010903772 -0.010363019 -0.10732881
0.059433494 0.040936533 0.00042701702 -0.068307586 -0.010983888 0.07201245 0.0101675615 -0.0842053
-0.07547573 -0.017913397 -0.014523551 -0.060596116 -0.13542439 -0.13309531 -0.014361689 0.009874092
0.048660733 0.018438268 -0.031680353 -0.08262818 -0.02581427 0.057478525 0.009994902 0.011098305
-0.06433319 -0.10079704 -0.056870934 0.009751219 -0.020043168 -0.014884972 -0.06147507 -0.044482794
0.080070935 -0.040045418 0.058641367 -0.054995473 0.013835113 -0.07769818 -0.045028213 -0.020873846
-0.03814122 -0.04680724 -0.0653141 -0.025619078 0.005794309 -0.09359637 0.055483364 -0.018373724
0.0016583239 0.038586445 0.07382103 -0.023437485 0.060416363 0.042708408 0.056693368 0.038144168
-0.016301118 -0.019756408 -0.0077005844 0.019969083 -0.040598374 -0.048440374 0.028085686 -0.061306782
0.07259899 0.003139995 0.031465344 -0.08096895 -0.013968825 0.040723823 -0.08078839 -0.015659928
0.02093939 -0.04586225 -0.06406125 0.0422975 0.048335563 0.014938943 0.06948673 -0.0704006
-0.08059314 0.039895706 0.009607187 -0.06855558 0.011071801 -0.00959182 -0.06920342 -0.066200845
-0.07480005 0.005303346 -0.02638867 0.009097949 -0.0005497491 -0.077680156 -0.008995727 -0.006621971
0.017529435 -0.0464104 -0.095264696 0.016647423 -0.021887217 0.048155244 -0.02526615 0.07725675
0.06316421 -0.04763322 -0.033994015 -0.01628774 0.05762429 -0.01393342 -0.056304164 -0.0394518
0.0022864863 -0.018103592 0.035524316 0.009657235 -0.090827115 -0.08667727 -0.035865318 0.055051617
-0.08186264 -0.08236667 -0.050068032 -0.025522731 0.0468935 0.027031353 -0.028085366 0.04511539
-0.008249454 0.07990719 -0.06836099 -0.06701601 -0.032007255 -0.08179618 -0.07642436 -0.054201417
-0.06722468 -0.03204798 -0.009373479 -0.014400813 -0.0664869 -0.080271415 0.07046453 0.012208218
00000000: b503 b1bd 6da2 20bc 93cd 1dbd 5e63 4dbd
00000010: 0949 153c 3324 adbd c6df 6cbd 8504 f53b
00000020: 1782 143d 4578 403d 0a22 e53a fd66 a9bd
00000030: 853c d2b9 4dff 863d 9e0d 843c c551 873d
00000040: 3232 0fbd ff07 bdbd c6b4 97bd 1ece 723d
00000050: f085 723d 6169 c6bc a173 693d c772 c2bd
00000060: 7873 673d fd3a d7bd 4360 1fbd 12ca a9bd
00000070: cc01 e7bd 99b6 753d 5133 1cbb 073e 683b
00000080: eefa fcbc a140 62bd 41db 8ebd 1d5b b0bd
00000090: e50e 1fbd b491 bbbd 951d 9fbd 2485 3c3d
000000a0: 6a39 12bd 06ee 69bd af3e 7fbd b68e 663d
000000b0: 2156 81bd 312b 60bc de80 103d 64f1 62bb
000000c0: d4a0 483d fedc c2bc 8c88 06be 64dc c4bd
000000d0: 3918 ed3c a340 743d 5d24 c6bd 9ec3 b6bd
000000e0: 2f21 b7ba 634d b33c c016 ebbc 03e2 b0bd
000000f0: 714d a53c 7fd0 c7ba f62b 213c 0293 b2b9
00000100: c5de d73c afb2 dcbd 3360 aabd 0e62 51bd
00000110: 4135 0ebd 4b34 f93b 433b f43c 8637 7abd
00000120: 085e b83c d7e0 97bd ac2f 94bd ab32 ffbd
00000130: d763 eebd aa6b 8ebd 4747 8d3c 7c26 773c
00000140: 3532 bebc e5fe 363b e527 e93c 224c 1ebd
00000150: b3bb babc 4afd 64bd bf5b b8bc e25d 9bbd
00000160: 62c8 29bd 9e32 a2bc 72a6 e8bc 3dad d0bb
00000170: 451a a93d b44d bdbc 5db0 9dbb 28df 57bd
00000180: 5524 4e3c 3d61 b9bd 43ae 91bd fa22 f03b
00000190: d864 373c dd2e 13bd 818c efbd 17f4 a3bc
000001a0: 4e25 e1bd 4445 ad3c 0084 6cba d637 3d3d
000001b0: 2e77 153d bca5 323c a7c9 29bc 35cf dbbd
000001c0: 8970 733d 11ad 273d 41e1 df39 d9e4 8bbd
000001d0: c4f5 33bc 437b 933d d895 263c d473 acbd
000001e0: 0593 9abd 1ebf 92bc 30f4 6dbc a233 78bd
000001f0: b1ac 0abe 234a 08be 4a4d 6bbc f2c6 213c
00000200: 7a50 473d da0b 973c 42c3 01bd f738 a9bd
00000210: 7378 d3bc 9a6e 6b3d a8c1 233c aad5 353c
00000220: 1fc1 83bd ae6e cebd 7ff1 68bd 94c3 1f3c
00000230: 9231 a4bc 19e0 73bc 48cd 7bbd 9733 36bd
00000240: 3bfc a33d aa06 24bd ee31 703d ef42 61bd
00000250: abac 623c 3920 9fbd 816f 38bd a1ff aabc
00000260: f839 1cbd f3b8 3fbd 66c3 85bd 1adf d1bc
00000270: 30de bd3b 74af bfbd 8642 633d 7e84 96bc
00000280: 1e5c d93a d20c 1e3d 7b2f 973d f8ff bfbc
00000290: 2677 773d 03ef 2e3d 4e37 683d 0f3d 1c3d
000002a0: ec89 85bc 31d8 a1bc 2f55 fcbb 3496 a33c
000002b0: 7b4a 26bd 6a69 46bd f413 e63c d21c 7bbd
000002c0: c7ae 943d 60c8 4d3b cee1 003d 0dd3 a5bd
000002d0: 80dd 64bc 06ce 263d 6274 a5bd 4049 80bc
000002e0: 1589 ab3c 0eda 3bbd 8b32 83bd 2540 2d3d
000002f0: 83fb 453d 78c2 743c 0f4f 8e3d 312e 90bd
00000300: 040e a5bd ae69 233d 7667 1d3c de66 8cbd
00000310: 8066 353c 0227 1dbc 86ba 8dbd 4f94 87bd
00000320: c530 99bd b1c7 ad3b 0d2d d8bc 900f 153c
00000330: 0a1d 10ba c616 9fbd d062 13bc 1efd d8bb
00000340: e499 8f3c d518 3ebd 231a c3bd 2d60 883c
00000350: d24c b3bc 6f3e 453d f5fa cebc c938 9e3d
00000360: 3d5c 813d 0d1b 43bd 4f3d 0bbd de6d 85bc
00000370: 7307 6c3d 0049 64bc 329f 66bd 3698 21bd
00000380: e0d8 153b fc4d 94bc f281 113d 6139 1e3c
00000390: 9103 babd da83 b1bd 83e7 12bd ce7d 613d
000003a0: 9aa7 a7bd dbaf a8bd 2314 4dbd 0c15 d1bc
000003b0: 6613 403d db70 dd3c 4813 e6bc eaca 383d
000003c0: b828 07bc 61a6 a33d d900 8cbd b13f 89bd
000003d0: 0a1a 03bd c184 a7bd 6084 9cbd 4e02 5ebd
000003e0: 18ad 89bd be44 03bd 3893 19bc 63f1 6bbc
000003f0: 492a 88bd 5765 a4bd b54f 903d fa04 483c

feature_layer.model.2.bias f4 [128]
0.12963873 0.019007847 0.031108815 0.5203967 0.05272814 -0.042506058 0.040601637 0.22920787
-0.08456685 0.0849159 -0.120707475 -0.06789746 0.038394716 0.083711855 0.43180674 0.29297575
-0.056014612 -0.13780333 0.042570647 -0.0638571 -0.05773241 -0.0472257 0.0035288562 -0.11184006
0.9763764 1.2728795 0.01078999 -0.08015564 -0.11731243 -0.02720468 0.08343895 0.66412824
-0.014327074 0.3075219 -0.067090884 -0.08569347 0.77581435 0.08763005 0.26061368 -0.118311696
-0.14393355 -0.022539109 0.14392553 -0.051126707 0.03568045 -0.012761522 0.04489323 1.0288717
-0.09314232 -0.07481937 -0.09089464 -0.10966772 0.0046972916 -0.10880747 0.24143179 -0.06351434
1.4129697 0.049704175 0.088842236 -0.023834415 -0.0055635436 0.030062111 0.2714875 0.14317879
-0.07133943 -0.12879676 -0.07061627 -0.036795538 0.95127493 -0.012448098 -0.10210592 -0.00061046774
0.17930716 -0.04319492 -0.104886144 0.22901191 0.04944668 -0.08902577 1.3494678 0.5252903
-0.13213985 0.4036093 0.041375432 0.8006777 -0.12417076 -0.06225466 0.019820368 -0.12970527
0.045829553 -0.09054694 0.1603272 -0.0153566785 -0.10992712 0.49724233 0.042731415 0.037965313
0.08660253 0.029729338 -0.045577794 0.07264841 -0.09956454 -0.02563912 -0.122794814 0.21926641
0.12320046 0.13056317 0.72949743 -0.069009416 -0.05743208 -0.07117158 -0.101046555 0.72458494
0.0001807788 0.9442389 -0.015733909 -0.024681732 -0.07863558 -0.102495715 -0.02778239 -0.065040775
0.9065108 -0.026869057 0.014223818 -0.0049811727 -0.10178117 -0.07628054 0.40292892 -0.08258207
00000000: 04c0 043e 58b6 9b3c ead7 fe3c b838 053f
00000010: 76f9 573d d51a 2ebd e74d 263d 78b5 6a3e
00000020: 6231 adbd 63e8 ad3d 7b35 f7bd d30d 8bbd
00000030: c743 1d3d 1f71 ab3d c615 dd3e eb00 963e
00000040: 946f 65bd 511c 0dbe 8f5e 2e3d 83c7 82bd
00000050: d278 6cbd bc6f 41bd 6244 673b 670c e5bd
00000060: cef3 793f b7ed a23f 80c8 303c a428 a4bd
00000070: 8041 f0bd 59dc debc 0ae2 aa3d 4f04 2a3f
00000080: 1bbc 6abc 8373 9d3e f266 89bd 0f80 afbd
00000090: c59b 463f 6277 b33d 286f 853e 674d f2bd
000000a0: 5163 13be f0a3 b8bc 3761 133e 3d6a 51bd
000000b0: aa25 123d b415 51bc f7e1 373d 11b2 833f
000000c0: 67c1 bebd e63a 99bd f826 babd 7899 e0bd
000000d0: bdeb 993b 73d6 debd e539 773e ce13 82bd
000000e0: 31dc b43f 9b96 4b3d ebf2 b53d 6440 c3bc
000000f0: 634e b6bb d144 f63c 6900 8b3e 769d 123e
00000100: 681a 92bd 4ce3 03be 439f 90bd ebb6 16bd
00000110: c186 733f 1bf3 4bbc e91c d1bd cc07 20ba
00000120: 4c9c 373e 28ed 30bd 8cce d6bd 1982 6a3e
00000130: 9a88 4a3d 2553 b6bd 5cbb ac3f 6d79 063f
00000140: ab4f 07be e1a5 ce3e 4979 293d 37f9 4c3f
00000150: 3d4d febd befe 7ebd 535e a23c 75d1 04be
00000160: c5b7 3b3d ad70 b9bd d02c 243e 949a 7bbc
00000170: 7821 e1bd 8c96 fe3e 2307 2f3d 8481 1b3d
00000180: ab5c b13d f18a f33c c8af 3abd b1c8 943d
00000190: 7ee8 cbbd 2209 d2bc d97b fbbd 6087 603e
000001a0: 8650 fc3d 5ab2 053e 58c0 3a3f cf54 8dbd
000001b0: e73d 6bbd 68c2 91bd 7ff1 cebd 667e 393f
000001c0: 718f 3d39 a4b9 713f 66e4 80bc 5831 cabc
000001d0: b10b a1bd 46e9 d1bd e597 e3bc 1934 85bd
000001e0: 1711 683f 7f1c dcbc 040b 693c 1b39 a3bb
000001f0: a572 d0bd f938 9cbd b34c ce3e ca20 a9bd

value_stream.model.0.weight f4 [128, 128]
0.004573837 0.08020293 -0.0019421354 -0.045561887 -0.019230627 -0.0657956 0.0020312965 -0.026986873
-0.024819106 -0.048273314 -0.060185038 -0.028662417 -0.07213018 0.08782586 -0.042950135 -0.07346477
0.014904745 -0.03760192 0.07797966 0.054468326 0.01732611 -0.08085265 0.02268868 0.07020601
-0.044461414 -0.041871455 -0.029935956 -0.035486612 0.04595094 -0.0052899793 0.029286988 -0.09731827
0.08323697 -0.06659768 -0.06479576 0.07105292 -0.03313456 0.053174935 -0.03887467 0.049250387
-0.008285046 0.04683148 -0.08451307 -0.06339378 -0.078325704 0.000678353 0.00683745 0.02511347
0.059353195 0.04946912 0.006225139 -0.083888814 -0.07403505 0.055940263 0.082891636 -0.012738071
-0.01193586 -0.025387473 -0.114029184 0.067216806 -0.0750069 -0.06502055 0.060135283 0.013510518
0.06417813 0.016769744 0.06506803 0.061055087 0.019895473 0.0401353 0.03312382 -0.05619513
0.020075396 0.03777083 0.017675616 0.018232882 -0.06615816 -0.034012318 -0.014966161 -0.092140324
-0.00023310632 -0.02529687 0.04477749 -0.038846247 0.031995475 -0.0563487 -0.06666128 0.035590187
-0.07419856 0.07679387 0.010795042 -0.010388121 0.050480105 -0.03220976 0.05833883 0.07209868
-0.03186048 0.040507413 0.05436609 -0.07273916 0.052367337 -0.04996575 0.0099873245 -0.0654767
-0.08427606 0.070877336 0.030791173 -0.01321169 -0.08515544 -0.0324907 0.08348622 -0.10964883
-0.05878007 -0.036254533 0.025750406 -0.06544508 0.0031923577 -0.08012776 0.0802305 -0.07249744
0.009862485 0.01312495 -0.07278755 -0.031263985 0.012476541 0.04200055 -0.034333717 -0.06067082
0.01869405 -0.021453017 -0.076789394 0.027938241 0.058461435 -0.0037570817 -0.0656986 0.010621477
0.073096626 0.02936588 0.04039534 -0.0030359386 0.06678018 0.0022479417 -0.010627988 -0.040226907
0.035797074 -0.0075251637 -0.07704606 0.06741172 0.034974977 -0.028652022 0.0332197 -0.06958434
-0.0040522856 0.010027 0.0025278227 -0.073117 0.02145951 -0.05496548 0.018613977 -0.048353385
0.06008463 0.05823227 -0.07101931 -0.082802795 -0.037330896 -0.046442095 0.06907842 0.08444599
0.023393657 0.037261963 0.075214535 0.036546335 -0.068365194 -0.026499595 0.046867594 -0.019189693
0.03549409 -0.08607107 -0.011717886 0.018481601 0.013978421 -0.003724519 0.011627799 -0.026060766
0.015874702 0.037671752 -0.061848573 -0.084861085 0.021273209 -0.0760929 0.009463371 0.03515154
0.10260149 -0.030054837 0.05813828 -0.013618262 -0.10832272 0.01971051 0.016311605 0.020814374
-0.004314333 0.029894158 0.07617683 -0.036863986 -0.010331562 0.048573736 -0.060419008 -0.081007056
0.057229154 -0.028876223 0.08566495 -0.006672277 -0.019083682 -0.04312069 -0.008144492 0.058342557
-0.038108915 -0.004976796 0.1315865 -0.06190975 -0.01842019 0.026269509 -0.030490905 0.027862607
-0.018879466 0.04639946 0.06510053 -0.052183293 -0.055696752 0.100615464 -0.02194009 0.019565072
-0.06455145 -0.0044370834 -0.11282081 0.014088258 -0.00014383678 -0.006445686 0.07253755 0.023029584
-0.0065879035 -0.12720218 0.031077057 0.019741928 0.03518277 -0.04118415 -0.026209814 -0.06642659
-0.016533833 0.032021657 -0.0022602603 0.015062887 -0.082461365 0.0011999403 0.04970807 0.00170712
00000000: 20e0 953b 6f41 a43d 408f feba 1a9f 3abd
00000010: 8c89 9dbc d8bf 86bd 801f 053b 9313 ddbc
00000020: 7051 cbbc 3dba 45bd 9684 76bd 72cd eabc
00000030: fdb8 93bd 0bde b33d 7bec 2fbd b374 96bd
00000040: 0833 743c 7904 1abd cdb3 9f3d 2e1a 5f3d
00000050: 7cef 8d3c 1396 a5bd 9cdd b93c 2bc8 8f3d
00000060: 2c1d 36bd 6781 2bbd 403c f5bc 695a 11bd
00000070: 0e37 3c3d 9057 adbb 44eb ef3c cd4e c7bd
00000080: 2578 aa3d 5d64 88bd a4b3 84bd 3184 913d
00000090: 1bb8 07bd f6cd 593d 0c3b 1fbd c6ba 493d
000000a0: 00be 07bc 5ed2 3f3d 3015 adbd 99d4 81bd
000000b0: 3a69 a0bd 80d3 313a b00c e03b c4ba cd3c
000000c0: 561c 733d 22a0 4a3d 40fc cb3b e6cd abbd
000000d0: b09f 97bd 9e21 653d 17c3 a93d 58b3 50bc
000000e0: a08e 43bc 64f9 cfbc 2288 e9bd f7a8 893d
000000f0: 389d 99bd 7e29 85bd 6a50 763d 385b 5d3c
00000100: d36f 833d b460 893c 6342 853d e614 7a3d
00000110: d5fb a23c ea64 243d d8ac 073d dd2c 66bd
00000120: 2875 a43c 96b5 1a3d 74cc 903c 205d 953c
00000130: ee7d 87bd 8050 0bbd a134 75bc 11b4 bcbd
00000140: 006e 74b9 623b cfbc 9a68 373d 3e1d 1fbd
00000150: b00d 033d e5cd 66bd b685 88bd 04c7 113d
00000160: 6af5 97bd 1b46 9d3d b0dd 303c f032 2abc
00000170: 3ac4 4e3d 62ee 03bd b2f4 6e3d 79a8 933d
00000180: 2280 02bd 1aeb 253d faae 5e3d 45f8 94bd
00000190: 227f 563d e3a8 4cbd e0a1 233c a618 86bd
000001a0: ed98 acbd 2328 913d c53d fc3c d875 58bc
000001b0: fa65 aebd f814 05bd d3fa aa3d 918f e0bd
000001c0: 5fc3 70bd a27f 14bd 84f2 d23c 1208 86bd
000001d0: e036 513b 061a a4bd e34f a43d 8a79 94bd
000001e0: 4396 213c 080a 573c a411 95bd aa0e 00bd
000001f0: 686a 4c3c c508 2c3d 83a1 0cbd f781 78bd
00000200: 4424 993c 3dbe afbc c243 9dbd bdde e43c
00000210: 4275 6f3d 5f39 76bb fd8c 86bd b405 2e3c
00000220: afb3 953d b790 f03c 9675 253d 99f6 46bb
00000230: 0cc4 883d 3452 133b 0321 2ebc f8c4 24bd
00000240: f49f 123d a695 f6bb 53ca 9dbd 280f 8a3d
00000250: ec41 0f3d a5b7 eabc 6111 083d 3c82 8ebd
00000260: 09c9 84bb 4948 243c d4a9 253b 5ebe 95bd
00000270: dbcb af3c 7c23 61bd 577c 983c 330e 46bd
00000280: 4d1b 763d f684 6e3d 9272 91bd 8394 a9bd
00000290: 48e8 18bd 113a 3ebd fd78 8d3d 05f2 ac3d
000002a0: 0ea4 bf3c 00a0 183d 140a 9a3d 9cb1 153d
000002b0: 0d03 8cbd ae15 d9bc 3cf8 3f3d b433 9dbc
000002c0: 4062 113d 0746 b0bd 60fc 3fbc ba66 973c
000002d0: bf05 653c 0f17 74bb 8682 3e3c 637d d5bc
000002e0: aa0b 823c b24d 1a3d ee54 7dbd a6cb adbd
000002f0: 2745 ae3c 98d6 9bbd 410c 1b3c 10fb 0f3d
00000300: bb20 d23d 9035 f6bc 6822 6e3d 211f 5fbc
00000310: 4dd8 ddbd ef77 a13c ea9f 853c e882 aa3c
00000320: 405f 8dbb 98e4 f43c 9902 9c3d b1fe 16bd
00000330: b645 29bc 41f5 463d ec79 77bd 07e7 a5bd
00000340: 1e69 6a3d d48d ecbc 1b71 af3d 1ea3 dabb
00000350: 6255 9cbc 529f 30bd 7a70 05bc 9bf8 6e3d
00000360: 1818 1cbd 6414 a3bb 9dbe 063e 1495 7dbd
00000370: f0e5 96bc 2733 d73c 10c8 f9bc 1f40 e43c
00000380: 1ca9 9abc 5c0d 3e3d 6d53 853d 26be 55bd
00000390: 4722 64bd 7b0f ce3d b4bb b3bc ee46 a03c
000003a0: 8d33 84bd f464 91bb 990e e7bd 70d2 663c
000003b0: e4d2 16b9 5536 d3bb 918e 943d 8aa8 bc3c
000003c0: 57df d7bb 4a41 02be 5095 fe3c d3b9 a13c
000003d0: cf1b 103d b6b0 28bd f7b5 d6bc aa0a 88bd
000003e0: f671 87bc 2429 033d e020 14bb 54ca 763c
000003f0: 81e1 a8bd 5147 9d3a b09a 4b3d 71c1 df3a

value_stream.model.0.bias f4 [128]
-0.16147679 -0.48045304 0.78034276 0.68625915 -0.1285662 0.5869693 0.22981822 0.104746886
-0.12788698 -0.2637583 -0.9342657 -0.052425046 -0.21741083 -0.17369251 -0.59746826 -0.21816431
-0.20698576 -0.28596774 -0.56367445 -0.11366229 0.5750568 -0.9520741 -0.20534462 -0.11048549
0.12707877 0.1682377 0.6212742 0.2886931 -0.12936802 -0.21595074 -0.110663645 -0.42953065
0.23037948 -0.009055377 -0.21378477 0.39638457 -0.3235817 -0.2947155 0.48574919 -0.87999684
-0.3581728 -0.2927478 -0.021766769 0.6335158 0.59481573 0.6903919 -0.18222329 -0.103960976
-0.44050398 -0.06860171 -0.32747573 -0.33934706 -0.057275012 0.65040547 -0.20520206 -0.3639314
-0.052476257 -0.058167007 -0.24571206 -0.27146855 -0.2483801 -0.56152165 -0.25953987 -0.09800961
0.39097133 0.65304315 -0.10937138 -0.20364703 -0.21776424 -0.14380255 -0.118584566 -0.010185245
-0.23197855 -0.2898449 -0.107467376 -0.057204198 0.030596513 -0.6506523 -0.094414316 0.26102817
0.13888372 0.8289524 -0.06622709 0.10611723 0.673081 -0.4035449 0.2999867 0.7489569
-0.68061113 -0.09439176 -0.16938493 -0.22215125 -0.07684986 -0.120088734 0.5649146 -0.13511755
0.28757194 -0.08283886 -0.20086324 -0.6176175 -0.08680513 -0.09113852 0.6355254 -0.6155169
0.1365247 -0.6166387 -0.07405416 -0.15231963 0.5063912 -0.25733334 -0.14870828 -0.7900666
-0.059302345 -0.020787463 -0.18319914 0.45276898 -0.22166944 0.0686835 0.25127503 -0.28332284
-0.0106699625 -0.0073959692 -0.13145259 -0.1631909 -0.24171889 0.4587083 -0.16586174 -0.28022707
00000000: 2c5a 25be f1fd f5be 8bc4 473f aeae 2f3f
00000010: dca6 03be 9f43 163f 7855 6b3e 8985 d63d
00000020: cef4 02be 540b 87be 092c 6fbf a5bb 56bd
00000030: f2a0 5ebe 73dc 31be aef3 18bf 7766 5fbe
00000040: 13f4 53be 5d6a 92be f84c 10bf c6c7 e8bd
00000050: ec36 133f 21bb 73bf dc45 52be 3746 e2bd
00000060: f020 023e 8146 2c3e d30b 1f3f 95cf 933e
00000070: 0d79 04be 3122 5dbe 9fa3 e2bd 71eb dbbe
00000080: 99e8 6b3e 015d 14bc 65ea 5abe ebf2 ca3e
00000090: 80ac a5be f3e4 96be 1eb4 f83e 7947 61bf
000000a0: 6d62 b7be 0ae3 95be 3950 b2bc 172e 223f
000000b0: d845 183f 86bd 303f be98 3abe 7ee9 d4bd
000000c0: bd89 e1be 0e7f 8cbd e6aa a7be e6be adbe
000000d0: 3499 6abd f980 263f 7d20 52be 3755 babe
000000e0: 58f1 56bd 8740 6ebd f19b 7bbe edfd 8abe
000000f0: 5a57 7ebe e2bf 0fbf 69e2 84be 43b9 c8bd
00000100: 652d c83e d62d 273f 1afe dfbd d988 50be
00000110: 97fd 5ebe fa40 13be 77dc f2bd 04e0 26bc
00000120: c98b 6dbe 8d66 94be db17 dcbd f34e 6abd
00000130: 8aa5 fa3c 2691 26bf 4b5c c1bd 7ca5 853e
00000140: 8937 0e3e 3936 543f 12a2 87bd fe53 d93d
00000150: 094f 2c3f 709d cebe db97 993e a4bb 3f3f
00000160: 883c 2ebf 7850 c1bd 3e73 2dbe 9e7b 63be
00000170: 7663 9dbd 15f1 f5bd 3e9e 103f 415c 0abe
00000180: a13c 933e 6ca7 a9bd 18af 4dbe 2e1c 1ebf
00000190: e3c6 b1bd d5a6 babd cbb1 223f 8492 1dbf
000001a0: 22cd 0b3e 09dc 1dbf b5a9 97bd adf9 1bbe
000001b0: dba2 013f 32c1 83be fc46 18be ce41 4abf
000001c0: 04e7 72bd 784a aabc 8e98 3bbe 56d1 e73e
000001d0: 50fd 62be efa9 8c3d 1fa7 803e b10f 91be
000001e0: 11d1 2ebc e359 f2bb 829b 06be 841b 27be
000001f0: 2885 77be d0db ea3e a9d7 29be ec79 8fbe

value_stream.model.2.weight f4 [1, 128]
-0.00035781087 -0.0064569646 0.033452086 -0.038344502 -0.0010832294 -0.051504374 -0.13232568 0.024427097
0.011876218 -0.027724743 -0.030231992 -0.0036313655 0.003444886 0.00041197045 -0.028053224 0.00048904447
0.0120227495 0.013389414 -0.017543746 0.008915625 0.0243298 -0.030339748 -0.015022968 -0.0021538518
0.024075195 0.029396664 0.07068943 -0.024136998 0.0061792973 -0.0025512343 -0.012121352 -0.018152388
-0.037121188 0.015905857 0.015257972 0.042589534 -0.014541056 0.010206649 0.116621286 -0.035668496
-0.001067484 -0.0020636504 0.01512942 0.04659232 0.023700219 -0.038363487 -0.009465813 -0.0056909593
-0.00035072182 0.030578235 0.013862684 0.0022352263 0.008552572 0.05029705 0.005164851 -0.010235798
0.009915167 -0.010502752 -0.015908891 -0.00079993746 0.0038508598 -0.0047631166 -0.00457645 -0.014574454
-0.026538711 -0.037147604 -0.005533482 -0.011167541 0.004733496 0.014392824 -0.009874496 0.009280396
0.006117115 0.0025144303 0.027805371 0.002055476 0.03561006 -0.003239617 -0.008456385 0.03115303
0.14669828 0.036622025 -0.009429961 0.009561064 0.037389666 -0.013131989 -0.003092311 0.036325768
-0.0063289213 0.008472702 -0.00916806 0.0015772374 -0.0032594036 -0.014704134 0.07428411 0.0019268014
0.024769697 0.0014324872 -0.008015471 -0.013961384 -0.0006680527 -0.006273799 0.043184858 -0.00934005
0.027631544 -0.015394173 0.00049932377 0.014661393 -0.019784072 0.0042309375 -0.0005627358 -0.010378309
-0.036944848 -0.009625899 -0.008290806 0.027218815 -0.007282829 0.03471176 0.038114443 0.009030211
-0.021365192 0.011422433 0.00823916 0.012343946 -0.0017987619 0.02343907 -0.0036848201 -0.005398832
00000000: 9098 bbb9 f294 d3bb 0e05 093d 200f 1dbd
00000010: 26fb 8dba 40f6 52bd 6280 07be 561b c83c
00000020: 7894 423c 001f e3bc 15a9 f7bc 34fc 6dbb
00000030: 99c3 613b bdfd d739 e0cf e5bc 3833 003a
00000040: 11fb 443c 465f 5b3c e7b7 8fbc d712 123c
00000050: 4a4f c73c 108b f8bc e522 76bc a327 0dbb
00000060: 5839 c53c 46d1 f03c 9fc5 903d f4ba c5bc
00000070: b47b ca3b 9c32 27bb a398 46bc 51b4 94bc
00000080: 630c 18bd 004d 823c 93fc 793c 5d72 2e3d
00000090: 9c3d 6ebc ca39 273c 24d7 ee3d 2119 12bd
000000a0: d2ea 8bba 4f3e 07bb 63e1 773c 97d7 3e3d
000000b0: f626 c23c 0823 1dbd 7f16 1bbc 3a7b babb
000000c0: 16e1 b7b9 357f fa3c 5020 633c e07c 123b
000000d0: 1620 0c3c 4804 4e3d e93d a93b 0cb4 27bc
000000e0: 3973 223c bc13 2cbc 5d53 82bc e5b2 51ba
000000f0: b55e 7c3b eb13 9cbb 0cf6 95bb b1c9 6ebc
00000100: b667 d9bc 1628 18bd 3652 b5bb 10f8 36bc
00000110: 711b 9b3b e1cf 6b3c a3c8 21bc cd0c 183c
00000120: 1472 c83b 24c9 243b 17c8 e33c 2ab5 063b
00000130: dbdb 113d c14f 54bb a68c 0abc a434 ff3c
00000140: 1338 163e fa00 163d 2080 1abc 02a6 1c3c
00000150: e825 193d 8e27 57bc 5fa8 4abb 54ca 143d
00000160: d762 cfbb 16d1 0a3c a135 16bc 4ebb ce3a
00000170: b89b 55bb 9ce9 70bc 4422 983d ba8c fc3a
00000180: d2e9 ca3c 4bc2 bb3a 5253 03bc 4abe 64bc
00000190: 4220 2fba 7194 cdbb 9be2 303d 0207 19bc
000001a0: 8c5b e23c d737 7cbc 0de5 023a 5736 703c
000001b0: 3512 a2bc ada3 8a3b 8f84 13ba c809 2abc
000001c0: 7b53 17bd f2b5 1dbc 29d6 07bc fef9 de3c
000001d0: cca4 eebb eb2d 0e3d e41d 1c3d 73f3 133c
000001e0: 0e06 afbc 2825 3b3c 8bfd 063c 433e 4a3c
000001f0: 6fc4 ebba 4b03 c03c 067d 71bb afe8 b0bb

advantage_stream.model.0.weight f4 [128, 128]
0.002242864 0.008848035 0.094763294 -0.18014303 -0.04785695 -0.011172175 0.015567706 -0.11840175
-0.041341413 0.11842067 -0.035475776 0.11807104 0.0007234398 0.0050471644 -0.089764886 -0.08677087
0.073216915 -0.004488816 0.05035621 -0.07344166 -0.020568853 -0.036986217 0.026494171 0.07412553
0.05077903 -0.0795834 -0.042795945 0.08544782 -0.08584885 0.100291744 -0.03737318 -0.02350712
0.06556633 -0.05270224 -0.08027784 -0.04366393 -0.09461735 0.043168638 -0.032119356 0.0028695
0.043957204 -0.008054422 -0.04272635 -0.004893823 -0.0272751 0.07185832 0.033737026 -0.18225443
0.007202563 0.08881553 -0.068428874 0.026012644 -0.0121329995 -0.022076394 -0.057678513 -0.067527406
0.026778696 -0.11372679 0.0066750054 0.026370363 -0.05586453 -0.024434047 0.00015120623 -0.07016304
-0.042830963 -0.08665247 0.06992836 -0.068616025 -0.054647904 -0.03050818 -0.01960485 -0.11286574
-0.060415857 -0.053741604 -0.070576355 0.0064074527 -0.035074696 0.063194364 0.08237851 -0.30320886
-0.027598869 -0.11092363 0.040883042 -0.09896466 0.07935484 -0.103149906 -0.019140415 0.070118956
0.07305776 -0.06291475 -0.15842706 -0.050327525 0.010839503 0.050343357 -0.027226076 0.06887245
-0.18516943 -0.00688211 -0.08675547 -0.057200104 0.005192487 -0.06158391 0.041986648 -0.009339904
-0.024680143 -0.04446697 -0.122888826 -0.023501359 -0.036130175 -0.031820573 0.030572591 0.04629972
0.052952856 0.07156527 -0.04890106 0.061174616 -0.017387517 -0.039866872 0.07500703 -0.0021669492
-0.06844664 0.055978667 0.03165135 0.012612461 -0.0022828428 0.03877668 -0.07383185 0.07721231
-2.0259951e-05 0.036947362 -0.016854472 -0.05220856 -0.08524639 -0.05605717 0.016633486 -0.1741623
-0.015038872 -0.014420268 0.019714776 0.07372109 0.018087156 0.10378267 -0.0728933 0.012351346
0.055638492 0.06999376 -0.053803712 -0.047346745 0.07165462 -0.01573917 0.010995633 0.057934564
0.0966394 -0.04609574 -0.103660345 0.13224474 0.07992986 0.026719293 -0.023374567 0.0113959545
-0.010090815 -0.009958027 -0.09199198 0.09675365 -0.0318206 0.053125884 -0.0006577857 -0.05941298
-0.088017814 0.038465112 0.09478258 -0.06986575 0.02134606 0.016667476 0.07134533 0.018766886
-0.0034499627 0.097218394 -0.04811594 -0.054929715 0.051595002 -0.020168126 -0.0105486605 -0.11337781
-0.029645173 -0.001295048 -0.12329304 0.06686504 -0.06782313 0.049174264 0.02908145 0.050258517
0.048181057 0.05227098 0.05672239 -0.058991853 -0.07413762 0.027605878 -0.07070122 -0.0061361464
0.00038739888 -0.07198679 0.050122377 -0.039470624 -0.028886737 0.0493219 -0.1698131 -0.055182695
-0.003295993 0.06086196 -1.994513e-05 -0.06921101 -0.0034996637 -0.035211522 -0.033481386 -0.06646896
-0.0012345228 -0.007128193 -0.14549938 0.028147656 0.09332587 0.041739944 0.07401801 -0.0013264549
0.015829477 0.027562574 0.058899153 -0.07380854 0.03932494 -0.017337508 0.029485976 0.06710687
0.11334615 0.100962095 -0.008618592 -0.05679845 0.07807635 0.037363034 -0.10807963 -0.05234967
0.007206394 -0.029447626 0.032387387 -0.07663433 0.07187764 0.032654043 -0.0413381 -0.083831005
-0.03639577 0.0015953556 -0.072342545 0.04967189 0.0338599 0.061449863 -0.014381804 -0.035713505
00000000: 04fd 123b 59f7 103c 4213 c23d 6a77 38be
00000010: a605 44bd 800b 37bc b10f 7f3c 9e7c f2bd
00000020: 9d55 29bd 8986 f23d 0c4f 11bd 3bcf f13d
00000030: 39a5 3d3a af62 a53b a7d6 b7bd edb4 b1bd
00000040: c0f2 953d eb16 93bb 5042 4e3d 9568 96bd
00000050: 0380 a8bc dc7e 17bd 4e0a d93c 20cf 973d
00000060: acfd 4f3d 9ffc a2bd cd4a 2fbd 44ff ae3d
00000070: 86d1 afbd c265 cd3d 9f14 19bd 0192 c0bc
00000080: a447 863d 4ede 57bd b568 a4bd f3d8 32bd
00000090: bec6 c1bd 99d1 303d 968f 03bd 390e 3c3b
000000a0: 780c 343d b2f6 03bc d301 2fbd 5d5c a0bb
000000b0: 0870 dfbc 742a 933d d62f 0a3d e8a0 3abe
000000c0: 7a03 ec3b ebe4 b53d 7024 8cbd 7818 d53c
000000d0: 7dc9 46bc 8ed9 b4bc 4e40 6cbd cf4b 8abd
000000e0: ff5e db3c 97e9 e8bd 01ba da3b a906 d83c
000000f0: 35d2 64bd e929 c8bc 1d8d 1e39 a4b1 8fbd
00000100: 856f 2fbd da76 b1bd 9a36 8f3d 8f86 8cbd
00000110: 7bd6 5fbd 4aec f9bc 5a9a a0bc 2726 e7bd
00000120: 9e76 77bd 2820 5cbd 568a 90bd 9cf5 d13b
00000130: 7caa 0fbd 0c6c 813d 10b6 a83d 313e 9bbe
00000140: 0617 e2bc ee2b e3bd fa74 273d fcad cabd
00000150: ca84 a23d 4240 d3bd 5ccc 9cbc 879a 8f3d
00000160: 4f9f 953d 73d9 80bd b43a 22be 3c24 4ebd
00000170: 2c98 313c d634 4e3d 3809 dfbc 000d 8d3d
00000180: 0e9d 3dbe 5383 e1bb daac b1bd a84a 6abd
00000190: bd25 aa3b 693f 7cbd 31fa 2b3d 6606 19bc
000001a0: 032e cabc ff22 36bd 23ad fbbd ec85 c0bc
000001b0: 3cfd 13bd 4a56 02bd 5f73 fa3c c6a4 3d3d
000001c0: 18e5 583d d090 923d 7a4c 48bd 3c92 7a3d
000001d0: 4470 8ebc 724b 23bd 499d 993d 6003 0ebb
000001e0: c12d 8cbd e349 653d d9a4 013d 7fa4 4e3c
000001f0: bf9b 15bb 4cd4 1e3d 2735 97bd 7d21 9e3d
00000200: eaf3 a9b7 1e56 173d 6412 8abc a5d8 55bd
00000210: a995 aebd 349c 65bd f342 883c 9a57 32be
00000220: 9a65 76bc fd42 6cbc e280 a13c 15fb 963d
00000230: 842b 943c 028c d43d 1549 95bd 4d5d 4a3c
00000240: 30e5 633d e358 8f3d 4861 5cbd a9ee 41bd
00000250: a8bf 923d 6fef 80bc 0727 343c cb4c 6d3d
00000260: e1ea c53d e3ce 3cbd e04b d4bd 2a6b 073e
00000270: 44b2 a33d 6be2 da3c 057c bfbc 19b6 3a3c
00000280: f253 25bc fe26 23bc 4b66 bcbd c726 c63d
00000290: 5156 02bd 879a 593d 406f 2cba 065b 73bd
000002a0: af42 b4bd 988d 1d3d 5f1d c23d c615 8fbd
000002b0: efdd ae3c 3b8a 883c 801d 923d 03bd 993c
000002c0: c518 62bb 701a c73d 3815 45bd fbfd 60bd
000002d0: 4855 533d a037 a5bc 4ad4 2cbc a032 e8bd
000002e0: 6fda f2bc 9abe a9ba 1081 fcbd 8af0 883d
000002f0: dae6 8abd f46a 493d 393c ee3c e0db 4d3d
00000300: 8059 453d 181a 563d bd55 683d 71a1 71bd
00000310: 77d5 97bd b925 e23c cdcb 90bd ba11 c9bb
00000320: cc1b cb39 cf6d 93bd 1f4d 4d3d f3ab 21bd
00000330: e1a3 ecbc c305 4a3d 7ce3 2dbe 4007 62bd
00000340: 9601 58bb 644a 793d d74f a7b7 81be 8dbd
00000350: 9d5a 65bb f539 10bd c723 09bd e120 88bd
00000360: b6cf a1ba 9e93 e9bb cafd 14be ea95 e63c
00000370: a221 bf3d 81f7 2a3d c196 973d 71dc adba
00000380: d2ac 813c e8ca e13c 3d40 713d ef28 97bd
00000390: 3013 213d 6407 8ebc 938c f13c 546f 893d
000003a0: 0722 e83d 37c5 ce3d ff34 0dbc 7ea5 68bd
000003b0: 7ee6 9f3d fb09 193d da58 ddbd 9c6c 56bd
000003c0: 9d23 ec3b 263c f1bc a3a8 043d 76f2 9cbd
000003d0: 9634 933d 3fc0 053d 2452 29bd 97af abbd
000003e0: bb13 15bd 401b d13a 5428 94bd c074 4b3d
000003f0: aeb0 0a3d dab2 7b3d a8a1 6bbc 5348 12bd

advantage_stream.model.0.bias f4 [128]
0.5054423 0.5695468 -0.8520183 0.58663046 -0.5284519 0.03737096 -0.10447952 -0.30177617
0.89846194 0.5390001 -0.09645313 0.35995895 0.36839387 -0.95896226 -0.034788433 -0.3128749
0.7401158 0.066887334 -0.037142504 -0.84115285 -0.20741577 0.39890134 -0.9624065 0.6882613
-0.6298428 0.83100957 0.7900752 -0.22730786 0.38537514 0.010382745 -0.56029564 0.003266759
-0.17279671 -0.20076437 0.48628515 -0.7724444 -0.82521695 -0.050508063 -0.57517105 0.5108775
-0.094836354 -0.15794961 0.052364502 -0.19177565 -0.14211915 0.8017616 0.52055657 -0.0646731
0.08770811 -0.73846793 0.9862662 0.39735198 0.99970376 0.646446 -0.41941363 0.8161777
0.98668534 0.9343072 -0.05248715 0.7058175 0.91849995 0.9292451 0.4972143 0.42527273
-0.045763835 -0.5266726 0.79017174 -0.3877174 0.6256229 -0.732051 -0.52714735 0.91730124
0.64689076 0.33814228 -0.5534142 -0.43062854 0.6784597 -0.046722222 0.7945538 -0.17438896
0.4305668 0.7940602 0.079095475 -0.29621604 0.61908585 -0.6921961 -0.6377245 0.602996
-0.65129054 0.8049518 -0.44308653 -0.015323148 -0.103240624 0.406398 -0.23951295 -0.31487054
-0.7351169 -0.106590085 0.39688417 -0.011661243 -0.30564722 -0.4301771 0.050196398 -0.7475511
-0.5916149 -0.24368502 0.8776174 0.8679354 -0.29213476 0.44606626 0.78631383 -0.49337384
0.8024502 0.7084545 -0.47836754 -0.49668515 -0.28831846 0.5864921 0.9687329 0.6701905
-0.36681622 -0.12769796 0.8602265 0.26301137 -0.868966 0.84920865 -0.18788303 -0.027619539
00000000: ab64 013f d2cd 113f df1d 5abf 6a2d 163f
00000010: a048 07bf 4b12 193d 5cf9 d5bd 6882 9abe
00000020: 9a01 663f e9fb 093f 3889 c5bd 8a4c b83e
00000030: 1f9e bc3e 8d7e 75bf 517e 0ebd 2431 a0be
00000040: 3b78 3d3f 3afc 883d bd22 18bd cb55 57bf
00000050: cd64 54be cc3c cc3e 4660 76bf e431 303f
00000060: 613d 21bf 0bbd 543f 5e42 4a3f 64c3 68be
00000070: e44f c53e 641c 2a3c 896f 0fbf 1f17 563b
00000080: 9ff1 30be 2d95 4dbe 5efa f83e ebbe 45bf
00000090: 6b41 53bf 8be1 4ebd 693e 13bf dec8 023f
000000a0: 9039 c2bd 8bbd 21be 297c 563d d660 44be
000000b0: af87 11be 4040 4d3f 3243 053f 5573 84bd
000000c0: 4fa0 b33d 3c0c 3dbf f17b 7c3f b871 cb3e
000000d0: 96ec 7f3f 7c7d 253f 62bd d6be 06f1 503f
000000e0: 6997 7c3f c22e 6f3f c4fc 56bd 75b0 343f
000000f0: d022 6b3f 02e3 6d3f df92 fe3e 59bd d93e
00000100: dc72 3bbd 04d4 06bf b248 4a3f e582 c6be
00000110: d328 203f b267 3bbf 21f3 06bf 41d4 6a3f
00000120: a29a 253f fc20 ad3e 8eac 0dbf 587b dcbe
00000130: 89af 2d3f cd5f 3fbd e167 4b3f 0593 32be
00000140: 4073 dc3e 8747 4b3f cffc a13d a1a9 97be
00000150: 697c 1e3f c333 31bf ea41 23bf f25d 1a3f
00000160: faba 26bf 5211 4e3f 3ddc e2be f10d 7bbc
00000170: d26f d3bd 6613 d03e e242 75be b636 a1be
00000180: 9f30 3cbf e74b dabd 6734 cb3e cc0e 3fbc
00000190: cb7d 9cbe 2c40 dcbe bd9a 4d3d 825f 3fbf
000001a0: 1374 17bf 9188 79be 89ab 603f 0431 5e3f
000001b0: b092 95be cc62 e43e dd4b 493f 7f9b fcbe
000001c0: 606d 4d3f 465d 353f 97ec f4be 844d febe
000001d0: 7a9e 93be 5924 163f e1fe 773f 9b91 2b3f
000001e0: 56cf bbbe 41c3 02be ce37 5c3f 6da9 863e
000001f0: 8e74 5ebf bd65 593f 6964 40be 5f42 e2bc

advantage_stream.model.2.weight f4 [4, 128]
0.032908812 0.041425977 0.04717659 0.036861002 -0.01912384 0.042236265 0.0085313 0.03433305
0.025828557 0.0380916 -0.028659428 0.059869867 -0.02608983 0.003533384 0.023661034 -0.021548647
-0.08462621 0.0048729694 -0.00402252 -0.026102776 0.029610587 -0.07150879 -0.04569447 0.055119697
-0.049465016 0.037296366 -0.12718648 0.014063144 0.011547224 -0.0026794835 -0.007745413 0.0041571907
-0.015931148 -0.00722699 0.03501009 0.008393248 -0.009366234 -0.050417334 -0.02118147 0.038668692
0.01144168 -0.038873166 0.04178671 -0.040177077 -0.025937116 0.00013924844 0.05453294 -0.07138128
0.04321051 0.036078807 -0.036355853 0.035517547 -0.03918021 0.010509455 0.023943176 0.0022525107
0.02059378 0.1075735 -0.015574798 0.043837626 0.017518008 0.034153104 -0.032020576 -0.008505236
0.036153995 0.00627378 0.024333289 -0.0058889994 -0.0041096127 0.067393914 -0.0015167786 0.14597104
-0.0035866953 0.006085655 -0.030938728 0.040420473 -0.04565122 -0.025254663 0.00065166905 0.018829694
0.025400683 -0.04494312 0.030667732 -0.007817178 -0.07551471 0.0030680755 0.08569588 0.0032165665
-0.037200242 0.013847229 -0.025487183 0.0025230667 -0.018506957 0.022717042 -0.027917854 -0.016595082
0.01048601 -0.021196892 0.011009234 -0.013581993 0.00907488 -0.01702959 0.05198123 0.057058636
-0.055201054 -0.052486278 0.04105181 0.10823283 0.05471737 0.006273304 0.055197973 -0.006901219
-0.105933316 -0.024896866 0.026374917 -0.06660445 -0.025292238 0.018267393 -0.035132088 0.017878922
0.006316594 -0.0062303403 -0.041164104 -0.08092441 -0.0051983995 -0.10418852 -0.00080245367 0.012330449
0.049166735 0.00503521 0.0044365926 -0.0012814722 0.007439809 0.020830942 -0.013849193 0.051942974
0.06456533 -0.032065663 0.009196624 0.032901477 0.042593736 -0.049545787 0.045271173 -0.0008403621
0.023559581 -0.061506383 0.014220713 0.026718684 -0.021108204 0.0078392625 0.04952497 -0.042089045
-0.01370423 -0.06445695 0.012286194 0.0025238122 0.00049479114 -0.0028484762 -0.010145363 -0.0061933417
-0.0159878 0.0066033863 0.052423682 0.0066051637 0.056485873 0.052847564 -0.0011150185 -0.04596197
0.0013267775 0.01059962 -0.018252747 0.055008028 -0.0015611943 -0.02144115 -0.16407883 -0.021396147
0.020015884 -0.038360003 0.13931878 -0.019524354 -0.03299883 0.06542008 0.053632364 -0.1124003
0.026499547 -0.03631704 -0.026949838 -0.0050108973 -0.0025978615 0.021970343 -0.015350935 0.046737924
0.0019816486 -0.08690264 -0.063859284 0.0020656956 -0.053005666 0.035916425 0.0073723774 -0.032599457
0.056108695 0.006549611 0.02551234 -0.0049996106 -0.036515493 0.0005023705 -0.08834357 0.06286045
0.00557624 -0.03182032 -0.006270171 0.0022974894 -0.032002404 0.00935936 0.01682309 -0.09022463
0.02766744 -0.09591861 -0.079760276 -0.01896634 0.033725023 0.03255987 -0.0022144518 -0.0021536644
0.007868591 0.05277543 0.053729836 0.017066617 0.0065180315 -0.026402773 0.025623726 0.039898373
0.014816292 -0.0038719452 0.018276371 -0.014531152 0.020581938 -0.04886983 -0.123375036 -0.023654372
0.021773301 -0.046657674 0.035451088 0.022866867 -0.00950769 -0.019057821 -0.027809154 0.006828095
0.0241386 -0.014300979 0.0945824 -0.04672421 0.081128135 0.029581932 -0.010061214 0.053373158
00000000: 64cb 063d 49ae 293d 3d3c 413d 90fb 163d
00000010: 99a9 9cbc efff 2c3d dec6 0b3c d0a0 0c3d
00000020: 6996 d33c f005 1c3d 2dc7 eabc 1b3a 753d
00000030: 57ba d5bc 5990 673b c9d4 c13c ca86 b0bc
00000040: 8250 adbd 6ead 9f3b 58cf 83bb 7dd5 d5bc
00000050: e791 f23c 3373 92bd 202a 3bbd 31c5 613d
00000060: d49b 4abd 13c4 183d 2c3d 02be 1a69 663c
00000070: 9130 3d3c 469a 2fbb 3ccd fdbb 0b39 883b
00000080: 0a82 82bc 63d0 ecbb bd66 0f3d d583 093c
00000090: d574 19bc 6882 4ebd c384 adbc 1063 1e3d
000000a0: e275 3b3c 7839 1fbd 8b28 2b3d b890 24bd
000000b0: 137a d4bc 3803 1239 ef5d 5f3d 5930 92bd
000000c0: 81fd 303d 5fc7 133d e0e9 14bd d97a 113d
000000d0: 6e7b 20bd d92f 2c3c 7b24 c43c dc9e 133b
000000e0: 49b4 a83c 7f4f dc3d 702d 7fbc 158f 333d
000000f0: ed81 8f3c 20e4 0b3d 0228 03bd 8c59 0bbc
00000100: 3616 143d 4894 cd3b 9b56 c73c 82f8 c0bb
00000110: eea9 86bb d205 8a3d a5ce c6ba 6f79 153e
00000120: c30e 6bbb 2d6a c73b 3773 fdbc f08f 253d
00000130: c6fc 3abd dee2 cebc c5d4 2a3a bb40 9a3c
00000140: 1815 d03c 4716 38bd e53a fb3c 9f13 00bc
00000150: 75a7 9abd c411 493b 5281 af3d 08cd 523b
00000160: 485f 18bd 7ddf 623c 7fca d0bc 095a 253b
00000170: e79b 97bc 1719 ba3c fcb3 e4bc 69f2 87bc
00000180: 84cd 2b3c 1ba5 adbc 1360 343c 0287 5ebc
00000190: ceae 143c a481 8bbc 45ea 543d 51b6 693d
000001a0: 801a 62bd dafb 56bd f125 283d 2da9 dd3d
000001b0: 521f 603d 4a90 cd3b 4517 623d 9f23 e2bb
000001c0: 91f3 d8bd 83f4 cbbc 3610 d83c ea67 88bd
000001d0: ab31 cfbc 80a5 953c aae6 0fbd d176 923c
000001e0: 6efb ce3b e227 ccbb b19b 28bd b2bb a5bd
000001f0: 5657 aabb ca60 d5bd c15b 52ba a705 4a3c
00000200: 0f63 493d 67fe a43b d660 913b 12f7 a7ba
00000210: a4c9 f33b a7a5 aa3c bae7 62bc 28c2 543d
00000220: d43a 843d 4957 03bd 70ad 163c b3c3 063d
00000230: c576 2e3d 86f0 4abd 446e 393d bf4b 5cba
00000240: 0600 c13c 1eee 7bbd fefd 683c 24e1 da3c
00000250: 1deb acbc 4070 003c b2da 4a3d 9065 2cbd
00000260: b587 60bc 0102 84bd 084c 493c 8b66 253b
00000270: dfb4 013a 80ad 3abb bd38 26bc 84f1 cabb
00000280: d9f8 82bc 3861 d83b 37ba 563d 2170 d83b
00000290: bb5d 673d b076 583d d025 92ba 9e42 3cbd
000002a0: 44e7 ad3a 07aa 2d3c c986 95bc 1950 613d
000002b0: fda0 ccba 5aa5 afbc 4804 28be f946 afbc
000002c0: 5af8 a33c 611f 1dbd 95a9 0e3e 8af1 9fbc
000002d0: c829 07bd f7fa 853d 9cad 5b3d 2132 e6bd
000002e0: 9415 d93c 2dc1 14bd e8c5 dcbc 7432 a4bb
000002f0: e240 2abb 26fb b33c 7d82 7bbc 4470 3f3d
00000300: 8cde 013b 03fa b1bd a8c8 82bd 9f60 073b
00000310: 781c 59bd 1a1d 133d fc93 f13b 0287 05bd
00000320: 3bd2 653d 1f9e d63b 41ff d03c c6d3 a3bb
00000330: 4591 15bd 83b1 033a 79ed b4bd fbbc 803d
00000340: e4b8 b63b 0656 02bd 0276 cdbb 7a91 163b
00000350: f414 03bd 0058 193c 94d0 893c b1c7 b8bd
00000360: d4a6 e23c fa70 c4bd 5b59 a3bd 4c5f 9bbc
00000370: 4023 0a3d 805d 053d 5620 11bb 7e24 0dbb
00000380: 43eb 003c 0d2b 583d d113 5c3d 4acf 8b3c
00000390: 3695 d53b a14a d8bc d9e8 d13c 7a6c 233d
000003a0: 08c0 723c 76c0 7dbb 54b8 953c 1214 6ebc
000003b0: 749b a83c bb2b 48bd 0dac fcbd d0c6 c1bc
000003c0: ec5d b23c 1e1c 3fbd 2935 113d 4c53 bb3c
000003d0: 24c6 1bbc 261f 9cbc 06d0 e3bc 36be df3b
000003e0: 50be c53c a74e 6abc 6bb4 c13d e361 3fbd
000003f0: 8226 a63d cf55 f23c cad7 24bc d09d 5a3d

advantage_stream.model.2.bias f4 [4]
-0.06789201 0.067493275 0.011952467 -0.07703733
00000000: f70a 8bbd ea39 8a3d 48d4 433c bfc5 9dbd
