logs/7-HIER-BCS/36-DuelingDQN-random-max-HIER-wtypes-LR1e4-G0-25_10_25_11-17-27/10/models/37000/DuelingDQN_checkpoint.pth (torch, 900811 bytes, 44 tensors)

feature_layer.model.0.weight f4 [128, 39]
00000000: 5059 06bc 6024 b5bc 2a29 a7bd f470 ae3c
00000010: 19ef 34bd 517e 53bd 242c 153e a106 5e3e
00000020: 3b30 4cbd a12f 7fbd e0a9 273d ffbf 05bc
00000030: 5f74 363d 39bd 953d 6e44 1c3e 8750 f13d
00000040: c623 813d 0199 e23d de61 823d 3cb4 7f3d
00000050: d70b e63b 3989 a9bd d320 b5bd 95ba 20be
00000060: 9f2d 3ebe 23d5 3cbe 3228 36be 4262 34bd
00000070: 0de5 c1bd c25c 793c 0766 363b 99a7 953e
00000080: 00cc 1f3e 7f17 013e 3ec4 323e 875b 4bbc
00000090: 1f41 543e f229 3d3d 1acb 7e3e e9d9 2f3d
000000a0: 9cda d53d d21b c83d 0725 06bd f082 aebd
000000b0: 1cd4 6e3d efbc f0bb 2e36 7a3c 7a01 c63f
000000c0: 6d72 ecbd a464 8dbd 1f76 e6bd 54be ca3d
000000d0: 15fa 1dbe f23e 3e3a 14a4 85bd b78f 443d
000000e0: c27f bc3b a959 adba 756e d83d 9955 133e
000000f0: 3d71 97bd 8b41 2bbe 039a 37bd 6014 623d
00000100: 395b 313d 42f7 b23d e118 a43c 2d74 d7bd
00000110: af9c 07be 4544 9a3f 8f04 483e 1790 94bd
00000120: 1e63 3cbe 0c8f a3bb 2579 45be 5427 7fbe
00000130: d7c5 05be a3cb 043d 34ac 6cbd dea1 abbd
00000140: 15e6 53bd d2e6 ccbc ddf1 ce3d cced 433d
00000150: bc66 393e d07a dbbc 7ff7 94be 1fce 613e
00000160: 1196 fdbd e111 d6bc 9fdc 863c 03de 473e
00000170: 1c17 413d 2e9c bfba 80ca 01bd 5b07 863d
00000180: cbc5 0d3c 89e4 943d ca5e f7bc 24f4 a3bd
00000190: 2245 fa3c a4ce 6e3d 029a 1c3e 9b7f e03d
000001a0: 2880 47bd dbe9 333e 541f 0f3e 39aa af3d
000001b0: 6e97 0bbe dc2c 5fbd c670 173d d0db 6e3d
000001c0: 9811 273e 2841 f9bd 54b0 133e 847b 5fbd
000001d0: 14e7 813c 4e8f a4bd 95c6 65bd 5eb1 cc3d
000001e0: b984 d73d 1a13 ae3d d1d5 13be 2504 82bd
000001f0: 6026 fc3d 955d 17bf 467f 01be 15b3 de3c
00000200: 1525 33be 54fb 8cbd 38ef 64bc a0fe d0bd
00000210: b02b e3bd 3de0 86bd f014 c5bd 0cf8 9abd
00000220: a76f e33d f0b3 433e a8aa b7bd 859e 3cbe
00000230: e3b5 b8bd a3aa 683e 4443 b13d e3c6 eabd
00000240: 5546 b63c 532e 223d ae28 733e 3406 bbbe
00000250: 0df8 d6bd be8e 10be 6a6c f7bd d929 7f3c
00000260: b74e 06bd 349f 613d a922 a6bc 63d4 03be
00000270: 98ac 883d 9569 893d 1c94 b53d 2cc3 14bc
00000280: 6f8a 08be 24df 01be 1390 42bd 5efc 23bd
00000290: 6141 85bf 3a48 b83c ec22 eebd ed04 56be
000002a0: fff7 e8bd 9c4e 1e3e 1328 91bd 43b0 023e
000002b0: 2201 9139 8053 3cbe c989 013e fb3c ddbd
000002c0: 87d2 7c3d ec91 05be 4c2a 263d 02db 243d
000002d0: b8cd 043d b33f d6bd e51c 3e3e 2a43 3f3e
000002e0: e447 033d 14d4 cbbc 39ab 0fbf 1b38 c63b
000002f0: 1b2b 623c 3999 d63d af2a 083e 4593 653d
00000300: 7a2e c4bc 01d5 c3bd 2a7b fa3d 56ce 13be
00000310: 6ff7 aa3c 02df f63d a0f0 eabd e107 13be
00000320: b869 11be 57b1 dd3d 0340 7a3d 9d2c 1bbf
00000330: 03b9 8239 b08a 473c 73ee a93d 107f d0bd
00000340: a9f2 a9bd 7ba2 a83c 73c9 b83c 52eb 02be
00000350: a315 46be 98aa 083d b298 74bd 932f 063c
00000360: 9934 853d 7235 e73c 84a7 a0bd 6522 ec3d
00000370: 0b2e 163d 42ed 323d cf65 00bc 0857 963d
00000380: 4120 84bd 73b7 16bf c33d d03c 422c 213d
00000390: c5bc 923d ef20 153e 1fdb b6bc 05a6 99bd
000003a0: 5e6a a33c 54f3 463e 212d c73d 3e91 b93d
000003b0: 8a5d a73d d7f9 1d3d 1106 27bd 3fe7 c13d
000003c0: 429b 4abe 20ba 893a 2ed5 ca3f 0345 483d
000003d0: 5216 03bd 0063 9c3d 1394 403d ceab d6bd
000003e0: b548 bdbd e020 b93d a283 bcbd ce84 54bd
000003f0: 52a4 c03d 5b64 443d 70bd 01be 1d64 a43d
-0.008200005 -0.022112072 -0.08162148 0.021294095 -0.044173334 -0.051634137 0.1456762 0.21682216
-0.049850684 -0.06230128 0.04093349 -0.008163451 0.044544574 0.07311482 0.15260479 0.117829375
0.06305651 0.110643394 0.06366323 0.062427744 0.0070204544 -0.08278126 -0.08844151 -0.15696175
-0.1857209 -0.1844068 -0.17788771 -0.04403902 -0.09467516 0.015219869 0.002783181 0.2922943
0.15605164 0.1260662 0.17457673 -0.012411959 0.20727967 0.04618258 0.24882165 0.042932425
0.10442087 0.09770931 -0.032750156 -0.08521068 0.058307752 -0.0073467414 0.0152717065 1.5469201
-0.115452625 -0.06903961 -0.112529986 0.098995835 -0.1542743 0.00072573044 -0.06525436 0.04798862
0.0057525346 -0.0013225573 0.10567943 0.14388122 -0.07394645 -0.16724221 -0.04482461 0.055195212
0.043299887 0.08738567 0.020031394 -0.10520206 -0.13243364 1.2052084 0.19532989 -0.072540455
-0.18397185 -0.0049914178 -0.19284494 -0.24917346 -0.13063751 0.032420766 -0.057781413 -0.08380483
-0.051733095 -0.025012407 0.101047255 0.047834203 0.18105596 -0.02679196 -0.29095075 0.22051285
-0.123821385 -0.026131572 0.016462622 0.19518284 0.04714118 -0.0014618689 -0.03168726 0.06544372
0.008653115 0.07270152 -0.030196566 -0.080055505 0.030550543 0.058302537 0.15293124 0.10961839
-0.048706204 0.17569678 0.13976794 0.08577389 -0.13631985 -0.05448614 0.036972784 0.0583151
0.16315305 -0.12170631 0.14422733 -0.054561153 0.015857257 -0.08035146 -0.056097586 0.099947676
0.10523362 0.08499737 -0.14437033 -0.06348447 0.12312007 -0.5912717 -0.12646207 0.027185002
-0.17494614 -0.068838745 -0.01397305 -0.10204816 -0.11092317 -0.06585739 -0.09623134 -0.075668424
0.1110528 0.1911161 -0.08968097 -0.18419845 -0.09019067 0.22721343 0.08655408 -0.11463716
0.022250334 0.03959496 0.23745987 -0.3652817 -0.10496531 -0.14116952 -0.12081225 0.015573942
-0.032789912 0.05508347 -0.0202802 -0.12873988 0.06673545 0.06709591 0.0886614 -0.009079736
-0.13334058 -0.12682778 -0.04750068 -0.040035598 -1.0410577 0.022495378 -0.116277546 -0.20900317
-0.113754265 0.15459675 -0.07087722 0.12762551 0.000276574 -0.18391228 0.12650217 -0.10802647
0.061724212 -0.13043946 0.04056768 0.040247925 0.03242275 -0.104613684 0.1856571 0.18677965
0.032050982 -0.0248814 -0.5612064 0.0060491688 0.013804222 0.10478444 0.13297532 0.05604865
-0.023947943 -0.09562112 0.12230523 -0.1443418 0.020869939 0.12054254 -0.11471677 -0.14358474
-0.14200485 0.108248405 0.061096203 -0.6061495 0.00024933377 0.012179062 0.08297434 -0.10180485
-0.08298237 0.02058529 0.022556996 -0.1278508 -0.19344191 0.033365816 -0.059715934 0.0081900535
0.06504173 0.028223727 -0.07844451 0.11529998 0.036665004 0.043683298 -0.007836773 0.07340819
-0.064514644 -0.5887367 0.025420075 0.03934885 0.07164911 0.14563344 -0.022321282 -0.07502369
0.01994818 0.1942876 0.097254045 0.09060906 0.08172138 0.038568344 -0.04077727 0.09467935
-0.19785789 0.001050774 1.5846307 0.04889394 -0.03200371 0.0763607 0.047016215 -0.10481988
-0.092423834 0.090394735 -0.092047945 -0.051884465 0.094063416 0.04794727 -0.12669921 0.080269076

feature_layer.model.0.bias f4 [128]
00000000: 8bf9 48bd 17fe a63d e59e 253c 5544 233e
00000010: c51a 1bbd 6b2e 5ebd 955a 08be 99d7 dd3d
00000020: 52a7 c63d d48f c33d eb08 12be 241f a3bd
00000030: adae 663d 593d c83d 132d 383e a81f 303e
00000040: 8a8b bcbd 5fd8 a43b 5698 09be 25fd b2bc
00000050: b3e8 d2bd 9064 bdbd d84e b63d eb68 a7bd
00000060: 1868 b8ba 2e73 86bd 0c69 0dbd a54b c2bb
00000070: f15f 163d a786 6ebb cb6e ec3d f09e f23d
00000080: cf42 12bd 75cd cc3d 32d6 8ebd 44f0 d9bd
00000090: e57f 673c b2d0 3e3e 6f73 c43b ee2f 323d
000000a0: 8ede 183d eef1 5a3d 6023 d73d 628d 88bd
000000b0: 7c64 1a3e 2a9a 833d f004 733c 1afe c2bd
000000c0: 9b1f e0bd 865d a33d 051c 0e3e 8f8f 4cbc
000000d0: 8dd6 39be c5c2 123e 0b35 4c3c 224f 32bd
000000e0: 371b a8bd df71 f9bd c668 bfbc fe45 5e3c
000000f0: 03ee 10be a959 a1bc f526 9fbd f90c 38be
00000100: bf80 0ebd 9505 983d 705f c13c 398c b4bd
00000110: 37ed 23bc 909a 0c3e 879a 003d 92d1 d5bc
00000120: 457e 2f3b d172 d53c 184f d4ba 806a c6bd
00000130: 7e85 17bc b5e1 223e 43b7 ab3d 3b9c 56bd
00000140: 6cc5 c83b 1b0f 1a3e cbb8 e6bd 20c3 8bbd
00000150: 9548 43bd eff4 debd ede6 283d 824a 013e
00000160: eeb6 923b 38de 78bb e27e 21bb 6984 13be
00000170: 03e7 b73c fc5f 973d b3d0 d8bc 06b1 8abd
00000180: a290 45bc fcfe e73b dfce f739 b1f9 06bc
00000190: b00e ac3d bf50 4bbd 6328 14bc 3046 eebd
000001a0: 4bb2 19be eaeb f03d e215 093d d736 02be
000001b0: 5304 25be 8f71 82bd 70f7 cdbd 63a2 af3d
000001c0: 0fd9 723c 9516 08be cd9f 363c 25d3 1cbc
000001d0: 5a43 e2bd ddeb eebc cc3d dabd 0ded cd3c
000001e0: b455 31bd 7477 b83d d999 573d afd8 e23d
000001f0: 73e6 debd b8dd 083e c64a 0fbe 12da 003e
-0.049066108 0.081539325 0.010108684 0.15944035 -0.037867326 -0.054243486 -0.13315804 0.108321376
0.096998826 0.095489174 -0.14261214 -0.07964924 0.056318928 0.09777326 0.17985944 0.17199576
-0.092063025 0.0050306763 -0.13437018 -0.021849224 -0.1029829 -0.092476964 0.08901757 -0.081743084
-0.0014069108 -0.065649375 -0.03452401 -0.0059294277 0.03671259 -0.0036396177 0.115445696 0.11846721
-0.035708245 0.10000125 -0.06974448 -0.1064153 0.0141296135 0.18634298 0.005995206 0.04350274
0.03732162 0.05345338 0.10504794 -0.06667592 0.15077394 0.06425889 0.01483272 -0.09521122
-0.10943528 0.079768226 0.13877876 -0.012485399 -0.18148251 0.14332111 0.012463818 -0.0435325
-0.08208316 -0.12179922 -0.02336539 0.013566492 -0.14153294 -0.019696074 -0.07771102 -0.17973699
-0.03479075 0.0742294 0.023605078 -0.08815808 -0.010005287 0.13730836 0.03139737 -0.026100907
0.0026778143 0.026055725 -0.0016197888 -0.09688282 -0.009248136 0.15906413 0.08384564 -0.052395087
0.00612705 0.15044825 -0.11265715 -0.068243265 -0.04767664 -0.10886561 0.041235853 0.12626079
0.0044773733 -0.003797425 -0.0024642278 -0.14405979 0.022449022 0.073913544 -0.026466703 -0.06772046
-0.012058409 0.007079957 0.00047265642 -0.008238242 0.08401239 -0.049637552 -0.009042832 -0.11634481
-0.1500942 0.11763747 0.033468135 -0.12716232 -0.16114931 -0.06369316 -0.100569606 0.08575895
0.014822259 -0.13289864 0.011146498 -0.009571825 -0.110480025 -0.029165203 -0.10656318 0.025137449
-0.043294623 0.09007159 0.052636955 0.11076485 -0.108837985 0.13365829 -0.13993368 0.12583187

feature_layer.model.2.weight f4 [128, 128]
00000000: e072 bd3d 980b 1f3d 83c9 87ba 0067 e6bc
00000010: 41b9 43bd dbf2 40bc 3521 31bc a2ea c63d
00000020: 27d2 573d a2b7 2f3d fa98 7e3d 1ec5 463d
00000030: 40f7 3c3c 4e4d 00bd 5842 e03c 57da 5bbd
00000040: 3d6f cd3c 88c6 083d e0d6 80bc 0f1c 06bd
00000050: 511a 09be 0a13 b23d 5386 a03d 2e8c 683d
00000060: e7dc 8abd 5027 96bd 5a4d 583d 6e6e a7bd
00000070: 0646 833c 41b4 a03d 983f c33c 081f 46bc
00000080: af35 003d 9fcd 0a3d 3be9 84bd 8ea0 bbbd
00000090: 0bc6 f33c da4a 983c 4f7a f2bd 1391 84bc
000000a0: cbae 163d ab21 863b c61a b7bd 2eb7 bdbc
000000b0: 8810 abbd 8b78 f03c 3664 3dbc c576 ddbc
000000c0: 972c b03b e5c1 b1bc 4483 54bd b3be 3dbd
000000d0: 7519 8dbd 67c1 eebd 9f74 5f3b 8317 cc3d
000000e0: 8b96 afbd 6a36 993d 729b 283d 9b39 8a3d
000000f0: cd7c cebd 3400 51bd dd1d b9bd b3e2 b5bd
00000100: b469 04be 37bb 97bb 122e ed3d 115a a5bd
00000110: 2cd4 3f3d 1e5e fb3c b55c 82bc 15ba 093d
00000120: 2903 e4bc 1e7f 88bd b2b3 d4bd 3ab9 413d
00000130: 0dff 563d b0e4 42bc 2873 7bbd da53 88bd
00000140: a3b4 51bd d52e 953d b8b3 07bd 19c0 febc
00000150: c204 4a3c 90a6 8fbb 6eee f13c a446 e1bd
00000160: 412d b03c a217 31be 9a5e 7f3d 9468 bdbd
00000170: 2149 153c 0001 1cbe 03cc 90bd 99fe 2b3d
00000180: 6f22 5f3d 3af0 88bd 17e6 9bbb a054 c83c
00000190: 12b4 883d 9473 dd3c 3cd8 a03d 3147 9f3d
000001a0: 8edb 2f3d a0d4 cd3d 1c40 a63d 6822 2d3d
000001b0: 3611 bbbd e6f9 3abd 020b 633d 6010 77bd
000001c0: 8b76 e83c bba8 51bd f25a 3e3d 0968 bdbd
000001d0: 0ba5 dcbc c5bf 47bd 6e95 15bd 0eb7 8f3d
000001e0: 6868 85bd f4fd d03d 0c8a b4bd a44f 75bd
000001f0: 34f6 babd 412a b33c 2e06 cebd 5151 843d
00000200: 1a47 623d 6e60 99bd ae5a 29bc b046 1cbb
00000210: 8cc2 dd3c f82b 2bbd 2b8c 2bbd d88d 4c3d
00000220: 888f f1bc 5e92 b53d d79e 993c 387c 8a3c
00000230: 91fc 59bd b00a 833c 76ee f73c 4560 b63c
00000240: 6ee5 a8bd ad73 f0bb 7c2a 1dbc 9e2d c93d
00000250: fd55 5a3d ffda d63c 08ef b1bc 3243 c33d
00000260: af1b dd3c bf74 43bd 088a 57bb a982 913d
00000270: 84e2 7c3d c189 2bbb e223 b5bd d840 57bd
00000280: 3f93 433c 1362 50bd 623e eabc 052e c4bc
00000290: 9999 d8bc 5989 1abc 1f27 07bd a81b 9e3c
000002a0: df6b 5e3c 471d 7ebd c996 c3bd c094 84bd
000002b0: a549 883d 9cb9 0abd 19a6 90bd 5b33 9b3d
000002c0: 4bc3 463d 0948 ebbd 9fd9 8dbd f59a b0bb
000002d0: 4d08 2e3c 4de4 3a3d ee5d 9a3d fe94 ec3c
000002e0: fcc2 a5bd 5f02 d4bd ef3c 573d 30ef 913d
000002f0: 8ff6 14be deaf 02bc 008d a2bc 9666 d93d
00000300: 9f8d 11bc aef8 c7bc c290 a3bd 651b cabb
00000310: 8774 35bd cc36 233c 47c5 03be 7efa b2bd
00000320: fe9c dc3c 1334 1dbd b367 843d 16d4 b03d
00000330: 7545 bf3c b64e cebc cc05 87bd 0c32 a0bd
00000340: 26f5 ae3d 79f9 673c 25ad 583d ffb6 073d
00000350: 5049 a6bc 0330 00be 86d9 dc3c fb8a 43bd
00000360: f9b6 da3c aec8 55bc d74d 97bd a54d bd3d
00000370: ed64 6abd 94ee c1bc 7641 b2bd 76f6 05bd
00000380: f725 073e d151 7cbd 56f0 843c 2b2e 9abc
00000390: 00c7 99bd 07d1 1abd 690e d6bd b39a 12bd
000003a0: fed2 843d a448 673d ca48 32bd 2d82 7c3d
000003b0: 7114 66bd 1e16 05bd d7d1 773d 76ce db3d
000003c0: bca5 553c a3e9 3bbd a01c 43bd d0a4 dd3a
000003d0: f0c3 5ebc 20f8 ecbc e0a3 dc3c af73 18bd
000003e0: 2009 743c 1bae c7bd 3b3d 943d 9b59 413d
000003f0: 960b 413c 59d4 24bc 1618 98bc c629 5d3d
0.09250426 0.038829416 -0.0010359738 -0.028125286 -0.047784094 -0.011776651 -0.01081114 0.097127214
0.05269065 0.042899735 0.06215761 0.04852783 0.011533558 -0.031323723 0.027375385 -0.053675022
0.025077457 0.03339246 -0.01572746 -0.032741603 -0.13388945 0.08695038 0.0783812 0.05677431
-0.06780415 -0.07331717 0.052808143 -0.0817536 0.0160246 0.07846881 0.023834035 -0.012092359
0.031301197 0.0338875 -0.06489798 -0.09161483 0.02975752 0.01859038 -0.11839735 -0.016182458
0.03678779 0.004093369 -0.089406535 -0.023158636 -0.083527625 0.029354354 -0.011559537 -0.027034173
0.0053764093 -0.021698901 -0.051882997 -0.046324443 -0.06889621 -0.11657982 0.0034096611 0.09965422
-0.08573636 0.07481082 0.04116387 0.067492686 -0.100823976 -0.051025584 -0.09038899 -0.0888113
-0.12930948 -0.004630472 0.11581053 -0.080738194 0.046833202 0.030684527 -0.015913347 0.033624727
-0.027833538 -0.06664871 -0.10385837 0.047295786 0.05248933 -0.011895344 -0.06138912 -0.066566184
-0.05119766 0.07284323 -0.033130378 -0.031097459 0.012330236 -0.0043838695 0.029532637 -0.10999802
0.021505954 -0.17294171 0.06234608 -0.09248462 0.009111674 -0.15234756 -0.07070162 0.04199085
0.054476198 -0.066864446 -0.0047576535 0.024454415 0.06674971 0.027032651 0.078537434 0.077772506
0.042933993 0.100503206 0.08117697 0.04226914 -0.09134142 -0.045648478 0.05543042 -0.06031835
0.028376838 -0.051186305 0.04647345 -0.09248359 -0.026934167 -0.04876687 -0.03651946 0.07017337
-0.065140545 0.10204688 -0.08815393 -0.059890404 -0.09128991 0.021870734 -0.100597724 0.064608224
0.05524359 -0.07489096 -0.010336561 -0.0023845844 0.027070306 -0.04178998 -0.04188172 0.04993996
-0.029487386 0.08865808 0.018752499 0.016904935 -0.05321938 0.015996307 0.030265074 0.022262702
-0.08246885 -0.0073380084 -0.009592649 0.09823154 0.05330466 0.026227472 -0.021720424 0.09534301
0.02699074 -0.04771876 -0.003288867 0.071049996 0.06173946 -0.0026174637 -0.08844735 -0.052552074
0.011936962 -0.05087478 -0.0285942 -0.023947725 -0.026440429 -0.00943216 -0.032996293 0.019300297
0.013575523 -0.06203964 -0.09550244 -0.06473684 0.066546716 -0.033868417 -0.070629306 0.07578155
0.04852609 -0.11488349 -0.069262736 -0.005389566 0.010622096 0.04562788 0.07537447 0.028879639
-0.08093831 -0.10352015 0.052548345 0.071256995 -0.1454718 -0.0079765 -0.019842625 0.1061527
-0.008883863 -0.024410572 -0.07986595 -0.0061678165 -0.044300582 0.009961795 -0.12868224 -0.08739184
0.026930328 -0.03837974 0.064650916 0.08634202 0.02334855 -0.025184017 -0.065929025 -0.07822046
0.08542852 0.0141586 0.0528995 0.033133503 -0.02029863 -0.12518315 0.026959192 -0.047739964
0.026698576 -0.013048334 -0.07387894 0.09243325 -0.057225157 -0.023673333 -0.08703892 -0.032705747
0.13198076 -0.061601464 0.016227882 -0.018820843 -0.07508659 -0.037797 -0.10451967 -0.035792064
0.06485556 0.05646576 -0.04352645 0.061647583 -0.05617184 -0.032491796 0.060502853 0.10732739
0.013040002 -0.04587711 -0.04763472 0.001691008 -0.01359652 -0.028926909 0.02693361 -0.0372197
0.014894754 -0.09750005 0.07238241 0.047204595 0.011782547 -0.010060393 -0.018566173 0.053994916

feature_layer.model.2.bias f4 [128]
00000000: 9149 d7bc 920a 0dbd 3108 f23b f404 bd3d
00000010: 35bf b63d b326 bd3c 8daf d93c 469b 37bd
00000020: 736c 84bd e0a9 4cbd 3602 113e d415 acbc
00000030: 36cd 5d3d fe18 d53c fe02 fab8 884e ac3c
00000040: 9ae7 d73c 17cc fdbc 1e6d 8c3d 3d50 9dbc
00000050: 40f1 cbbb e0f1 4a3d e71f 9e3d ff2d 4abd
00000060: b1f4 06bd 5e96 c73d c2d9 95bd a2bc bb3d
00000070: 7c6a 893d 1222 95bc 25b8 d73d 75f6 093c
00000080: 3af3 77bc 8804 cb3d bdac 39bd ca6b 46bd
00000090: 7aa8 bdbc 293b 193c 3676 c43a 19d8 fd3c
000000a0: fd40 e73d c3d2 18bc a78d ad3c fd8a 2b3d
000000b0: f917 4c3d 7c5b 1abc 0243 803d 59d5 06bd
000000c0: a1b4 ea3d 4307 a63c 7961 d7bd 7f31 ee3c
000000d0: a799 273d b504 31bd a071 a63d c5cd 4a3d
000000e0: 8db9 8d3c 9f4e 2b3c 3909 82bd 80f9 823d
000000f0: 5055 99bc bc23 403d e1d8 8b3d 445c a83c
00000100: 17f1 abbc f18d c53d 038a 64bd 3140 e83c
00000110: 62ff f5bb cdf9 053c b2f1 19bd 1f88 613d
00000120: 17ac e43c 8c4e a23c b69a 533c 866c b23d
00000130: bcf1 efbc 1fba 14bd 9f57 8b3b e7b6 733d
00000140: ca52 083d 1249 9e3d 800b 00bd 177b b8bd
00000150: ce19 d33c eb9f b5bd 2eb6 ae3c 1b36 98bc
00000160: 4fe7 8f3d 4ec7 bd3d ba15 cfbc 535d f63b
00000170: 5608 8b3d 74a2 1dbd 1bc5 833d 32aa 483d
00000180: 1136 c53d 6c3b fb3c b58e 6cbb a730 183d
00000190: 10a7 893d 9b41 7bbd 4e28 83bd a52c 11bd
000001a0: b67f 173d da96 52bd c3f0 ef3d 20ce 543d
000001b0: deae 5ebd ae68 84bd decb cf3d d149 8bbd
000001c0: 9452 dc3b 206d 433a a993 3bbc 3485 e13d
000001d0: 07b9 223d dbd5 ddbc c679 ae3c 0170 f7bb
000001e0: 56be ae3d 89c4 3abd eb5f b7bc d827 04bd
000001f0: 8ef0 9d3d 8f1b f13d 64c2 4cbd 3a97 f2bc
-0.026280196 -0.03443391 0.0073862304 0.0922946 0.089231886 0.023089742 0.026572967 -0.044825815
-0.064659975 -0.049966693 0.14161 -0.021006502 0.054150783 0.026012894 -0.00011921486 0.02103354
0.026355553 -0.030981107 0.0685675 -0.0192033 -0.0062238276 0.049547076 0.07720929 -0.04936027
-0.0329482 0.09745477 -0.07316925 0.09166838 0.067097634 -0.018204723 0.1053317 0.008420576
-0.015133673 0.09912974 -0.04533075 -0.04844264 -0.023151625 0.009352484 0.0014988843 0.030986832
0.112916924 -0.009327593 0.02118571 0.041880596 0.04982755 -0.009421226 0.06262781 -0.032918308
0.114602335 0.020267135 -0.10516638 0.029076336 0.04091802 -0.04321738 0.08127141 0.049512643
0.017300392 0.010455756 -0.06349415 0.063952446 -0.018717438 0.04690908 0.06828476 0.020551808
-0.020988984 0.09646214 -0.05579568 0.028350921 -0.0075072506 0.008177233 -0.037584014 0.055061456
0.02791409 0.019812845 0.012915304 0.087121055 -0.029290073 -0.03631031 0.0042523886 0.0595006
0.03328208 0.07728781 -0.031260967 -0.090078525 0.02576914 -0.088683926 0.021327104 -0.018580487
0.070265405 0.0926653 -0.025278915 0.0075184493 0.06788699 -0.038485005 0.06434079 0.048990436
0.09629453 0.030667983 -0.0036095802 0.037155773 0.06721318 -0.061341863 -0.06404172 -0.035442967
0.03698703 -0.051413395 0.117158435 0.05195439 -0.054365985 -0.064652786 0.101463065 -0.06801189
0.0067237113 0.00074549206 -0.011448779 0.110117346 0.039727237 -0.027079513 0.0212983 -0.0075511937
0.085323974 -0.045597587 -0.022384604 -0.03226456 0.07711898 0.117728345 -0.049990073 -0.029613126

value_stream.model.0.weight f4 [128, 128]
00000000: fb63 e53c 5088 85bb b085 bebd de3f 253d
00000010: 940c 793d 0f6b 1ebd b3a4 fd3d 4b8c 413d
00000020: d8d7 18bd 30d6 e53c b8a2 b7bc 702e 8bba
00000030: 2a25 46bc 59a8 93bd 2843 87bd 35d9 123c
00000040: d9db 9ebc c021 373c cfc8 893d 8f19 4abd
00000050: 7204 413d 3e45 083d 8aeb 223d 5d7c 4d3d
00000060: 69d6 753d 12b3 0d3c 74a7 f43c ac74 083d
00000070: 2fbb 643d f31d 2bbc a336 b8bc b5e6 5c3d
00000080: 5c6a 2bbc 37c7 0e3d 73d4 fe3c 256b e9bd
00000090: 74a0 3f3d 971b 03bd e25b 853c b944 b3bd
000000a0: a294 c93c 0875 91bc ffa7 793d 9759 ffbc
000000b0: b296 e33c fd38 ac3d 8c5a a5bc 5edf dfbc
000000c0: 149e 50bd 21ad a1bb 9c4b da3b b50f 933d
000000d0: d569 a83c da93 9a3c 752c 4f3d 49d3 39bd
000000e0: c403 ffbc 4d61 adbd b4ba 7b3d 2d8a 60bc
000000f0: 614d 96bd f493 bebd 9865 12bc 3143 15bd
00000100: f7d9 3b3c b2b0 05bd a82b 623d d70d 853b
00000110: 5547 1f3d 0a89 47bd 4511 b0bc 6d3b 913b
00000120: 47e2 43bd c0b0 b13d e86c fcbd b3a9 d6bc
00000130: db17 b0bd e6dd b7bd 2c69 e13d 8929 b63d
00000140: 2d35 a9bd 0b77 873d 7303 01bd 53cb aebc
00000150: ee1f b93d d239 8e3c 95af b13b a33c eabb
00000160: a493 763d 5c90 ce3c 3da3 063d 949d ccbd
00000170: 5fef 82bd 75fa 953d 0e05 363a b396 b0bd
00000180: 5e0c a3bc 269d 4a3d 6fd2 f03d 30f1 46bd
00000190: be80 9dbd 453f 4a3d 3130 ef3b 12ed 71bd
000001a0: a429 61bd 70f9 c7bd 7b2e 093d 324f 10bd
000001b0: 02c5 8cbd 0770 05bd e461 8aba 45e5 ff3c
000001c0: 536b a13d ce8c b93c 28fb 20bd a818 eab9
000001d0: 6d64 b6bd 5814 b3bd 4467 8c3d 8301 ebbd
000001e0: 44e5 b4bc ce06 4abd 6e98 be3c f3c0 82bd
000001f0: 2c80 dbbd 6694 283d acb7 30bd 120c 95bd
00000200: 1124 903d 9d02 b63d 69b7 b8bd a3dc 2f3d
00000210: 656e 543c a2d2 c4bd ef0b 6e3d d90e 853d
00000220: dd22 203d 7b23 dabd c839 05be 76ad bcbd
00000230: 6df1 86bd 4914 de3c 61cb 95bd a8cf 9a3d
00000240: 5a24 8f3d ca65 7cbc e804 b6bd a36b 6cbd
00000250: 756b 6cbd 09f7 62bd 298c edbc 0c50 7cbd
00000260: 1459 f43d 9617 c338 db74 1cbd 2261 f63c
00000270: 154a 7fba 633e c3bc 84cf 343d 62e1 89bd
00000280: abea c83c 16bf 2e3d c93c 803b 62d5 92bd
00000290: 6545 c0bd 2706 633d 58eb 233b bb66 323d
000002a0: 973f c03d 62a7 15bd 51fc 9b3d d4c5 6fbd
000002b0: a9cd 0dbd 4879 be39 4277 bbbd a8e3 4c3d
000002c0: 5f91 10bd 2c38 b5bd ceb2 953c 28e2 973d
000002d0: 8b16 983d 8938 33bd 1921 6fbd 2085 1239
000002e0: 0db3 1ebd abfa 973d 28b5 a33d 48f1 a13d
000002f0: 8371 97bd d3de 1dbd eb73 28bc 7f89 c4bc
00000300: c760 04bc 2fa1 be3d 01df 7fbd 0a30 543d
00000310: a0ad 633d 2061 89bd faf4 da3c e39c 7a3d
00000320: d073 e33c bc33 203d 0364 26bd 6876 4ebd
00000330: 9a1d 0e3d cdb1 44bd 07af 923d ab24 eabd
00000340: d452 0ebd 002a bd3d b97b 09be 1866 df3a
00000350: cbf4 8ebd 1ef3 a33d 1726 8bbb bf04 b1bd
00000360: 8757 7abd 8c21 f03d 57bf 2fbd 40f6 313c
00000370: e93f 13bd f02d c1bc d4d0 9b3b 1ec9 59bd
00000380: 26a0 c33d bb27 283d dcf5 35bd 664c 44bc
00000390: a792 61bd bba5 063d 6690 e5bc ae95 a43c
000003a0: e4a5 85bd ebd6 543d bdad 993d c3b6 cd3d
000003b0: fb8c cd3d b12c 933c e46f d43c 69fd b03d
000003c0: 2346 f1bd 9ad5 74bc 3dd1 8b3d 915b 8ebc
000003d0: 9246 953d 5741 723d 687a 383d 2d91 993d
000003e0: 3d92 1abd 0964 693b 5941 8b3c 8468 463d
000003f0: 5e32 bebc b323 583d 228b 2c3d 0524 aebb
0.028001776 -0.0040750876 -0.093028426 0.04034411 0.06080301 -0.038676318 0.123849295 0.047252934
-0.03731522 0.028056234 -0.022416458 -0.0010618698 -0.012093822 -0.07209844 -0.06604606 0.008962919
-0.01939194 0.01117748 0.06727754 -0.04934078 0.04712338 0.03326916 0.03977541 0.05016743
0.06001893 0.008648651 0.029865004 0.033314392 0.055842575 -0.010444152 -0.02248699 0.053930957
-0.01046237 0.034857955 0.031107163 -0.11397389 0.04678388 -0.032008734 0.016279165 -0.08753342
0.024607006 -0.017756 0.06095123 -0.03117065 0.027781818 0.08409307 -0.020184778 -0.02732819
-0.050932005 -0.0049339687 0.0066618454 0.0718073 0.020558277 0.01886933 0.050579507 -0.045367513
-0.031129725 -0.08465824 0.06145735 -0.013704819 -0.073389776 -0.093055636 -0.008935355 -0.03644103
0.011465541 -0.032639213 0.055217415 0.0040604877 0.038886387 -0.048714675 -0.02149261 0.004432133
-0.047823217 0.086762905 -0.1232546 -0.026203966 -0.085983 -0.08977871 0.11006388 0.08894641
-0.082620956 0.066145025 -0.03149743 -0.021337187 0.09039293 0.017361555 0.0054225423 -0.0071483417
0.060199395 0.02521532 0.03287052 -0.09990993 -0.06393313 0.073231615 0.0006943502 -0.086224936
-0.019903358 0.049466275 0.11758887 -0.048569858 -0.07690571 0.049376745 0.007299446 -0.05906398
-0.054971352 -0.09764373 0.033491593 -0.035231777 -0.06873514 -0.03257754 -0.0010557738 0.031237254
0.078817986 0.022650149 -0.03930202 -0.00044650328 -0.089058734 -0.08744115 0.06855634 -0.11474898
-0.022081979 -0.049322896 0.023266044 -0.063844584 -0.10717806 0.04115715 -0.043143913 -0.07277693
0.07038129 0.08887217 -0.09019358 0.042935025 0.012965773 -0.096104875 0.05811685 0.064969726
0.03909575 -0.106512986 -0.13010323 -0.092127725 -0.06589017 0.027109282 -0.07314182 0.075591385
0.069893554 -0.015405128 -0.088876545 -0.057719838 -0.057719667 -0.055411372 -0.028997498 -0.061599776
0.11931053 9.302718e-05 -0.03819738 0.030075613 -0.0009738517 -0.02383346 0.044143215 -0.067324415
0.02452596 0.042662703 0.003913496 -0.07169606 -0.09388236 0.05542579 0.0025012102 0.043555003
0.09387129 -0.03653658 0.07616485 -0.058538273 -0.03461996 0.00036329986 -0.09153606 0.050021797
-0.035294887 -0.088486046 0.018273737 0.07416183 0.07426175 -0.043755088 -0.058381174 0.00013973238
-0.038744975 0.07420858 0.07993537 0.07907349 -0.073946975 -0.03854258 -0.010281543 -0.023991344
-0.008079714 0.09308087 -0.062468532 0.051803626 0.055585504 -0.06707978 0.026728142 0.061184775
0.027765185 0.039111838 -0.040622722 -0.05040589 0.0346962 -0.048021127 0.0716229 -0.11432775
-0.03474696 0.092365265 -0.13426103 0.0017043976 -0.06980284 0.08005355 -0.004246484 -0.08643483
-0.06111863 0.117251486 -0.042907085 0.010861933 -0.03594962 -0.023581475 0.004755119 -0.053170316
0.0955203 0.041053515 -0.044423923 -0.011981105 -0.0550715 0.032872897 -0.028022956 0.020090904
-0.06525782 0.051962774 0.07503841 0.10044625 0.100366555 0.017965646 0.02593226 0.08642084
-0.11780956 -0.014943505 0.068270184 -0.017377647 0.07288851 0.059144344 0.04503861 0.07498393
-0.03773712 0.0035612604 0.016998934 0.048439518 -0.023217376 0.05276842 0.042124875 -0.0053143525

value_stream.model.0.bias f4 [128]
00000000: 6439 023d 7a59 d7bd 598d 09be ea80 ea3d
00000010: 7c50 cf3d a06e e83c 7422 3cbc 4a38 dd3d
00000020: ac2a 2e3d 9436 63bc c42a 2f3d b345 573d
00000030: 8a0b d33c a031 4c3d df1c 9cbd a26e f0bd
00000040: 9b1e ef3d 5540 063d 18af 973d 242c 1ebd
00000050: 7879 58bd 83a6 b93d e882 393d 2d63 b6bd
00000060: d43a 283d f277 263e 59a0 23bd dbf8 a43c
00000070: e3a5 2ebc 7850 76bc d1f0 44bd 0ed0 1ebd
00000080: d08f 9c3d a369 da3d fa46 493d 83cb 213c
00000090: 3d5c bdbd 0415 8cbd 212f 593c ac07 cfbd
000000a0: 0b21 033e cda1 a6bd 4c5d 43bc aa6c 88ba
000000b0: ab89 863d 633d adbd e813 183d 0d70 abbc
000000c0: e2a2 3abb 4222 db3c bea4 a4bd c542 303e
000000d0: 9c8c 8b3c 3428 633d bab5 90bd c1de e33c
000000e0: 87f0 3c3d 4d8c 373c 47b6 0cbe 7e4a e03d
000000f0: 1986 0e3d a24d 64bd 297a 203e 1df7 54bd
00000100: fec0 003d 7eb9 5dbc 7986 823d 3962 d0bc
00000110: ee9d 303c 899a 1dbc 67ca 0b3d 3855 283d
00000120: 5e0f 3dbc c458 a5bc 22fd 713c dc63 ad3c
00000130: 413f 773d 4978 adbc d61d 9c3c a9d0 43bd
00000140: 9643 a7bd 91b6 01be 3afb 0f3e 51b3 5bbc
00000150: dc7d 7abd 4e0d b13b b86d 1e3d ff9f aabc
00000160: 3ecc 51bd 2591 95bd b653 6e3d faf8 df3c
00000170: 6234 773d 4073 bbbd ee60 9e3d b23c cebc
00000180: af11 123c 5615 e1bd a356 d03d eb20 35be
00000190: 6a51 d63d 64fb 36bd 1455 6cbc 3308 7fbd
000001a0: 2d19 7d3d a109 b23d 121d 963d dac7 45bd
000001b0: d9b1 6bbd 335a 4e3d 69b9 053e ede9 c93c
000001c0: f26c 1fbd a9f8 55b9 9128 403d abbc 63bd
000001d0: 013d 1d3e 2e00 84bc 6338 8abb 45cc 9ebd
000001e0: 84b9 773d ca3f 853d 00c9 40bc cc69 c93d
000001f0: 9a96 093e 6a8a 663d 5dd6 b13d efad 473d
0.031793013 -0.10515113 -0.13432826 0.1145037 0.10122773 0.028373063 -0.011482824 0.10801752
0.042521164 -0.013867993 0.042765394 0.052556705 0.025762338 0.049852014 -0.07622694 -0.117398515
0.116757594 0.032776196 0.07406443 -0.038616315 -0.052850217 0.09064963 0.045290858 -0.08905635
0.041071728 0.16256693 -0.03994784 0.020138195 -0.010659668 -0.015033834 -0.048081223 -0.038772635
0.076446176 0.1066468 0.049139954 0.009875181 -0.09246109 -0.06839946 0.013255865 -0.10108885
0.12805574 -0.0813633 -0.011924099 -0.0010408361 0.06569227 -0.08458974 0.03712836 -0.020927453
-0.0028478433 0.026749734 -0.080392346 0.1721297 0.017034821 0.055458263 -0.070659116 0.027816178
0.046127822 0.011202884 -0.13741408 0.10951708 0.034795854 -0.0557381 0.156716 -0.051993478
0.03143405 -0.013532994 0.06373305 -0.025437461 0.010779841 -0.009619364 0.034128573 0.041096896
-0.011539308 -0.020183928 0.014769824 0.02116578 0.060363058 -0.02117552 0.019057196 -0.047806416
-0.08167188 -0.126673 0.14060679 -0.013409452 -0.061155185 0.0054031974 0.038678855 -0.020828245
-0.05122017 -0.07303075 0.0581853 0.027340401 0.06035269 -0.091528416 0.077333316 -0.025175426
0.008915349 -0.10990398 0.10172775 -0.17688338 0.10464747 -0.04467334 -0.014424581 -0.06226368
0.061791588 0.08693243 0.073297635 -0.048286296 -0.057542656 0.05037899 0.1305901 0.024647677
-0.038922258 -0.00020405896 0.046913687 -0.05559985 0.15355302 -0.016113367 -0.0042181476 -0.07753805
0.060479656 0.065063074 -0.011766672 0.09834632 0.13436356 0.056284346 0.08683465 0.04874986

value_stream.model.2.weight f4 [1, 128]
00000000: 9d31 1ebc edda 59bd 1fae 4dbd 2add cd3c
00000010: 5958 463d bd6b 0c3d 82a9 03bd ff38 b63c
00000020: a905 303d 28bc 5e3d df7d aa3d 80cd 5e3d
00000030: 9915 95bd 1762 e4bd 148d 29bd 4190 23bc
00000040: c066 343d 32b2 133e cc5f cd3d 51a3 b2bb
00000050: dd74 51bd 7ce3 273d 55b9 eebc f8cc 10bd
00000060: dfd9 c33d 5a27 023d ad11 44bc 4665 73bd
00000070: 75dd a8bd b9ed 95bc e6a8 763d 6da7 8e3d
00000080: e764 b73d e141 293d 1d79 583d 2a19 d9bc
00000090: e263 42bd 61c8 ae3c fad2 183d f79c 45bd
000000a0: f841 253d 0b09 42bd d331 1a3d 6d8e 41bc
000000b0: 65f7 a73d 1417 143e 7a29 593c 7ed6 1b3d
000000c0: 2284 383d c27d 5b3d 28b7 94bc c3ef 893c
000000d0: bccd 293e 2491 133d 940c e6bc 1496 e03b
000000e0: 85c0 c13d 6960 11bd 5d7b 3dbd 2d92 ba3d
000000f0: f3c2 183d 47bd 68bd e32c 393d 470c dbbd
00000100: 2932 c93d 1ef5 69bc e041 8fbc 5ac4 d2bd
00000110: cb3f 863b b62a f33c 9761 7c3d f703 e9bd
00000120: 1944 fe3c b4e0 94bc 6586 093e 1c5b d1bd
00000130: 079f eb3c 1478 273c 4035 56bd 7150 0abd
00000140: fc31 24bd 32ab 91bc 1f8d 8e3c dc96 48bc
00000150: 9884 babc fb7e 56bd 9ff0 a5bc 3488 583c
00000160: 5fe2 0cbd d8ba 96bd 64b4 663d 5d32 a83d
00000170: d39d 073b 015c 03bd dc6b 0d3e 2599 003d
00000180: e8c7 1e3d 80b3 e7bc 34e1 883d f94e 20bd
00000190: c646 cd3d 281c 333d 9566 46bd f8d3 1a3e
000001a0: bdf3 713d a798 0b3d 33c3 2b3d dd51 07bd
000001b0: 1be7 873c ac17 3c3d 0472 c03c 93c3 cb3d
000001c0: 351d bcbc 3ce9 33bd 6fe4 c1bd 18b8 5dbd
000001d0: 8adc ab38 65af 9d3d 3d34 fd3c e180 4abc
000001e0: ed58 18bd 547d 8b3c 81e6 0c3e 1402 a93c
000001f0: 2731 413d d469 453d c894 d63c c873 74bd
-0.009655383 -0.0531873 -0.050214883 0.025129873 0.0484241 0.034282435 -0.032144077 0.022243975
0.042974148 0.05437866 0.08324789 0.0543952 -0.0727951 -0.11151522 -0.04139431 -0.009983123
0.044043303 0.14423445 0.100280374 -0.0054515977 -0.05113684 0.04098843 -0.029141108 -0.035351723
0.0956304 0.03177581 -0.011967105 -0.059422754 -0.082453646 -0.018301832 0.060219668 0.06965528
0.089547925 0.041322593 0.052849878 -0.026501257 -0.047458537 0.021335782 0.037310578 -0.048245396
0.040346116 -0.047371905 0.037645172 -0.011813742 0.08201484 0.14461929 0.013254518 0.038046353
0.045047887 0.05358673 -0.018153742 0.01683796 0.16582388 0.03602709 -0.02808217 0.006853828
0.09460548 -0.035492335 -0.046260227 0.09109912 0.037295293 -0.056821134 0.045208823 -0.10695701
0.098240204 -0.014279632 -0.017487466 -0.10291357 0.00409696 0.029683452 0.061616506 -0.11377709
0.03103833 -0.018173553 0.13430174 -0.10222456 0.028762354 0.0102215 -0.052296877 -0.03376812
-0.04008673 -0.017781828 0.017401276 -0.012242999 -0.022768304 -0.05236719 -0.020256339 0.013216067
-0.03439557 -0.07359856 0.056324378 0.08212731 0.0020693436 -0.032070164 0.13810676 0.03139605
0.038764864 -0.028283834 0.06683579 -0.039137814 0.100232646 0.043728024 -0.048437674 0.15119922
0.059070338 0.034081127 0.041934203 -0.033037055 0.016589692 0.045921013 0.023491867 0.09949412
-0.022963146 -0.0439236 -0.094673984 -0.054130644 8.194994e-05 0.076994695 0.030908698 -0.012359829
-0.03719418 0.017027535 0.13759805 0.020630874 0.047166016 0.04819663 0.026193991 -0.05968073

advantage_stream.model.0.weight f4 [128, 128]
00000000: 318c 943c 9a63 233b 118d 5abc 2768 8f3c
00000010: 927f e8bd 4ed0 133d 6a7b f23c 4c30 86bd
00000020: 897f 003d 2564 65bd d85b 07bb 120b 68bc
00000030: d3ec b63d f211 1f3d 2a17 67bc 3d92 273d
00000040: c97a 873d 7fd5 b0bd eadd 77bd 7a20 14bd
00000050: 7b27 9f3d bee2 70bc 29b8 923c 4e51 67bd
00000060: 179f 50bd 9bf9 8ebc 3b1f 563d 3073 073c
00000070: 025c 8ebd cf64 41bb ccae 3c3d ae62 963c
00000080: c59d 173d 39b0 82bb 3a5f d5bc ae92 04bd
00000090: 07c6 613c fb78 503c 0817 693c 90de 70bd
000000a0: 7a40 7e3d fd95 a93d 45a7 12bd 7663 a8bc
000000b0: 0180 f5bc 623d f7bd d5df 0fbd 1b94 b03d
000000c0: 1101 823d f932 94bd a632 2bbc c9aa 9abd
000000d0: 3171 82bd 2f28 993b f0d4 b1bd f31d f73c
000000e0: aff5 a8bc 8a97 8fbd 219d f63b d218 e93c
000000f0: b7a8 9bbd 5c22 bebb 2bea 713d f653 3fbd
00000100: b7c6 84bd 4d55 3e3d 0801 2dbd 7dd7 d7bc
00000110: 114f f13c 7bc9 0d3d 5e2e 97bd 27b1 1dbc
00000120: e7e9 653d e19c a43d 884d 9ebd 67a1 c43c
00000130: ad55 283d 55fc 40bc 378b 88bd 14cb 753d
00000140: be12 b73d 1275 3fbd 353f b73b f164 833c
00000150: 5ce6 5cbd 8a23 83bd 4c5a 1bbd c2a8 af3d
00000160: d164 06bd f193 b13d dbb5 8c3d 3f1a 7f3d
00000170: af1b a53d 024f 24bd 694f 67bd e2b2 b0bc
00000180: 55eb f2bd ae69 723d 5a4d d43c 00f5 003c
00000190: a58e 90bd 56d0 3ebc f604 ce3d 6ff3 b3bb
000001a0: 9cf2 a73c 7fb4 42bd af48 273b d69f 1bbd
000001b0: 0063 29bd 0853 fa3a ba9e a63d d725 4e3d
000001c0: f5b1 963d 9eb2 fa3d 744a 63bd 58f4 053c
000001d0: a0cc d4ba d7e5 ce3d 7e79 b5bc efcb 32bd
000001e0: 102f 823b ee4d 103d 8b69 d3bc 4064 b3bb
000001f0: 6a32 503c 1554 7ebd 1e6b 183a 98c2 1ebd
00000200: 02be e6bb 2034 0abd ae33 403d 0f04 bdbb
00000210: f483 0ebc 41ac dd3c 0d21 883c 3ced 4d3d
00000220: 36bb 043d 432e 45bd 88cc 83bd d548 373d
00000230: 9544 573d 4945 163c f984 0d3d f430 3cbd
00000240: f33d fe3c 0f43 5a3d d1b1 443d f392 d43c
00000250: fadf b53d 264f 2cbd e63a adbd e2c1 d53c
00000260: 0e81 ae3d a288 5e3d 6116 843a c462 0e3c
00000270: a4cd 61bd d075 39bd eb3f c5bc 471f 8b3d
00000280: 7a24 52bd 88e7 aabc 5c1e b2bc 5358 803d
00000290: b4a6 3b3d 4fbb fc3b b962 503d 1d1a bcbc
000002a0: bad3 b33c 6a08 46bd b8e9 1e3d 53dd f93c
000002b0: 1fba 20bd f5ba a43d 8c11 a8bd 7a36 fd3b
000002c0: ede4 87bd dabb 8b3c 0c3f 3a3d d1c7 b0bc
000002d0: 72ec 8e3d 9a6b 54bd 77eb 0bbe 1a6f 013d
000002e0: 564f 133d af04 35bd 11c3 783d 41cf 1c3d
000002f0: b227 943b 10b4 cfbd 5723 29bb e1ce 04be
00000300: 695d 5b3d ff06 1ebd ab8d 283d d923 6b3d
00000310: ccce ff3c b152 44bd 16b6 a1bb f5b2 8b3d
00000320: 5932 5f3d f9cb aebd a595 7e3d 4772 f0bc
00000330: ebfc 56bd dac1 0e3d 2e66 3bbd 1f78 83bd
00000340: f4a5 1c3d 7579 9abc 97a1 053d be74 f6bc
00000350: 8e8a 623d 5446 8abd fb7d 483d bd8d 51bd
00000360: 0729 423c 0bca 96bd d0cd 2b3d fe10 ed3c
00000370: 5845 873c 977f 86bd ee72 6cbd cccf 4ebd
00000380: e75d 37bc 400c 103d 2d21 fbbc 1b39 48bc
00000390: 55a3 7e3d bd0d b43d 6bfb 823c d087 113d
000003a0: 4293 1b3d 2683 c4bd e813 89bd 04aa c33d
000003b0: 9fe8 4abd a420 9a3d eea4 dfbc b265 033d
000003c0: 9664 ecbc 47d3 87bb c39c 4d3c 2a44 393d
000003d0: 51d9 073d a949 e1bc fc04 2ebc b2ee b13c
000003e0: 4891 24bc 1617 df3c 171c c53d eadb 8dbb
000003f0: 84bc b53c 6cd3 a43d e3c1 6dbd a47c 16bd
0.018133255 0.0024931193 -0.013339297 0.017505718 -0.11352457 0.036087327 0.029599864 -0.06552181
0.031371627 -0.05600371 -0.0020654108 -0.014162796 0.089318894 0.038835473 -0.014104644 0.040910948
0.06615216 -0.08634471 -0.060514368 -0.036163785 0.07771202 -0.014702497 0.01791008 -0.056474023
-0.05093297 -0.017453006 0.052275877 0.008267209 -0.06951143 -0.002950955 0.046065137 0.018357601
0.037015695 -0.0039882925 -0.026046384 -0.032366447 0.013780124 0.0127241565 0.0142266825 -0.058806002
0.06207321 0.08280561 -0.035804052 -0.02055524 -0.029968264 -0.12072255 -0.035125572 0.08621999
0.0634786 -0.07236285 -0.010449087 -0.07552106 -0.06369246 0.0046739797 -0.08683193 0.030165648
-0.020624964 -0.07011326 0.0075260554 0.028454218 -0.07600539 -0.005802436 0.05906121 -0.04671093
-0.06483214 0.046468068 -0.04223731 -0.02634787 0.029456647 0.034615975 -0.07381891 -0.009624756
0.05613127 0.08037735 -0.07729632 0.024002744 0.04109733 -0.011778911 -0.06667178 0.060008124
0.08939122 -0.046742506 0.0055922517 0.016039344 -0.053930625 -0.06403263 -0.03792791 0.0857711
-0.03281099 0.08670796 0.06870624 0.06228089 0.08061921 -0.04011441 -0.056472216 -0.021569673
-0.11861292 0.059182815 0.02591579 0.007870913 -0.07058457 -0.011646351 0.1005954 -0.005491666
0.020501427 -0.047535416 0.00255255 -0.03799423 -0.04135418 0.0019098232 0.081357434 0.050329056
0.07358161 0.122411 -0.055490926 0.008175932 -0.0016235299 0.10102432 -0.022152659 -0.043651517
0.0039728954 0.03523057 -0.025807163 -0.005474597 0.012707332 -0.062091906 0.00058143015 -0.038759798
-0.0070416937 -0.033741117 0.046924286 -0.005768306 -0.008698452 0.027059676 0.016617322 0.050275072
0.0324051 -0.04813982 -0.064354956 0.044747192 0.05255564 0.009171792 0.03455064 -0.045945123
0.031035399 0.05328661 0.04802114 0.025948977 0.08880611 -0.04206767 -0.084584996 0.026093427
0.08520709 0.054329522 0.001007747 0.00869054 -0.055127755 -0.04527837 -0.02407833 0.06793075
-0.051304318 -0.020862356 -0.021742992 0.062668465 0.045813277 0.0077127586 0.0508754 -0.02296167
0.021951545 -0.048347868 0.03879711 0.030501043 -0.03924 0.08043472 -0.08206472 0.0077274414
-0.06635461 0.017057348 0.045470282 -0.021579655 0.06978692 -0.05186043 -0.13664041 0.031600095
0.035964333 -0.04419392 0.060732905 0.03828359 0.0045213336 -0.10141766 -0.0025808418 -0.12969543
0.05355588 -0.03858089 0.04115073 0.057407234 0.031226538 -0.047930423 -0.0049350364 0.06821243
0.054491375 -0.085349984 0.06215443 -0.029351367 -0.052487295 0.03485284 -0.045751743 -0.06419396
0.038244203 -0.018856743 0.032624807 -0.030084964 0.055307917 -0.06751695 0.04894827 -0.051160563
0.011850602 -0.073627554 0.041944325 0.028938767 0.016512558 -0.065673046 -0.057726793 -0.05049114
-0.011191822 0.035167933 -0.030655468 -0.012220646 0.062167484 0.08791683 0.015989026 0.03552991
0.037982233 -0.09595327 -0.0669325 0.09553912 -0.04953825 0.07525757 -0.027300324 0.032079406
-0.028856557 -0.0041450593 0.012549582 0.045231022 0.033166233 -0.027500944 -0.010621306 0.021720264
-0.010044403 0.027232688 0.09624498 -0.0043291943 0.022184618 0.08048138 -0.058046233 -0.03673996

advantage_stream.model.0.bias f4 [128]
00000000: 6add b13c 7e72 983c 009d 6fbc e782 fc3c
00000010: 7d5a 313d a513 b73d a0ff b9bd e571 9cbd
00000020: 2231 7bbd c919 20bd 4a80 823b 241d 18bd
00000030: d8b6 c6bc 5daf 983c 6fa4 f43d a42f f13d
00000040: 88b0 f5bb 4059 c03c 2ad3 24bd 88c4 ccbd
00000050: 086e 2ebd eebb 7fbd fceb 31bd f542 373d
00000060: 466b bdbd 8c14 ec3b 1f1e 05bd 32ee 74bc
00000070: 42cc 283c 5bf3 a63d 8a85 5abd dfa7 4c3d
00000080: 3995 36bc 3d71 47bd b131 b5bc b241 7f3d
00000090: 6a1f 89bd 9671 053d 6548 e03d e155 a43d
000000a0: 335f af3d e597 a1bd 131f 22bd ae7c 813d
000000b0: eda3 d33d 7cad acbd 0a7e 9e3d e8fc af3c
000000c0: af83 00bd 3af9 a9bc 4dea f9bc 5b14 3e3c
000000d0: 98b8 263d 27fc f0bc 97e2 8f3d cdcb 05be
000000e0: e2af 18bc 77a5 653d 017d 63bd 28ca 373c
000000f0: 667c 413d 4a68 173d aaf1 333d 59aa ccbc
00000100: d88e 1ebd 76af 6e3c e4a6 493d 9ffc 10bd
00000110: f22a cfbc 2c5b 01bb c169 cfbd 4eaf cdbd
00000120: a4c1 2ebd d04a 9cbd 5fa7 fb3c 53b9 053c
00000130: 58b6 4a3b 6038 36bd a1ba 9cbd fb4e ea3d
00000140: b4e0 8b3d 9487 993c d3b0 12bc 1c91 c3bc
00000150: 2604 633d b048 f73c 8fd1 f0bb 0afe 853c
00000160: a599 b3bd 62e7 173d ec91 8a3c 3a83 a5bd
00000170: e6f7 823d 07ec 88bc 47b5 99bd cc56 163d
00000180: 92e3 6d3d 0709 c0bd 9ed6 eb3c f9da 313d
00000190: ee78 7abd bafc 52bd 9e17 353d e750 353d
000001a0: faa8 9b3d 25ae 823c 9e25 6cbd b34d 3cbd
000001b0: 2261 5d3d 1911 ff3c 1f7c 5ebc b1b4 44bd
000001c0: 2dc9 f33d 6697 633d 87b4 86bb 80e4 a9bd
000001d0: 6495 25bd 85cc bd3c 5122 6b3d 5f80 73bc
000001e0: 0e32 72bc b092 29bd 304c 22bd 1b7b c8bd
000001f0: 5882 aa3d 7513 153d 0d0b 42bd 9bb4 93bd
0.021712024 0.018609282 -0.014624834 0.030824138 0.043299187 0.08939294 -0.0908196 -0.07638911
-0.061326154 -0.03908709 0.0039825784 -0.037137166 -0.024257109 0.018638307 0.11945426 0.11776665
-0.007497851 0.023480058 -0.040240444 -0.09998423 -0.042585403 -0.062435083 -0.043437943 0.04474159
-0.092489764 0.007204598 -0.03249943 -0.014949368 0.010302605 0.08151885 -0.05335001 0.04996478
-0.011143976 -0.048691977 -0.022118421 0.06231851 -0.06695445 0.032579027 0.10951308 0.080241926
0.0856308 -0.078903 -0.039580416 0.06322609 0.10334001 -0.08431527 0.07738884 0.0214829
-0.031375583 -0.020748723 -0.030507231 0.011601533 0.040703386 -0.02941711 0.070256405 -0.13066025
-0.0093192775 0.056066003 -0.055539135 0.011217631 0.047237776 0.036964692 0.04393164 -0.024983572
-0.038710445 0.0145682 0.049231425 -0.03539717 -0.025289033 -0.001973818 -0.10127593 -0.10043202
-0.04266514 -0.07631457 0.030719457 0.0081618605 0.003093144 -0.044487357 -0.07652784 0.114408456
0.06829968 0.018741407 -0.008953291 -0.023872904 0.055423878 0.030186027 -0.0073492 0.016356487
-0.0876954 0.0370859 0.016915284 -0.0808167 0.06394939 -0.01671411 -0.07505279 0.03670387
0.058078356 -0.09376722 0.02878886 0.04342172 -0.061150484 -0.05151055 0.044211976 0.044266608
0.07600589 0.01595218 -0.057653062 -0.045972537 0.05404771 0.031136082 -0.013579397 -0.048023883
0.119036056 0.055564307 -0.004110876 -0.08295536 -0.040425673 0.023168812 0.057405774 -0.014862149
-0.014782442 -0.041399658 -0.03962344 -0.097891055 0.08325642 0.03639551 -0.04737382 -0.07212182

advantage_stream.model.2.weight f4 [2, 128]
00000000: e26f 2e3d f549 1c3d d13e bc3a 8088 553d
00000010: 8f7b 03bb 1a83 bdbd 16e3 993c 8d16 e43b
00000020: fee7 77bd 41a1 833b 7c4b ee3c a5c2 fabc
00000030: c050 dbbc 64c6 053e 67d0 cd3d 1c86 243d
00000040: 9234 90bc 049b 96bd 34df 4abd 19ae b13c
00000050: 948f 673d 26d0 8dbc 5b4d 753d 2f63 18bd
00000060: def8 483c eb73 2abd 86e1 debd 7087 553d
00000070: 372e 65bd 8f1a 53bd b9d9 473d eb73 543d
00000080: 5d1a dfbc 691c 75bd 51c6 a2bd badc d13a
00000090: 2a8a 39bd 89f0 cd3d 82b6 1cbd ad1a d33d
000000a0: cff8 28bc b166 16bc 357f 593d 5bcd 703d
000000b0: 8aa4 92bd 3169 de3c 7445 a5bc ec6d c03d
000000c0: 6364 e43c 7b20 2ebc 111c 4cbd 2468 053e
000000d0: bf36 cb3d ae64 183b d7be 6abd 4e1c 7d3d
000000e0: d3c4 9b3c a80b 003d e7da 003d f647 e03c
000000f0: de59 183c 7cfb 6c3d 1507 b0bd 8bea f7bc
00000100: 17ad 84bd 8785 833a e3f9 e9bc b314 28bd
00000110: 2cbb 643d 223d 653d 65a6 823d eb69 c8bb
00000120: f9f5 84bd 1029 9d3d dea7 acbc 0c42 a7bd
00000130: 3cea e83c be26 033e a292 31bd 4999 ac3d
00000140: 96aa 623d e3b3 c3bd cccf 40bd 7be7 9e3c
00000150: 9df1 003e 47a0 a6bc 64df e2bc 9239 363d
00000160: 8141 89bd 3cbb 5e3d 7da9 adbc c3d8 91bd
00000170: 16d8 fb3d 2519 dbbc 5b7a be3c 801b d93c
00000180: 5934 2f3d 7338 b2bc c338 b83c 65ec b6bd
00000190: 12e2 5dbd 94fb 8fbd 134e b7bd f284 4abd
000001a0: fbfe 963d 08b0 29bd 7da1 d93c 4b53 aabd
000001b0: 62d8 ae3c 4c57 243e 82ad 6dbd 578b 27be
000001c0: e4ea 8c3d bcf8 e93c 923b 57bd 5482 03bd
000001d0: c9ff 8fbd 94ff 22bd cd91 7f3c 65c0 2dbd
000001e0: d8b3 a2bc df81 26bd 396f 69bd 89c3 a9bd
000001f0: 9eed 003e 1693 84bd 4f75 01bd c831 73bd
00000200: 2ef9 003c 294d 53ba d0ab d0bd 34b1 d0bc
00000210: 3815 cabc 705c 803d d43a 303d 9243 6bbd
00000220: 39b0 1c3d 328c 273d 9cfb 50bd d076 02bd
00000230: bba9 733d 7ead 4b3c cbe2 803d e827 6c3d
00000240: 76ef da3b 7b66 8abd 347b 6fbc ddf9 38bc
00000250: 1b94 2bbd cb4f 1bbc 9caa 7f3d 0394 b5bb
00000260: 907c 4cbd 8d42 b1bc 2697 74bd b5e6 96bc
00000270: 1c41 863d e52d c2bd cb0b 8e3d aab0 a7bc
00000280: 411f e53c e9d0 3abd ba8d 873d bff9 133d
00000290: eb16 1c3d 042d 223d b763 e23d 8294 883d
000002a0: df54 8dbd 1630 473d e35c 16bd 9c03 0dbe
000002b0: b49f 863d fa95 d4bb f2bd ba3c e55c 95bc
000002c0: 660c c53c 97d4 61bd 593a 4fbd 3db9 133d
000002d0: 7989 93bd ff85 2bbd 5e7b ffbd 9a9f dabc
000002e0: 9e07 1a3e a6f1 c33c 1ef8 e23c e6a4 5fbc
000002f0: 6022 0dbd 655c 0bbc bcbf bc3d b07a 623c
00000300: e9ac 4b3d 0005 a73c 3fa5 8dbc ffd9 433c
00000310: 0e26 ebbd 978b 913d 02d2 d73c 75d8 873d
00000320: e2cb 873d 4284 d7bc c768 66bc d3b9 223d
00000330: d1ad b03c f9ba c9bd 8412 b23b 955e 09be
00000340: 0d1e 3e3d 8946 3c3d c5d6 98bc d829 74bd
00000350: c4ce cf3d 820d 5bbd aa21 84bc 1841 82bc
00000360: fa5a ad3a e595 bd3a ada4 3d3c 69ba 8f3d
00000370: 1687 e03c 6dbc 153d 4c15 0ebe 8449 643c
00000380: b32d 413b 0c6f 7cbd 56e0 54bd d232 893c
00000390: 0cc7 30bd 329e 10bd 9de9 163c ba95 ffbc
000003a0: 1434 a4bb bf95 c4bc dd38 cbbd 8d92 cabd
000003b0: ef80 7f3c 3196 c1bd 87e3 21ba dea4 e93c
000003c0: 326d 593d 3b4d 583b c0ff 0dbd 1beb 103d
000003d0: 38f7 93bd 46da b7bc 72f5 96bc 6342 3bbd
000003e0: 0eea 28bc 94d8 94bd 5356 553d ac1e f4bd
000003f0: c5c3 053c ea96 883d 6645 ecbc 69c0 c0bc
0.04258717 0.03815647 0.0014361982 0.05213213 -0.002006266 -0.09253521 0.01878504 0.006960696
-0.06052398 0.0040170257 0.029088728 -0.030610392 -0.026771903 0.13063961 0.10049515 0.04016696
-0.017603192 -0.07353786 -0.04952927 0.021689462 0.05653341 -0.017311167 0.059888225 -0.037203964
0.012266366 -0.041614454 -0.10882859 0.052131116 -0.055952277 -0.051539 0.04879162 0.05186836
-0.02723425 -0.059841547 -0.07947982 0.0016011216 -0.04529778 0.10055644 -0.03825999 0.103078224
-0.010313227 -0.009179757 0.05309983 0.058789592 -0.071602896 0.027149769 -0.02017472 0.09395966
0.0278799 -0.010627861 -0.049831454 0.13028008 0.09922551 0.002325337 -0.057310905 0.06179457
0.019014752 0.031261116 0.03145876 0.027378064 0.00929877 0.05785702 -0.08595101 -0.030263206
-0.06478327 0.0010034301 -0.028561538 -0.041035365 0.055842564 0.055966504 0.063793935 -0.006116142
-0.06492228 0.07673848 -0.021076139 -0.08166894 0.028432004 0.12807748 -0.04335273 0.08427674
0.055338465 -0.09555795 -0.04707317 0.019397488 0.12592168 -0.020340098 -0.027694412 0.044488497
-0.06701947 0.05437778 -0.021198982 -0.07121422 0.122970745 -0.026745388 0.023251703 0.02650237
0.042774532 -0.021755433 0.022488004 -0.089318074 -0.054170676 -0.070304066 -0.08950438 -0.049443193
0.073728524 -0.041427642 0.026566261 -0.08316668 0.021343414 0.16048926 -0.058026798 -0.16361748
0.06880739 0.028560989 -0.052547045 -0.032106712 -0.07031209 -0.03979452 0.015598726 -0.04241981
-0.019861147 -0.0406512 -0.056990836 -0.082892485 0.12590644 -0.06473367 -0.031606015 -0.059373647
0.007871909 -0.0008060509 -0.10189021 -0.025475122 -0.024668321 0.06267631 0.043024853 -0.057437487
0.038253997 0.040905185 -0.051021203 -0.03185159 0.05948804 0.0124315005 0.06293257 0.057655245
0.006681378 -0.06757828 -0.014616776 -0.011290041 -0.04188929 -0.009479473 0.062418565 -0.005541326
-0.04992348 -0.02163818 -0.05971446 -0.018420557 0.065553874 -0.0948141 0.06935843 -0.020469982
0.027969005 -0.04560939 0.06618829 0.03612685 0.038107794 0.03959371 0.11054175 0.066689506
-0.069009535 0.048629843 -0.036709677 -0.13770908 0.0657343 -0.006487605 0.022795651 -0.018232772
0.024053764 -0.055134382 -0.050592754 0.03606533 -0.07203955 -0.041875836 -0.12474702 -0.026687432
0.15041968 0.023918938 0.027706202 -0.013650155 -0.03445661 -0.008505915 0.09216258 0.013823196
0.049725447 0.020388126 -0.01729071 0.01195383 -0.11481868 0.07106703 0.026345257 0.06633083
0.066306844 -0.026308183 -0.014063067 0.039727997 0.021567257 -0.09850115 0.005434336 -0.13414986
0.046415377 0.045965705 -0.018657098 -0.059610218 0.10146859 -0.05347968 -0.016129334 -0.01590018
0.0013225966 0.0014464228 0.011574906 0.07017977 0.027408164 0.03655665 -0.13875312 0.013933543
0.0029476702 -0.06162934 -0.051971756 0.016747866 -0.043158576 -0.035307117 0.009210971 -0.031199325
-0.005011091 -0.023997186 -0.09922955 -0.098912336 0.015594705 -0.09452475 -0.0006175567 0.028520998
0.053082652 0.0033005017 -0.03466773 0.035380464 -0.072248876 -0.022442948 -0.018427584 -0.04571761
-0.010309709 -0.072678715 0.05208428 -0.11919913 0.008164351 0.066694096 -0.028841686 -0.023529248

advantage_stream.model.2.bias f4 [2]
00000000: 5dc2 ed3b 659d 393c
0.007255836 0.01132903
