logs/34-DuelingDQN-random-max-BC-simple-25_10_24_19-19-25/10/models/58000/DuelingDQN_checkpoint.pth (torch, 884427 bytes, 44 tensors)

feature_layer.model.0.weight f4 [128, 23]
1.8507577 0.26157278 0.34118262 1.9557076 3.3647594 4.8902135 3.7360547 5.023803
3.1272862 5.240192 3.0444677 2.503515 2.8267798 5.2133255 5.5791054 3.0199003
3.05437 4.6667113 5.1249185 3.558352 3.7346005 3.7426763 3.7588503 1.6937504
0.27603513 0.9810984 -0.40092942 4.412624 4.604307 4.563988 5.063086 4.5949574
4.580753 3.92574 3.8847234 4.1198287 4.3202314 4.1631765 4.244594 4.972261
3.7422545 4.372557 4.5254593 4.365177 4.5281096 4.6262207 1.758054 0.32916534
0.32001546 2.03305 3.1552334 5.0899463 3.7909315 4.592588 3.8040457 5.1724033
3.5363533 2.871294 2.9583738 4.7851076 4.880365 2.8968997 3.498384 4.451537
4.484204 3.9565005 4.0000753 4.0064845 3.9836156 1.8153963 2.5905356 1.7745327
-0.8049905 4.3693833 3.6607063 4.17451 3.5715 5.247115 3.4908168 4.8860006
4.866459 5.1932964 3.7567585 3.6733196 4.796524 4.570093 3.1505842 3.8858762
4.8326473 4.5826693 4.506626 4.7473187 2.174979 -0.11481581 0.39577293 2.165946
3.3281422 4.9793634 3.4030583 4.7811193 3.2525258 5.742085 3.2910504 2.6256683
2.7240689 5.490862 5.662982 2.9557912 3.1865122 4.742289 5.109438 3.5631785
3.9643474 3.9160776 4.1556144 1.662739 2.046086 1.5402039 -1.2713426 3.6283908
4.9545107 4.616603 4.8327456 3.8104763 4.59744 3.572886 2.9479167 3.6787336
3.8022354 4.435182 4.0643053 3.9410188 3.7946634 4.2817945 4.287008 3.7150197
4.3760033 4.548124 1.8077158 -0.6991833 0.33854222 2.3599787 3.840129 4.6309185
3.4436693 4.7860494 3.2787402 5.310698 3.315881 2.4650915 2.691217 5.1259265
5.264838 2.6998029 3.355393 4.465832 4.981225 3.7492077 4.069512 4.0535135
3.8100138 1.4422991 2.3343139 1.6673118 -1.248702 5.122643 4.881015 4.882276
4.925252 4.8095355 5.0746727 5.258946 4.8966746 5.0339203 5.2536497 5.044405
4.6898475 4.6949034 4.9993367 5.1518064 5.3894124 5.2360687 5.495635 5.3541636
-0.6933619 2.2443492 1.6824678 2.5534055 5.343194 4.654802 3.8601325 4.2197886
5.498309 3.61387 5.7290373 5.095034 5.1979527 4.1509237 4.1104155 4.3339596
4.699497 3.7622695 4.462928 5.7344375 5.3875046 5.1484027 5.2872157 -1.1157763
2.3538163 1.81016 2.7567346 4.9195876 4.0310426 3.8134217 3.7810316 5.8763733
3.529258 5.627019 5.050286 5.0207624 3.549276 3.738536 4.5191617 4.9119887
3.1222754 3.6966424 5.6381054 5.4129148 5.3487372 5.2905107 1.6766553 -0.7245842
0.55935997 2.1346533 3.9580073 5.2241583 3.7389195 5.0783415 2.8288314 5.82132
2.4887586 2.5773292 3.2811203 5.6589823 5.6485825 2.4160051 3.0201151 4.6620693
5.3162427 3.5382984 3.696768 3.9381726 4.0990396 1.9954339 -0.9414943 0.7834026
00000000: a1e5 ec3f deec 853e 7daf ae3e a054 fa3f
00000010: 3858 5740 a17c 9c40 851b 6f40 ffc2 a040
00000020: 7525 4840 a7af a740 8fd8 4240 9739 2040
00000030: f6e9 3440 90d3 a640 0888 b240 0c46 4140
00000040: cc7a 4340 b355 9540 55ff a340 0abc 6340
00000050: b203 6f40 0288 6f40 0191 7040 d0cc d83f
00000060: 7a54 8d3e 4429 7b3f 9f46 cdbe 3734 8d40
00000070: 7c56 9340 310c 9240 cd04 a240 e409 9340
00000080: 8795 9240 533f 7b40 4f9f 7840 a3d5 8340
00000090: 563f 8a40 be38 8540 b7d3 8740 c31c 9f40
000000a0: 1981 6f40 fdeb 8b40 90d0 9040 88af 8b40
000000b0: 46e6 9040 000a 9440 ea07 e13f 5c88 a83e
000000c0: 11d9 a33e 7e1d 0240 58ef 4940 d7e0 a240
000000d0: 9f9e 7240 7bf6 9240 7c75 7340 5484 a540
000000e0: 9d53 6240 48c3 3740 ff55 3d40 9a1f 9940
000000f0: f32b 9c40 ce66 3940 86e5 5f40 fe72 8e40
00000100: 997e 8f40 4e37 7d40 9e00 8040 1f35 8040
00000110: 8ff3 7e40 e85e e83f 56cb 2540 e323 e33f
00000120: db13 4ebf fdd1 8b40 0349 6a40 9695 8540
00000130: 7593 6440 5ee8 a740 8b69 5f40 1e5a 9c40
00000140: 08ba 9b40 7c2f a640 bb6e 7040 ab17 6b40
00000150: 207d 9940 343e 9240 2ca3 4940 32b2 7840
00000160: 0ca5 9a40 3aa5 9240 4836 9040 09ea 9740
00000170: db32 0b40 8d24 ebbd c0a2 ca3e dc9e 0a40
00000180: 4800 5540 f256 9f40 b5cb 5940 eefe 9840
00000190: 6229 5040 29bf b740 92a0 5240 f30a 2840
000001a0: 2557 2e40 24b5 af40 2637 b540 af2b 3d40
000001b0: d1ef 4b40 d5c0 9740 8480 a340 1e0b 6440
000001c0: deb7 7d40 04a1 7a40 cbfa 8440 a2d4 d43f
000001d0: 13f3 0240 6725 c53f 5bbb a2bf 8e37 6840
000001e0: 5a8b 9e40 36bb 9340 daa5 9a40 d8de 7340
000001f0: 3a1e 9340 2aaa 6440 abaa 3c40 5f70 6b40
00000200: d357 7340 03ed 8d40 ca0e 8240 a739 7c40
00000210: c4db 7240 7604 8940 2b2f 8940 e2c2 6d40
00000220: 3808 8c40 3b8a 9140 3b63 e73f adfd 32bf
00000230: 6855 ad3e e409 1740 acc4 7540 7c30 9440
00000240: 1465 5c40 5127 9940 e1d6 5140 3df1 a940
00000250: 6537 5440 0fc4 1d40 e63c 2c40 9707 a440
00000260: 8e79 a840 92c9 2c40 c2be 5640 19e8 8e40
00000270: 3266 9f40 05f3 6f40 7139 8240 62b6 8140
00000280: 44d7 7340 429d b83f 6665 1540 796a d53f
00000290: 78d5 9fbf b1ec a340 4631 9c40 9b3b 9c40
000002a0: aa9b 9d40 b7e7 9940 b863 a240 4949 a840
000002b0: 8fb1 9c40 e015 a140 e61d a840 c46b a140
000002c0: 3b13 9640 a63c 9640 91fa 9f40 99db a440
000002d0: 1176 ac40 e08d a740 3edc af40 4f55 ab40
000002e0: 2a80 31bf 6ba3 0f40 1b5b d73f ff6a 2340
000002f0: 72fb aa40 23f4 9440 690c 7740 8208 8740
00000300: 26f2 af40 a549 6740 4654 b740 850a a340
00000310: a155 a640 5ed4 8440 8688 8340 ccaf 8a40
00000320: 4862 9640 06c9 7040 4ed0 8e40 8380 b740
00000330: 7066 ac40 b7bf a440 df30 a940 c2d1 8ebf
00000340: eda4 1640 53b3 e73f 576e 3040 436d 9d40
00000350: 4dfe 8040 1a0f 7440 6cfc 7140 400b bc40
00000360: 5ddf 6140 8a10 b440 f19b a140 16aa a040
00000370: 5727 6340 2c44 6f40 f99c 9040 032f 9d40
00000380: 5cd3 4740 ca95 6c40 5c6b b440 9936 ad40
00000390: db28 ab40 dd4b a940 a49c d63f 5a7e 39bf
000003a0: 3732 0f3f 299e 0840 fe4f 7d40 4e2c a740
000003b0: 754a 6f40 c681 a240 930b 3540 4148 ba40
000003c0: d247 1f40 f6f2 2440 e0fd 5140 6216 b540
000003d0: 30c1 b440 d49f 1a40 9149 4140 ac2f 9540
000003e0: a91e aa40 7b73 6240 d997 6c40 050b 7c40
000003f0: 552b 8340 616a ff3f c505 71bf 138d 483f

feature_layer.model.0.bias f4 [128]
3.7961168 4.737855 3.9239702 4.3476324 3.9777524 4.225292 3.7756448 5.186166
5.214626 4.9878407 3.7695532 4.1961827 4.49394 3.9892821 4.195606 4.575818
3.8021536 4.655137 4.282886 5.1087875 4.423857 4.053809 5.134156 4.1448197
4.213466 3.7388108 4.601216 3.945089 4.4602227 4.2683954 4.0801573 3.9627774
4.506543 4.1121664 4.605224 4.9598103 4.1404276 5.1260147 4.900408 4.6477203
3.9568045 3.6954563 5.105943 5.1646175 4.0075927 4.856277 4.131806 5.3642592
4.8164115 4.198312 3.8549476 4.018209 3.5916085 3.8283358 4.1328416 4.0740066
3.738574 4.2517595 4.201856 3.9675763 4.6287374 5.1605062 3.453258 3.9455173
3.885286 3.8890107 4.220883 3.6295395 3.6864455 4.5798683 3.9478748 4.020684
5.101547 3.7896948 4.161085 3.841248 5.0125365 4.9734464 4.1707716 4.084947
3.930494 4.745176 3.683609 4.063138 4.862184 4.547262 4.1568823 4.102565
3.4390106 5.3384347 4.735056 4.03466 3.700938 4.2337623 4.0161805 4.2873588
4.1077704 4.050234 5.371121 3.9538343 4.789564 4.552307 3.5932286 4.0909104
0.0338528 4.946992 4.738665 5.5091414 4.421859 3.679438 4.4996696 4.6973867
4.098662 4.1185455 3.6976595 3.6044612 4.009356 3.7200663 4.1278763 4.71158
4.0686793 4.802143 4.0579243 3.4973269 -0.04644717 4.5193305 3.85231 3.925407
00000000: 94f3 7240 829c 9740 5422 7b40 ce1f 8b40
00000010: 7f93 7e40 9835 8740 2aa4 7140 12f5 a540
00000020: 37de a640 649c 9f40 5c40 7140 2147 8640
00000030: 5bce 8f40 6650 7f40 6842 8640 1a6d 9240
00000040: 7c56 7340 e2f6 9440 670d 8940 307b a340
00000050: 3d90 8d40 ceb8 8140 024b a440 5da2 8440
00000060: b7d4 8640 ad48 6f40 293d 9340 577c 7c40
00000070: 25ba 8e40 b296 8840 a690 8240 259e 7d40
00000080: 9a35 9040 de96 8340 ff5d 9340 c4b6 9e40
00000090: 627e 8440 5008 a440 24d0 9c40 20ba 9440
000000a0: 493c 7d40 5b82 6c40 e363 a340 8c44 a540
000000b0: 333e 8040 9f66 9b40 c137 8440 03a8 ab40
000000c0: 0b20 9a40 9258 8640 76b7 7640 2b95 8040
000000d0: eadc 6540 7403 7540 3d40 8440 435e 8240
000000e0: cc44 6f40 6a0e 8840 9b75 8640 c5ec 7d40
000000f0: 9e1e 9440 de22 a540 2e02 5d40 5b83 7c40
00000100: 87a8 7840 8de5 7840 7911 8740 604a 6840
00000110: b9ee 6b40 488e 9240 fba9 7c40 71a9 8040
00000120: df3f a340 5c8a 7240 9c27 8540 02d7 7540
00000130: b366 a040 7926 9f40 f676 8540 e3b7 8240
00000140: 378d 7b40 7bd8 9740 40c0 6b40 3a05 8240
00000150: 0397 9b40 2c83 9140 2e05 8540 3648 8340
00000160: c018 5c40 75d4 aa40 9485 9740 ef1b 8140
00000170: 2bdc 6c40 fb7a 8740 8d84 8040 0b32 8940
00000180: db72 8340 849b 8140 39e0 ab40 9f0b 7d40
00000190: 1c44 9940 80ac 9140 75f7 6540 bde8 8240
000001a0: 3ca9 0a3d c24d 9e40 25a3 9740 e34a b040
000001b0: de7f 8d40 ea7b 6b40 4bfd 8f40 fe50 9640
000001c0: 3d28 8340 20cb 8340 74a6 6c40 7eaf 6640
000001d0: a54c 8040 9115 6e40 9017 8440 43c5 9640
000001e0: 9f32 8240 28ab 9940 84da 8140 34d4 5f40
000001f0: 633f 3ebd 5b9e 9040 3f8c 7640 de39 7b40

feature_layer.model.2.weight f4 [128, 128]
3.3815947 3.301038 2.799324 1.5140353 3.178733 3.011317 3.30213 2.627576
2.3379548 2.3196046 3.675878 3.7705214 2.2567403 2.9717152 3.6644576 2.0309505
3.152064 2.0212014 1.9053253 2.1230073 2.0507822 3.2245598 2.222241 3.081719
2.895811 2.7229283 2.1416676 2.6316035 3.4934676 3.4878407 3.4929435 2.8462129
3.0902908 3.68188 2.1347642 2.147899 2.837201 2.4013946 2.289029 3.4315116
3.3893883 1.1173196 2.910488 3.406206 3.468699 2.0316505 3.5334911 2.2354941
2.0362267 1.6391416 3.4695206 3.6544833 1.2811713 3.4844825 3.6607897 3.9783533
2.8656256 3.213841 3.5745552 3.9594917 2.092508 2.1041205 1.1112875 3.4437594
3.6587863 3.243768 2.8795674 3.380027 3.4651177 2.014184 2.8211148 3.259692
2.308215 3.630415 3.0295658 3.5450659 2.0839417 2.1903896 3.6760917 3.1080997
3.5064845 2.2723203 3.859889 2.6784382 3.0725405 3.1650083 2.4358828 3.4504957
3.1853235 2.3089619 3.569889 3.6044033 1.415593 2.4188154 3.3882205 3.391727
2.817988 3.1818728 2.9905727 3.6516469 2.1633976 1.756117 3.032048 3.7605562
-0.0695274 2.14189 3.1965094 2.29586 1.7922908 2.6615787 2.4565659 2.317221
2.7575288 3.1934288 1.321603 3.2209425 3.2758737 2.8131905 2.624904 2.1381488
1.8662556 3.0264962 3.3125992 3.3513472 -0.0341188 3.5236428 3.1409762 3.5850637
3.7422407 3.272828 3.385948 2.582668 3.4494748 3.94364 3.5529358 3.3860397
2.5609574 2.4846385 3.8211129 3.728903 2.7137852 3.38298 3.548293 2.4449701
3.5905206 2.5326748 2.5163326 2.6587362 2.7298794 3.8010426 2.755399 3.348176
3.8101947 3.011363 2.5251608 3.1885781 3.670853 3.3676217 3.6604981 3.742629
3.4718733 3.656309 2.1610231 2.6599212 3.1742313 2.6393244 2.3569508 3.9208574
3.4832952 1.7133807 3.5167778 3.8189826 3.433874 2.3535016 3.8738222 2.73448
2.4021156 2.2830708 3.4646351 3.6291957 1.8986685 3.649216 3.6819284 3.8055918
3.2554243 3.3259072 3.4934227 3.7801611 2.5398712 2.4805975 2.149148 3.9410474
3.6408377 3.3882444 3.3435857 3.2235029 3.6848123 2.3087852 3.160892 3.323226
2.6050117 3.665684 3.6408246 3.560796 2.5049293 2.4629898 3.8006747 3.6449163
3.3790622 2.776162 3.7069447 3.249265 3.132226 2.8487885 3.8136692 3.520964
3.408781 2.7737465 3.3663723 3.5496728 1.9095424 3.9200225 3.4310615 3.411644
3.1445816 3.521555 3.2833972 3.5852745 2.6539714 2.4659033 3.3973672 3.6239197
0.04448753 2.5920968 3.2404282 2.8983352 2.300125 2.9911304 3.492743 2.46928
3.7623336 3.6584802 1.7265478 3.4969661 3.5852594 3.0937853 3.3752096 2.4530654
2.206256 3.2184262 3.403718 3.3195693 0.0022411281 3.1370401 3.4436564 3.7352598
00000000: 0c6c 5840 3544 5340 2028 3340 e9cb c13f
00000010: 5d70 4b40 6bb9 4040 1956 5340 352a 2840
00000020: 0da1 1540 6774 1440 9641 6b40 3950 7140
00000030: 6f6e 1040 9530 3e40 7986 6a40 18fb 0140
00000040: 6bbb 4940 5d5b 0140 b3e1 f33f 5adf 0740
00000050: 0440 0340 305f 4e40 3239 0e40 e23a 4540
00000060: f854 3940 7544 2e40 1511 0940 316c 2840
00000070: f994 5f40 c838 5f40 638c 5f40 5a28 3640
00000080: 53c7 4540 eca3 6b40 fa9f 0840 2d77 0940
00000090: b494 3540 73b0 1940 737f 1240 e39d 5b40
000000a0: bdeb 5840 5404 8f3f 6f45 3a40 47ff 5940
000000b0: 2aff 5d40 9006 0240 b824 6240 5612 0f40
000000c0: 8a51 0240 64cf d13f a00c 5e40 0ee3 6940
000000d0: 6cfd a33f c301 5f40 614a 6a40 579d 7e40
000000e0: 6966 3740 92af 4d40 83c5 6440 5068 7d40
000000f0: a7eb 0540 e9a9 0640 ab3e 8e3f 8e66 5c40
00000100: 8e29 6a40 e599 4f40 d54a 3840 5d52 5840
00000110: 7dc4 5d40 64e8 0040 258d 3440 cb9e 5040
00000120: cbb9 1340 b858 6840 68e4 4140 5ce2 6240
00000130: 4d5f 0540 582f 0c40 1645 6b40 1beb 4640
00000140: 3e6a 6040 b26d 1140 6c08 7740 886b 2b40
00000150: 81a4 4440 7f8f 4a40 81e5 1b40 ecd4 5c40
00000160: 57dc 4b40 08c6 1340 1079 6440 8bae 6640
00000170: 2732 b53f dfcd 1a40 9bd8 5840 0e12 5940
00000180: ea59 3440 cea3 4b40 8b65 3f40 95b4 6940
00000190: 1b75 0a40 71c8 e03f 130d 4240 f4ac 7040
000001a0: 6264 8ebd ba14 0940 9c93 4c40 5fef 1240
000001b0: c969 e53f 4e57 2a40 6038 1d40 594d 1440
000001c0: 5a7b 3040 2361 4c40 492a a93f ec23 4e40
000001d0: eaa7 5140 500b 3440 6dfe 2740 6ed7 0840
000001e0: 77e1 ee3f 1db2 4140 a001 5440 797c 5640
000001f0: 28c0 0bbd 5d83 6140 c105 4940 af71 6540
00000200: df80 6f40 0476 5140 5fb3 5840 6f4a 2540
00000210: 32c4 5c40 9964 7c40 4d63 6340 e0b4 5840
00000220: bae6 2340 5104 1f40 1d8d 7440 59a6 6e40
00000230: a8ae 2d40 bf82 5840 3c17 6340 647a 1c40
00000240: 17cb 6540 5817 2240 980b 2140 bc28 2a40
00000250: 58b6 2e40 4844 7340 7558 3040 8448 5640
00000260: 3bda 7340 2cba 4040 3c9c 2140 aa11 4c40
00000270: 41ef 6a40 1d87 5740 9a45 6a40 3c87 6f40
00000280: 2c33 5e40 f700 6a40 344e 0a40 263c 2a40
00000290: 9b26 4b40 b1ea 2840 48d8 1640 54ef 7a40
000002a0: 4fee 5e40 0f50 db3f e312 6140 366a 7440
000002b0: 97c4 5b40 c59f 1640 b4ec 7740 b801 2f40
000002c0: 43bc 1940 d51d 1240 95bc 5d40 be44 6840
000002d0: 9207 f33f c18c 6940 b7a4 6b40 d18e 7340
000002e0: df58 5040 aadb 5440 3d94 5f40 29ee 7140
000002f0: 408d 2240 1cc2 1e40 a48b 0940 1f3a 7c40
00000300: 7c03 6940 ffd8 5840 4ffd 5540 df4d 4e40
00000310: f7d3 6b40 23c3 1340 0e4c 4a40 bcaf 5440
00000320: 83b8 2640 919a 6a40 4503 6940 15e4 6340
00000330: c350 2040 a0a1 1d40 413e 7340 4f46 6940
00000340: 8e42 5840 a3ac 3140 953e 6d40 f5f3 4f40
00000350: 6476 4840 8d52 3640 2813 7440 7957 6140
00000360: 7829 5a40 1085 3140 a572 5740 d72d 6340
00000370: e36b f43f a6e1 7a40 8396 5b40 6058 5a40
00000380: d340 4940 2861 6140 2e23 5240 2375 6540
00000390: abda 2940 5cd1 1d40 776e 5940 4dee 6740
000003a0: 8e38 363d eae4 2540 2d63 4f40 537e 3940
000003b0: 3f35 1340 ae6e 3f40 1a89 5f40 af08 1e40
000003c0: 13ca 7040 8a24 6a40 85ff dc3f 4bce 5f40
000003d0: e474 6540 9400 4640 6f03 5840 06ff 1c40
000003e0: 4c33 0d40 b2fa 4d40 84d6 5940 d373 5440
000003f0: e4df 123b 44c5 4840 de64 5c40 7f0e 6f40

feature_layer.model.2.bias f4 [128]
2.5328772 3.032057 0.021747958 2.1111805 0.024607468 2.8483884 -0.13087124 -0.0042109923
3.0130894 -1.9395047 3.982812 2.789191 2.899702 2.4396756 2.677194 2.3749511
2.7983928 3.3944328 2.912818 -0.21554472 2.252728 2.350018 2.604947 2.764193
3.7539554 2.0593598 2.7446947 1.9440014 2.6644287 2.5665126 2.2373962 2.892919
0.044850845 2.3212717 2.5349433 2.1454704 -0.01889706 2.9000034 2.6992128 0.0041953735
3.585754 -0.033789195 2.9229946 -0.053357616 3.7679315 0.038593926 3.3019307 -0.024051052
-0.0795997 2.7204077 3.3561153 2.7969956 2.8835897 2.1566017 2.5414753 2.7743022
2.8353097 2.694867 2.652143 2.6517456 2.5270839 2.7797742 2.5498898 2.7824104
2.6824987 3.1396883 -0.13342267 2.8263617 2.5117497 2.3637626 -0.04745482 2.261625
3.1125395 2.9174118 2.4078896 -0.07674429 -0.15275173 2.5672061 2.5213163 2.7817264
-0.039809663 2.5153239 -0.028610276 -0.042151596 0.03226254 3.0127141 -0.004006795 2.5861995
3.3648152 0.061252996 0.061317503 -0.04828539 2.3285112 2.5873158 2.4871964 2.7299087
2.5687509 2.774326 2.1894882 2.9837444 0.07392653 3.0952904 0.0784624 2.53397
2.7069325 2.6698341 -0.23171414 2.8613706 3.873668 -0.06861409 2.7364497 2.8743312
2.1417594 2.7981477 2.403343 2.5548422 0.023587324 -0.032333653 2.0563962 3.4861538
-0.068439 2.8976762 2.3531594 -0.0021332607 2.4223676 -0.017245382 3.0104516 3.0448565
00000000: a91a 2240 390d 4240 c628 b23c 951d 0740
00000010: 9a95 c93c ff4b 3640 1c03 06be 5dfc 89bb
00000020: 75d6 4040 b141 f8bf 64e6 7e40 1b82 3240
00000030: b894 3940 a523 1c40 2657 2b40 33ff 1740
00000040: de18 3340 633e 5940 9c6b 3a40 c1b7 5cbe
00000050: b22c 1040 b266 1640 74b7 2640 8ae8 3040
00000060: ce40 7040 8dcc 0340 14a9 2f40 0ad5 f83f
00000070: 0086 2a40 be41 2440 8031 0f40 9625 3940
00000080: 85b5 373d b78f 1440 833c 2240 634f 0940
00000090: 02ce 9abc a899 3940 e7bf 2c40 5879 893b
000000a0: fe7c 6540 8a66 0abd 5812 3b40 848d 5abd
000000b0: ca25 7140 aa14 1e3d d552 5340 b606 c5bc
000000c0: 2b05 a3bd 291b 2e40 98ca 5640 fa01 3340
000000d0: bc8c 3840 c305 0a40 88a7 2240 2b8e 3140
000000e0: b775 3540 b378 2c40 b6bc 2940 33b6 2940
000000f0: bebb 2140 d2e7 3140 6531 2340 0313 3240
00000100: 0fae 2b40 a7f0 4840 f49f 08be 1ce3 3440
00000110: 82c0 2040 e347 1740 fc5f 42bd 77be 1040
00000120: d933 4740 e0b6 3a40 dd1a 1a40 1c2c 9dbd
00000130: f36a 1cbe 1b4d 2440 3f5d 2140 ce07 3240
00000140: 750f 23bd 11fb 2040 1960 eabc 27a7 2cbd
00000150: ba25 043d 4fd0 4040 6f4b 83bb 4b84 2540
00000160: 2259 5740 6ce4 7a3d 1028 7b3d e7c6 45bd
00000170: 5406 1540 9596 2540 3a2e 1f40 d3b6 2e40
00000180: 6a66 2440 8f8e 3140 9320 0c40 abf5 3e40
00000190: cb66 973d 3d19 4640 e5b0 a03d 912c 2240
000001a0: 623e 2d40 90de 2a40 7946 6dbe b220 3740
000001b0: 2dea 7740 8b85 8cbd fe21 2f40 0bf5 3740
000001c0: 9612 0940 da14 3340 5fd0 1940 8982 2340
000001d0: 343a c13c 4b70 04bd ff9b 0340 251d 5f40
000001e0: bf29 8cbd 8773 3940 2a9a 1640 2dce 0bbb
000001f0: 1208 1b40 3046 8dbc 3dab 4040 eede 4240

value_stream.model.0.weight f4 [128, 128]
0.0065826704 -0.041870154 0.07379599 0.041782834 0.032418095 -0.00048741803 -0.08795893 -0.05199191
0.0061725113 0.027569197 -0.076220244 -0.03537346 0.0020403434 -0.020677257 0.06588782 0.07061271
0.07164578 -0.07194929 0.012171875 0.07622506 0.046147283 -0.012576486 -0.024873946 -0.101719745
0.028954959 -0.081930004 0.07906988 -0.012796444 0.027318636 0.061809532 -0.031241769 0.0423806
0.02985493 -0.095629804 -0.04614629 -0.05452768 -0.0662885 0.046951 -0.009120479 -0.023492862
-0.1126093 -0.041147914 -0.025704158 0.087347366 0.038679995 -0.0033577755 0.04706407 -0.008114092
-0.0020952215 -0.026205366 -0.08152393 0.04744244 0.025748245 0.15911713 0.06757505 -0.07666444
-0.07972265 -0.009215953 -0.0558426 -0.024290098 0.08659664 -0.06963901 -0.05597863 -0.059636664
0.06008478 0.06958338 0.004341058 -0.0046864953 0.055843018 -0.019685863 -0.07134303 0.03838275
0.048890304 0.041726846 0.0066755298 -0.038780104 -0.1005432 -0.07681831 -0.05426191 -0.06060955
-0.061684232 0.080819964 -0.016010799 -0.074267395 0.026114509 -0.08262862 -0.046474684 -0.0893333
-0.0024033827 0.006321773 0.037836738 0.07830801 -0.016027031 0.046003416 0.047398727 -0.014966261
0.038005084 0.005418555 -0.09687582 -0.008956027 -0.083115175 -0.06983997 0.08146454 -0.016210675
-0.035272058 -0.062938794 -0.03452762 0.08116722 -0.08006102 -0.032128587 0.008748535 -0.044786736
-0.015498069 -0.060706045 -0.075710475 0.0310095 0.037292503 -0.08079445 -0.03524185 0.0040279035
-0.030471161 -0.024091294 0.04001328 -0.027163941 0.00042471022 -0.037345994 -0.039225627 -0.011020332
2.9780393 3.1215281 -0.024493089 2.1045818 0.04153294 2.9709404 -0.15441519 -0.066753425
3.3394353 -1.1785522 3.0750713 2.9926393 3.1525319 3.1619425 3.1461213 2.8521347
3.0438375 3.118745 3.2808547 -0.090178266 2.3599975 2.095819 3.044742 3.1705983
4.0478044 2.1663065 3.457126 1.8059464 3.1109529 3.2504902 2.4140174 3.4346004
0.06603192 2.2410927 2.9700804 2.7978048 0.051715 3.0163927 2.8944855 0.024956668
3.372329 0.052594047 3.3429985 0.05046215 3.7641292 -0.035851352 3.3270028 0.0002959243
-0.013356084 3.2146425 3.38274 3.4917052 3.1381528 3.0736766 2.85619 2.9922261
3.2348082 3.1423748 3.2961564 2.9209328 3.163134 3.0206368 2.9989989 3.2146318
3.5257773 3.305515 -0.09005307 3.1529868 3.0238965 3.0076883 -0.06743009 3.008921
3.3023531 3.2948039 3.208299 0.007032226 -0.02739289 3.146375 3.0835302 3.3178089
0.0763996 2.5960793 -0.034597326 0.07581501 -0.050001018 3.0160801 0.06717554 3.1836393
3.2779121 -0.042340744 -0.06423954 0.02388431 2.9835558 3.105343 2.9721086 3.0871258
2.9243782 3.1100364 2.24573 3.1162581 0.09702292 3.1741903 0.025770783 3.2158334
3.071396 3.0423152 -0.114483505 3.3947523 3.428586 0.0839322 3.2643628 3.1830287
2.5141988 3.1852922 3.1428812 2.9818537 -0.062785536 -0.0027161029 2.8637335 3.2776067
-0.015434958 3.140523 2.863342 -0.07121714 3.1769264 0.056125183 3.330778 3.1684566
00000000: 71b3 d73b 0a80 2bbd 5a22 973d 7a24 2b3d
00000010: d6c8 043d 248c ffb9 d023 b4bd 78f5 54bd
00000020: c742 ca3b ccd8 e13c 5c19 9cbd c3e3 10bd
00000030: 48b7 053b 5a63 a9bc 32f0 863d 669d 903d
00000040: 06bb 923d 265a 93bd 8b6c 473c e21b 9c3d
00000050: ef04 3d3d 9b0d 4ebc 72c4 cbbc 7152 d0bd
00000060: f332 ed3c ebca a7bd 64ef a13d 2da8 51bc
00000070: 55cb df3c fe2b 7d3d bdee ffbc 4897 2d3d
00000080: 5392 f43c 8fd9 c3bd e403 3dbd 6b58 5fbd
00000090: 44c2 87bd b14f 403d 106e 15bc 1a74 c0bc
000000a0: b49f e6bd b78a 28bd 8791 d2bc 2de3 b23d
000000b0: ea6e 1e3d 200e 5cbb 41c6 403d f8f0 04bc
000000c0: fc4f 09bb a3ac d6bc 05f6 a6bd 0153 423d
000000d0: fced d23c 9aef 223e ca64 8a3d 3f02 9dbd
000000e0: a145 a3bd 82fe 16bc 36bb 64bd 07fc c6bc
000000f0: 9459 b13d e69e 8ebd d949 65bd 9345 74bd
00000100: 751b 763d bb81 8e3d 6f3f 8e3b 2c91 99bb
00000110: a6bb 643d 3f44 a1bc 4b1c 92bd 3b37 1d3d
00000120: 3341 483d c5e9 2a3d 67be da3b e3d7 1ebd
00000130: 98e9 cdbd eb52 9dbd bd41 5ebd b841 78bd
00000140: 9ba8 7cbd f084 a53d 1429 83bc 8119 98bd
00000150: 18ee d53c 3239 a9bd 3d5c 3ebd 61f4 b6bd
00000160: 1282 1dbb e026 cf3b b2fa 1a3d f35f a03d
00000170: 1f4b 83bc 146e 3c3d 2b25 423d 0c35 75bc
00000180: 38ab 1b3d 228e b13b d466 c6bd 4dbc 12bc
00000190: 4a38 aabd 4208 8fbd e1d6 a63d 40cc 84bc
000001a0: 6f79 10bd 0ee6 80bd d56c 0dbd 003b a63d
000001b0: 08f7 a3bd 4499 03bd 0456 0f3c 4c72 37bd
000001c0: 9deb 7dbc e7a6 78bd 180e 9bbd a307 fe3c
000001d0: 06c0 183d 9077 a5bd c259 10bd 81fc 833b
000001e0: a89e f9bc 1b5b c5bc f7e4 233d ea86 debc
000001f0: a4ab de39 1df8 18bd 0dab 20bd 9f8e 34bc
00000200: 3298 3e40 1ec7 4740 bba5 c8bc 78b1 0640
00000210: 721e 2a3d e323 3e40 041f 1ebe 05b6 88bd
00000220: 4fb9 5540 ccda 96bf f8cd 4440 6787 3f40
00000230: 15c3 4940 445d 4a40 0d5a 4940 6089 3640
00000240: 3cce 4240 8599 4740 86f9 5140 62af b8bd
00000250: 330a 1740 e621 0640 0edd 4240 15eb 4a40
00000260: 9d87 8140 c4a4 0a40 8d41 5d40 4029 e73f
00000270: da19 4740 0808 5040 437f 1a40 7ed0 5b40
00000280: be3b 873d 106e 0f40 cc15 3e40 3c0f 3340
00000290: 1cd3 533d 940c 4140 403f 3940 ed71 cc3c
000002a0: 3dd4 5740 db6c 573d b0f3 5540 66b1 4e3d
000002b0: 7ee7 7040 ded8 12bd 9ded 5440 4a26 9b39
000002c0: 7ad3 5abc b4bc 4d40 d07e 5840 1978 5f40
000002d0: 7fd7 4840 1eb7 4440 d1cb 3640 a280 3f40
000002e0: 1907 4f40 ab1c 4940 3af4 5240 90f0 3a40
000002f0: ca70 4a40 1d52 4140 99ef 3f40 87bc 4d40
00000300: 56a6 6140 8f8d 5340 be6d b8bd 89ca 4940
00000310: 8587 4140 f77d 4040 c918 8abd 2992 4040
00000320: c159 5340 11de 5240 c554 4d40 966e e63b
00000330: 0e67 e0bc 355e 4940 8f58 4540 fb56 5440
00000340: 6577 9c3d 2a26 2640 edb5 0dbd e644 9b3d
00000350: decd 4cbd 7507 4140 5493 893d bfc0 4b40
00000360: 50c9 5140 7d6d 2dbd 0590 83bd 07a9 c33c
00000370: 94f2 3e40 f1bd 4640 0737 3e40 7893 4540
00000380: 0329 3b40 d60a 4740 0aba 0f40 c670 4740
00000390: f4b3 c63d ef25 4b40 401d d33c 37d0 4d40
000003a0: c191 4440 4bb5 4240 5476 eabd 9f43 5940
000003b0: f46d 5b40 a5e4 ab3d 52eb 5040 beb6 4b40
000003c0: a2e8 2040 d4db 4b40 f724 4940 b1d6 3e40
000003d0: b495 80bd a500 32bb 6947 3740 4fc4 5140
000003e0: e8e2 7cbc 54fe 4840 ff40 3740 4bda 91bd
000003f0: c352 4b40 85e3 653d 772b 5540 fec7 4a40

value_stream.model.0.bias f4 [128]
0.018788531 0.5748012 -0.038869698 0.86001205 0.73485506 -0.08656292 -0.09686231 0.691039
0.49446446 0.59766704 0.03427056 0.53286135 -0.016045393 -0.099074095 -0.0108991545 0.54514325
0.6100353 0.47739902 0.74210745 0.72681195 0.44389173 0.6436599 0.5315975 0.4562462
0.032361254 0.64888877 -0.08173562 -0.09360347 0.65233654 1.174408 0.48959038 0.44906446
0.82069415 0.023826985 0.6501826 0.014791267 -0.10237927 0.87889993 0.50609404 0.55156803
-0.009652496 -0.0955844 -0.11539908 -0.065644614 -0.04771059 1.0405552 0.8692762 0.07316335
-0.010072086 0.041827206 0.050746415 0.44549406 0.028960507 0.5851328 0.53422296 0.006170839
0.42761132 0.48593637 0.8031316 -0.09657876 0.8011651 -0.11063497 0.02887725 -0.08325139
-0.07484152 -0.04441712 0.63963705 0.6045365 0.47000927 0.5993927 -0.057879124 0.5515841
0.026243906 -0.05164372 0.001305372 -0.012523905 -0.059577957 0.5161691 0.6160388 0.66152394
-0.040079363 0.6739293 0.67687714 0.51959866 -0.038332283 0.015866106 0.027299318 -0.020648975
0.0044170585 0.06858888 0.515343 -0.01308558 0.020370033 0.6328388 0.9025747 0.016077109
0.027396677 0.4851232 0.50098777 0.65499204 0.66101307 0.42046568 0.51849604 -0.047878254
0.0625184 0.030417671 -0.13852611 0.051987458 -0.01608905 0.54869986 -0.056802828 0.6982833
0.4445084 0.7695153 -0.09271225 0.010923073 0.97008854 -0.0657585 -0.060453027 1.0495712
0.04686483 -0.038159214 -0.08505152 0.556228 0.45644358 -0.08533277 -0.009227422 -0.053298
00000000: 68ea 993c 2c26 133f d535 1fbd c029 5c3f
00000010: 761f 3c3f e647 b1bd bf5f c6bd efe7 303f
00000020: 722a fd3e b500 193f 495f 0c3d 9a69 083f
00000030: a171 83bc 5ce7 cabd 5e92 32bc 828e 0b3f
00000040: 462b 1c3f a56d f43e c1fa 3d3f 5910 3a3f
00000050: c745 e33e e5c6 243f c616 083f 1a99 e93e
00000060: 3c8d 043d 931d 263f 0165 a7bd 2db3 bfbd
00000070: 87ff 263f 0053 963f 97ab fa3e c7eb e53e
00000080: 0319 523f cf30 c33c 5e72 263f 1257 723c
00000090: 39ac d1bd 96ff 603f 618f 013f 9033 0d3f
000000a0: 8125 1ebc c1c1 c3bd 5a56 ecbd af70 86bd
000000b0: 2e6c 43bd ea30 853f e388 5e3f abd6 953d
000000c0: 6405 25bc 0153 2b3d 79db 4f3d cc17 e43e
000000d0: 963e ed3c 43cb 153f d6c2 083f c034 ca3b
000000e0: dfef da3e a7cc f83e 089a 4d3f 16cb c5bd
000000f0: 2819 4d3f 9694 e2bd fc8f ec3c b47f aabd
00000100: 8346 99bd baee 35bd 41bf 233f e7c2 1a3f
00000110: 0ea5 f03e cd71 193f a912 6dbd 9e34 0d3f
00000120: 76fd d63c 5e88 53bd 0419 ab3a 1131 4dbc
00000130: 0408 74bd a823 043f b8b4 1d3f a259 293f
00000140: 422a 24bd a186 2c3f d247 2d3f 6b04 053f
00000150: 5002 1dbd a3f9 813c d2a2 df3c 0a28 a9bc
00000160: f9bc 903b 5478 8c3d 85ed 033f e764 56bc
00000170: 0edf a63c b901 223f 230f 673f 24b4 833c
00000180: ff6e e03c 1162 f83e bc40 003f 8fad 273f
00000190: 2738 293f 4747 d73e 28bc 043f fd1b 44bd
000001a0: a609 803d 7b2e f93c cad9 0dbe cdf0 543d
000001b0: 2fcd 83bc 9877 0c3f 15aa 68bd b2c2 323f
000001c0: 9b96 e33e f4fe 443f ecdf bdbd b0f6 323c
000001d0: b957 783f 64ac 86bd 989d 77bd 5958 863f
000001e0: 56f5 3f3d d64c 1cbd 7e2f aebd f564 0e3f
000001f0: f9b2 e93e f3c2 aebd 9d2e 17bc 014f 5abd

value_stream.model.2.weight f4 [1, 128]
-0.0059688077 3.5439343 -0.01561372 3.6380403 3.9667945 -0.0718806 0.047808856 3.6026263
3.8422325 3.736829 -0.094401106 3.6512449 -0.047556337 -0.00066878385 -0.21891373 3.6972013
4.080171 3.702145 3.73619 3.7821906 3.5808918 3.8995605 3.6265962 3.635091
-0.03410982 3.527418 0.08368188 -0.06992179 4.0404296 3.7052357 3.5836303 3.7114542
3.594254 -0.46758774 3.6351428 -0.117923506 -0.050727457 4.196909 3.6297305 3.5886116
-0.3563225 -0.06256942 -0.11145925 -0.022984264 -0.05628192 3.6250095 3.9758177 0.050197132
-0.01842516 -0.001820331 -0.04238258 3.6304135 -0.58857673 4.413415 3.5487337 -0.009849919
3.6298907 3.6093414 4.1416583 -0.24860291 3.459783 -0.02763055 -0.03190774 0.0005339396
-0.008944307 -0.07543621 3.5646656 4.195885 3.6081016 3.6230376 0.00019442478 3.9365265
-0.12638925 -0.035560094 0.03709711 -0.60912997 -0.06162854 3.8519692 4.448295 3.563212
-0.09630869 4.3233495 4.4067 3.5740416 0.045342665 -0.0014187659 -0.0023226861 -0.5076077
0.024974734 0.049748816 4.0844283 -0.060712624 0.030029148 4.292422 4.245894 0.018356273
-0.037111335 3.7038693 3.5704405 3.7261806 3.8766222 3.6163778 3.6195793 0.020634092
-0.07997967 -0.06320368 -0.23411448 -0.3213397 -0.09782934 3.7102785 0.0034224626 4.0725
3.586495 4.000479 -0.8290142 -0.052034535 4.1301403 -0.29820427 -0.0049319095 4.2712197
0.007233372 -0.118115366 -0.29459524 3.5765357 3.8583822 -0.25024337 -0.046584792 -0.026349166
00000000: fd95 c3bb d2cf 6240 b0d0 7fbc a7d5 6840
00000010: f6df 7d40 2336 93bd 38d3 433d 6e91 6640
00000020: 23e7 7540 3528 6f40 5e55 c1bd ffad 6940
00000030: 6fca 42bd 5351 2fba ec2a 60be f29e 6c40
00000040: c390 8240 f2ef 6c40 bd1d 6f40 690f 7240
00000050: 552d 6540 6692 7940 271a 6840 55a5 6840
00000060: bdb6 0bbd 37c1 6140 6861 ab3d 2833 8fbd
00000070: 334b 8140 9522 6d40 335a 6540 7788 6d40
00000080: 4208 6640 a967 efbe 2ea6 6840 e181 f1bd
00000090: 98c7 4fbd 144d 8640 814d 6840 d0ab 6540
000000a0: e76f b6be 6524 80bd bf44 e4bd 7f49 bcbc
000000b0: df87 66bd 2800 6840 cc73 7e40 829b 4d3d
000000c0: 5cf0 96bc 2c98 eeba 5b99 2dbd b258 6840
000000d0: f7ac 16bf b23a 8d40 741e 6340 8e61 21bc
000000e0: 2150 6840 73ff 6640 7788 8440 c391 7ebe
000000f0: 166d 5d40 7759 e2bc b1b1 02bd 14f8 0b3a
00000100: 258b 12bc 4d7e 9abd 7b23 6440 b144 8640
00000110: 23eb 6640 d9df 6740 81de 4b39 0df0 7b40
00000120: 2f6c 01be 76a7 11bd 24f3 173d f1ef 1bbf
00000130: 356e 7cbd aa86 7640 6f58 8e40 aa0b 6440
00000140: 7e3d c5bd e158 8a40 b003 8d40 19bd 6440
00000150: 3bb9 393d e2f5 b9ba 3538 18bb 94f2 01bf
00000160: d097 cc3c 6ac5 4b3d a3b3 8240 cdad 78bd
00000170: b0ff f53c 855b 8940 5dde 8740 e55f 963c
00000180: 0e02 18bd 320c 6d40 1982 6440 be79 6e40
00000190: 941a 7840 bc72 6740 30a7 6740 d408 a93c
000001a0: 62cc a3bd ee70 81bd b5bb 6fbe a386 a4be
000001b0: c05a c8bd 3475 6d40 654b 603b ec51 8240
000001c0: 2289 6540 ed03 8040 463a 54bf 2a22 55bd
000001d0: 1c2a 8440 3bae 98be db9b a1bb d5ad 8840
000001e0: ec05 ed3b 78e6 f1bd 30d5 96be f6e5 6440
000001f0: bcef 7640 e61f 80be b2cf 3ebd 35da d7bc

advantage_stream.model.0.weight f4 [128, 128]
-0.07913563 -0.06848344 0.047466595 -0.07144606 0.04528637 0.052689247 -0.047895294 -0.037214514
0.0007869868 0.0052408203 -0.055232126 -0.08527751 -0.019666854 0.03332582 0.057667248 0.066662475
0.056032974 0.079284824 -0.096755154 -0.0729759 -0.045684364 -0.03690722 -0.08921998 0.041756324
-0.013375521 4.945811e-06 -0.010259312 0.013499774 -0.00840285 -0.012838848 -0.060275428 -0.0264474
0.029912904 -0.043988526 -0.08315992 -0.0633433 -0.040894832 -0.07175836 0.054548033 0.019651419
0.06905858 0.021416686 0.030537222 -0.0746072 -0.0037284717 0.077901594 -0.03317274 0.0026169717
0.050610058 -0.03295851 0.037023835 -0.07873633 0.06975375 0.029255217 -0.06759021 0.0569325
-0.015048015 -0.0592389 0.08226509 -0.0692438 0.006088421 -0.075138785 -0.019495565 0.005526202
-0.043747336 -0.091586255 -0.007318269 -0.0861127 -0.0036252514 0.0009750649 -0.061751045 -0.01679377
0.06087698 -0.0349148 0.058712564 -0.075663604 0.06406369 0.047515966 0.02050369 -0.05274881
0.020773023 -0.04953475 -0.010467716 0.072499014 0.01420726 0.01428888 -0.032259114 0.010579025
0.04135918 -0.043263223 -0.024555996 -0.03969599 -0.023590656 -0.046168953 -0.071784966 -0.06754248
0.039457224 -0.017534558 -0.06626354 -0.053384483 0.030562252 0.042480018 -0.08242157 0.06076712
-0.0032831733 -0.011088084 -0.059854813 0.025062244 -0.07911815 0.05712191 -0.040540557 0.065637074
-0.08142051 -0.033335283 0.017197467 -0.07143701 0.0039957315 -0.027712762 0.0683235 -0.0045741647
0.05203525 -0.0137927495 0.019709764 -0.033818882 -0.082753696 -0.010211125 -0.09713855 0.0032836422
2.1338756 2.0366023 0.029512329 0.7180912 -0.024575155 2.4082885 -0.42543146 0.054307766
2.6157043 1.0623837 2.177639 1.8892809 2.0670724 1.9401233 2.141066 1.5602425
2.206959 2.1100266 2.1038535 -0.1860317 1.3204794 1.3888803 2.2998793 2.2286735
1.664318 0.58427924 2.5802343 0.64480245 1.7547661 1.2514032 0.78240716 2.1347692
-0.03373349 0.7997155 1.665295 1.7984251 0.00606907 2.243046 2.2337599 -0.06417728
2.0408905 0.024079189 2.078153 -0.04116525 2.4797626 0.05143305 2.0491045 -0.06925591
0.014264229 2.309733 1.9084696 2.200085 1.9004116 2.0976176 2.340806 2.2829168
2.3077557 1.7990233 2.4315262 2.1205075 1.8821343 1.8361037 2.1762173 2.303985
2.9206195 2.0694897 -0.25628796 2.1804054 2.1044657 2.0270548 -0.08233238 1.8933558
2.2853186 2.1964772 2.1763554 -0.029048871 0.023590092 2.2354794 1.9270276 2.2504773
-0.031224657 1.2353406 0.0014617443 0.069192946 0.023846203 2.7088485 0.023437504 2.0810812
2.4246335 -0.021391403 -0.051134083 -0.036190193 2.0699325 1.6571219 2.019127 1.986025
1.924147 2.1555882 0.64865917 2.0442007 0.061509486 2.3459144 0.052739568 2.0593443
2.2431855 1.9635803 -0.112937346 2.0690696 2.6351268 -0.078872345 2.3450556 2.1549022
0.6870687 2.286859 2.3037026 1.6463529 -0.07285249 -0.03844643 2.042354 2.1806204
-0.028466064 2.1514735 1.4439565 0.0718053 1.4980592 -0.028992034 1.959671 2.1287544
00000000: dc11 a2bd 0c41 8cbd 556c 423d 5052 92bd
00000010: 337e 393d aed0 573d db2d 44bd 3f6e 18bd
00000020: ca4d 4e3a 30bb ab3b 153b 62bd faa5 aebd
00000030: 621c a1bc a880 083d 7e34 6c3d 5686 883d
00000040: d582 653d 1560 a23d 9127 c6bd 6374 95bd
00000050: 871f 3bbd 062c 17bd f7b8 b6bd ae08 2b3d
00000060: 0025 5bbc 31f4 a536 ac16 28bc 282e 5d3c
00000070: 1bac 09bc 085a 52bc 5ee3 76bd 38a8 d8bc
00000080: e80b f53c 502d 34bd c04f aabd 22ba 81bd
00000090: 5781 27bd 0cf6 92bd c26d 5f3d 03fc a03c
000000a0: 966e 8d3d 0c72 af3c 3229 fa3c a9cb 98bd
000000b0: 6059 74bb df8a 9f3d 24e0 07bd 8081 2b3b
000000c0: 7e4c 4f3d 81ff 06bd 4ea6 173d 8340 a1bd
000000d0: 0edb 8e3d a3a8 ef3c bc6c 8abd 0e32 693d
000000e0: f38b 76bc 7da4 72bd 997a a83d b2cf 8dbd
000000f0: 6181 c73b 5de2 99bd 2ab5 9fbc 2415 b53b
00000100: 6830 33bd 9391 bbbd 17ce efbb db5b b0bd
00000110: a095 6dbb 7f9b 7f3a aaee 7cbd 1793 89bc
00000120: 245a 793d d202 0fbd 967c 703d 85f5 9abd
00000130: d333 833d 1aa0 423d 5bf7 a73c 230f 58bd
00000140: 302c aa3c f3e4 4abd c880 2bbc 5d7a 943d
00000150: 91c5 683c e81b 6a3c 2222 04bd a653 2d3c
00000160: 3e68 293d c734 31bd a829 c9bc 4398 22bd
00000170: 3141 c1bc a81b 3dbd ff03 93bd b653 8abd
00000180: e69d 213d a2a4 8fbc 2eb5 87bd b0a9 5abd
00000190: b05d fa3c 87ff 2d3d a4cc a8bd f2e6 783d
000001a0: 822a 57bb ccaa 35bc 522a 75bd 564f cd3c
000001b0: b208 a2bd aaf8 693d db0d 26bd bb6c 863d
000001c0: ccbf a6bd 948a 08bd b4e1 8c3c 914d 92bd
000001d0: a0ee 823b e005 e3bc 31ed 8b3d e0e2 95bb
000001e0: ea22 553d fcfa 61bc 5f76 a13c ab85 0abd
000001f0: c57a a9bd 904c 27bc 93f0 c6bd 6032 573b
00000200: 6b91 0840 b157 0240 d7c3 f13c d3d4 373f
00000210: d651 c9bc 6621 1a40 27d2 d9be d271 5e3d
00000220: b367 2740 30fc 873f 705e 0b40 f5d3 f13f
00000230: ea4a 0440 f655 f83f 3a07 0940 07b6 c73f
00000240: d13e 0d40 ad0a 0740 89a5 0640 187f 3ebe
00000250: 7805 a93f d4c6 b13f 3931 1340 96a2 0e40
00000260: 5f08 d53f 5393 153f 8f22 2540 c611 253f
00000270: 2d9c e03f fb2d a03f d64b 483f 0fa0 0840
00000280: 212c 0abd 28ba 4c3f 6328 d53f cb32 e63f
00000290: 0ddf c63b 118e 0f40 ecf5 0e40 616f 83bd
000002a0: f39d 0240 b841 c53c 7500 0540 e59c 28bd
000002b0: 6eb4 1e40 76ab 523d 8724 0340 0bd6 8dbd
000002c0: 83b4 693c aad2 1340 bb48 f43f 31ce 0c40
000002d0: b040 f33f 5e3f 0640 c4cf 1540 4f1b 1240
000002e0: 45b2 1340 6546 e63f 209e 1b40 65b6 0740
000002f0: c7e9 f03f 7205 eb3f 2547 0b40 7e74 1340
00000300: 6eeb 3a40 8572 0440 2d38 83be c38b 0b40
00000310: 91af 0640 44bb 0140 e19d a8bd 7c59 f23f
00000320: a942 1240 1593 0c40 6849 0b40 e6f7 edbc
00000330: 0240 c13c 1812 0f40 d7a8 f63f d207 1040
00000340: daca ffbc a41f 9e3f 0098 bf3a 08b5 8d3d
00000350: 1d59 c33c c65d 2d40 0200 c03c 6f30 0540
00000360: 322d 1b40 063d afbc f971 51bd 2b3c 14bd
00000370: c679 0440 921c d43f 6039 0140 1136 fe3f
00000380: 734a f63f 28f5 0940 870e 263f 2fd4 0240
00000390: 5ff1 7b3d 7623 1640 7205 583d 4ccc 0340
000003a0: 5a90 0f40 9956 fb3f b24b e7bd a36b 0440
000003b0: eba5 2840 d387 a1bd 6415 1640 ebe9 0940
000003c0: bce3 2f3f e65b 1240 dd6f 1340 b1bb d23f
000003d0: b033 95bd 017a 1dbd eeb5 0240 498f 0b40
000003e0: aa31 e9bc beb1 0940 91d3 b83f a80e 933d
000003f0: 67c0 bf3f b480 edbc 80d6 fa3f 833d 0840

advantage_stream.model.0.bias f4 [128]
-0.054567568 0.09607608 -0.07527787 0.07122587 -0.095180474 0.009498756 -0.050332125 0.020823179
-0.07954696 0.03828287 -0.13684635 -0.027195986 0.07512808 0.05862093 0.026778454 -0.15048124
0.014727336 -0.034758747 0.10118112 0.0728991 -0.07366184 0.072593935 -0.054074325 0.005643249
-0.1626211 -0.008360224 0.054768413 0.016747396 -0.02778105 0.15650602 -0.040209617 -0.0072484803
-0.06268618 0.029383007 -0.017457006 0.073770575 0.07762492 0.0706255 0.0043243445 0.18228516
0.015843233 0.033432268 -0.043141913 -0.07552426 -0.09056784 -0.049648795 0.03940165 -0.06410203
0.03219774 -0.05606587 -0.13569404 -0.11639978 -0.056020867 -0.051836386 0.041982573 -0.04935204
-0.09531135 0.13035697 -0.1177392 -0.08218369 -0.008175618 -0.03273255 -0.07181962 -0.08241627
0.092802666 -0.051051598 0.1735625 0.009483684 -0.1321864 -0.13898015 0.07884295 -0.019170059
0.028080927 -0.007510711 -0.006683077 0.11068344 -0.1015543 -0.010800033 -0.045636706 0.006010166
-0.06424545 -0.04468669 0.032621592 0.005305316 0.057035018 0.08723887 -0.021944797 0.019632185
0.07763906 0.043250225 -0.018931024 0.05723056 -0.004496532 -0.037615545 -0.11184337 -0.02920108
-0.03527052 -0.016233409 0.001515685 0.033895068 0.053734716 -0.031917088 -0.07262632 -0.040922385
-0.09021912 0.114102624 -0.12587172 0.033079688 0.07599291 0.07698967 0.014014978 -0.083754085
-0.082586154 0.0022405793 0.15077788 0.13420135 0.032143872 0.017745567 -0.0047552953 -0.05129837
-0.012088049 -0.060423736 0.022821063 0.07772716 0.07244976 -0.005098128 -0.054608725 -0.05980092
00000000: 3e82 5fbd 89c3 c43d 492b 9abd dede 913d
00000010: fbed c2bd aca0 1b3c 0f29 4ebd 5f95 aa3c
00000020: 84e9 a2bd 80ce 1c3d 7321 0cbe 1eca debc
00000030: c0dc 993d 801c 703d 7d5e db3c c117 1abe
00000040: ed4a 713c 305f 0ebd 0c38 cf3d 204c 953d
00000050: 05dc 96bd 21ac 943d 0a7d 5dbd 01eb b83b
00000060: 2586 26be 52f9 08bc d854 603d d631 893c
00000070: 1695 e3bc 1d43 203e d7b2 24bd a984 edbb
00000080: 9d61 80bd a2b4 f03c ff01 8fbc 0715 973d
00000090: d0f9 9e3d 1aa4 903d 3bb3 8d3b f6a8 3a3e
000000a0: abc9 813c 46f0 083d 93b5 30bd 77ac 9abd
000000b0: a27b b9bd 895c 4bbd a063 213d ed47 83bd
000000c0: c7e1 033d 53a5 65bd 61f3 0abe 0263 eebd
000000d0: 2376 65bd 6452 54bd ebf5 2b3d 5d25 4abd
000000e0: 9932 c3bd 4c7c 053e 4021 f1bd ec4f a8bd
000000f0: 07f3 05bc 9112 06bd 2a16 93bd ddc9 a8bd
00000100: 530f be3d 7b1b 51bd 5eba 313e 7461 1b3c
00000110: df5b 07be d050 0ebe 6a78 a13d 870a 9dbc
00000120: f909 e63c 691c f6bb b7fd dabb 00ae e23d
00000130: b3fb cfbd 9ff2 30bc 8eed 3abd edf0 c43b
00000140: 1e93 83bd 6409 37bd 389e 053d 37d8 ad3b
00000150: 8d9d 693d 4baa b23d 93c5 b3bc add3 a03c
00000160: 3a01 9f3d 2627 313d 3c15 9bbc 976a 6a3d
00000170: a557 93bb c212 1abd 230e e5bd 1a37 efbc
00000180: d277 10bd edfb 84bc f3a9 c63a 8ed5 0a3d
00000190: ef18 5c3d 7ebb 02bd 1cbd 94bd 3b9e 27bd
000001a0: cdc4 b8bd a3ae e93d 84e4 00be 917e 073d
000001b0: 2ca2 9b3d c3ac 9d3d 149f 653c 4387 abbd
000001c0: ee22 a9bd afd6 123b 8465 1a3e 146c 093e
000001d0: 4ba9 033d 275f 913c 4fd2 9bbb 3d1e 52bd
000001e0: f40c 46bc e17e 77bd 3df3 ba3c 6b2f 9f3d
000001f0: 8a60 943d 330e a7bb 66ad 5fbd cff1 74bd

advantage_stream.model.2.weight f4 [10, 128]
0.0021640526 -0.9011914 -0.83070445 -1.0898279 -1.0646554 -0.368205 -0.9951816 -0.74282974
-0.39217454 -0.93200356 -0.937658 -0.9357887 -0.25097013 -0.76461005 0.06334521 -1.0074552
0.028471358 -0.059348803 -0.1120209 -0.90797764 -1.192422 0.071677454 0.04317382 -0.9598261
-0.8923412 -0.3220996 -0.36052993 -1.0993426 0.072169006 -0.7629911 -0.074475504 -1.0678451
-0.25386578 -1.1791337 0.07582539 -0.37182668 -1.0194336 -0.83131516 -0.39069182 -0.7642177
-0.12673607 -0.90917575 -0.717329 -1.2749474 0.013166364 -0.19411243 -1.1603379 -1.3072386
-1.1164651 -0.93748194 -0.9709922 -0.77903444 -0.9373273 -0.07018349 -0.079698004 -1.0509651
-1.0039257 -0.36058855 -0.5936335 -0.10350816 -0.27160624 -0.7160511 -1.0708379 -0.5373353
-0.21417722 -0.8956074 -0.9753226 0.0016815915 -0.44087481 -0.91004115 -0.31456643 -0.9668312
-0.8537844 -1.064684 -0.38478386 -0.22625086 -0.85889596 -0.97808707 0.07190097 -0.7975958
0.017480733 -1.0377965 -0.060853098 -1.0115324 0.014251592 -0.9671608 -0.97627425 -0.9448071
-0.17816664 -0.83189076 -0.2995768 -0.9354941 -0.10559103 0.07830738 -1.0340168 -1.0902785
-0.13087584 -0.9103855 -1.0168098 -0.8177317 -0.0035430272 -0.46375656 -0.8937619 -0.8148706
0.07015328 -0.9560753 -0.99351406 -0.9966202 -0.9817183 -1.0181077 -0.92059463 -0.9492528
-0.44184613 -0.013950983 -0.9713614 -0.81585413 0.046038143 -1.0292127 -0.91727924 -0.3173907
0.012317759 -1.0514084 -1.2029645 -0.5214458 -1.0260714 -0.18146239 -1.1940258 0.022353416
-0.05287215 -1.1425165 -0.99133515 -1.4183345 -1.281769 -0.5637519 -1.1853645 -0.9752975
-0.43024945 -1.2181886 -1.025903 -1.1803247 -0.06651225 -0.90527695 0.016345914 -1.1362077
-0.020127812 -0.04742021 -0.31170082 -1.1063002 -1.088191 -0.086769894 -0.04888908 -1.2345552
-1.0856427 -0.31662408 -0.3518484 -1.2531828 0.074597135 -1.2786905 -0.045800705 -1.2596111
-0.69802445 -1.1509793 -0.031199995 -0.82615614 -1.0239557 -1.1214203 -0.6336592 -0.7183966
-0.4986053 -1.1022223 -0.59901774 -1.1667846 -0.04596583 -0.5245631 -1.5643904 -1.243077
-1.0904576 -1.1201636 -1.1516505 -1.2860343 -1.1303493 0.066126674 -0.23669684 -1.2099676
-1.4800241 -0.73462003 -0.1907453 0.023184108 -0.40629596 -1.2407247 -1.2130654 -0.4641198
-0.2643864 -1.2445121 -1.2233497 0.040317997 -0.49207056 -1.1354165 -0.3135253 -1.3071368
-1.3828603 -1.1833819 -0.31319606 0.40347278 -1.1279336 -1.1564735 -0.05634262 -1.1887791
-0.0070551597 -1.0621265 -0.04840712 -1.1831241 -0.038857065 -1.0758313 -1.3817011 -1.0902512
-0.22790504 -1.2553902 -0.29360494 -1.4294627 7.883302e-05 -0.026920445 -1.2563398 -1.5917336
-0.24153712 -0.95837355 -1.1025848 -1.3749801 -0.0030604932 -0.54813933 -1.282874 -1.1218141
0.06551662 -1.0963173 -1.1315466 -1.1459321 -1.3249255 -1.2622072 -1.1026258 -1.1600268
-0.6274053 -0.075248264 -1.464786 -1.280428 -0.097527765 -1.2405539 -1.1744956 -0.2711292
-0.03205836 -1.1671906 -1.387585 -0.5466768 -1.2464075 -0.15841326 -1.1733879 0.028983796
00000000: c7d2 0d3b 7bb4 66bf 0ca9 54bf 7b7f 8bbf
00000010: a146 88bf 5e85 bcbe 39c4 7ebf 172a 3ebf
00000020: 1acb c8be c997 6ebf 5b0a 70bf d98f 6fbf
00000030: 287f 80be 7cbd 43bf 22bb 813d 4bf4 80bf
00000040: c43c e93c bb17 73bd 376b e5bd 3971 68bf
00000050: 49a1 98bf a1cb 923d 08d7 303d 2ab7 75bf
00000060: 7970 64bf 3dea a4be 6197 b8be 42b7 8cbf
00000070: 58cd 933d 6253 43bf 9d86 98bd 26af 88bf
00000080: b2fa 81be daed 96bf 584a 9b3d 1160 bebe
00000090: cd7c 82bf 12d1 54bf c208 c8be c5a3 43bf
000000a0: 1ac7 01be bebf 68bf e0a2 37bf 7a31 a3bf
000000b0: bcb7 573c 69c5 46be f485 94bf 9853 a7bf
000000c0: 54e8 8ebf d1fe 6fbf f292 78bf cd6e 47bf
000000d0: aff4 6fbf 5dbc 8fbd b538 a3bd 0686 86bf
000000e0: a380 80bf 109f b8be 5df8 17bf 16fc d3bd
000000f0: f90f 8bbe 204f 37bf 3711 89bf ce8e 09bf
00000100: 4651 5bbe 8746 65bf beae 79bf d968 dc3a
00000110: 58ba e1be 75f8 68bf da0e a1be 4082 77bf
00000120: 9d91 5abf 9147 88bf 6402 c5be 4eae 67be
00000130: 9be0 5bbf ea63 7abf d140 933d 3d2f 4cbf
00000140: c133 8f3c 84d6 84bf 1941 79bd e579 81bf
00000150: 827f 693c da97 77bf 1ced 79bf e1de 71bf
00000160: 5171 36be cbf6 54bf 2162 99be 8b7c 6fbf
00000170: 1c40 d8bd 9f5f a03d aa5a 84bf 3f8e 8bbf
00000180: 5104 06be 060f 69bf d326 82bf dd56 51bf
00000190: 2232 68bb 8071 edbe 94cd 64bf 5c9b 50bf
000001a0: 86ac 8f3d 5ac1 74bf f056 7ebf 8022 7fbf
000001b0: e451 7bbf 5a51 82bf 17ac 6bbf 3b02 73bf
000001c0: a839 e2be aa92 64bc 24ab 78bf d1db 50bf
000001d0: 7e92 3c3d 3ebd 83bf d0d2 6abf 0981 a2be
000001e0: 6dd0 493c 8d94 86bf befa 99bf 797d 05bf
000001f0: 4f56 83bf 47d1 39be d6d5 98bf 831e b73c
00000200: 7890 58bd fb3d 92bf 24c8 7dbf fc8b b5bf
00000210: 0211 a4bf 0b52 10bf 06ba 97bf 19ad 79bf
00000220: a849 dcbe 9bed 9bbf ca50 83bf e114 97bf
00000230: 9337 88bd 3bc0 67bf dee7 853c 416f 91bf
00000240: 15e3 a4bc b23b 42bd 4097 9fbe 3f9b 8dbf
00000250: d849 8bbf 6ab4 b1bd ea3f 48bd e805 9ebf
00000260: 57f6 8abf 8d1c a2be 7925 b4be 4b68 a0bf
00000270: 62c6 983d 21ac a3bf 8599 3bbd f03a a1bf
00000280: bbb1 32bf 4a53 93bf 2297 ffbc f87e 53bf
00000290: fb10 83bf b38a 8fbf 7d37 22bf d7e8 37bf
000002a0: 3249 ffbe 9f15 8dbf 3a59 19bf 3359 95bf
000002b0: ab46 3cbd c449 06bf f23d c8bf 261d 9fbf
000002c0: 1d94 8bbf 8561 8fbf 4969 93bf c69c a4bf
000002d0: 49af 90bf 6c6d 873d a860 72be 38e0 9abf
000002e0: 6e71 bdbf 0f10 3cbf bc52 43be 99ec bd3c
000002f0: 0606 d0be 11d0 9ebf ba45 9bbf 1ca1 edbe
00000300: a75d 87be 2c4c 9fbf b996 9cbf 7c24 253d
00000310: acf0 fbbe 5455 91bf 6386 a0be 4250 a7bf
00000320: 9101 b1bf 0f79 97bf 3c5b a0be fc93 ce3e
00000330: 2160 90bf 5307 94bf 85c7 66bd ea29 98bf
00000340: f82e e7bb c3f3 87bf 8b46 46bd 9c70 97bf
00000350: 9628 1fbd d7b4 89bf 95db b0bf 5a8d 8bbf
00000360: f05f 69be a0b0 a0bf 6353 96be a2f8 b6bf
00000370: 2853 a538 4488 dcbc becf a0bf edbd cbbf
00000380: 8255 77be f857 75bf 8021 8dbf 59ff afbf
00000390: 8e92 48bb dc52 0cbf 3735 a4bf 9b97 8fbf
000003a0: 942d 863d 2054 8cbf 85d6 90bf e7ad 92bf
000003b0: 2997 a9bf 0190 a1bf d822 8dbf c27b 94bf
000003c0: a29d 20bf c31b 9abd 1c7e bbbf 11e5 a3bf
000003d0: a3bc c7bd 78ca 9ebf df55 96bf 72d1 8abe
000003e0: a04f 03bd 8066 95bf 639c b1bf 03f3 0bbf
000003f0: 488a 9fbf 1637 22be 9331 96bf 6d6f ed3c

advantage_stream.model.2.bias f4 [10]
-0.104950264 -0.10987383 -0.029649645 0.034971163 -0.014445092 0.014878791 0.06497454 -0.009210119
-0.1943722 -0.007365934
00000000: 2af0 d6bd 8805 e1bd d0e3 f2bc ec3d 0f3d
00000010: 1bab 6cbc 2cc6 733c 5f11 853d 0ae6 16bc
00000020: 8209 47be ef5d f1bb
