logs/31-DuelingDQN-random-max-POM-G0-resumed-25_10_24_18-14-04/10/models/121000/DuelingDQN_checkpoint.pth (torch, 833227 bytes, 44 tensors)

feature_layer.model.0.weight f4 [128, 4]
00000000: a2fb c0bd f66e a2bd f351 27be 094f 033d
00000010: 759e 93be 0fd0 2cbe 32a6 8bbd 5555 2dbc
00000020: ccf1 0cbd 16ef 01be 2c52 603c 65bd 4dbd
00000030: 6b5c bfbd 1b5f f0bd d100 aabd 9073 efbc
00000040: 2c23 2bbe e384 b9bd 6bf7 643d 6635 10bd
00000050: c025 44bd 1a8d e2be e0d3 dcbe 385d e6be
00000060: 227e fabe ea6c eebe 94ef c1be 50e5 e6be
00000070: 6831 96be d4b1 89bd 709f dabc 1eae 79bc
00000080: 1a6b 22bc 8982 39bd 9dce 8a38 5868 b6bd
00000090: 1f7c 83bb 579f b7bd 2bbd a23a 1390 bcbc
000000a0: 7af0 1bbd 9124 d73c c067 b7bd 3aad b0bd
000000b0: f99e 17bd 84cc 24be 0125 b5bd da49 4e3d
000000c0: 1059 4bbe aa63 fcbd 518e c8be 4f05 ce3d
000000d0: 3cb9 7ebe a1dd 35be 0de4 1bbe 1fed b23a
000000e0: 3d23 a8bd 63bb 9ebd 19a7 8bbb 12ed 173c
000000f0: 7a05 e5bd 4397 56bf 893c a6bd 0c8e bc3b
00000100: 24da 28bd 7acb 133e ed9a 0abd 698e cdbd
00000110: 8d00 debd 12e2 8a3d e3b1 3f3e eb95 36be
00000120: b358 acbe 6648 c83b 0eda 1abe a0eb 74be
00000130: 0afe 83bf 395c 51bb d0e3 36be 75e9 1cbe
00000140: be4f 1ebe 3425 e4bd 5949 2b3d 1369 debd
00000150: 7253 d53d fb23 8cbd b64a bfbd 301c 3d3e
00000160: 9e43 a8be 72a4 bfbe 72cf 81be 3785 853e
00000170: 7ce3 6037 cdb6 9abe b6ee 41be be0f 40be
00000180: 9c47 05be 4cfc 693d 5d97 4fbe 23a5 eebd
00000190: 6cee dcbc 0318 5e3d 988f ca3d bb5b ddbc
000001a0: 545a 13be 8066 363c 1bd1 32bd cb39 2cbd
000001b0: 75bc 29be 5a7f 0abe c6b1 7fbd 4980 3abb
000001c0: 0631 1a3d ee3f 94be b031 ccbd f291 7bbe
000001d0: 4977 33bd 9eb5 1fbe c358 abbc cf53 443e
000001e0: 6565 6c3e 3d28 b9bd 1128 b7bd ffc7 f8bd
000001f0: c239 413e bf0f 3fbe 2034 efbd d8b8 90bd
00000200: e9db 06bf bdb9 90bd 831a 90bd 9244 173c
00000210: e8cf f3bd 18a7 95bd e0c1 9abe 5805 a9be
00000220: c9d0 a13c 0e10 f93d be23 68be 0aaf d3be
00000230: afac 8ebe 3ac2 803e 78fb b1bc 876e 63be
00000240: 2dea 23bd 88e5 02bd d221 083e 6dc7 9abd
00000250: 7675 0a3b 8caa 08be 9745 7ebf 9b2c bdbd
00000260: 5c84 77be 0063 00bd b81e e2bd 4c0f cfbe
00000270: a719 d0bd 2ebb 233d d3f5 d1bc 591e 50be
00000280: debc f1be 08b8 ccbe 0037 57bd 0078 54bd
00000290: 3c59 68be 241e d03c 34f4 2fbe 841d 0cbe
000002a0: 485b 36be 307d d7bd fdc5 0bbe 978a 7ebc
000002b0: 47b3 21bc bf39 abbe 1e93 ac3e d7c8 b6be
000002c0: 6f43 7e39 57a4 dcbd 9fc8 80bc ec49 f3bc
000002d0: 9293 82bd ea1d 91bd a17a a13d 112e 1c3d
000002e0: b9ec b8bd a65b b2bd de0b 78bd f7ee 43b9
000002f0: c0fd 4a3d b440 7d3d 75f9 ba3b 71ff 3ebd
00000300: 72fe cfbe 18d7 4dbe 8c68 1c3e 7118 00bf
00000310: df14 51be c6fc 833e 8fd2 84be b5a0 83be
00000320: ca24 21be 1725 e63c 7fbc 3e3b bf1f 6d3d
00000330: 6540 bfbd cd84 1bbe f49f 093e 5302 25be
00000340: 2523 6dbe e2b0 903c 2084 3f3d 48a8 b0be
00000350: 47c5 0cbf f93c 503c bab8 953c 3968 5ebb
00000360: 7402 15bb 38d5 8f3b 62b6 d6be 27f2 4e3c
00000370: 2c16 8f39 ff08 a3bd 7491 39be ab48 b2bd
00000380: ba10 aabb 0f9c edbd 5925 ed3d 5090 033c
00000390: 6848 e037 5508 ffbc 085b 65be 91fa 82be
000003a0: 28d3 8ebd 00af 4ebd efc4 233a d492 3bbb
000003b0: e54f 583c acb9 00bd 3d68 bcbd 6a42 e9bb
000003c0: d49c 40be 0365 93ba a6b4 80bd 1ea4 73bd
000003d0: fb2f 89bd 6416 b73d 8a5f 0ebd 7ac7 a4be
000003e0: 97b4 c1bc 9ee7 423e 68b0 21be 5464 06be
000003f0: 6725 143d 05e6 15bc 467b 94bd 87b6 2abc
-0.09422995 -0.0793132 -0.16339855 0.032057796 -0.2883183 -0.16876243 -0.068188086 -0.010579427
-0.034410283 -0.1268886 0.013691466 -0.05022945 -0.09343799 -0.1173689 -0.08300937 -0.02922991
-0.16712636 -0.09058549 0.05590002 -0.035207175 -0.047887564 -0.44248277 -0.43130398 -0.44992995
-0.48924357 -0.4656747 -0.37878096 -0.45096827 -0.2933457 -0.06723371 -0.026687354 -0.015239267
-0.00991323 -0.045290504 6.6188375e-05 -0.08906621 -0.004012599 -0.089659385 0.0012415996 -0.023017919
-0.038071133 0.026262553 -0.089553356 -0.0862679 -0.037016843 -0.16093642 -0.088449486 0.0503634
-0.19858193 -0.12323697 -0.3917108 0.10059606 -0.24875349 -0.17760326 -0.15223713 0.001365099
-0.08209846 -0.07750585 -0.004261863 0.009272831 -0.11182685 -0.8382456 -0.08117015 0.005754238
-0.04122366 0.14433089 -0.033839155 -0.10036928 -0.10839949 0.06781401 0.18720202 -0.17830627
-0.33661422 0.006112146 -0.15122244 -0.23918009 -1.0311902 -0.0031945838 -0.17860341 -0.15323432
-0.15460107 -0.111399084 0.041817997 -0.10859885 0.104163066 -0.068428 -0.09340422 0.18467784
-0.32864088 -0.3743015 -0.2535358 0.26078197 1.3404406e-05 -0.3021759 -0.18938717 -0.18756005
-0.13015598 0.057125375 -0.20272584 -0.11652591 -0.026969157 0.054222118 0.098906696 -0.02702128
-0.14389926 0.011132836 -0.04365645 -0.042047303 -0.16575797 -0.13525143 -0.062425397 -0.0028457812
0.03764441 -0.28955024 -0.09970415 -0.24567392 -0.04381493 -0.15596625 -0.020916348 0.19172595
0.23085554 -0.09040878 -0.08943189 -0.12147521 0.18869689 -0.1865835 -0.11679864 -0.07066506
-0.52679306 -0.07066677 -0.07036307 0.009232657 -0.11904889 -0.07307261 -0.3022604 -0.3301189
0.019752877 0.12161265 -0.22669885 -0.41344482 -0.27866122 0.25148183 -0.021726355 -0.22210132
-0.04001825 -0.03195718 0.13294151 -0.07557569 0.002112714 -0.13346308 -0.99324936 -0.092370234
-0.24171585 -0.031344414 -0.110410154 -0.40441358 -0.10161143 0.03997343 -0.025629913 -0.20324077
-0.47214407 -0.39984155 -0.052542686 -0.051872253 -0.2269029 0.025404997 -0.17183 -0.13683134
-0.17808259 -0.105219245 -0.13649745 -0.015535972 -0.009869403 -0.33442494 0.33705992 -0.35700104
0.00024248449 -0.10773533 -0.015720664 -0.029698335 -0.06375803 -0.07085784 0.07884718 0.03812987
-0.09029526 -0.08708887 -0.060558192 -0.0001868567 0.0495584 0.061829284 0.005706007 -0.046630327
-0.40623814 -0.20101583 0.15274256 -0.50037295 -0.20418118 0.25778788 -0.25941893 -0.25708547
-0.1573669 0.028093858 0.0029104052 0.057891604 -0.09338454 -0.15187378 0.13439924 -0.16114168
-0.23157938 0.01766247 0.046756864 -0.34503388 -0.5498852 0.0127098495 0.018276561 -0.0033936633
-0.0022737058 0.0043894313 -0.41936022 0.012630976 0.00027291605 -0.079607 -0.18121892 -0.087052666
-0.0051899822 -0.116020314 0.11579389 0.008030012 2.6736598e-05 -0.031131903 -0.22398007 -0.25581792
-0.069738686 -0.05045986 0.0006247302 -0.0028621452 0.013202642 -0.03142707 -0.091995694 -0.007118513
-0.18809825 -0.0011245314 -0.06284456 -0.059482686 -0.06698605 0.089398175 -0.034759082 -0.3218344
-0.023645682 0.19033667 -0.1578995 -0.1312421 0.036168482 -0.009149079 -0.07250075 -0.0104194945

feature_layer.model.0.bias f4 [128]
00000000: bf6a 03c0 202e 8a3d d6dd f03f acd1 5d3e
00000010: 811d 0ac0 9679 c2bb 1042 ddbe e3c5 b4ba
00000020: f69c 1ebd bc9d 26bf b0de d7bf d014 f9bf
00000030: 0a93 94bf e48c f73d 9042 263f ce0c 363f
00000040: 9822 8abc f92d 063f cae3 87be cda3 b7bc
00000050: fd2e ad3f 2a2c 88be a611 463f 4835 dfbe
00000060: 5314 af3e 98e7 6ebf c9eb 883f 81b5 e9bc
00000070: cb8e 91bf e887 35bf 4950 6fbf c5dd 913d
00000080: 5368 893f d8a8 12be 57e8 6cbf 392f 94bf
00000090: f56d 6ebc aaa9 3b3f 526d 85be 052a 1ec0
000000a0: 546e 85be 3a92 03bf 6c70 c93e dbca a2be
000000b0: 3bc8 a0bf e745 5d3d 17a9 a7bf 27c1 9d3e
000000c0: fd62 12c0 b09e c2bd c212 6cbf 4430 e5bf
000000d0: fdfe fabe 1fd7 e53f 9709 ea3f 5eec 1bbf
000000e0: 927e 5cbf 2e82 13bd 1eb2 00bf 236d fa3f
000000f0: aa48 60be 69eb b13f 940f a1bf cfef 54bf
00000100: c7d8 3f3f e8c9 71bf 405b 9abf c88b 533e
00000110: 375d ac3f a07f adbd 5e56 86ba a4d3 6c3d
00000120: 2ffc 0a3f c88c 2bbf e2ba e0be fd62 803f
00000130: 571d 92be 7668 d13e dbfd 403f b4c5 bfbf
00000140: 1465 4dbf b8d8 9dbf d2d9 babe 4db6 ac3e
00000150: a6ef b83f 7e72 af3e a900 c13f 78ec 053f
00000160: 8e8b 9ebf dc5b 9c3e fe62 523f 40a6 6b3e
00000170: 0081 d43f 7f4a 3ebf 0d60 a93e 80f3 bdbd
00000180: d0a3 e63f 4f75 5b3f 7b30 61bf e644 f2be
00000190: ee95 5abf 55f9 533d 8d6e fa3c 31ab 24c0
000001a0: ef11 c73e 920d 363f e4f6 7abe a533 493f
000001b0: b2b0 0ac0 d850 8a3f 713f a03f 5437 633f
000001c0: ddd6 b5bd e379 fcba 50a4 b8be 58dd 0bbe
000001d0: dc9b 643f 365b 03c0 5d7b bdbb bfba 41bf
000001e0: a54e 1cbd c40b 553f 709d aab9 ec57 d43c
000001f0: e81e 04bf 84fb 7e3f 4bae e3bf ef31 153f
-2.0533903 0.06747079 1.8817699 0.21662015 -2.1580508 -0.0059349043 -0.43214464 -0.0013791885
-0.03872391 -0.65084434 -1.6864834 -1.9459476 -1.1607373 0.1208742 0.64945316 0.7111329
-0.016862199 0.524139 -0.26540977 -0.022416973 1.3529965 -0.26596195 0.7737068 -0.43595338
0.34195194 -0.93322134 1.0696956 -0.02852893 -1.1371702 -0.709105 -0.9348188 0.07122377
1.0734962 -0.14322221 -0.9254202 -1.1576911 -0.014552583 0.7330576 -0.26059967 -2.4713147
-0.26060736 -0.51395 0.39343584 -0.3179539 -1.2561105 0.054021742 -1.3098477 0.30811426
-2.2872918 -0.095029235 -0.9221612 -1.7905354 -0.49022666 1.7956275 1.8284177 -0.6090754
-0.8613063 -0.03601282 -0.50271785 1.9564556 -0.21902719 1.3899966 -1.2582879 -0.8317842
0.7494015 -0.9444871 -1.2059097 0.20658791 1.3465947 -0.08471608 -0.0010249128 0.057819024
0.5429105 -0.6701169 -0.4389258 1.0030209 -0.2853801 0.4090001 0.7538735 -1.4982209
-0.8023236 -1.2331762 -0.3649431 0.33732834 1.4448135 0.34267038 1.5078326 0.5231395
-1.2386339 0.30538833 0.821823 0.23012638 1.6601868 -0.7433242 0.33081093 -0.092749596
1.8018742 0.85725874 -0.879646 -0.4731819 -0.85385025 0.051751453 0.030570293 -2.5729487
0.3888087 0.71114457 -0.24508244 0.7859443 -2.1670346 1.0805922 1.2519361 0.887563
-0.088788725 -0.0019262399 -0.3606286 -0.13658655 0.8930032 -2.052442 -0.0057825283 -0.75675577
-0.03816094 0.8322108 -0.00032542227 0.02592083 -0.5160966 0.9960253 -1.7787565 0.5827932

feature_layer.model.2.weight f4 [128, 128]
00000000: b503 b1bd 6da2 20bc 93cd 1dbd 5e63 4dbd
00000010: 0949 153c 3324 adbd c6df 6cbd 8504 f53b
00000020: 1782 143d 4578 403d 0a22 e53a fd66 a9bd
00000030: 853c d2b9 4dff 863d 9e0d 843c c551 873d
00000040: 3232 0fbd ff07 bdbd c6b4 97bd 1ece 723d
00000050: f085 723d 6169 c6bc a173 693d c772 c2bd
00000060: 7873 673d fd3a d7bd 4360 1fbd 12ca a9bd
00000070: cc01 e7bd 99b6 753d 5133 1cbb 073e 683b
00000080: eefa fcbc a140 62bd 41db 8ebd 1d5b b0bd
00000090: e50e 1fbd b491 bbbd 951d 9fbd 2485 3c3d
000000a0: 6a39 12bd 06ee 69bd af3e 7fbd b68e 663d
000000b0: 2156 81bd 312b 60bc de80 103d 64f1 62bb
000000c0: d4a0 483d fedc c2bc 8c88 06be 64dc c4bd
000000d0: 3918 ed3c a340 743d 5d24 c6bd 9ec3 b6bd
000000e0: 2f21 b7ba 634d b33c c016 ebbc 03e2 b0bd
000000f0: 714d a53c 7fd0 c7ba f62b 213c 0293 b2b9
00000100: c5de d73c afb2 dcbd 3360 aabd 0e62 51bd
00000110: 4135 0ebd 4b34 f93b 433b f43c 8637 7abd
00000120: 085e b83c d7e0 97bd ac2f 94bd ab32 ffbd
00000130: d763 eebd aa6b 8ebd 4747 8d3c 7c26 773c
00000140: 3532 bebc e5fe 363b e527 e93c 224c 1ebd
00000150: b3bb babc 4afd 64bd bf5b b8bc e25d 9bbd
00000160: 62c8 29bd 9e32 a2bc 72a6 e8bc 3dad d0bb
00000170: 451a a93d b44d bdbc 5db0 9dbb 28df 57bd
00000180: 5524 4e3c 3d61 b9bd 43ae 91bd fa22 f03b
00000190: d864 373c dd2e 13bd 818c efbd 17f4 a3bc
000001a0: 4e25 e1bd 4445 ad3c 0084 6cba d637 3d3d
000001b0: 2e77 153d bca5 323c a7c9 29bc 35cf dbbd
000001c0: 8970 733d 11ad 273d 41e1 df39 d9e4 8bbd
000001d0: c4f5 33bc 437b 933d d895 263c d473 acbd
000001e0: 0593 9abd 1ebf 92bc 30f4 6dbc a233 78bd
000001f0: b1ac 0abe 234a 08be 4a4d 6bbc f2c6 213c
00000200: 7a50 473d da0b 973c 42c3 01bd f738 a9bd
00000210: 7378 d3bc 9a6e 6b3d a8c1 233c aad5 353c
00000220: 1fc1 83bd ae6e cebd 7ff1 68bd 94c3 1f3c
00000230: 9231 a4bc 19e0 73bc 48cd 7bbd 9733 36bd
00000240: 3bfc a33d aa06 24bd ee31 703d ef42 61bd
00000250: abac 623c 3920 9fbd 816f 38bd a1ff aabc
00000260: f839 1cbd f3b8 3fbd 66c3 85bd 1adf d1bc
00000270: 30de bd3b 74af bfbd 8642 633d 7e84 96bc
00000280: 1e5c d93a d20c 1e3d 7b2f 973d f8ff bfbc
00000290: 2677 773d 03ef 2e3d 4e37 683d 0f3d 1c3d
000002a0: ec89 85bc 31d8 a1bc 2f55 fcbb 3496 a33c
000002b0: 7b4a 26bd 6a69 46bd f413 e63c d21c 7bbd
000002c0: c7ae 943d 60c8 4d3b cee1 003d 0dd3 a5bd
000002d0: 80dd 64bc 06ce 263d 6274 a5bd 4049 80bc
000002e0: 1589 ab3c 0eda 3bbd 8b32 83bd 2540 2d3d
000002f0: 83fb 453d 78c2 743c 0f4f 8e3d 312e 90bd
00000300: 040e a5bd ae69 233d 7667 1d3c de66 8cbd
00000310: 8066 353c 0227 1dbc 86ba 8dbd 4f94 87bd
00000320: c530 99bd b1c7 ad3b 0d2d d8bc 900f 153c
00000330: 0a1d 10ba c616 9fbd d062 13bc 1efd d8bb
00000340: e499 8f3c d518 3ebd 231a c3bd 2d60 883c
00000350: d24c b3bc 6f3e 453d f5fa cebc c938 9e3d
00000360: 3d5c 813d 0d1b 43bd 4f3d 0bbd de6d 85bc
00000370: 7307 6c3d 0049 64bc 329f 66bd 3698 21bd
00000380: e0d8 153b fc4d 94bc f281 113d 6139 1e3c
00000390: 9103 babd da83 b1bd 83e7 12bd ce7d 613d
000003a0: 9aa7 a7bd dbaf a8bd 2314 4dbd 0c15 d1bc
000003b0: 6613 403d db70 dd3c 4813 e6bc eaca 383d
000003c0: b828 07bc 61a6 a33d d900 8cbd b13f 89bd
000003d0: 0a1a 03bd c184 a7bd 6084 9cbd 4e02 5ebd
000003e0: 18ad 89bd be44 03bd 3893 19bc 63f1 6bbc
000003f0: 492a 88bd 5765 a4bd b54f 903d fa04 483c
-0.08643285 -0.00980435 -0.03852613 -0.050143592 0.009111651 -0.0845417 -0.057830594 0.0074773454
0.036256876 0.046989698 0.0017481458 -0.082715966 -0.00040099412 0.065916635 0.016119774 0.06607393
-0.03495998 -0.09230041 -0.07407527 0.0592786 0.059209764 -0.02422017 0.056995038 -0.09494548
0.056506604 -0.10509298 -0.03891016 -0.08290495 -0.112796396 0.05998859 -0.0023834298 0.0035437362
-0.030881371 -0.055237416 -0.06975413 -0.086111285 -0.038832564 -0.0915865 -0.07769314 0.04602541
-0.035699286 -0.057111762 -0.06231564 0.056288444 -0.06315256 -0.013682173 0.035279147 -0.0034628743
0.048981503 -0.023787018 -0.13138026 -0.09612349 0.028942214 0.059631955 -0.096749045 -0.0892403
-0.0013971681 0.021887487 -0.028697371 -0.08636858 0.020178529 -0.0015244632 0.009837141 -0.00034060335
0.026351342 -0.10776269 -0.0831913 -0.051118903 -0.034718756 0.0076051108 0.029813414 -0.061088108
0.022505775 -0.07415932 -0.07235655 -0.12460836 -0.11640137 -0.06954129 0.017245902 0.015084859
-0.0232173 0.0027922925 0.028461406 -0.038646825 -0.02279458 -0.055905618 -0.022504685 -0.07586266
-0.041450866 -0.019799527 -0.02839968 -0.006368308 0.08256964 -0.02310834 -0.004812284 -0.052703053
0.012581904 -0.0905175 -0.07113316 0.0073283883 0.011193477 -0.035933364 -0.11696721 -0.020013852
-0.109934434 0.021151192 -0.0009022355 0.046195827 0.03649061 0.010903772 -0.010363019 -0.10732881
0.059433494 0.040936533 0.00042701702 -0.068307586 -0.010983888 0.07201245 0.0101675615 -0.0842053
-0.07547573 -0.017913397 -0.014523551 -0.060596116 -0.13542439 -0.13309531 -0.014361689 0.009874092
0.048660733 0.018438268 -0.031680353 -0.08262818 -0.02581427 0.057478525 0.009994902 0.011098305
-0.06433319 -0.10079704 -0.056870934 0.009751219 -0.020043168 -0.014884972 -0.06147507 -0.044482794
0.080070935 -0.040045418 0.058641367 -0.054995473 0.013835113 -0.07769818 -0.045028213 -0.020873846
-0.03814122 -0.04680724 -0.0653141 -0.025619078 0.005794309 -0.09359637 0.055483364 -0.018373724
0.0016583239 0.038586445 0.07382103 -0.023437485 0.060416363 0.042708408 0.056693368 0.038144168
-0.016301118 -0.019756408 -0.0077005844 0.019969083 -0.040598374 -0.048440374 0.028085686 -0.061306782
0.07259899 0.003139995 0.031465344 -0.08096895 -0.013968825 0.040723823 -0.08078839 -0.015659928
0.02093939 -0.04586225 -0.06406125 0.0422975 0.048335563 0.014938943 0.06948673 -0.0704006
-0.08059314 0.039895706 0.009607187 -0.06855558 0.011071801 -0.00959182 -0.06920342 -0.066200845
-0.07480005 0.005303346 -0.02638867 0.009097949 -0.0005497491 -0.077680156 -0.008995727 -0.006621971
0.017529435 -0.0464104 -0.095264696 0.016647423 -0.021887217 0.048155244 -0.02526615 0.07725675
0.06316421 -0.04763322 -0.033994015 -0.01628774 0.05762429 -0.01393342 -0.056304164 -0.0394518
0.0022864863 -0.018103592 0.035524316 0.009657235 -0.090827115 -0.08667727 -0.035865318 0.055051617
-0.08186264 -0.08236667 -0.050068032 -0.025522731 0.0468935 0.027031353 -0.028085366 0.04511539
-0.008249454 0.07990719 -0.06836099 -0.06701601 -0.032007255 -0.08179618 -0.07642436 -0.054201417
-0.06722468 -0.03204798 -0.009373479 -0.014400813 -0.0664869 -0.080271415 0.07046453 0.012208218

feature_layer.model.2.bias f4 [128]
00000000: 04c0 043e 58b6 9b3c ead7 fe3c 712d fb3e
00000010: 5d57 5b3d d51a 2ebd e74d 263d e167 5d3e
00000020: 6231 adbd 199e 833d 7b35 f7bd d30d 8bbd
00000030: 97b4 c13c 1f71 ab3d 6238 d03e 1f72 9c3e
00000040: 946f 65bd 511c 0dbe 8f5e 2e3d 83c7 82bd
00000050: d278 6cbd bc6f 41bd 1813 b8bb 58b7 fbbd
00000060: c845 7f3f e7b2 a33f 80c8 303c 2dd5 a8bd
00000070: 8041 f0bd 59dc debc 0ae2 aa3d 35db 2d3f
00000080: 1bbc 6abc 8373 9d3e f266 89bd 42c6 e5bd
00000090: 22f2 403f 3f03 a23d 286f 853e 674d f2bd
000000a0: 5163 13be f0a3 b8bc 3761 133e 3d6a 51bd
000000b0: c187 1b3d b415 51bc af42 e63c 3696 843f
000000c0: 67c1 bebd 7ffb b8bd f826 babd 7899 e0bd
000000d0: bdeb 993b 73d6 debd e539 773e ce13 82bd
000000e0: 7aa5 b63f 9b96 4b3d dd88 d43d 6440 c3bc
000000f0: 634e b6bb d144 f63c 19db 993e 769d 123e
00000100: eb0e b2bd 4ce3 03be 439f 90bd ebb6 16bd
00000110: 88e6 753f 1bf3 4bbc e91c d1bd cc07 20ba
00000120: 4c9c 373e 28ed 30bd aec8 f6bd 5f49 5a3e
00000130: 9a88 4a3d 2553 b6bd 75d9 ac3f dcbd 003f
00000140: ab4f 07be 106a ca3e 701e 313d 9d84 4c3f
00000150: 5066 0fbe d4d7 30bd 4ae5 0e3c d1aa 14be
00000160: 9fc6 273d ad70 b9bd ecac 1c3e 949a 7bbc
00000170: 7821 e1bd 17b4 f13e 2307 2f3d 8481 1b3d
00000180: 40cd bc3d 5105 693c c8af 3abd b1c8 943d
00000190: 524a e8bd 2209 d2bc d97b fbbd 6087 603e
000001a0: 09de e73d 5ab2 053e c452 353f cf54 8dbd
000001b0: ebb3 81bd 8d54 b1bd 7ff1 cebd 10f8 363f
000001c0: ed94 883b c973 753f 66e4 80bc 5831 cabc
000001d0: b10b a1bd ffbe e4bd 774c 3ebd 1934 85bd
000001e0: b177 6e3f 7f1c dcbc 040b 693c 217d 19bc
000001f0: 9ea2 dcbd f938 9cbd b34c ce3e ca20 a9bd
0.12963873 0.019007847 0.031108815 0.49058107 0.053550113 -0.042506058 0.040601637 0.21621658
-0.08456685 0.06426639 -0.120707475 -0.06789746 0.023645682 0.083711855 0.40668017 0.30555817
-0.056014612 -0.13780333 0.042570647 -0.0638571 -0.05773241 -0.0472257 -0.0056175105 -0.122908294
0.9971585 1.2788972 0.01078999 -0.08243785 -0.11731243 -0.02720468 0.08343895 0.6791261
-0.014327074 0.3075219 -0.067090884 -0.11219455 0.75369465 0.079107754 0.26061368 -0.118311696
-0.14393355 -0.022539109 0.14392553 -0.051126707 0.037971262 -0.012761522 0.02810797 1.0358341
-0.09314232 -0.09032344 -0.09089464 -0.10966772 0.0046972916 -0.10880747 0.24143179 -0.06351434
1.426925 0.049704175 0.10377667 -0.023834415 -0.0055635436 0.030062111 0.3004997 0.14317879
-0.086942516 -0.12879676 -0.07061627 -0.036795538 0.9605489 -0.012448098 -0.10210592 -0.00061046774
0.17930716 -0.04319492 -0.12049995 0.21317051 0.04944668 -0.08902577 1.3503863 0.502897
-0.13213985 0.39534044 0.043241918 0.7988985 -0.14003873 -0.04317458 0.008721659 -0.14518286
0.040960904 -0.09054694 0.1530034 -0.0153566785 -0.10992712 0.4720771 0.042731415 0.037965313
0.09218836 0.014222459 -0.045577794 0.07264841 -0.113423005 -0.02563912 -0.122794814 0.21926641
0.11321647 0.13056317 0.70829415 -0.069009416 -0.06333145 -0.08658705 -0.101046555 0.71472263
0.004168144 0.958798 -0.015733909 -0.024681732 -0.07863558 -0.11169242 -0.04645964 -0.065040775
0.93151385 -0.026869057 0.014223818 -0.009368212 -0.10773204 -0.07628054 0.40292892 -0.08258207

value_stream.model.0.weight f4 [128, 128]
00000000: 20e0 953b 6f41 a43d 408f feba 1a9f 3abd
00000010: 8c89 9dbc d8bf 86bd 801f 053b 9313 ddbc
00000020: 7051 cbbc 3dba 45bd 9684 76bd 72cd eabc
00000030: fdb8 93bd 0bde b33d 7bec 2fbd b374 96bd
00000040: 0833 743c 7904 1abd cdb3 9f3d 2e1a 5f3d
00000050: 7cef 8d3c 1396 a5bd 9cdd b93c 2bc8 8f3d
00000060: 2c1d 36bd 6781 2bbd 403c f5bc 695a 11bd
00000070: 0e37 3c3d 9057 adbb 44eb ef3c cd4e c7bd
00000080: 2578 aa3d 5d64 88bd a4b3 84bd 3184 913d
00000090: 1bb8 07bd f6cd 593d 0c3b 1fbd c6ba 493d
000000a0: 00be 07bc 5ed2 3f3d 3015 adbd 99d4 81bd
000000b0: 3a69 a0bd 80d3 313a b00c e03b c4ba cd3c
000000c0: 561c 733d 22a0 4a3d 40fc cb3b e6cd abbd
000000d0: b09f 97bd 9e21 653d 17c3 a93d 58b3 50bc
000000e0: a08e 43bc 64f9 cfbc 2288 e9bd f7a8 893d
000000f0: 389d 99bd 7e29 85bd 6a50 763d 385b 5d3c
00000100: d36f 833d b460 893c 6342 853d e614 7a3d
00000110: d5fb a23c ea64 243d d8ac 073d dd2c 66bd
00000120: 2875 a43c 96b5 1a3d 74cc 903c 205d 953c
00000130: ee7d 87bd 8050 0bbd a134 75bc 11b4 bcbd
00000140: 006e 74b9 623b cfbc 9a68 373d 3e1d 1fbd
00000150: b00d 033d e5cd 66bd b685 88bd 04c7 113d
00000160: 6af5 97bd 1b46 9d3d b0dd 303c f032 2abc
00000170: 3ac4 4e3d 62ee 03bd b2f4 6e3d 79a8 933d
00000180: 2280 02bd 1aeb 253d faae 5e3d 45f8 94bd
00000190: 227f 563d e3a8 4cbd e0a1 233c a618 86bd
000001a0: ed98 acbd 2328 913d c53d fc3c d875 58bc
000001b0: fa65 aebd f814 05bd d3fa aa3d 918f e0bd
000001c0: 5fc3 70bd a27f 14bd 84f2 d23c 1208 86bd
000001d0: e036 513b 061a a4bd e34f a43d 8a79 94bd
000001e0: 4396 213c 080a 573c a411 95bd aa0e 00bd
000001f0: 686a 4c3c c508 2c3d 83a1 0cbd f781 78bd
00000200: 4424 993c 3dbe afbc c243 9dbd bdde e43c
00000210: 4275 6f3d 5f39 76bb fd8c 86bd b405 2e3c
00000220: afb3 953d b790 f03c 9675 253d 99f6 46bb
00000230: 0cc4 883d 3452 133b 0321 2ebc f8c4 24bd
00000240: f49f 123d a695 f6bb 53ca 9dbd 280f 8a3d
00000250: ec41 0f3d a5b7 eabc 6111 083d 3c82 8ebd
00000260: 09c9 84bb 4948 243c d4a9 253b 5ebe 95bd
00000270: dbcb af3c 7c23 61bd 577c 983c 330e 46bd
00000280: 4d1b 763d f684 6e3d 9272 91bd 8394 a9bd
00000290: 48e8 18bd 113a 3ebd fd78 8d3d 05f2 ac3d
000002a0: 0ea4 bf3c 00a0 183d 140a 9a3d 9cb1 153d
000002b0: 0d03 8cbd ae15 d9bc 3cf8 3f3d b433 9dbc
000002c0: 4062 113d 0746 b0bd 60fc 3fbc ba66 973c
000002d0: bf05 653c 0f17 74bb 8682 3e3c 637d d5bc
000002e0: aa0b 823c b24d 1a3d ee54 7dbd a6cb adbd
000002f0: 2745 ae3c 98d6 9bbd 410c 1b3c 10fb 0f3d
00000300: bb20 d23d 9035 f6bc 6822 6e3d 211f 5fbc
00000310: 4dd8 ddbd ef77 a13c ea9f 853c e882 aa3c
00000320: 405f 8dbb 98e4 f43c 9902 9c3d b1fe 16bd
00000330: b645 29bc 41f5 463d ec79 77bd 07e7 a5bd
00000340: 1e69 6a3d d48d ecbc 1b71 af3d 1ea3 dabb
00000350: 6255 9cbc 529f 30bd 7a70 05bc 9bf8 6e3d
00000360: 1818 1cbd 6414 a3bb 9dbe 063e 1495 7dbd
00000370: f0e5 96bc 2733 d73c 10c8 f9bc 1f40 e43c
00000380: 1ca9 9abc 5c0d 3e3d 6d53 853d 26be 55bd
00000390: 4722 64bd 7b0f ce3d b4bb b3bc ee46 a03c
000003a0: 8d33 84bd f464 91bb 990e e7bd 70d2 663c
000003b0: e4d2 16b9 5536 d3bb 918e 943d 8aa8 bc3c
000003c0: 57df d7bb 4a41 02be 5095 fe3c d3b9 a13c
000003d0: cf1b 103d b6b0 28bd f7b5 d6bc aa0a 88bd
000003e0: f671 87bc 2429 033d e020 14bb 54ca 763c
000003f0: 81e1 a8bd 5147 9d3a b09a 4b3d 71c1 df3a
0.004573837 0.08020293 -0.0019421354 -0.045561887 -0.019230627 -0.0657956 0.0020312965 -0.026986873
-0.024819106 -0.048273314 -0.060185038 -0.028662417 -0.07213018 0.08782586 -0.042950135 -0.07346477
0.014904745 -0.03760192 0.07797966 0.054468326 0.01732611 -0.08085265 0.02268868 0.07020601
-0.044461414 -0.041871455 -0.029935956 -0.035486612 0.04595094 -0.0052899793 0.029286988 -0.09731827
0.08323697 -0.06659768 -0.06479576 0.07105292 -0.03313456 0.053174935 -0.03887467 0.049250387
-0.008285046 0.04683148 -0.08451307 -0.06339378 -0.078325704 0.000678353 0.00683745 0.02511347
0.059353195 0.04946912 0.006225139 -0.083888814 -0.07403505 0.055940263 0.082891636 -0.012738071
-0.01193586 -0.025387473 -0.114029184 0.067216806 -0.0750069 -0.06502055 0.060135283 0.013510518
0.06417813 0.016769744 0.06506803 0.061055087 0.019895473 0.0401353 0.03312382 -0.05619513
0.020075396 0.03777083 0.017675616 0.018232882 -0.06615816 -0.034012318 -0.014966161 -0.092140324
-0.00023310632 -0.02529687 0.04477749 -0.038846247 0.031995475 -0.0563487 -0.06666128 0.035590187
-0.07419856 0.07679387 0.010795042 -0.010388121 0.050480105 -0.03220976 0.05833883 0.07209868
-0.03186048 0.040507413 0.05436609 -0.07273916 0.052367337 -0.04996575 0.0099873245 -0.0654767
-0.08427606 0.070877336 0.030791173 -0.01321169 -0.08515544 -0.0324907 0.08348622 -0.10964883
-0.05878007 -0.036254533 0.025750406 -0.06544508 0.0031923577 -0.08012776 0.0802305 -0.07249744
0.009862485 0.01312495 -0.07278755 -0.031263985 0.012476541 0.04200055 -0.034333717 -0.06067082
0.01869405 -0.021453017 -0.076789394 0.027938241 0.058461435 -0.0037570817 -0.0656986 0.010621477
0.073096626 0.02936588 0.04039534 -0.0030359386 0.06678018 0.0022479417 -0.010627988 -0.040226907
0.035797074 -0.0075251637 -0.07704606 0.06741172 0.034974977 -0.028652022 0.0332197 -0.06958434
-0.0040522856 0.010027 0.0025278227 -0.073117 0.02145951 -0.05496548 0.018613977 -0.048353385
0.06008463 0.05823227 -0.07101931 -0.082802795 -0.037330896 -0.046442095 0.06907842 0.08444599
0.023393657 0.037261963 0.075214535 0.036546335 -0.068365194 -0.026499595 0.046867594 -0.019189693
0.03549409 -0.08607107 -0.011717886 0.018481601 0.013978421 -0.003724519 0.011627799 -0.026060766
0.015874702 0.037671752 -0.061848573 -0.084861085 0.021273209 -0.0760929 0.009463371 0.03515154
0.10260149 -0.030054837 0.05813828 -0.013618262 -0.10832272 0.01971051 0.016311605 0.020814374
-0.004314333 0.029894158 0.07617683 -0.036863986 -0.010331562 0.048573736 -0.060419008 -0.081007056
0.057229154 -0.028876223 0.08566495 -0.006672277 -0.019083682 -0.04312069 -0.008144492 0.058342557
-0.038108915 -0.004976796 0.1315865 -0.06190975 -0.01842019 0.026269509 -0.030490905 0.027862607
-0.018879466 0.04639946 0.06510053 -0.052183293 -0.055696752 0.100615464 -0.02194009 0.019565072
-0.06455145 -0.0044370834 -0.11282081 0.014088258 -0.00014383678 -0.006445686 0.07253755 0.023029584
-0.0065879035 -0.12720218 0.031077057 0.019741928 0.03518277 -0.04118415 -0.026209814 -0.06642659
-0.016533833 0.032021657 -0.0022602603 0.015062887 -0.082461365 0.0011999403 0.04970807 0.00170712

value_stream.model.0.bias f4 [128]
00000000: 2c5a 25be f1fd f5be 6e34 473f 47aa 323f
00000010: dca6 03be 3dcb 1b3f 4936 6d3e 8985 d63d
00000020: cef4 02be 3b59 83be 5eb7 73bf a5bb 56bd
00000030: f2a0 5ebe 73dc 31be 72ee 17bf 7766 5fbe
00000040: 13f4 53be 5d6a 92be d93e 17bf c6c7 e8bd
00000050: 0305 103f 53f9 74bf dc45 52be 3746 e2bd
00000060: f020 023e 8146 2c3e 22ea 203f 19b6 9e3e
00000070: 0d79 04be 3122 5dbe 9fa3 e2bd 71eb dbbe
00000080: 56ad 793e 015d 14bc 65ea 5abe 0e56 cf3e
00000090: 80ac a5be f3e4 96be 2f97 fc3e 101c 66bf
000000a0: 6d62 b7be 0ae3 95be 3950 b2bc 17cd 283f
000000b0: b531 1a3f 0d1c 343f be98 3abe 7ee9 d4bd
000000c0: bd89 e1be 0e7f 8cbd e6aa a7be e6be adbe
000000d0: 3499 6abd bb80 293f 7d20 52be 3755 babe
000000e0: 58f1 56bd 8740 6ebd f19b 7bbe edfd 8abe
000000f0: 5a57 7ebe e2bf 0fbf 69e2 84be 43b9 c8bd
00000100: 9877 d43e 8930 2b3f 1afe dfbd d988 50be
00000110: 97fd 5ebe fa40 13be 77dc f2bd 04e0 26bc
00000120: c98b 6dbe 8d66 94be db17 dcbd f34e 6abd
00000130: 8aa5 fa3c 2691 26bf 4b5c c1bd cc42 863e
00000140: bbe8 113e 844f 553f 12a2 87bd fe53 d93d
00000150: a8e5 2b3f 709d cebe d159 9d3e aa43 3e3f
00000160: 883c 2ebf 7850 c1bd 3e73 2dbe 9e7b 63be
00000170: 7663 9dbd 15f1 f5bd ccdb 0e3f 415c 0abe
00000180: a13c 933e 6ca7 a9bd 18af 4dbe 1dc5 20bf
00000190: e3c6 b1bd d5a6 babd c3a2 233f cfff 25bf
000001a0: 22cd 0b3e 999e 1dbf b5a9 97bd adf9 1bbe
000001b0: c514 033f 32c1 83be fc46 18be 0c77 4bbf
000001c0: 04e7 72bd 784a aabc 8e98 3bbe 21c3 ef3e
000001d0: 50fd 62be efa9 8c3d b797 8d3e b10f 91be
000001e0: 5975 dcbb e359 f2bb 829b 06be 841b 27be
000001f0: 2885 77be 6381 f03e a9d7 29be ec79 8fbe
-0.16147679 -0.48045304 0.77814376 0.6979107 -0.1285662 0.6085699 0.2316524 0.104746886
-0.12788698 -0.25654015 -0.9520167 -0.052425046 -0.21741083 -0.17369251 -0.59348214 -0.21816431
-0.20698576 -0.28596774 -0.5908027 -0.11366229 0.5625765 -0.9569294 -0.20534462 -0.11048549
0.12707877 0.1682377 0.6285726 0.30998304 -0.12936802 -0.21595074 -0.110663645 -0.42953065
0.24382529 -0.009055377 -0.21378477 0.40495342 -0.3235817 -0.2947155 0.49334094 -0.8988657
-0.3581728 -0.2927478 -0.021766769 0.6593794 0.60232097 0.703553 -0.18222329 -0.103960976
-0.44050398 -0.06860171 -0.32747573 -0.33934706 -0.057275012 0.6621205 -0.20520206 -0.3639314
-0.052476257 -0.058167007 -0.24571206 -0.27146855 -0.2483801 -0.56152165 -0.25953987 -0.09800961
0.41497493 0.66870934 -0.10937138 -0.20364703 -0.21776424 -0.14380255 -0.118584566 -0.010185245
-0.23197855 -0.2898449 -0.107467376 -0.057204198 0.030596513 -0.6506523 -0.094414316 0.26222837
0.14248936 0.83324456 -0.06622709 0.10611723 0.671473 -0.4035449 0.30732587 0.74322
-0.68061113 -0.09439176 -0.16938493 -0.22215125 -0.07684986 -0.120088734 0.55804133 -0.13511755
0.28757194 -0.08283886 -0.20086324 -0.6280077 -0.08680513 -0.09113852 0.6392023 -0.6484346
0.1365247 -0.61570126 -0.07405416 -0.15231963 0.51203567 -0.25733334 -0.14870828 -0.79478526
-0.059302345 -0.020787463 -0.18319914 0.4682856 -0.22166944 0.0686835 0.27654812 -0.28332284
-0.006727856 -0.0073959692 -0.13145259 -0.1631909 -0.24171889 0.46973714 -0.16586174 -0.28022707

value_stream.model.2.weight f4 [1, 128]
00000000: 9098 bbb9 f294 d3bb 1fd8 0c3d bdfb 13bd
00000010: 26fb 8dba 9581 53bd e85b 0abe 561b c83c
00000020: 7894 423c 8b07 0cbd b059 12bd 34fc 6dbb
00000030: 99c3 613b bdfd d739 6f5b 0dbd 3833 003a
00000040: 11fb 443c 465f 5b3c 4443 5abc d712 123c
00000050: 8757 c73c dc55 f3bc e522 76bc a327 0dbb
00000060: 5839 c53c 46d1 f03c b946 933d fd31 cabc
00000070: b47b ca3b 9c32 27bb a398 46bc 51b4 94bc
00000080: 86db 2bbd 004d 823c 93fc 793c ca77 3a3d
00000090: 9c3d 6ebc ca39 273c 5c48 f93d 4a29 03bd
000000a0: d2ea 8bba 4f3e 07bb 63e1 773c 3d30 443d
000000b0: 6090 c93c f29b 16bd 7f16 1bbc 3a7b babb
000000c0: 16e1 b7b9 357f fa3c 5020 633c e07c 123b
000000d0: 1620 0c3c 31db 793d e93d a93b 0cb4 27bc
000000e0: 3973 223c bc13 2cbc 5d53 82bc e5b2 51ba
000000f0: b55e 7c3b eb13 9cbb 0cf6 95bb b1c9 6ebc
00000100: 0253 11bd 9e34 1abd 3652 b5bb 10f8 36bc
00000110: 711b 9b3b e1cf 6b3c a3c8 21bc cd0c 183c
00000120: 1472 c83b 24c9 243b 17c8 e33c 2ab5 063b
00000130: dbdb 113d c14f 54bb a68c 0abc d140 d83c
00000140: 57c6 e53d 87e9 293d 2080 1abc 02a6 1c3c
00000150: e103 e93c 8e27 57bc ae68 51bc 6fd4 083d
00000160: d762 cfbb 16d1 0a3c a135 16bc 4ebb ce3a
00000170: b89b 55bb 9ce9 70bc 9ced 803d ba8c fc3a
00000180: d2e9 ca3c 4bc2 bb3a 5253 03bc 0d69 83bc
00000190: 4220 2fba 7194 cdbb 9c93 343d 4801 fdbb
000001a0: 8c5b e23c a0aa 83bc 0de5 023a 5736 703c
000001b0: 6371 b4bc ada3 8a3b 8f84 13ba 51e2 f4bb
000001c0: 7b53 17bd f2b5 1dbc 29d6 07bc f896 a03c
000001d0: cca4 eebb eb2d 0e3d 281a 813c 73f3 133c
000001e0: b3ff a9bc 2825 3b3c 8bfd 063c 433e 4a3c
000001f0: 6fc4 ebba 489f d73c 067d 71bb afe8 b0bb
-0.00035781087 -0.0064569646 0.034385797 -0.03612875 -0.0010832294 -0.05163725 -0.13511622 0.024427097
0.011876218 -0.03418688 -0.035730064 -0.0036313655 0.003444886 0.00041197045 -0.034511026 0.00048904447
0.0120227495 0.013389414 -0.013321701 0.008915625 0.024333728 -0.029704027 -0.015022968 -0.0021538518
0.024075195 0.029396664 0.07191224 -0.02468204 0.0061792973 -0.0025512343 -0.012121352 -0.018152388
-0.0419574 0.015905857 0.015257972 0.045524396 -0.014541056 0.010206649 0.121720046 -0.0320218
-0.001067484 -0.0020636504 0.01512942 0.047897566 0.024604976 -0.036769815 -0.009465813 -0.0056909593
-0.00035072182 0.030578235 0.013862684 0.0022352263 0.008552572 0.061000053 0.005164851 -0.010235798
0.009915167 -0.010502752 -0.015908891 -0.00079993746 0.0038508598 -0.0047631166 -0.00457645 -0.014574454
-0.035479553 -0.037647836 -0.005533482 -0.011167541 0.004733496 0.014392824 -0.009874496 0.009280396
0.006117115 0.0025144303 0.027805371 0.002055476 0.03561006 -0.003239617 -0.008456385 0.026398094
0.11219471 0.041482475 -0.009429961 0.009561064 0.028444232 -0.013131989 -0.012781305 0.033405717
-0.0063289213 0.008472702 -0.00916806 0.0015772374 -0.0032594036 -0.014704134 0.062953204 0.0019268014
0.024769697 0.0014324872 -0.008015471 -0.016041303 -0.0006680527 -0.006273799 0.044086084 -0.0077211
0.027631544 -0.016072571 0.00049932377 0.014661393 -0.022026723 0.0042309375 -0.0005627358 -0.007473268
-0.036944848 -0.009625899 -0.008290806 0.019603238 -0.007282829 0.03471176 0.015759543 0.009030211
-0.02075181 0.011422433 0.00823916 0.012343946 -0.0017987619 0.026321068 -0.0036848201 -0.005398832

advantage_stream.model.0.weight f4 [128, 128]
00000000: 04fd 123b 59f7 103c 4213 c23d 7ed4 4bbe
00000010: a605 44bd 800b 37bc b10f 7f3c c63e 33be
00000020: 9d55 29bd b553 d63d 0c4f 11bd 3bcf f13d
00000030: 39a5 3d3a af62 a53b 2539 9fbd 4d15 adbd
00000040: c0f2 953d eb16 93bb 5042 4e3d 9568 96bd
00000050: 0380 a8bc dc7e 17bd 4e0a d93c 20cf 973d
00000060: 5e0a 263d b1f5 c7bd cd4a 2fbd eb11 a13d
00000070: 86d1 afbd c265 cd3d 9f14 19bd aae5 a6bb
00000080: a447 863d 4ede 57bd b568 a4bd f3d8 32bd
00000090: 58b9 bfbd 99d1 303d 968f 03bd 390e 3c3b
000000a0: 780c 343d b2f6 03bc d301 2fbd 5d5c a0bb
000000b0: 8c1b e3bc 742a 933d d62f 0a3d 32f0 42be
000000c0: 7a03 ec3b ebe4 b53d 7024 8cbd 7818 d53c
000000d0: 7dc9 46bc 8ed9 b4bc 4e40 6cbd cf4b 8abd
000000e0: ac96 67bc 97e9 e8bd 7350 62bc a906 d83c
000000f0: 35d2 64bd e929 c8bc b91f ff3c a4b1 8fbd
00000100: 856f 2fbd da76 b1bd 9a36 8f3d 8f86 8cbd
00000110: 5123 00be 4aec f9bc 5a9a a0bc 2726 e7bd
00000120: 9e76 77bd 2820 5cbd 568a 90bd 9cf5 d13b
00000130: 7caa 0fbd 0c6c 813d 4dfd ae3d 7089 a4be
00000140: 0617 e2bc 91b8 e7bd fa74 273d 6f7b c7bd
00000150: ca84 a23d a529 f2bd 5ccc 9cbc 879a 8f3d
00000160: 9cd8 4f3d 73d9 80bd b61f 34be 3c24 4ebd
00000170: 2c98 313c 4499 713d 3809 dfbc 000d 8d3d
00000180: 292a 45be 5383 e1bb daac b1bd a84a 6abd
00000190: bd25 aa3b 693f 7cbd 31fa 2b3d 6606 19bc
000001a0: 032e cabc ff22 36bd 53ed 3dbe ec85 c0bc
000001b0: 0f68 fcbc 4a56 02bd 5f73 fa3c 436d 1c3d
000001c0: dd67 883d 7c53 b13d 7a4c 48bd 3c92 7a3d
000001d0: 4470 8ebc 724b 23bd 499d 993d 6003 0ebb
000001e0: 44ab c3bd e349 653d d9a4 013d 7fa4 4e3c
000001f0: bf9b 15bb 4cd4 1e3d 2735 97bd 7d21 9e3d
00000200: eaf3 a9b7 1e56 173d 6412 8abc 78eb 07bd
00000210: a995 aebd 349c 65bd f342 883c 83c8 47be
00000220: 9a65 76bc b554 7bbc e280 a13c 15fb 963d
00000230: eb19 823c 028c d43d f0e5 b5bd 48d4 a03c
00000240: 30e5 633d e358 8f3d 4861 5cbd a9ee 41bd
00000250: a8bf 923d 6fef 80bc 803f e33c cb4c 6d3d
00000260: 6363 c13d 15ed 57bd e04b d4bd 19cb e83d
00000270: 44b2 a33d 6be2 da3c 057c bfbc af1a 5b3c
00000280: f253 25bc fe26 23bc 4b66 bcbd abfa c53d
00000290: 9466 1abd c6a6 263d 406f 2cba 065b 73bd
000002a0: af42 b4bd 988d 1d3d 5f1d c23d c615 8fbd
000002b0: 4059 c93a 3b8a 883c 54c5 6f3d a811 9e3c
000002c0: c518 62bb 4130 c03d 3815 45bd fbfd 60bd
000002d0: 4855 533d a037 a5bc 4ad4 2cbc a032 e8bd
000002e0: 19bc 7ebd 9abe a9ba e6f6 f7bd 8af0 883d
000002f0: dae6 8abd f46a 493d 65b1 be3c e0db 4d3d
00000300: 8059 453d 181a 563d bd55 683d 71a1 71bd
00000310: e944 bdbd b925 e23c cdcb 90bd ba11 c9bb
00000320: cc1b cb39 cf6d 93bd 86a0 213d 4251 dcbc
00000330: e1a3 ecbc c305 4a3d e338 24be a021 95bd
00000340: 9601 58bb cb80 8e3d f4d1 10bc 14db 88bd
00000350: 22a3 99bc 72b5 e4bc 385b 57bd e120 88bd
00000360: aa7b 8fbc 9e93 e9bb c98c 13be ea95 e63c
00000370: a221 bf3d 30fc 2b3d c196 973d 71dc adba
00000380: 1abf c83c c15b 033d 3d40 713d ef28 97bd
00000390: 70ed d73c 6407 8ebc 938c f13c 546f 893d
000003a0: 68d4 de3d 37c5 ce3d e94b d4bc 7ea5 68bd
000003b0: 6626 a03d fb09 193d da58 ddbd 7f6b 8ebd
000003c0: 9d23 ec3b 8760 f9bc a3a8 043d 76f2 9cbd
000003d0: 9634 933d 2728 063d f76d b5bc 97af abbd
000003e0: 7eba 4ebd 401b d13a 5428 94bd 9f88 003d
000003f0: 5cc0 a23c dab2 7b3d a8a1 6bbc 5348 12bd
0.002242864 0.008848035 0.094763294 -0.19905278 -0.04785695 -0.011172175 0.015567706 -0.17504415
-0.041341413 0.104651846 -0.035475776 0.11807104 0.0007234398 0.0050471644 -0.07774571 -0.084513284
0.073216915 -0.004488816 0.05035621 -0.07344166 -0.020568853 -0.036986217 0.026494171 0.07412553
0.04053723 -0.09763659 -0.042795945 0.07864746 -0.08584885 0.100291744 -0.03737318 -0.005093296
0.06556633 -0.05270224 -0.08027784 -0.04366393 -0.093615234 0.043168638 -0.032119356 0.0028695
0.043957204 -0.008054422 -0.04272635 -0.004893823 -0.027723096 0.07185832 0.033737026 -0.1903694
0.007202563 0.08881553 -0.068428874 0.026012644 -0.0121329995 -0.022076394 -0.057678513 -0.067527406
-0.014135044 -0.11372679 -0.013813126 0.026370363 -0.05586453 -0.024434047 0.031143056 -0.07016304
-0.042830963 -0.08665247 0.06992836 -0.068616025 -0.12513472 -0.03050818 -0.01960485 -0.11286574
-0.060415857 -0.053741604 -0.070576355 0.0064074527 -0.035074696 0.063194364 0.08544407 -0.32136106
-0.027598869 -0.113145 0.040883042 -0.0974034 0.07935484 -0.11824349 -0.019140415 0.070118956
0.050743684 -0.06291475 -0.17590222 -0.050327525 0.010839503 0.058984056 -0.027226076 0.06887245
-0.19254364 -0.00688211 -0.08675547 -0.057200104 0.005192487 -0.06158391 0.041986648 -0.009339904
-0.024680143 -0.04446697 -0.18547563 -0.023501359 -0.030811338 -0.031820573 0.030572591 0.038190138
0.06660435 0.086585015 -0.04890106 0.061174616 -0.017387517 -0.039866872 0.07500703 -0.0021669492
-0.09554151 0.055978667 0.03165135 0.012612461 -0.0022828428 0.03877668 -0.07383185 0.07721231
-2.0259951e-05 0.036947362 -0.016854472 -0.033183545 -0.08524639 -0.05605717 0.016633486 -0.19510083
-0.015038872 -0.01534002 0.019714776 0.07372109 0.0158815 0.10378267 -0.08881748 0.019632474
0.055638492 0.06999376 -0.053803712 -0.047346745 0.07165462 -0.01573917 0.02774024 0.057934564
0.09442785 -0.052716333 -0.103660345 0.11366863 0.07992986 0.026719293 -0.023374567 0.013373061
-0.010090815 -0.009958027 -0.09199198 0.09666952 -0.037695482 0.04068639 -0.0006577857 -0.05941298
-0.088017814 0.038465112 0.09478258 -0.06986575 0.0015361682 0.016667476 0.058537796 0.019295529
-0.0034499627 0.09384204 -0.04811594 -0.054929715 0.051595002 -0.020168126 -0.0105486605 -0.11337781
-0.062191103 -0.001295048 -0.12107639 0.06686504 -0.06782313 0.049174264 0.023277948 0.050258517
0.048181057 0.05227098 0.05672239 -0.058991853 -0.09241659 0.027605878 -0.07070122 -0.0061361464
0.00038739888 -0.07198679 0.039459728 -0.026894215 -0.028886737 0.0493219 -0.16037326 -0.07281804
-0.003295993 0.06958159 -0.008839119 -0.06682411 -0.018754546 -0.027918551 -0.052577227 -0.06646896
-0.017515022 -0.007128193 -0.14409174 0.028147656 0.09332587 0.04198855 0.07401801 -0.0013264549
0.024505187 0.032069925 0.058899153 -0.07380854 0.026358336 -0.017337508 0.029485976 0.06710687
0.10880357 0.100962095 -0.025915103 -0.05679845 0.07819824 0.037363034 -0.10807963 -0.06954097
0.007206394 -0.030441536 0.032387387 -0.07663433 0.07187764 0.032753136 -0.022147162 -0.083831005
-0.05047082 0.0015953556 -0.072342545 0.031380292 0.019867115 0.061449863 -0.014381804 -0.035713505

advantage_stream.model.0.bias f4 [128]
00000000: 5a6c fc3e 179d 103f 1f02 60bf adf5 0b3f
00000010: 2295 0abf 4b12 193d 5cf9 d5bd 6882 9abe
00000020: 8015 693f e377 0a3f e5af 93bd 6912 ae3e
00000030: 26ab bc3e f447 79bf 517e 0ebd 2431 a0be
00000040: 0d48 393f 2d18 a63d bd22 18bd 1b16 57bf
00000050: d24c 6dbe aff3 da3e fa5e 7dbf 2d1a 303f
00000060: d3f2 1abf b46d 533f 23da 4a3f 64c3 68be
00000070: b224 cb3e 5e4d 213d 74c6 17bf 1f17 563b
00000080: 9ff1 30be 2d95 4dbe 2d91 f43e 7e61 45bf
00000090: 9205 58bf 2183 69bd 30f3 19bf c157 003f
000000a0: 9039 c2bd 0380 38be 297c 563d 7b12 35be
000000b0: af87 11be fd36 4c3f 929c 0a3f 5573 84bd
000000c0: 24f6 963d a589 3fbf 8808 803f 5251 c33e
000000d0: 7c73 823f 1573 243f 62bd d6be 1a6d 503f
000000e0: d9e0 7c3f 3deb 703f c4fc 56bd 0946 353f
000000f0: 1d63 693f 0cc2 6d3f 143b e43e 5974 e13e
00000100: dc72 3bbd 0c05 05bf 405b 4b3f e582 c6be
00000110: b1bb 1f3f 519f 3ebf 21f3 06bf a629 6e3f
00000120: 3a82 253f f494 963e 6ec3 0dbf 587b dcbe
00000130: 5d5d 303f cd5f 3fbd 8e91 4c3f 0593 32be
00000140: 0875 d03e 90bc 4a3f cffc a13d 8fab 92be
00000150: 7740 1f3f e9b2 32bf c604 26bf d5cd 1b3f
00000160: 4aa5 27bf c3a6 4b3f 3ddc e2be 69bc 183c
00000170: 3328 d1bd 85aa c53e e242 75be b636 a1be
00000180: f459 3dbf e74b dabd 66ef bd3e cc0e 3fbc
00000190: cb7d 9cbe 2a59 e4be 01bd 163d 05e7 40bf
000001a0: 3266 1cbf 3640 5bbe fc47 623f 2d87 5f3f
000001b0: 3bf0 8abe 3d60 e13e 9846 493f da2d 02bf
000001c0: 75cc 4f3f 9723 303f f107 eebe 36f2 fbbe
000001d0: 7a9e 93be fdd3 083f 1c55 7c3f 4a83 263f
000001e0: 56cf bbbe 1258 08be 0c99 5d3f 8ecd 833e
000001f0: e5d1 64bf 0c5a 5b3f 6964 40be c65b 18bd
0.49301416 0.564897 -0.87503237 0.54671746 -0.5413381 0.03737096 -0.10447952 -0.30177617
0.9104843 0.5408918 -0.072112836 0.3399842 0.36849326 -0.97375417 -0.034788433 -0.3128749
0.72375566 0.0811008 -0.037142504 -0.84018105 -0.23173836 0.4276404 -0.9897305 0.6878994
-0.6052677 0.8258927 0.792391 -0.22730786 0.39676434 0.039380424 -0.5928719 0.003266759
-0.17279671 -0.20076437 0.4776701 -0.77101886 -0.843835 -0.05700982 -0.601367 0.501339
-0.094836354 -0.18017583 0.052364502 -0.17682831 -0.14211915 0.79771405 0.5414516 -0.0646731
0.07371166 -0.74819404 1.0002604 0.3814798 1.0191493 0.642381 -0.41941363 0.81416476
0.9878059 0.94108945 -0.05248715 0.7080999 0.9116686 0.9287422 0.44576323 0.4403408
-0.045763835 -0.51960826 0.7943611 -0.3877174 0.6239577 -0.7446185 -0.52714735 0.930323
0.64651835 0.29410517 -0.5537633 -0.43062854 0.6889246 -0.046722222 0.799096 -0.17438896
0.40714288 0.79193974 0.079095475 -0.28646514 0.6220774 -0.69804245 -0.64851034 0.6086095
-0.65486586 0.79551333 -0.44308653 0.009322264 -0.102127455 0.3860666 -0.23951295 -0.31487054
-0.7396538 -0.106590085 0.3709671 -0.011661243 -0.30564722 -0.44599277 0.036801342 -0.7535251
-0.6109344 -0.21411213 0.8839109 0.87315637 -0.27136406 0.44018736 0.7862334 -0.50851214
0.8117135 0.68804306 -0.46490434 -0.4920823 -0.28831846 0.5344847 0.98567367 0.6504408
-0.36681622 -0.13314846 0.86561656 0.25742763 -0.89382774 0.85684276 -0.18788303 -0.037196897

advantage_stream.model.2.weight f4 [4, 128]
00000000: abb2 073d 9f29 1c3d adbe b13c 8c49 2d3d
00000010: 3856 b6ba efff 2c3d dec6 0b3c d0a0 0c3d
00000020: 9b51 ef3c e0f1 ef3c f6e4 8dbb e041 283d
00000030: 5571 0abd 950a 8d3b c9d4 c13c ca86 b0bc
00000040: 1f9d afbd d716 a43b 58cf 83bb e5b8 76bc
00000050: 1609 c03c 553a 5cbd 13f4 41bd 5561 5b3d
00000060: f748 64bd bf82 1d3d cb57 04be 1a69 663c
00000070: 401a 903c 91fe 3abb 9e2c 5c3c 0b39 883b
00000080: 0a82 82bc 63d0 ecbb f1a6 fc3c 0e85 e3bc
00000090: 3488 fbbc bb47 78bd 6aab 2bbd 5c04 bf3c
000000a0: e275 3b3c cdea 81bc 8b28 2b3d 8ea0 61bd
000000b0: 137a d4bc 8074 9db7 fafa 803c 5930 92bd
000000c0: ea0c 303d 06bb 053d 248f 38bd b64e 463c
000000d0: c15a 1bbd 73af 633c 7b24 c43c 7b09 453b
000000e0: 3835 e53c ccbb dc3d 702d 7fbc e78e 413d
000000f0: 70b2 bf3c b0ac 263d fd49 c9bc b59f 65bd
00000100: 3616 143d 01fb cf3b 5c80 113d 82f8 c0bb
00000110: 8eed 8eba 406a 723d a5ce c6ba 5f04 173e
00000120: f8d3 53bb 7251 033b 6c69 54bb f08f 253d
00000130: 2d22 58bd dee2 cebc 5a14 a33b bb40 9a3c
00000140: 3488 9e3c 91d4 3ebd e53a fb3c 64d5 c6bb
00000150: e8d2 9dbd 99e2 113b 198d 933d ae1f 853c
00000160: 4fc3 26bd ef0f 753c 7fca d0bc a983 9e3c
00000170: 0126 1dbc bc28 aa3c fcb3 e4bc 69f2 87bc
00000180: 243b 2b3c 1ba5 adbc b418 f73b 0287 5ebc
00000190: ceae 143c 897c 77bc 1209 553d 327a 443d
000001a0: 2ad2 56bd e609 1abd c973 203d 953b dc3d
000001b0: aa43 443d 70c4 ee3b e9c5 553d 1aa7 abbc
000001c0: e2c7 e7bd 8a9a 30bd 3567 433c c5ef 0dbd
000001d0: ab31 cfbc 9063 3b3c 0ed8 13bd e937 623c
000001e0: 6efb ce3b 6cbe 10bb 37cc 21bd 74ce b1bd
000001f0: 3edd 843b 1939 cebd c15b 52ba 0a2b a03c
00000200: 72ca 223d 102a 413c 765b 9bbc 943a ce3c
00000210: b0c1 eabb a7a5 aa3c bae7 62bc 28c2 543d
00000220: c78e 733d aa66 fcbc a815 c23c 1d6b cf3c
00000230: aff0 1b3d 9a73 30bd 446e 393d bf4b 5cba
00000240: de6c a83c 467e 4ebd fefd 683c f6c1 2c3d
00000250: 9e64 b6bc 9ec9 3f3d e8a0 5d3d cdd9 04bd
00000260: 4bd9 f4bc fc91 84bd e3e9 893c 8b66 253b
00000270: 8ad6 3b3c 2a85 18bc a1dc d1bb 84f1 cabb
00000280: d9f8 82bc 3861 d83b 0ac5 3b3d 34a6 953c
00000290: 7545 6a3d 592a 6e3d e9e9 44bd 433c b1bc
000002a0: 44e7 ad3a d93b e83b c986 95bc 7268 133d
000002b0: fda0 ccba bafb c9bc f867 1abe f946 afbc
000002c0: 9a4b a93c 3189 13bd 1f8e 0f3e af28 c7bc
000002d0: 0132 f8bc 2155 4f3d 9cad 5b3d 1373 ddbd
000002e0: 9d6c dd3c 3acd 0dbd e8c5 dcbc 1dd9 66bc
000002f0: 4357 6cba f553 c13c a9cf 7abc ad75 313d
00000300: 8cde 013b d27b a8bd 90c0 85bd 9f60 073b
00000310: 3fcc 6dbd 38f1 013d fc93 f13b 246f dcbc
00000320: 4dee 603d 48de eb3c e21c 573d c6d3 a3bb
00000330: 05cf 18bd 83b1 033a a3dd b8bd fbbc 803d
00000340: 5529 973c df9c 05bd 0276 cdbb 7b42 ae3b
00000350: 67ba 17bd edbc c73a b3ec e13c a206 c0bd
00000360: ecac 263d 4ff4 c7bd 5b59 a3bd 3583 393d
00000370: d80f 7e3d a5d3 313c 5620 11bb 7e24 0dbb
00000380: c6d1 e13b 0d2b 583d 386e 223d 4acf 8b3c
00000390: 3695 d53b 87ef cdbc 5fa1 653c d81c e83c
000003a0: f545 613c 1c7e 123c 59d2 953c e2c1 7ebc
000003b0: 21c9 353d 93ae 84bd 6cd7 04be cc9f 0dbd
000003c0: a4c0 ea3c e60b 35bd 7f21 b83c 9bba ad3c
000003d0: 24c6 1bbc 8127 68bc 8c22 d6bc 2997 7d3c
000003e0: 50be c53c 7e35 06bc 41e5 c03d 2071 24bd
000003f0: 778a 9f3d 848b 103d cad7 24bc e29f 303d
0.033129375 0.03812563 0.021697367 0.042306468 -0.0013911193 0.042236265 0.0085313 0.03433305
0.029213717 0.02929014 -0.004330273 0.04107845 -0.033799488 0.00430424 0.023661034 -0.021548647
-0.0857489 0.0050076055 -0.00402252 -0.015058731 0.023441833 -0.053766567 -0.047351908 0.05355962
-0.055733647 0.038454767 -0.12924115 0.014063144 0.017590642 -0.002853308 0.013438372 0.0041571907
-0.015931148 -0.00722699 0.030841323 -0.027773406 -0.030704595 -0.060615283 -0.04191152 0.023317508
0.01144168 -0.015859032 0.04178671 -0.055084758 -0.025937116 -1.8770108e-05 0.015744675 -0.07138128
0.042981066 0.032649063 -0.045058385 0.012103727 -0.037928347 0.013896811 0.023943176 0.0030065465
0.027979478 0.10778007 -0.015574798 0.047255423 0.023400515 0.04069203 -0.024571413 -0.05606051
0.036153995 0.0063470607 0.035522804 -0.0058889994 -0.0010904537 0.05918336 -0.0015167786 0.14747761
-0.0032322388 0.002003756 -0.003241147 0.040420473 -0.052766968 -0.025254663 0.0049767913 0.018829694
0.019352056 -0.046589438 0.030667732 -0.0060679186 -0.07706243 0.0022260307 0.072046466 0.016250458
-0.040713605 0.014957412 -0.025487183 0.01934989 -0.00959158 0.020771377 -0.027917854 -0.016595082
0.010451112 -0.021196892 0.0075407866 -0.013581993 0.00907488 -0.015105375 0.052010603 0.047968097
-0.05244652 -0.037607096 0.03917292 0.10753552 0.047916092 0.007286601 0.052190695 -0.020953704
-0.113174215 -0.04311613 0.011926462 -0.03465249 -0.025292238 0.011437312 -0.036094718 0.013807275
0.006316594 -0.0022086157 -0.039501395 -0.08681956 0.0040546944 -0.10069484 -0.00080245367 0.019551773
0.03974385 0.011789814 -0.01896451 0.025174417 -0.0071642026 0.020830942 -0.013849193 0.051942974
0.059462335 -0.030810673 0.023691967 0.02531963 0.03807133 -0.043078996 0.045271173 -0.0008403621
0.020559724 -0.050413392 0.014220713 0.042177163 -0.022264775 0.046823137 0.05410853 -0.032434274
-0.02988877 -0.06473157 0.016835159 0.0025238122 0.011464724 -0.009309093 -0.006404475 -0.0061933417
-0.0159878 0.0066033863 0.045842208 0.018267728 0.057195146 0.058145855 -0.048074637 -0.02163518
0.0013267775 0.0070872125 -0.018252747 0.03598828 -0.0015611943 -0.024656165 -0.15078723 -0.021396147
0.020665932 -0.036019508 0.14019059 -0.024311392 -0.030297281 0.050618295 0.053632364 -0.10812964
0.02702933 -0.034619547 -0.026949838 -0.01408985 -0.00090156886 0.023599604 -0.015308299 0.043325115
0.0019816486 -0.08226742 -0.06530869 0.0020656956 -0.058056112 0.031724185 0.0073723774 -0.026908465
0.05491476 0.028792515 0.05251778 -0.0049996106 -0.037306804 0.0005023705 -0.09026649 0.06286045
0.018452326 -0.032620307 -0.006270171 0.0053179837 -0.037043 0.0015238799 0.027578687 -0.09376265
0.040692255 -0.09763395 -0.079760276 0.045291144 0.06202683 0.010853683 -0.0022144518 -0.0021536644
0.006891462 0.05277543 0.039655894 0.017066617 0.0065180315 -0.02513863 0.014015525 0.028334066
0.013749589 0.0089412 0.018288778 -0.015549155 0.044381265 -0.0647861 -0.12972802 -0.034576222
0.028656311 -0.0442008 0.02247691 0.021207144 -0.00950769 -0.014169575 -0.02613952 0.015477934
0.0241386 -0.0081914645 0.09418727 -0.040146947 0.07790082 0.035289302 -0.010061214 0.043121226

advantage_stream.model.2.bias f4 [4]
00000000: eab1 86bd b897 883d 78ac 213c d7d7 a1bd
-0.06576903 0.06669563 0.00986778 -0.07902496
