logs/DuelingDQN/DuelingDQN-random-max-POM-G0-dueling-5e4-25_10_23_20-58-11/10/models/4000/DuelingDQN_checkpoint.pth (torch, 833227 bytes, 44 tensors)

feature_layer.model.0.weight f4 [128, 4]
00000000: 0abe d9bc 39a1 71bc 0f95 57be 47ad eb3d
00000010: 72a8 96be 2465 f1bd 8416 3d3e 9ee1 e03e
00000020: 2797 c63d d6e3 5dbe 664f e53c 6e56 80bd
00000030: f5f7 423e b265 513d fbe4 393e 7b6a ec3e
00000040: b14c 2fbe 773b 80bc fbbe f73d 3fd1 0abd
00000050: c025 44bd 1a8d e2be e0d3 dcbe 385d e6be
00000060: 227e fabe ea6c eebe 94ef c1be 50e5 e6be
00000070: 28be f0be 6435 503e 80a5 913e b7e4 a33e
00000080: e192 833e 63bc 253e a9c3 483e 0f87 8bbe
00000090: db5d dd3e 624a 2bbd f64a d23e 6f07 093e
000000a0: d058 c83e 4e5f c73e 01a3 9cbd f973 02be
000000b0: c07e 3d3d 6958 d1bc ddc9 8c3d a90b 6f3e
000000c0: 64a3 d9be 298c 40bd 9fb4 d3be e6fe df3e
000000d0: 5000 cbbe a9c7 933d ab18 28be 2e3a 733e
000000e0: 198d f7bc cce3 80bd cec0 b03e 5582 d33e
000000f0: 0039 b3be 03b0 18bf 26be 45bc e821 003e
00000100: bd47 d43d 4e8f e33e 5aaf 5c3e dc73 65be
00000110: fc7a a4be f0e0 c63e c7b0 f13e f8d5 68be
00000120: 0849 9bbe de40 273e f193 c0be fc91 0dbe
00000130: 9c65 14bf 704e e23d 6b92 4ebe de8b 95be
00000140: 1505 9fbe aca4 38be 46da 723e ae19 0f3d
00000150: 75d6 ce3e 90d5 43be b065 14be 3e5a ef3e
00000160: a012 03bf a5cd 5cbe bd9b abbe 7f66 de3e
00000170: 34d0 6c3e d384 3abe b038 6ebe 29f1 ed3d
00000180: 4a6c 40be 6575 243e 1d32 7abe 6c73 8cbe
00000190: 805e 663c e79d 953e 4721 df3e db9e fd3d
000001a0: 23c0 a7be 42e0 763e 7365 2b3e be51 2d3e
000001b0: b522 5abe e25a acbd f2c2 523e 93ac 3e3e
000001c0: 74ca a93e b879 9bbe 34c8 913e 22b8 54be
000001d0: 40d4 11bd d452 83be c847 00be 6b82 a13e
000001e0: c7cb cc3e 6c40 273e 4f1d bcbe d4fb 38be
000001f0: d92c a83e b98c 2dbe 35c4 b8be b60f 863d
00000200: 8f1a ebbe 3ec0 a9bc f882 68bd dd2f d73c
00000210: e8cf f3bd 18a7 95bd e0c1 9abe 5805 a9be
00000220: 5c20 1d3e cc0f de3e a0b1 ccbe 35cd ffbe
00000230: 3386 a0be e5b7 e53e de04 ce3e 3688 fbbe
00000240: 7888 ef3d 332a 7e3d 5106 c43e bfb8 39be
00000250: 672b 263e fa89 8abe 4e10 dfbe 5afc 803d
00000260: 5c84 77be 0063 00bd b81e e2bd 4c0f cfbe
00000270: 9d19 933e 0043 ab3e 9b48 b93e 0eb2 8a3d
00000280: debc f1be 08b8 ccbe 0037 57bd 0078 54bd
00000290: 1756 e0be c090 9b3e 269f cbbe 1674 813b
000002a0: f239 fdbe 421e e93d 8654 3dbc 6215 993e
000002b0: c4d1 183d b6df ecbe 83f2 d73e c046 edbe
000002c0: 68f3 683e 92ae b0be 6d8b 833e e5c7 d73d
000002d0: 0548 f93d fce3 06be 63f2 e23e 1d48 ea3e
000002e0: 2297 00bd a0c5 3bbe 3b14 633d 0580 9b3e
000002f0: eed9 df3e 40f8 dd3e 1741 633e c158 573d
00000300: 6e06 a9be b6ac c9be 73ea a53e bcba e6be
00000310: e08f 53bd e63b c53e a234 dabe ea89 bebe
00000320: 47c0 f1be 70ae 833e ddeb d93d 56d7 973e
00000330: 3904 e1bd cad8 35be b2d8 c83e db1c acbe
00000340: 1a7c b7be b839 9d3e 4ac0 d53e 2321 a1be
00000350: 156e 02bf fb26 ecbb 88f4 4e3c 36e2 ff3d
00000360: ac58 763e 05f8 5b3d 8968 b9be d353 6dbc
00000370: 1293 633e deb2 a83d f294 a1be 5923 21bd
00000380: eff6 9bbd f8fd 3dbe 6938 863e 1b9c 453e
00000390: 69bf c03e ba5b c43e f948 0bbd 97ef cfbe
000003a0: d794 173e b7ab 7f3e 90ba 983e 4b14 923e
000003b0: df9e 6e3e c414 a13d 46ba 703c dac1 543e
000003c0: f7f3 e2be 8fbb 743e b027 073e 426e e73d
000003d0: b57b cdbd 9f97 fb3d 022a bf3d 2d5e 03bf
000003e0: fc6d 57be 2fd0 813e 2ad6 b9be 3399 36be
000003f0: 4284 8a3e 949c 673e d61b bcbe 02e7 413e
-0.026579875 -0.014747911 -0.21052955 0.115076594 -0.2942539 -0.11786869 0.1846562 0.43922132
0.09696799 -0.21668944 0.027991962 -0.06266485 0.190399 0.051122375 0.18153755 0.46174988
-0.17119099 -0.015653355 0.120969735 -0.03389096 -0.047887564 -0.44248277 -0.43130398 -0.44992995
-0.48924357 -0.4656747 -0.37878096 -0.45096827 -0.47020078 0.20332867 0.2844658 0.32010433
0.25697997 0.16185145 0.19605888 -0.2725148 0.4323567 -0.041818984 0.41072816 0.13381742
0.3913026 0.389399 -0.07648278 -0.12739553 0.046263456 -0.025554853 0.0687444 0.23344292
-0.4250747 -0.047008667 -0.4134874 0.4374916 -0.39648676 0.072158165 -0.1641566 0.23752663
-0.030218648 -0.06293449 0.34522098 0.41310373 -0.35004425 -0.5964357 -0.012069261 0.12512934
0.103652455 0.4444527 0.21551266 -0.22407478 -0.3212508 0.3884349 0.47205183 -0.22737873
-0.30329156 0.16333339 -0.3761287 -0.1382522 -0.57967544 0.11050117 -0.20173042 -0.29208273
-0.31058565 -0.18031567 0.23716077 0.0349366 0.40397993 -0.19124436 -0.14491916 0.46748537
-0.51200294 -0.21562822 -0.33517256 0.43437573 0.23126298 -0.18214731 -0.23263812 0.11618263
-0.18791309 0.16060407 -0.24433179 -0.2743181 0.0140606165 0.29222032 0.43580076 0.12383815
-0.32763776 0.24108985 0.16737919 0.16925713 -0.21302302 -0.08415772 0.20582178 0.1862052
0.33162272 -0.30366302 0.28473055 -0.20773366 -0.035602808 -0.2564913 -0.12527382 0.31544814
0.3999922 0.16333169 -0.3674111 -0.18064815 0.32846716 -0.16948213 -0.36087194 0.065459654
-0.459187 -0.020721551 -0.056765527 0.02626794 -0.11904889 -0.07307261 -0.3022604 -0.3301189
0.15344375 0.43371427 -0.39979267 -0.49961248 -0.31352386 0.44866863 0.40238088 -0.49127358
0.11695951 0.062051963 0.3828607 -0.18136881 0.16227494 -0.27058393 -0.43567127 0.06298132
-0.24171585 -0.031344414 -0.110410154 -0.40441358 0.2873048 0.33449554 0.36188206 0.067722425
-0.47214407 -0.39984155 -0.052542686 -0.051872253 -0.4381568 0.30383873 -0.39769858 0.003950606
-0.4945827 0.11382724 -0.0115557965 0.29899126 0.037309423 -0.46264428 0.4217721 -0.4634304
0.22749102 -0.34508187 0.2569231 0.10536174 0.1217194 -0.13172907 0.4432555 0.45758143
-0.03139413 -0.18337107 0.055439215 0.3037111 0.43720955 0.43353462 0.22192799 0.052574877
-0.33012718 -0.3938958 0.32405433 -0.45064342 -0.05165088 0.3852226 -0.4261828 -0.37214595
-0.47217008 0.25719023 0.106406905 0.29656476 -0.109871335 -0.1775848 0.39227825 -0.33615765
-0.3583687 0.30708098 0.41748267 -0.31470594 -0.5094922 -0.0072067953 0.012631543 0.12494318
0.24057263 0.053703327 -0.36212566 -0.014485317 0.22224072 0.08237241 -0.3155895 -0.03934035
-0.07615458 -0.18553913 0.26214913 0.19297831 0.37646034 0.38351232 -0.03400514 -0.4061248
0.14802872 0.24967848 0.29829836 0.28531107 0.23302792 0.07865289 0.014692849 0.20777074
-0.44326755 0.23899673 0.13198733 0.11300327 -0.10033361 0.12284779 0.09334184 -0.51315576
-0.2103805 0.25354144 -0.36296207 -0.17831878 0.2705403 0.22618324 -0.36739987 0.18935779

feature_layer.model.0.bias f4 [128]
00000000: 256b a1be 2a93 78bd 5307 1f3f c41a 803e
00000010: 8f33 e1be ed08 9a3e 1042 ddbe c812 163e
00000020: 2333 d4bd 7bda dabe b4ac c4be 866a 9cbe
00000030: f19b bebe 04f4 9dbe 9f1e 253e ee6a 14be
00000040: 898b 8bbe 673d 8b3e 29c7 9dbe ae91 27bf
00000050: 35d8 333f edb9 0a3e b1f4 173f 5cdb 11be
00000060: 9cd9 d03e b8e9 ddbe 93b5 073f a5ff 873d
00000070: fe23 63be c411 92be cbc0 83be d115 56be
00000080: 5b6a 0b3e d8a8 12be f857 813d 59e2 f7be
00000090: da15 4bbe 4a47 d6bd 526d 85be 3945 2cbf
000000a0: 546e 85be c819 8bbd 0e31 3cbe 06d3 90be
000000b0: e36e 30be 1720 393d c80b 7fbe 396d 0f3e
000000c0: 7ad0 10bf aebb 6bbe 7ae4 7fbd f4d2 4abe
000000d0: 9557 253e 4648 8b3b 6107 153f d5ae b8be
000000e0: f5cc 66be 19e6 41be 6f33 dabd 2612 023f
000000f0: 40a7 423e 48de 353f 43bb 16bf 5a4b 18bf
00000100: 1bcb e33e 6c5d 3ebe 865e a5be 161b a93e
00000110: cff7 cbbc acf7 4e3d 36e6 ae3e d862 803e
00000120: 6769 1f3f 684b e0bd 609d 7bbe a142 323e
00000130: a096 d13d 4f24 9c3e c403 0e3e e61a 06bf
00000140: 2af9 aa3e 5e51 c1be ac6c 6abe 933a ac3d
00000150: dc0f 8b3e b487 9b3e cc56 28bd bf39 a03e
00000160: 5fa5 dfbe 1805 f33e e20b 5e3e 824a d13e
00000170: 672c e03e 11c5 15bf ebf4 b83d 80f3 bdbd
00000180: 2b36 f93e f96b 3e3f 57ef 28be 5df6 0cbd
00000190: d650 e3be 2c26 2f3e 3855 803d 7b34 21bf
000001a0: 3edf 003d 2d68 a43e e4f6 7abe 79ec 2a3f
000001b0: df24 c5bd 98cf 293f 0b17 103f 2052 9f3e
000001c0: df73 9fbe 7dd7 bd3d 02b5 d8bd 93ef 01bf
000001d0: 4caa 843e 9374 aabe 3305 b93e e985 cabe
000001e0: ef50 3b3e 8230 5a3e 8ae4 043e 705d 9a3e
000001f0: fe1f ab3d 0f12 763e a738 ebbe 13bb 15be
-0.31527057 -0.06068722 0.6212055 0.2502042 -0.4398465 0.30084935 -0.43214464 0.14655602
-0.10361316 -0.42744812 -0.38413012 -0.3055002 -0.3722835 -0.30850232 0.16124962 -0.14493915
-0.27254894 0.27195284 -0.3081601 -0.65456665 0.7025178 0.13547488 0.59357744 -0.14243835
0.40791023 -0.43342376 0.53011435 0.06640557 -0.22181699 -0.2852918 -0.25733027 -0.2090676
0.1361479 -0.14322221 0.06315607 -0.48414877 -0.19832554 -0.10462816 -0.26059967 -0.67293125
-0.26060736 -0.06792027 -0.18378088 -0.28285998 -0.172298 0.04519662 -0.24906838 0.14006509
-0.5656811 -0.23020813 -0.06247375 -0.19807035 0.16146691 0.004250559 0.58214384 -0.36070886
-0.22539122 -0.18935432 -0.106543414 0.5080894 0.19009113 0.710423 -0.5887949 -0.5948998
0.44490895 -0.18590325 -0.32298678 0.33028477 -0.024898438 0.050529167 0.34160012 0.25075412
0.62270206 -0.109518826 -0.24571753 0.1740823 0.102338076 0.3049645 0.13868624 -0.52384794
0.33393222 -0.3775739 -0.22893018 0.0840961 0.27160537 0.3037697 -0.0410984 0.31294057
-0.43680856 0.47464824 0.2168422 0.40877157 0.43783876 -0.58503824 0.090310894 -0.092749596
0.4867414 0.74383503 -0.16497551 -0.034414638 -0.4439761 0.17104405 0.06266254 -0.62970704
0.0314629 0.3211073 -0.24508244 0.6676708 -0.09626173 0.6633239 0.5628516 0.31117344
-0.3114309 0.09269617 -0.105813995 -0.50756186 0.25911176 -0.33292064 0.3613678 -0.3955529
0.18292592 0.21307567 0.12977806 0.30149412 0.083557114 0.24030326 -0.4594166 -0.14622144

feature_layer.model.2.weight f4 [128, 128]
00000000: b503 b1bd e2c1 b33c 3dda 05bd 658e ebbc
00000010: 0949 153c ba77 30bd c6df 6cbd 736b c23c
00000020: f699 443d ef24 8e3d 3590 a83c 7910 98bd
00000030: 2590 7b3c 4dff 863d bc67 0b3d 9a39 883d
00000040: 7e23 30bc a3f3 8fbd c6b4 97bd 1ece 723d
00000050: 35da 7f3d 3d19 dbba bab4 6d3d e823 c2bd
00000060: 9942 713d 93ba a8bd a777 82bc 58d4 88bd
00000070: fcd1 ddbd 2e96 983d ad0b 3e3c 14e0 5e3c
00000080: 3ccd 4cba a140 62bd 883e 5abd d054 b0bd
00000090: fab1 4a3a 46e6 81bd 951d 9fbd 2088 783d
000000a0: 6a39 12bd 9d91 29bd af3e 7fbd b2c5 933d
000000b0: 6cba 44bd 48e9 423b 38e3 583d 6c66 723c
000000c0: d4a0 483d 33ce 01bc 90f6 cfbd 64dc c4bd
000000d0: d843 ed3c 41c5 783d 02ed 8dbd 3417 85bd
000000e0: 7a98 ae3c 8716 f93c 9876 5ebc 0655 2bbd
000000f0: 64f7 133d 9703 1a3b 6571 0c3d 0c0c a53c
00000100: 28bc db3c 9e51 bcbd a004 96bd 1773 9cbc
00000110: fbcb e0bc 5756 8e3c 5a90 3e3d 8601 22bd
00000120: 6af4 493d d7e0 97bd 46ea 48bd 0f27 ccbd
00000130: 7b38 d1bd 2e42 8cbd a1ba 023d c95e 153d
00000140: 2b89 aebc 56e1 983c 2778 5f3d 9a92 c3bc
00000150: 29f7 aebc 6b37 f3bc a241 6fba f271 84bd
00000160: 62c8 29bd 130c bb3c 5ab2 65bc 9732 b73b
00000170: fe3f b43d 8e37 59bc fa56 813c 28df 57bd
00000180: 6d35 b13c 2c0d b6bd 9771 76bd 7c6c cb3c
00000190: d9d2 033d db29 2fbc e035 d1bd 17f4 a3bc
000001a0: c36f bdbd a0f1 333d 0084 6cba 91a2 953d
000001b0: 2e77 153d 2887 323d 5500 143c d308 a4bd
000001c0: 8970 733d bba6 9f3d 5733 ba3c 4b27 0bbd
000001d0: 9658 25bc 437b 933d 4cc3 013d 5ebe 8cbd
000001e0: d92d 8bbd 45bf c43b 6a45 c63c c1f1 edbc
000001f0: 003f 07be 5f88 b6bd 4e10 e9ba bb7b 123d
00000200: 264b 823d bb9b 473d 42c3 01bd 3470 8abd
00000210: 7378 d3bc 9a6e 6b3d a8c1 233c 033f 243d
00000220: 1fc1 83bd 0051 b7bd 7ff1 68bd a242 c63c
00000230: 54b3 343c 6a71 763c fe06 fdbc 686e f1bc
00000240: 3bfc a33d aa06 24bd ee31 703d ef42 61bd
00000250: 13af ea3c 9f80 3fbd 3639 f2bc 8434 cbbb
00000260: f839 1cbd 8a44 a8bc 916a 0fbd 6b79 32bc
00000270: 30de bd3b 9a7b 80bd 8642 633d a8b8 24bc
00000280: a0e5 8d3c d20c 1e3d 7b2f 973d f8ff bfbc
00000290: 2677 773d 4e05 6f3d 4e37 683d 0f3d 1c3d
000002a0: ec89 85bc 40db c9bb eaee b83c 3496 a33c
000002b0: 9439 f3bc db81 93bc 07ac 2f3d aa06 52bd
000002c0: c7ae 943d 60c8 4d3b 8375 7f3d 0dd3 a5bd
000002d0: 80dd 64bc a3c0 913d fb9e 85bd 4049 80bc
000002e0: ab2c 103d 0eda 3bbd e991 4abd 3589 933d
000002f0: 371b 7f3d 78c2 743c 0f4f 8e3d 7684 61bd
00000300: 040e a5bd ae69 233d c7e6 243d ad1a 24bd
00000310: 8066 353c 8af3 b03b 86ba 8dbd 4f94 87bd
00000320: c530 99bd b1c7 ad3b 893d 7f3b 900f 153c
00000330: 577d 623c c616 9fbd d062 13bc abc9 033c
00000340: e499 8f3c d518 3ebd 9361 a4bd c33f 423d
00000350: 85c1 dabb 5dd3 a23d 6fe2 563b c938 9e3d
00000360: 3d5c 813d 0d1b 43bd 4f3d 0bbd d49c 8dbb
00000370: 6d4b 963d 0049 64bc 329f 66bd 3698 21bd
00000380: e0d8 153b fc4d 94bc f281 113d 1292 c33c
00000390: 0b22 7dbd fd85 91bd f68b b3bc 36c8 8a3d
000003a0: 9aa7 a7bd 3ed3 8abd 2314 4dbd 0c15 d1bc
000003b0: 6613 403d a3d8 6b3d 9e3a acbc 7969 9c3d
000003c0: b828 07bc 61a6 a33d 4e96 1cbd 2142 15bd
000003d0: 0a1a 03bd 7192 89bd d3ef 3bbd 4e02 5ebd
000003e0: 18ad 89bd be44 03bd 3893 19bc d50d 5f3a
000003f0: 492a 88bd 2cd6 49bd bbbe ac3d 6362 2c3d
-0.08643285 0.021943036 -0.03267883 -0.028754422 0.009111651 -0.04308293 -0.057830594 0.023732876
0.04799839 0.06940638 0.020576576 -0.07425017 0.015354191 0.065916635 0.034034476 0.066516116
-0.0107506495 -0.07028892 -0.07407527 0.0592786 0.062463958 -0.0016715896 0.058033682 -0.09479505
0.058901403 -0.08238711 -0.015926195 -0.06681126 -0.10831067 0.074505195 0.011599463 0.013603229
-0.0007812565 -0.055237416 -0.05328229 -0.08609927 0.0007732209 -0.06342749 -0.07769314 0.060676694
-0.035699286 -0.041398633 -0.06231564 0.07215442 -0.04802935 0.0029741097 0.052951068 0.014794927
0.048981503 -0.007922697 -0.1015445 -0.09612349 0.028963014 0.06073499 -0.06929971 -0.06498566
0.02131294 0.03040625 -0.01357808 -0.04182913 0.036124602 0.0023500675 0.03428783 0.020147346
0.026823118 -0.09195255 -0.07325101 -0.019097848 -0.027441015 0.017375154 0.046524383 -0.039552234
0.049305357 -0.07415932 -0.049051546 -0.09968387 -0.10215851 -0.0684856 0.031916264 0.036467347
-0.021305641 0.018662136 0.054557946 -0.023873616 -0.02135809 -0.029689511 -0.00091269065 -0.06467046
-0.041450866 0.022832906 -0.014019573 0.0055907476 0.08801268 -0.013257874 0.015788544 -0.052703053
0.02163192 -0.08889231 -0.06016692 0.024832003 0.032183502 -0.010691131 -0.10215354 -0.020013852
-0.092498325 0.043931603 -0.0009022355 0.07306398 0.03649061 0.043585926 0.009033282 -0.080094956
0.059433494 0.07795473 0.022729559 -0.03397302 -0.010091921 0.07201245 0.03168039 -0.06872247
-0.06795854 0.0060042464 0.024203021 -0.029045941 -0.13207626 -0.089127295 -0.0017781348 0.03576253
0.0636199 0.0487325 -0.031680353 -0.06759682 -0.02581427 0.057478525 0.009994902 0.040099155
-0.06433319 -0.089509964 -0.056870934 0.024201695 0.011029083 0.015041688 -0.030887123 -0.029471591
0.080070935 -0.040045418 0.058641367 -0.054995473 0.028647935 -0.046753522 -0.029568296 -0.0062013287
-0.03814122 -0.020540494 -0.03501374 -0.010893206 0.005794309 -0.06273575 0.055483364 -0.010053791
0.017321408 0.038586445 0.07382103 -0.023437485 0.060416363 0.05835467 0.056693368 0.038144168
-0.016301118 -0.00616017 0.02257486 0.019969083 -0.029690541 -0.018006256 0.042888667 -0.051275887
0.07259899 0.003139995 0.062367927 -0.08096895 -0.013968825 0.07116821 -0.06524464 -0.015659928
0.03519885 -0.04586225 -0.049455557 0.072039045 0.062281813 0.014938943 0.06948673 -0.055057965
-0.08059314 0.039895706 0.04025915 -0.040064503 0.011071801 0.005400126 -0.06920342 -0.066200845
-0.07480005 0.005303346 0.003894659 0.009097949 0.013823829 -0.077680156 -0.008995727 0.008043687
0.017529435 -0.0464104 -0.08026423 0.04742409 -0.0066759014 0.079504706 0.0032788774 0.07725675
0.06316421 -0.04763322 -0.033994015 -0.004321674 0.07338605 -0.01393342 -0.056304164 -0.0394518
0.0022864863 -0.018103592 0.035524316 0.023873363 -0.061800044 -0.07105634 -0.021917325 0.067764685
-0.08186264 -0.067785725 -0.050068032 -0.025522731 0.0468935 0.057579648 -0.021024045 0.07637305
-0.008249454 0.07990719 -0.03822928 -0.03644002 -0.032007255 -0.067173846 -0.04588301 -0.054201417
-0.06722468 -0.03204798 -0.009373479 0.0008508836 -0.0664869 -0.049276516 0.084348164 0.042086016

feature_layer.model.2.bias f4 [128]
00000000: ae4c 2e3e e23a 4c3d 6b24 8c3d c2e8 3a3d
00000010: 3a1f d93c 8d4c 45bb 87a8 933d 293d 5c3e
00000020: 96d9 15bd d689 e23d 2d9a 18bd 87ea 33bd
00000030: 1fca 3a3d bf53 c53d cc71 2b3e 149b a5bb
00000040: ca1a 69bc 847a cfbd 140c 713d ae80 d7bc
00000050: 99bc 1ebd fb50 523c 13a8 3f3d ab65 86bd
00000060: 65c3 8bbc 1064 083f 9bdd 953d e935 2ebd
00000070: 376a 89bd 871e c2bb 9297 f23d e274 cd3d
00000080: ad10 0c3c acb6 853e d56d 23bd bd2b 5abd
00000090: 7387 933d 8dda fc3d 9cdf 3f3e bff1 a4bd
000000a0: 76c6 e5bd 78b9 a23c 22cd 1e3e 6c6b c7bc
000000b0: 3e89 743d 0e0e 0b3d 5dbc b73d 8da6 d63e
000000c0: 898c 9ebd 56bb 00bd 8426 7fbd eeb2 76bd
000000d0: ab1a 3a3d 5f6f 83bd 478b 903e 99af b5bc
000000e0: ff58 eb3e e888 753d 80fc e93c d203 753d
000000f0: 3bf7 063d 6256 7f3d 6421 9b3e 226f 323e
00000100: 1a15 dbbc ea20 4ebd 445f 2cbc 5d68 d6bb
00000110: 1b3d 603e d69a fa3c fa67 94bd acb9 94bc
00000120: ea1c 5d3e 04cd 0ebb 5e3a 34bd be4d 6a3e
00000130: 4eed 843d ea49 46bd 5c80 be3e 9672 e63e
00000140: 90da c5bd 71a9 063e b0c8 9e3d 2836 2d3d
00000150: 6938 aebd b838 25be 7808 453d 045e e3bd
00000160: 0a88 733d f738 2cbd f957 e83d bd3f db3b
00000170: c136 59bd 9c61 a53c 5405 933d fcdb 333d
00000180: 3e05 003d 34f6 473d 8e39 b83c 2b7b 5a3d
00000190: fd9c d1bc b0fb 643c 812e bcbd 9624 703e
000001a0: 3bdc 273e 46fa 0f3e 6e45 9c3e 8a36 67bd
000001b0: 589d e0bc 7da3 0fbd 477c 71bd dd42 753d
000001c0: e6a5 9d3c 90db bc3d 11cd 343d a86b 64bc
000001d0: c2a0 58bd 9b5e 9abd 6464 793c 8965 18bd
000001e0: 8c43 133f d02c 88bb 2997 643d cad0 233d
000001f0: 2f4e b0bd 18c4 2dbd f288 ba3e ae26 51bd
0.17021438 0.049860843 0.06842884 0.04563213 0.026504148 -0.0030105442 0.072098784 0.21507706
-0.03658446 0.11061446 -0.03725641 -0.043924835 0.045602914 0.09635114 0.16742629 -0.005053887
-0.014227578 -0.1013079 0.05884941 -0.026306476 -0.03875408 0.01283669 0.046791147 -0.065623604
-0.017060945 0.53277683 0.073176585 -0.04253188 -0.06709712 -0.0059240493 0.11845316 0.10032059
0.008548898 0.2611593 -0.039899666 -0.05326437 0.07203569 0.12346373 0.18737644 -0.08053922
-0.11219494 0.019863829 0.1550794 -0.024343215 0.059701197 0.03394895 0.08971474 0.41923943
-0.07741649 -0.031428657 -0.06229259 -0.060229234 0.04543559 -0.06417727 0.2823126 -0.022178458
0.45966336 0.059945017 0.028562784 0.059818096 0.03295062 0.06233824 0.30298913 0.17425206
-0.02674346 -0.050324358 -0.01052076 -0.006543203 0.2189831 0.03059141 -0.072463945 -0.018154941
0.21593061 -0.002178968 -0.044000976 0.22881219 0.06490575 -0.048410334 0.37207305 0.45009297
-0.09660828 0.13150574 0.07753122 0.042287976 -0.08506853 -0.16134918 0.04810378 -0.111019164
0.05945591 -0.042046513 0.113449045 0.006690948 -0.053030733 0.020188145 0.07178751 0.043910965
0.031255 0.048818782 0.022488382 0.05334012 -0.025587553 0.013976023 -0.091885574 0.23451456
0.16392605 0.14060315 0.3052172 -0.056448497 -0.027418777 -0.035068024 -0.05895641 0.05987822
0.019244146 0.09221566 0.04414088 -0.013941683 -0.052887686 -0.07537576 0.015221689 -0.037206206
0.57524943 -0.0041557327 0.05580822 0.03999404 -0.08608662 -0.042423338 0.36432606 -0.05106228

value_stream.model.0.weight f4 [128, 128]
00000000: 20e0 953b 6f41 a43d 408f feba 9a48 38bd
00000010: 8c89 9dbc d8bf 86bd 801f 053b 0cdb 993c
00000020: 7051 cbbc 3dba 45bd 9684 76bd 72cd eabc
00000030: fdb8 93bd 0bde b33d 1757 8fbc ded3 2fbd
00000040: 0833 743c 7904 1abd cdb3 9f3d 2e1a 5f3d
00000050: 7cef 8d3c 1396 a5bd 9cdd b93c 2bc8 8f3d
00000060: 2b78 51bd 647b cfbc 403c f5bc 695a 11bd
00000070: 0e37 3c3d 9057 adbb 44eb ef3c 2e3f 8ebd
00000080: 2578 aa3d 5d64 88bd a4b3 84bd 3184 913d
00000090: 1bb8 07bd f6cd 593d 7c64 46bd c6ba 493d
000000a0: 00be 07bc 5ed2 3f3d 3015 adbd 99d4 81bd
000000b0: 3a69 a0bd 80d3 313a b00c e03b 4fdf 5a3d
000000c0: 561c 733d 22a0 4a3d 40fc cb3b e6cd abbd
000000d0: b09f 97bd 9e21 653d 17c3 a93d 58b3 50bc
000000e0: 9d2f 283d 64f9 cfbc 23f6 94bd f7a8 893d
000000f0: 389d 99bd 7e29 85bd 6a50 763d 385b 5d3c
00000100: d36f 833d b460 893c 6342 853d e614 7a3d
00000110: d5fb a23c ea64 243d d8ac 073d dd2c 66bd
00000120: 2875 a43c 96b5 1a3d 74cc 903c 205d 953c
00000130: ee7d 87bd 8050 0bbd c725 8abc 11b4 bcbd
00000140: 006e 74b9 634a f63b 9a68 373d 01de 413b
00000150: b00d 033d 3a70 92bb b685 88bd 04c7 113d
00000160: 6af5 97bd 1b46 9d3d b0dd 303c f032 2abc
00000170: 3ac4 4e3d d798 9cbc b2f4 6e3d 79a8 933d
00000180: ac27 62bd 1aeb 253d faae 5e3d 45f8 94bd
00000190: 227f 563d e3a8 4cbd e0a1 233c a618 86bd
000001a0: ed98 acbd 2328 913d 8c43 603d d875 58bc
000001b0: fa65 aebd f814 05bd d3fa aa3d e010 c8bd
000001c0: 5fc3 70bd a27f 14bd 84f2 d23c 1208 86bd
000001d0: e036 513b 061a a4bd e34f a43d 8a79 94bd
000001e0: 015d 313d 080a 573c a411 95bd aa0e 00bd
000001f0: 686a 4c3c c508 2c3d 83a1 0cbd f781 78bd
00000200: 09d8 973c 3dbe afbc ee7d 88bd 311d 913d
00000210: 84cd 0bbc 2487 8d3c fd8c 86bd faeb 893d
00000220: c2c8 983d 027a f13c 9675 253d 99f6 46bb
00000230: 0382 833d beb2 ac3b cd4b 6f3d 8352 cb3c
00000240: 6d04 593c 0896 f6bb 53ca 9dbd 7ab3 973d
00000250: 0417 ad3c d344 b8bc 400e 083d 86d5 8ebd
00000260: 763f 4c3d f3c9 58bb f88d 8dbb 5ebe 95bd
00000270: dbcb af3c a14e 95bd 577c 983c 9235 aebc
00000280: 4d1b 763d 76a2 3f3d b872 91bd 8394 a9bd
00000290: e61f 92b9 984f 38bd 728e 933d 05f2 ac3d
000002a0: eeec bf3c 2a0a 193d a034 9b3d 42c4 203d
000002b0: 7262 8abd 9f39 d9bc aa18 433d 8548 313d
000002c0: 4062 113d 5ceb 9abd 60fc 3fbc ba66 973c
000002d0: c9c4 103d 2402 8fbc 7a90 3d3c ae6f 27bd
000002e0: 1408 a53d b24d 1a3d e934 8abd 2597 acbd
000002f0: d0a7 a53c 3407 9cbd f4d3 0d3d 4acf 053d
00000300: 1575 8d3d 9035 f6bc dc29 813d 50c7 13bd
00000310: c106 98bd e656 af3c ea9f 853c 4e98 943c
00000320: b0fd 8fbb 13fe 5a3c 9902 9c3d e634 11bd
00000330: 0189 56bc aab9 323d c187 903d 7b6c e9bc
00000340: 8f08 6a3d ce7d 3dbc 1b71 af3d a5a3 803d
00000350: 2b1b 09bd 6012 5b3b 4070 05bc 0148 6a3d
00000360: 7dee 5bbd ae5d 89bc 9050 873d d245 7ebd
00000370: a88d 93bc 51df 5a3d 10c8 f9bc aac9 ee3c
00000380: 4ae5 343d 0644 5d3d a89f 883d 5ae1 5abd
00000390: 4f6d 65bd d367 ad3d eb5f bcbc b420 9e3c
000003a0: c521 84bd f464 91bb 050a 7cbd 70d2 663c
000003b0: e4d2 16b9 64d7 c4bb 1892 6f3d c874 a73d
000003c0: 57df d7bb c094 96bd 494f f63c d3b9 a13c
000003d0: 8617 103d 9e6b 29bd f7b5 d6bc aa0a 88bd
000003e0: 9e8c 71bd 2429 033d e020 14bb e15c 9a3c
000003f0: 81e1 a8bd 84b8 033c 11cb 523d 6fe5 de3a
0.004573837 0.08020293 -0.0019421354 -0.044991113 -0.019230627 -0.0657956 0.0020312965 0.018781208
-0.024819106 -0.048273314 -0.060185038 -0.028662417 -0.07213018 0.08782586 -0.017497582 -0.04292666
0.014904745 -0.03760192 0.07797966 0.054468326 0.01732611 -0.08085265 0.02268868 0.07020601
-0.05113999 -0.025327392 -0.029935956 -0.035486612 0.04595094 -0.0052899793 0.029286988 -0.06945644
0.08323697 -0.06659768 -0.06479576 0.07105292 -0.03313456 0.053174935 -0.048435673 0.049250387
-0.008285046 0.04683148 -0.08451307 -0.06339378 -0.078325704 0.000678353 0.00683745 0.05343562
0.059353195 0.04946912 0.006225139 -0.083888814 -0.07403505 0.055940263 0.082891636 -0.012738071
0.041061033 -0.025387473 -0.07273509 0.067216806 -0.0750069 -0.06502055 0.060135283 0.013510518
0.06417813 0.016769744 0.06506803 0.061055087 0.019895473 0.0401353 0.03312382 -0.05619513
0.020075396 0.03777083 0.017675616 0.018232882 -0.06615816 -0.034012318 -0.016863717 -0.092140324
-0.00023310632 0.007516192 0.04477749 0.0029581788 0.031995475 -0.004468945 -0.06666128 0.035590187
-0.07419856 0.07679387 0.010795042 -0.010388121 0.050480105 -0.019115848 0.05833883 0.07209868
-0.055213615 0.040507413 0.05436609 -0.07273916 0.052367337 -0.04996575 0.0099873245 -0.0654767
-0.08427606 0.070877336 0.054751918 -0.01321169 -0.08515544 -0.0324907 0.08348622 -0.09768844
-0.05878007 -0.036254533 0.025750406 -0.06544508 0.0031923577 -0.08012776 0.0802305 -0.07249744
0.043301586 0.01312495 -0.07278755 -0.031263985 0.012476541 0.04200055 -0.034333717 -0.06067082
0.01853563 -0.021453017 -0.06664644 0.07085646 -0.008532885 0.017276354 -0.0656986 0.06734462
0.074601665 0.029477123 0.04039534 -0.0030359386 0.06421282 0.005270331 0.0584219 0.024819618
0.013245684 -0.0075252093 -0.07704606 0.07407279 0.021129139 -0.022493755 0.033216715 -0.0697432
0.04986521 -0.0033079355 -0.0043199025 -0.073117 0.02145951 -0.07290388 0.018613977 -0.021265779
0.06008463 0.046785794 -0.07101959 -0.082802795 -0.00027871056 -0.04499778 0.07204904 0.08444599
0.023428407 0.03736321 0.07578397 0.039249666 -0.06757058 -0.026516734 0.047630943 0.04328205
0.03549409 -0.075644225 -0.011717886 0.018481601 0.03534392 -0.017457075 0.01157009 -0.04087799
0.080581814 0.037671752 -0.06748373 -0.08427266 0.02022162 -0.076185614 0.034625962 0.03266839
0.06907097 -0.030054837 0.06306812 -0.03607875 -0.07423163 0.021403741 0.016311605 0.01813903
-0.0043942556 0.01336624 0.07617683 -0.03545084 -0.013094188 0.043634094 0.07057143 -0.02849411
0.05713707 -0.011565639 0.08566495 0.06281213 -0.033473175 0.00334277 -0.008144438 0.057197575
-0.053694237 -0.016768303 0.06607163 -0.062078305 -0.018011883 0.053435627 -0.030490905 0.029148895
0.04416398 0.05401995 0.06671077 -0.05343757 -0.056012448 0.084670685 -0.022994956 0.019302703
-0.064517535 -0.0044370834 -0.061532993 0.014088258 -0.00014383678 -0.006007122 0.058488935 0.08176571
-0.0065879035 -0.073525906 0.030067103 0.019741928 0.035178684 -0.041362397 -0.026209814 -0.06642659
-0.058971994 0.032021657 -0.0022602603 0.018843116 -0.082461365 0.008039597 0.05146319 0.0017005632

value_stream.model.0.bias f4 [128]
00000000: cc57 d8bd 38e0 94bd 8a8b bf3e f81e 283e
00000010: 56f0 1abd 3f96 163d d037 2b3d c3c9 b53d
00000020: 46fd a33b 048c b8bd 3218 45be 7497 8c3d
00000030: 60ee 2bbd 0f70 c8bd a4b3 34be 61d8 82bd
00000040: 0f15 06be 9b18 1bbe 7073 febd 508d 56bc
00000050: 8bd9 3f3e 93e2 8abe 7c9a 4fbd 0f2e 1cbd
00000060: 3ded 1a3e 53e8 e73d 5a6a 0b3e ee7a 423d
00000070: 34a7 c93a ea8d 3ebc 6a93 a53a 4b8f 31be
00000080: fb75 21bd ed1f 94bd 0a7c bbbd b16c 2e3e
00000090: ae6c a3bd 3852 debd ca81 d73d 3a96 33be
000000a0: 0994 36be f5ab 47bd 20ca e93d 9336 6a3e
000000b0: d261 423e d28a 7b3d d72e 86bd 6a6b 58bb
000000c0: 6f6f f0bd fcce 20bd 5247 18be 5499 fbbd
000000d0: 0bd1 b73c 0b02 543e f9c6 bdbb d053 8ebd
000000e0: 763f 843d de39 c03c 557d cebd c923 cdbd
000000f0: 45cc b2bd b7a7 25be cc46 61bd 33e8 683d
00000100: 538c 1d3e a55e 923e b0e5 dbbc 7921 97bd
00000110: 6e14 c2bd c9d0 9dbd 6500 13bb 1c77 233d
00000120: 00c9 cfbd 41cf 99bd c42c 523c 28dd e83d
00000130: b109 513d eb69 38be 1b48 ea3b 7163 ba3d
00000140: 8e7e 863d e9f1 223e be0c 233d 84e1 cc3d
00000150: c351 573e c9b7 38be c8a5 e43d e024 b23e
00000160: 59ee 29be eb9c 093c edfe 9bbd b645 513b
00000170: c0ec d2bc bdf2 60bd 6c19 113e 62bf 8a3b
00000180: ba79 c03d 4eee 373c 1eff 80bd ef8e 4fbe
00000190: f1b3 e53a 8743 56bc 2232 5b3e 2447 bbbd
000001a0: 4c68 1d3d 0823 2fbe 5ca7 0abb 7b0d 9b3c
000001b0: 0b02 283e 2b7d eebd acc1 15bd aab3 44be
000001c0: 7893 903c b4f3 d33d 99da ddbd 40e6 d43d
000001d0: 2761 07be b80f b73c d4d0 363e 8ab7 0bbe
000001e0: a964 07be ffd4 d8bc 1ff7 813c 8b16 8abd
000001f0: 481a 34bd 90f9 203e fd10 72bd 0c32 4cbd
-0.10563621 -0.07269329 0.37411147 0.16418064 -0.03782686 0.03676438 0.041801274 0.088763736
0.005004558 -0.09011081 -0.19247511 0.06864825 -0.04197538 -0.097869985 -0.17646652 -0.06388927
-0.1309397 -0.15146105 -0.12424362 -0.013095215 0.1873533 -0.27125987 -0.050684437 -0.038129862
0.15129562 0.11323609 0.13614789 0.047480516 0.0015384913 -0.011630515 0.0012632434 -0.17339818
-0.039419156 -0.07232652 -0.09154518 0.1703365 -0.079797134 -0.10855526 0.10522802 -0.17537776
-0.17829908 -0.048747975 0.114155054 0.22872381 0.18982628 0.061411686 -0.06551903 -0.0033023008
-0.11740004 -0.039259896 -0.14870957 -0.122851044 0.022438547 0.20703904 -0.0057915417 -0.0694958
0.06457417 0.023465093 -0.10082499 -0.10016591 -0.087303676 -0.1617726 -0.054999158 0.056862067
0.1538556 0.28587833 -0.026842922 -0.07379431 -0.09476553 -0.07705838 -0.0022430655 0.039908513
-0.101457596 -0.07510234 0.012828056 0.11370307 0.051034633 -0.18009154 0.007149709 0.09100998
0.06567107 0.15912594 0.039807074 0.10003951 0.21027283 -0.18038858 0.11164433 0.34793758
-0.16594829 0.008399229 -0.076169826 0.003193242 -0.025747657 -0.054918993 0.14169854 0.0042342404
0.093982175 0.01122625 -0.0629866 -0.20269369 0.001752494 -0.013077623 0.21405843 -0.09144428
0.038429543 -0.17103207 -0.0021156883 0.018927326 0.1640703 -0.11644968 -0.036561653 -0.19209161
0.017648444 0.10349217 -0.1083271 0.10395479 -0.13220654 0.022346362 0.17853099 -0.13644233
-0.13221993 -0.026468752 0.015864907 -0.06742581 -0.043970376 0.157202 -0.059098233 -0.049852416

value_stream.model.2.weight f4 [1, 128]
00000000: 8981 1d3b 119f 1fbd b64e 213d a771 8cbc
00000010: 846f 95bc 08da 9bbc 1bf7 a7bd 77ae b93c
00000020: f191 173d f05c 72bd 9e0a d3bc 8e06 32bc
00000030: 968c 67bd 9462 fe3c 82af 7cbb 132d 78bd
00000040: 1d70 7bbb 3340 a23a 2f79 b4bc 94e9 103c
00000050: 7534 373d 6f24 5fbd 1907 36bd 270e fb3c
00000060: b348 e23c df21 523d 6f21 363c 05b5 45bd
00000070: 4d5b 2ebd c5b9 30bc 6b77 babc 24fd b33c
00000080: 6185 5abd d649 67bd f58a c038 900e a43d
00000090: cfba afbb cc1d f83c 88ae 803d 0e95 2cbd
000000a0: c70e 8b3d 5ced 80bc aad0 90ba d9a7 013d
000000b0: ab70 723c 7744 93bd a064 413c 1862 c03c
000000c0: 2bf2 9dbc 992a 413d 736f 1d3d 4e59 70bc
000000d0: 6b4e 2e3d 7df6 db3c 0969 413d 4a6c 8ebc
000000e0: bee0 84bc 75c2 edba 0a34 193a 46a4 763d
000000f0: 953a 94bc bc7a eebc dd9b e63a c434 0f39
00000100: edc3 e83c 9a94 c6bd a78f 1f3c c5c9 653c
00000110: dcd8 b1ba 48cd 093d f0dc 283d c721 78bc
00000120: 4f3e 9a3a 4837 acbc 500b b13b f01c ca3c
00000130: 5759 1f3a e8ee 20bd 8b87 da3a d1cd 7f3d
00000140: d232 283d 185e 933c fc8f c23b dae2 a53d
00000150: b528 4b3d 770d 03bd 1302 763d 1220 803d
00000160: db22 80bc b894 22bd fc63 e7bc 82e3 40bc
00000170: de87 293d 31a3 023d 8ce9 4d3c 3c01 2fbb
00000180: d3ec 693d 02ed 48bd ad70 cfbc 5f1a 6fbd
00000190: 1cf2 b13c c67b bab8 34f6 a43d df98 eabc
000001a0: 8e58 7a3d fb6f c5bc e83c 513d 3e14 85bc
000001b0: 0883 c5bc cb86 053b e419 973c a958 43bd
000001c0: 4f10 37bd 2df1 29bd 5843 61bc 79fd ab3b
000001d0: eb58 dcba ebfb f43c 7570 7d3d 3d54 48bd
000001e0: 3536 84bd 9241 08bd 4a8c 04b9 ef4d 94bd
000001f0: dc4a 4bbb 7a40 6b3d 7bb0 823d 5682 bbbb
0.0024033508 -0.038970057 0.039381705 -0.017144037 -0.018241651 -0.019024864 -0.082014285 0.0226662
0.037004415 -0.059170663 -0.025761899 -0.010865821 -0.056530558 0.031052865 -0.003855676 -0.06058986
-0.0038366385 0.0012378752 -0.022030441 0.008844752 0.04472776 -0.054478105 -0.044440363 0.030646397
0.027622556 0.051301833 0.01111637 -0.048268337 -0.04256754 -0.010786478 -0.022762021 0.021971293
-0.053349856 -0.0564669 9.181156e-05 0.0801059 -0.0053628455 0.030287646 0.06283289 -0.042134337
0.06789928 -0.015738182 -0.0011048515 0.031654213 0.01479737 -0.07190793 0.011803776 0.023484275
-0.019280514 0.047159765 0.038436364 -0.014669729 0.042555254 0.026850933 0.04721931 -0.01738562
-0.016220447 -0.0018139618 0.0005844241 0.060215257 -0.01809434 -0.029111259 0.0017594058 0.000136572
0.028413737 -0.09696312 0.009738839 0.014025156 -0.0013568657 0.033643037 0.041226327 -0.015144772
0.0011767837 -0.021022454 0.00540296 0.024672002 0.00060786813 -0.03929034 0.0016672475 0.06245214
0.04106409 0.017989203 0.0059375744 0.08099909 0.049599368 -0.031995263 0.060060572 0.06256117
-0.01564162 -0.03969261 -0.028245918 -0.011772992 0.04138934 0.031893913 0.012567889 -0.0026703617
0.05711062 -0.049054153 -0.025322283 -0.05837476 0.021721892 -8.892226e-05 0.08054772 -0.028637348
0.06111961 -0.024101248 0.051083475 -0.016245004 -0.024110332 0.0020374532 0.018444963 -0.047691975
-0.044693287 -0.04148977 -0.013748966 0.005248722 -0.0016811168 0.02990528 0.061874826 -0.04890846
-0.06455652 -0.033265658 -0.00012640763 -0.07241427 -0.0031019961 0.057434537 0.06381317 -0.0057223244

advantage_stream.model.0.weight f4 [128, 128]
00000000: 2e6a e6bb 60fc 873c 9862 a73d 21b8 abbc
00000010: 75be e03d 524e 003c 501a ddbb 1f44 173d
00000020: b8ca 51bd 7e2c 8f3d 72a3 cabc 9080 983d
00000030: 6b89 c13c ea86 cf3c 94f0 adbd 100f 803c
00000040: 954b 553d 9217 93bb 5042 4e3d 9568 96bd
00000050: e681 80bc 1b24 2338 373a d63c 3b95 903d
00000060: 4cc8 7c3d 3c2a 663d 2231 21bd d530 8e3d
00000070: 3518 81bd 821a bc3d b533 b8bc bb1f 993d
00000080: a447 863d b8d6 18bd 6f68 a4bd 0bf8 32bd
00000090: a9fc e0bb f230 653d 379c 1cbd eb01 a43b
000000a0: 14fa 333d d647 dabc 50e0 20bd 9022 acbc
000000b0: 8b91 94bc 9782 ad3d c997 e83c 8912 40bc
000000c0: 43e4 613c f188 993d 7024 8cbd ed7d d53c
000000d0: 9016 243d 0936 233c b7cb 70bd bf8f 3bbd
000000e0: 316f b43c 4ce8 cabd 06ba c53b a684 103d
000000f0: 6774 76bd 9d6d 07bd 8c4c 1abc 6e18 45bd
00000100: 4a21 e5bc febf 8abd 90d3 843d 15e9 5dbd
00000110: f719 c5bd ca12 06bd 5a9a a0bc 49fd 2b3a
00000120: 25d6 0ebd fd68 8cbd d2b3 8ebd b778 b43d
00000130: d539 16bd 0e71 173d 5f8b 13bd 1acf d4bc
00000140: 9ea1 e2bc 6b17 08bc fa74 273d 6825 4a3d
00000150: 28c7 863d c64d 403d 5ccc 9cbc ac34 aeba
00000160: 4fdd 36bd b152 80bd 5b4d 973d c3fe 27bd
00000170: bf1f b9bb 8850 b0bc f78b 94bc ea53 a23d
00000180: fd6e c9bc 930b 643c 683c b0bd 8783 81bd
00000190: b98e 433d 693f 7cbd 80a8 2e3d 74d6 ad3b
000001a0: 89bd 13bd ff22 36bd 1a76 933d ec85 c0bc
000001b0: be3d 57bd 0ba1 32bd 5063 483c f05e 9f3d
000001c0: 849b 513d 319d a33c 2d84 51bd 3c92 7a3d
000001d0: 7338 15bc d2eb d8bc d57a 8e3d 6003 0ebb
000001e0: 8cc0 333d e04a 0b3d d9a4 013d 1970 253c
000001f0: d95e f3ba 4836 b93c 4256 28b9 0798 9d3d
00000200: 0c08 37bd 1e56 173d b268 afbc 458f a13d
00000210: cabf 873c 43b5 a4bd 00f2 02bb e6fb 87bb
00000220: 8c7c ddbc 6eee 9bbc ade6 2e3d bc6b 6b3d
00000230: 95ff db3c 7c91 b43d bed8 bbbc 33ab 23bd
00000240: a68f 4b3d 4911 053d a0e6 61bd c217 61bd
00000250: 99c0 813d 964f 7bbc 6601 193c 7d68 203d
00000260: 7fe3 553d 3266 9f3d d823 b3bd 6bac ad3d
00000270: 427e 933d 6356 8b3c ec21 fa3c 77bd 99bc
00000280: f253 25bc 3eb2 b03c 1b79 b8bd 298a b53d
00000290: d880 40bd 01f2 1a3d b2cc a63c 37f0 8fbd
000002a0: 195e b4bd e603 3c3c 20fa be3d 46a8 96bd
000002b0: 23af 8b3d 1998 eb3c 5846 3d3d c5b3 9d3c
000002c0: c518 62bb ba59 3e3d 3815 45bd e9ae ddbc
000002d0: 13fe 363d 7f29 54ba 8214 2bbd 65d4 9bbd
000002e0: 875b 0b3d 062c 2f3c 0e22 88bd fcfd 8a3d
000002f0: becc 72bd e343 873d 5178 9f3d 05b8 853d
00000300: 359d b03d ff09 493d 32e6 6f3d d962 11bd
00000310: c6e0 413b e0da 063d cdcb 90bd 47d2 7e3c
00000320: 6c05 0f3a f455 54bd ed66 9a3d 4791 953b
00000330: 334e e9bc 5eb7 153d 325e b0bd 29db 41bd
00000340: 9601 58bb f52f a33d 709b 7b3c 978a 99bd
00000350: aa69 3e3b 1c3f 8bbd 3be8 33bd ec9a 62bd
00000360: b915 91bd 5d4f fdbb 1653 8fbd ef6e a9bb
00000370: 072f 973d c8fc 743d 617a 1a3d 2708 d5ba
00000380: 0d9f 8a3d 607e 083d 5c63 573d 8e9f aabd
00000390: 6cfa 8a3d 4819 6dbc 3b61 7c3d 7e4c 503d
000003a0: c889 b83d 7d0d a03d 879d 0dbd 7ea5 68bd
000003b0: 5ff2 da3c 6e58 7e3d bd35 80bd ad7b 703c
000003c0: 6622 9a3a 3318 dbbb 8344 f63c 76f2 9cbd
000003d0: d34f 583d 4bee 4f3d 2d90 a0bc 302c b2bd
000003e0: 5b32 04bd 401b d13a 9a9b 6abd 6d03 953d
000003f0: aeb0 0a3d f91e 813d f985 6b3c e3d3 46bd
-0.0070317006 0.016599834 0.08173102 -0.020961823 0.10973827 0.007831173 -0.0067475215 0.0369302
-0.05121872 0.06990908 -0.02473614 0.07446396 0.023625096 0.025332887 -0.08493152 0.015632182
0.052074034 -0.004488894 0.05035621 -0.07344166 -0.01568694 3.8895854e-05 0.026150806 0.070597135
0.061714455 0.05619262 -0.039353497 0.06942908 -0.06303445 0.091847435 -0.022485593 0.07476755
0.06556633 -0.037314147 -0.080277316 -0.043693583 -0.006866057 0.05595488 -0.038234916 0.0050051115
0.043939665 -0.026645582 -0.03927642 -0.021012574 -0.018135807 0.08472174 0.02839269 -0.011723169
0.013787332 0.074968226 -0.068428874 0.026061023 0.04006058 0.009961613 -0.058788028 -0.045791384
0.022025676 -0.09907588 0.0060341386 0.035282753 -0.060169604 -0.03306352 -0.009417664 -0.048119
-0.027969975 -0.06774901 0.06485665 -0.054177362 -0.09624093 -0.032732762 -0.01960485 0.0006560875
-0.034872193 -0.068559624 -0.06967892 0.08812087 -0.036676247 0.03697305 -0.036021587 -0.02597766
-0.027664956 -0.0083063645 0.040883042 0.04935208 0.06580955 0.04694917 -0.019140415 -0.0013290844
-0.04464465 -0.06265772 0.07387801 -0.041014444 -0.0056495364 -0.021522775 -0.018133147 0.079261616
-0.024589056 0.013918775 -0.086052716 -0.06323915 0.047743533 -0.06158391 0.042641163 0.005305106
-0.036069427 -0.04446697 0.072002605 -0.023501359 -0.052549116 -0.043610614 0.012230709 0.0778178
0.051173702 0.019972416 -0.051151443 0.061174616 -0.009107697 -0.026479635 0.06957022 -0.0021669492
0.0438848 0.034006953 0.03165135 0.010097527 -0.0018567696 0.022608891 -0.00016053862 0.076950125
-0.04468541 0.036947362 -0.021412227 0.078886546 0.016570944 -0.080423854 -0.001998067 -0.0041499017
-0.027036928 -0.01903459 0.04270046 0.05747579 0.02685527 0.088168114 -0.0229305 -0.03995819
0.04969754 0.032487188 -0.05515158 -0.054954298 0.06335563 -0.015338799 0.009338712 0.039162148
0.05221891 0.07783164 -0.08747071 0.08480152 0.07201816 0.017008966 0.030533753 -0.018767102
-0.010090815 0.021569367 -0.09007474 0.088642426 -0.046997875 0.03782845 0.020361278 -0.07028239
-0.0880701 0.011475539 0.09325051 -0.07356314 0.06820514 0.02875905 0.046209663 0.01925076
-0.0034499627 0.04647229 -0.04811594 -0.027060943 0.044675898 -0.00080933416 -0.041767605 -0.076088704
0.034022834 0.010691648 -0.066471204 0.06786725 -0.05927729 0.06604745 0.077866204 0.065292396
0.08623735 0.0490818 0.05856914 -0.03549466 0.0029583438 0.03292358 -0.07070122 0.015553064
0.0005455825 -0.051839784 0.07539163 0.0045644375 -0.028479671 0.036551826 -0.08611716 -0.047328148
-0.003295993 0.079681315 0.015356883 -0.07497137 0.002905468 -0.067991465 -0.043922644 -0.055323526
-0.070842214 -0.007730408 -0.06998269 -0.005170695 0.07382017 0.059811383 0.037714366 -0.001625304
0.06768618 0.033323646 0.05258499 -0.08331214 0.067860454 -0.01447136 0.061616164 0.0508542
0.09010655 0.07815073 -0.034574058 -0.05679845 0.0267269 0.062096052 -0.0626025 0.014677924
0.0011759519 -0.0066862344 0.030061966 -0.07663433 0.0528105 0.050764363 -0.019599998 -0.08699834
-0.032274585 0.0015953556 -0.0572773 0.07276044 0.0338599 0.06304736 0.014375203 -0.048541915

advantage_stream.model.0.bias f4 [128]
00000000: 91a5 703e f126 533e 23a8 08be cd53 e13e
00000010: 8ed1 ccbd d606 bc3d 3fd2 b9bd 427e 0abe
00000020: 5734 1c3f 1f41 983e 64e7 c7bd d296 283e
00000030: 2f0d 013e 1a0f 86be a05b 8c3c 7bb9 dbbd
00000040: da0d b93e 6ae4 0d3e 4d07 663d f8cc 2fbe
00000050: 2725 9dbd 5354 6b3e 18b9 f9be 1e19 403e
00000060: a2d2 67be 1d57 243f eaf7 803e b224 9ebd
00000070: 46d0 1d3e 4791 abbd 5668 c0be 0d9f dcbb
00000080: 0377 2cbd e199 63bd 4081 053e f170 a8be
00000090: ea7d 8abe a0c9 0a3d 945b 1fbe 26c6 8a3e
000000a0: a2cc bfbc d38a 29bd bfee 7d3d 27b1 55be
000000b0: 96b7 803d 8dce 883e 8d37 9e3d a77e 88bd
000000c0: 6e35 c13c 426f 82be 7f09 0c3f cf42 1c3e
000000d0: 4a97 153f f239 ba3e 57f8 26be fa5e d43e
000000e0: 9c75 163f ad6c 0b3f 149f 933c 9fa8 973e
000000f0: d984 263f 0b77 f03e 9e8d 863e 2dc8 8c3e
00000100: 23fb 6bbd 1e72 81be 62ed 083f c86e c5bd
00000110: daf8 843e b759 d2be 3249 cebd c08c bb3e
00000120: db59 303e 11fd 143e d5c2 27be cbf1 f8bd
00000130: 1593 fe3d c09e 05bd c98a 113f 24b1 96bd
00000140: 75a2 013e 147f b03e 2b60 ef3c 95d9 67bc
00000150: 3037 0c3e a82b e4be ef9d 4dbe 941e a33e
00000160: bb1d c0bd d606 0c3f a50c 39be cf0a 58bd
00000170: 6be3 76bd 03ae 283e 7b91 acbd 080f 40be
00000180: 318f eebe b2b6 11bd d151 7b3e 8c0b b23d
00000190: 1a7d 82bd 78c5 05be 8716 283d e36b 5abe
000001a0: 7ecb 37be b0d1 01be 189b b33e f15b cd3e
000001b0: 43e4 28be f6b3 6d3e 7181 d43e 6afa debc
000001c0: 1ad4 e83e 53af 113f 43a3 87bd 6436 50be
000001d0: 49f9 c1bd 079b c73e fa24 043f 338f d53e
000001e0: bd37 e4bd fa0d df3b b278 6c3e d427 913d
000001f0: b743 77be 91aa ab3e 79c9 07be 1cd3 b13d
0.23500659 0.20620324 -0.13345389 0.44009247 -0.10000907 0.09180991 -0.090733044 -0.13524726
0.61017364 0.29737183 -0.09760931 0.16463783 0.12602685 -0.26183397 0.017133534 -0.10728737
0.3614338 0.13856664 0.056159306 -0.17168033 -0.07673102 0.22981386 -0.48774028 0.18759581
-0.22638944 0.64195424 0.25189143 -0.07721843 0.15411481 -0.08377319 -0.37579602 -0.0067328275
-0.042105686 -0.055566672 0.13037586 -0.32898667 -0.2704919 0.03388369 -0.15562278 0.271043
-0.023413006 -0.04139216 0.061995264 -0.2086836 0.06285016 0.26720086 0.07725439 -0.06664782
0.023585048 -0.25475508 0.5470199 0.1525986 0.58433974 0.36372334 -0.16305672 0.4147871
0.5877321 0.544627 0.01802019 0.29620835 0.6504646 0.46965823 0.2627992 0.27496472
-0.05761255 -0.25282377 0.5348722 -0.096402705 0.2597111 -0.41084072 -0.10072555 0.3663082
0.17221777 0.14549662 -0.16382916 -0.12155493 0.124303974 -0.0326221 0.56852394 -0.07358006
0.12659629 0.34471953 0.029220661 -0.014150997 0.13692927 -0.44564557 -0.20079778 0.31859267
-0.09380671 0.5469793 -0.1807123 -0.052744683 -0.060275476 0.1647263 -0.08426186 -0.18755734
-0.4659362 -0.035574622 0.24542929 0.08693609 -0.063715175 -0.1306361 0.04103711 -0.21330218
-0.1794872 -0.12677646 0.35079265 0.40109208 -0.16493325 0.23213181 0.41505006 -0.027219016
0.4547432 0.5690815 -0.066229366 -0.20333248 -0.094713755 0.38985464 0.5161892 0.41710815
-0.11143444 0.006807086 0.23092917 0.07087675 -0.24146925 0.3352857 -0.1326045 0.08682844

advantage_stream.model.2.weight f4 [4, 128]
00000000: 897d 51bd 8084 7a3d 30f3 933d ac18 063e
00000010: 3c12 3cbd 3207 f03c 74e4 d4bb 4f35 343d
00000020: f1a9 81bd f8fb 16bd 1acc 4abd d61f 7fbd
00000030: 9817 81bd 43cd 45bd 21e0 333d 9f9e 35bd
00000040: 7036 89bd 498d 683d 86f5 42bd 16a6 54bc
00000050: 24fe 4d3d 788f 6abd 05bf b3bd 32e0 9a3d
00000060: 5931 90bd 6cdf 8bbc 8c40 8cbd a96d e03a
00000070: 179b 6ebc a8a7 03bd 13d8 4abd 6520 7a3d
00000080: f3a0 443d 9b03 343d c904 0a3d 2d67 dcbd
00000090: 4c83 98ba 8499 16bd fc85 7f3d 3cb6 a43d
000000a0: 31dc d43c 5670 46bd 8600 83bc 8d40 e5bc
000000b0: 4dc5 6f3d 16d7 b8bc c440 2f3d ebfe e4bc
000000c0: c661 f7bc 8314 4f3d 65a3 acbd 1b64 073d
000000d0: 173b 92bd 3e60 14be 369f 8abd 7605 5abd
000000e0: 6d3b bfbd ff65 cd3d 0eb0 0c3c 959e ec3b
000000f0: 4492 5c3d 9bf0 843d c73e acbd d024 69bd
00000100: 7d2f 2c3c 9113 123d 2f0b 7a3d 1789 43bc
00000110: e990 75bc b162 e43d 3e10 a1bd 681a 043e
00000120: b730 423d 2bf0 523d 5eac 92bd 7918 2a3d
00000130: 8aef 7fbb 57fd 713d 03ab 1ebd 92a3 8c3d
00000140: 3c62 3e3d f7a0 6cbd dd02 a33d cf15 8fbd
00000150: 5cab 29bd 9ce4 743d adf2 8c3d 5260 7dbd
00000160: b88b 94bd 3ead a83d f4a0 e5bb 040a 2b3d
00000170: f309 d1bc b17f dcbc 8f40 cdba 37a0 033d
00000180: f5ed 3e3d dd13 64bd c35e 1f3d 7f8a 973c
00000190: 8d83 363c 94b5 e9bc d920 6e3d 42cb 893d
000001a0: 86fe 84bd c6ea 5ebd b497 e8bb 593c a13d
000001b0: ae00 28bd 18f7 09bd 2a28 b13d 6320 4abd
000001c0: a0f4 4bbe 4779 75be 45ae 5d3c 12f6 d83c
000001d0: 4657 a13c 28e8 123d 1c3f 06bd e25c 83bd
000001e0: dc88 023d 3a65 cdbc cc5f e5bc db4e 50bd
000001f0: 3928 333d c8a0 33bd fc00 82bc f51f 513d
00000200: 6890 093c e2df df3c ad6a 023d 996d 02bd
00000210: 2275 81bc 394e 593c 11cb 5ebb 7f8b 4ebc
00000220: 374e 373e 785f 00be a539 f9bc fd38 96bb
00000230: a61a 5dbd f035 95bd 3307 a73d 8204 4fbd
00000240: a50d 8cbd 2330 3d3d 354c 103d c90f 37bd
00000250: 2b2c 263d 212f 133c 002f 8d3d eb3d 1ebc
00000260: 0755 6cbd d65f 3dbe 06e3 7cbc 0b74 9cbd
00000270: eed7 a3bd d476 0cbd 37fb 6d3d 65ad 463d
00000280: efb1 cdbc b474 313d 9594 8a3d b544 ca3c
00000290: 7975 173d a1c3 6e3d 4fa1 2bbc a3f7 14bd
000002a0: 5508 693d 93ba 85bc 8e54 9dbc 22ca 5ebb
000002b0: 25bd 763c 30dd cbba a4bd 28bc 729a 32bc
000002c0: 6922 aa3c e2c1 8fbd cf72 eb3d 992c 183b
000002d0: a09b f33c aaad 013e 3d97 753d cee5 cebd
000002e0: a2ab 7b3d d93b 48bd fa85 f8bc 655c dbbc
000002f0: de28 61bd dc7a bcbd fa70 1bbd bc94 203d
00000300: 5a34 913c 8b98 29bd a6fb 17be 1bef 71bd
00000310: 1c02 2dbd 467a 273d 2156 f6bc 1e64 a2bd
00000320: 05fd 863d e5e3 b13c ccac 9a3d 9af9 2c3c
00000330: 4794 f7bb add3 443d db3a 03be a1be 9c3d
00000340: 1905 033d 0cba 0f3d 8271 f6bc 4b40 a1bd
00000350: 7a88 23bd b7a6 933d 75de 443d 7008 96bc
00000360: 1139 15bc ce7c 13be 8137 ad3c 3d54 fd3c
00000370: 7ac1 bdbb d8f2 8fbd bf4b 13bc 5389 78bc
00000380: 63f1 203d 0d31 e4bb c0c9 013d ab30 28bd
00000390: 8f00 8b3d 9992 64bb b0a0 203d 2c51 443d
000003a0: 6917 88bd 8a02 67bd ec8c 15bd 7b6f 29bd
000003b0: f6f5 6a3d a5ba 90bd eb08 b1bd f7f3 98bd
000003c0: f09b 41bd 2658 41be dea3 3a3d 3c84 72bd
000003d0: 8902 043d 245d b0bd a568 f73b 754c b23d
000003e0: d0d6 343d 3525 673d 200f 283d 2acd 89bc
000003f0: 5b9b a43c a745 4d3d e119 81bd e332 933c
-0.05114511 0.061161518 0.07224119 0.13095349 -0.045915827 0.029300306 -0.0064969603 0.04399615
-0.06331242 -0.03686139 -0.049511053 -0.06228622 -0.06303328 -0.048291456 0.043914918 -0.044340726
-0.06699836 0.056775365 -0.04759743 -0.012979051 0.050291196 -0.05726573 -0.087766685 0.07562293
-0.07040662 -0.01707431 -0.06848249 0.0017122525 -0.0145633435 -0.03214231 -0.04952247 0.06106605
0.048005056 0.04394875 0.03369597 -0.10761867 -0.0011635809 -0.036767498 0.062383637 0.08042571
0.025983902 -0.048446976 -0.01599146 -0.027984882 0.05853777 -0.022563498 0.042786375 -0.027953586
-0.03019799 0.05055667 -0.084296025 0.033054452 -0.07140177 -0.14489838 -0.06768648 -0.053227864
-0.093375064 0.1002922 0.008586897 0.007221053 0.053850427 0.06491204 -0.08410411 -0.056919873
0.010509369 0.03566319 0.06104582 -0.01193454 -0.014988163 0.111516364 -0.07864426 0.12900698
0.04740974 0.051498573 -0.07161783 0.041527245 -0.0039052689 0.059079494 -0.03873731 0.06867136
0.046480402 -0.057770696 0.079595305 -0.069865815 -0.041423187 0.05978833 0.06882224 -0.061859436
-0.07253212 0.08236168 -0.0070077125 0.0417576 -0.02551744 -0.026916357 -0.0015659499 0.032135215
0.046613652 -0.055683006 0.03890873 0.018498657 0.011139763 -0.028528966 0.058136795 0.067282215
-0.06493859 -0.054423116 -0.0070981625 0.078728385 -0.041016273 -0.033682913 0.08650239 -0.049347293
-0.19917536 -0.23972045 0.013530319 0.026484523 0.019694936 0.035865933 -0.03277503 -0.064142
0.0318688 -0.025072683 -0.027999781 -0.050856452 0.04373953 -0.043854505 -0.01586961 0.051055867
0.008396246 0.027328435 0.031840015 -0.0318428 -0.015802924 0.013263279 -0.0033995549 -0.012606501
0.1790093 -0.12536418 -0.030422995 -0.0045844303 -0.053980492 -0.072856784 0.0815567 -0.05054141
-0.0683854 0.046188485 0.035228927 -0.04469279 0.040569466 0.008983404 0.0689373 -0.009658317
-0.057698276 -0.1849359 -0.015434986 -0.07639321 -0.0800017 -0.03429301 0.058100905 0.048505206
-0.02510926 0.043324187 0.06766621 0.024690965 0.036977265 0.058292035 -0.010475471 -0.036368977
0.05689271 -0.016324317 -0.019205358 -0.0033994992 0.015059744 -0.001555359 -0.01029912 -0.01090108
0.020768361 -0.07019402 0.114965074 0.0023219942 0.029737294 0.12663904 0.059958685 -0.101024255
0.06144298 -0.0488852 -0.030337323 -0.026777456 -0.054970615 -0.09203121 -0.03794954 0.039204344
0.017725158 -0.041405242 -0.1484209 -0.05906592 -0.04223834 0.040888093 -0.030070366 -0.07929252
0.065912284 0.021715114 0.0755249 0.0105575565 -0.007555518 0.048053432 -0.1281542 0.07653547
0.031987283 0.035089538 -0.030083422 -0.07873591 -0.039925076 0.07209533 0.048063714 -0.01831457
-0.009107844 -0.14403078 0.02114463 0.030923957 -0.0057908865 -0.07028741 -0.008990227 -0.015169459
0.039292704 -0.006963855 0.031686544 -0.04106204 0.06787216 -0.0034877418 0.039215744 0.047928974
-0.0664509 -0.056398906 -0.036511347 -0.04136608 0.057363473 -0.070668496 -0.08644279 -0.074684076
-0.047267854 -0.18881282 0.045566432 -0.05920814 0.03222898 -0.08611515 0.0075503164 0.08705989
0.044150174 0.056431968 0.04103005 -0.016821463 0.02009361 0.050115254 -0.06303764 0.0179686

advantage_stream.model.2.bias f4 [4]
00000000: 17ee 5fbc 32f2 203d 2e5e 33bd fb56 22bd
-0.013667605 0.039293475 -0.04379099 -0.039633732
