logs/7-HIER-BCS/34-DuelingDQN-random-max-BC-simple-25_10_24_19-19-25/10/models/37000/DuelingDQN_checkpoint.pth (torch, 884427 bytes, 44 tensors)

feature_layer.model.0.weight f4 [128, 23]
000000 1d a1 df 3f 50 be 28 3e 9f 43 c8 3e 9e 6a f4 3f
       1.7471043 0.16478848 0.3911409 1.9095037
000010 cf 38 42 40 0f c3 91 40 00 6e 59 40 f6 fe 95 40
       3.0347173 4.555061 3.3973389 4.687373
000020 03 1a 35 40 72 34 9d 40 a2 6c 2e 40 cc 2d 0e 40
       2.8297126 4.912652 2.7253804 2.2215452
000030 0b 35 20 40 ab c6 9c 40 1d 1c a8 40 95 50 2d 40
       2.5032375 4.8992515 5.253432 2.7080433
000040 d2 e5 2e 40 74 74 8c 40 6c 72 99 40 97 2d 4e 40
       2.732777 4.3892155 4.7952175 3.2215326
000050 57 f7 58 40 bf 80 59 40 45 97 5a 40 9e 05 cc 3f
       3.3900964 3.398483 3.4154828 1.5939214
000060 c1 9e 4d 3e 34 b8 83 3f 15 54 e4 be 16 ad 82 40
       0.20080091 1.0290589 -0.445954 4.0836287
000070 50 99 88 40 c1 25 87 40 17 3b 97 40 a1 68 89 40
       4.268715 4.2233586 4.725963 4.294022
000080 db 18 88 40 11 cb 66 40 70 94 66 40 29 27 73 40
       4.253034 3.6061442 3.60281 3.7992651
000090 39 3c 80 40 01 86 75 40 5c ed 7b 40 f3 d5 94 40
       4.0073514 3.836304 3.9363623 4.651117
0000a0 00 26 5e 40 ec 61 81 40 03 07 86 40 fa ab 80 40
       3.4710693 4.0432034 4.188356 4.020993
0000b0 eb e5 85 40 84 0f 89 40 54 f1 d3 3f de a1 6f 3e
       4.184316 4.283144 1.6558022 0.23401591
0000c0 b9 0b be 3e 60 8e fe 3f eb cd 34 40 34 26 98 40
       0.3711832 1.9887199 2.8250682 4.7546635
0000d0 c3 ee 5c 40 fa 30 88 40 47 6a 60 40 7b 08 9b 40
       3.4520729 4.2559786 3.5064867 4.844785
0000e0 8c e6 4d 40 71 b6 25 40 2e a0 28 40 0d 12 8f 40
       3.2171965 2.5892603 2.6347766 4.4709535
0000f0 2b bf 91 40 68 71 25 40 57 4f 4b 40 67 92 85 40
       4.554586 2.5850468 3.1767175 4.1741214
000100 4b f1 84 40 bb a6 67 40 40 f2 69 40 ee 5f 6a 40
       4.1544547 3.6195514 3.6554108 3.662105
000110 c5 f6 68 40 ae 65 db 3f e9 0c 20 40 4b 46 ea 3f
       3.6400616 1.7140405 2.500788 1.8302702
000120 02 e9 61 bf 87 40 81 40 02 df 54 40 04 4b 75 40
       -0.88246167 4.039127 3.3261113 3.8327036
000130 64 fa 4e 40 67 63 9e 40 67 60 4a 40 9d 18 92 40
       3.2340326 4.949634 3.162134 4.5655046
000140 1f a2 92 40 ec cb 9b 40 b5 3a 5c 40 f8 45 56 40
       4.58229 4.868643 3.4410832 3.3480206
000150 c7 b0 8f 40 7d f6 87 40 d9 e1 37 40 32 7f 63 40
       4.4903293 4.248839 2.8731596 3.5546384
000160 05 d7 8f 40 1c 94 87 40 87 2b 85 40 8b e9 8c 40
       4.4949975 4.2368298 4.1615634 4.4035087
000170 c8 8b 04 40 cf 48 5f be b6 0c e4 3e 7c a2 07 40
       2.0710316 -0.21805118 0.44540948 2.1192923
000180 e3 e7 3f 40 45 a0 94 40 2c 1d 44 40 e9 3c 8e 40
       2.9985282 4.644564 3.0642805 4.4449353
000190 e6 1e 3d 40 e5 44 ad 40 e4 35 3e 40 24 ff 15 40
       2.955011 5.41466 2.9720392 2.3436975
0001a0 da a2 19 40 75 a8 a5 40 ce cb aa 40 28 40 29 40
       2.4005647 5.1768136 5.3373785 2.6445408
0001b0 f1 62 37 40 85 df 8e 40 a8 f5 98 40 2d 81 4e 40
       2.865414 4.464785 4.7799873 3.2266343
0001c0 5a b1 67 40 1d a0 64 40 49 04 74 40 85 ca c7 3f
       3.6201997 3.5722725 3.8127615 1.5608679
0001d0 7f 44 fc 3f ba f8 c9 3f c7 c2 a8 bf 6a 34 53 40
       1.9708403 1.577903 -1.3184441 3.300074
0001e0 36 e4 93 40 d7 e2 88 40 00 f2 8f 40 f1 12 61 40
       4.621608 4.2776904 4.498291 3.516781
0001f0 d3 ab 88 40 bc 44 50 40 05 62 2a 40 0d fa 56 40
       4.2709746 3.2541952 2.6622326 3.359012
000200 c1 65 5f 40 1f 89 83 40 e9 85 70 40 1b df 67 40
       3.4905856 4.1104884 3.7581732 3.6229923
000210 6e 52 61 40 25 f6 7c 40 bb f0 7c 40 b9 d5 57 40
       3.520656 3.9525235 3.952193 3.3724196
000220 21 14 81 40 6d 9e 86 40 cb 3e da 3f b8 ba 47 bf
       4.033707 4.206839 1.7050413 -0.78019285
000230 b1 0c c3 3e 9a f8 13 40 f5 31 61 40 52 90 89 40
       0.3809562 2.3120484 3.5186741 4.298867
000240 9b f2 46 40 b5 8b 8e 40 b9 19 3f 40 23 88 9f 40
       3.1085575 4.454554 2.985945 4.9853683
000250 aa cf 3f 40 19 e0 0b 40 25 ce 17 40 27 29 9a 40
       2.9970498 2.1855528 2.371957 4.8175235
000260 bb 1d 9e 40 85 10 19 40 d9 37 42 40 9d f2 85 40
       4.941129 2.3916333 3.0346587 4.185866
000270 04 e0 94 40 f1 91 5a 40 b2 b0 6e 40 27 a1 6d 40
       4.6523457 3.4151576 3.7295346 3.712961
000280 ea 20 5e 40 5b 9d ab 3f 77 4a 11 40 74 be dc 3f
       3.470759 1.3407396 2.27017 1.7245622
000290 e6 b0 a0 bf 01 62 99 40 b5 84 91 40 f8 50 91 40
       -1.2553985 4.7932134 4.5474496 4.541134
0002a0 61 dc 92 40 60 75 90 40 fc ed 97 40 f2 14 9e 40
       4.5894017 4.514328 4.747801 4.940057
0002b0 40 99 93 40 e5 d4 96 40 b9 1b 9e 40 00 0d 97 40
       4.6124573 4.713488 4.940884 4.720337
0002c0 46 9f 8c 40 10 0a 8c 40 23 41 97 40 d7 4b 9a 40
       4.3944426 4.3762283 4.7267013 4.821758
0002d0 02 b7 a1 40 f9 92 9c 40 06 e1 a4 40 31 67 a0 40
       5.05359 4.892941 5.1524687 5.0125966
0002e0 8f 51 52 bf f5 c2 09 40 32 b2 dd 3f 3d a5 20 40
       -0.821557 2.1525242 1.7320006 2.5100853
0002f0 6f 6b a0 40 b1 38 8a 40 1b 6b 61 40 0d 93 78 40
       5.0131145 4.3194203 3.5221622 3.8839753
000300 9d 6d a6 40 be 5e 52 40 32 27 ad 40 51 06 9a 40
       5.2008805 3.2870326 5.4110346 4.813271
000310 04 fe 9b 40 20 7f 75 40 3e 42 72 40 7b c1 80 40
       4.874758 3.835884 3.785293 4.023618
000320 97 24 8c 40 e7 30 5f 40 d9 63 84 40 4d bb ac 40
       4.3794665 3.4873598 4.1371884 5.397864
000330 70 5a a1 40 3b b9 99 40 0f 35 9e 40 2a 04 9e bf
       5.0422897 4.803861 4.943977 -1.2345021
000340 e4 b9 10 40 b7 6f ee 3f d4 94 2d 40 dc e3 92 40
       2.2613459 1.8627843 2.7122087 4.590315
000350 5a 89 6c 40 73 71 5e 40 07 8b 5c 40 5b 8e b2 40
       3.6958833 3.4756744 3.4459856 5.5798774
000360 b7 03 4d 40 09 ff a9 40 99 a7 98 40 94 60 96 40
       3.2033517 5.312382 4.7704587 4.6992893
000370 87 20 4f 40 8b 7b 5a 40 f2 95 86 40 95 fb 92 40
       3.2363603 3.4137905 4.205804 4.5932107
000380 57 6f 36 40 1c d0 57 40 9f ad a9 40 e3 2e a2 40
       2.8505456 3.372077 5.302444 5.0682235
000390 a5 24 a0 40 94 51 9e 40 46 23 c9 3f 20 82 51 bf
       5.004473 4.9474583 1.571389 -0.8183918
0003a0 a3 de 15 3f 83 a8 05 40 1e 6b 68 40 0d 78 9c 40
       0.5854284 2.0884101 3.631538 4.8896546
0003b0 82 c5 59 40 ac cc 97 40 89 20 22 40 83 d0 af 40
       3.40268 4.7437344 2.5332358 5.494203
0003c0 b4 b5 0a 40 9b e7 12 40 3b 74 3d 40 e6 19 ab 40
       2.1673403 2.295386 2.9602191 5.3469114
0003d0 e6 4e aa 40 1a ba 06 40 8d 9a 2c 40 08 24 8c 40
       5.322131 2.1051087 2.696933 4.3793983
0003e0 2d 85 9f 40 04 ea 4c 40 c5 ac 56 40 3f 19 66 40
       4.985007 3.2017832 3.354295 3.595291
0003f0 bb 7a 70 40 b8 12 f2 3f 15 02 83 bf 35 f2 4f 3f
       3.7574909 1.8911963 -1.023501 0.81228954

feature_layer.model.0.bias f4 [128]
000000 33 f8 5c 40 f4 a1 8c 40 c1 23 65 40 40 22 80 40
       3.4526489 4.3947697 3.5803072 4.004181
000010 53 a1 68 40 43 98 78 40 14 ef 5b 40 79 05 9b 40
       3.6348464 3.8842933 3.4364672 4.844418
000020 9c e1 9b 40 ae a0 94 40 5b 63 5b 40 d0 dc 76 40
       4.87129 4.644614 3.4279392 3.8572273
000030 0c d1 84 40 53 52 69 40 be ae 76 40 12 6a 87 40
       4.1505184 3.6456497 3.8544154 4.231698
000040 4c 59 5d 40 2c fc 89 40 80 22 7c 40 86 7e 98 40
       3.4585752 4.3120327 3.9396057 4.7654448
000050 93 9d 82 40 70 8d 6d 40 0e 4d 99 40 28 4a 73 40
       4.081735 3.7117577 4.790656 3.8014011
000060 e2 c5 77 40 43 5c 59 40 09 4d 88 40 4c 92 66 40
       3.8714528 3.3962562 4.2594037 3.6026793
000070 9d f0 83 40 17 4c 7b 40 4f 78 6f 40 37 bd 67 40
       4.1231217 3.9265192 3.741718 3.6209238
000080 40 f0 85 40 fa 52 71 40 7a 5b 88 40 10 b8 93 40
       4.1855774 3.7706895 4.2611666 4.6162186
000090 85 0b 73 40 17 0a 99 40 44 d3 91 40 b9 cc 89 40
       3.797578 4.7824817 4.5570393 4.3062406
0000a0 e9 41 67 40 ce 81 56 40 f5 65 98 40 d4 59 9a 40
       3.6133978 3.3516726 4.762446 4.8234653
0000b0 7d 82 6a 40 76 6b 90 40 05 82 72 40 52 a9 a0 40
       3.6642144 4.513118 3.7891858 5.020669
0000c0 bb 1b 8f 40 72 b9 76 40 ee dd 60 40 d2 79 6b 40
       4.472135 3.8550687 3.5135455 3.6793103
0000d0 8e 22 50 40 7e 06 5f 40 45 c7 72 40 ac e6 6e 40
       3.252109 3.4847713 3.7934124 3.732829
0000e0 21 54 59 40 00 5b 7a 40 98 14 77 40 a2 0c 68 40
       3.3957598 3.9118042 3.860632 3.625771
0000f0 26 23 89 40 2a 24 9a 40 54 07 47 40 18 88 66 40
       4.2855406 4.8169146 3.1098223 3.6020565
000100 9c b2 62 40 b8 ff 62 40 56 39 78 40 1b 49 52 40
       3.5421515 3.5468578 3.8784995 3.285712
000110 03 f1 55 40 d6 92 87 40 50 b1 66 40 91 73 6b 40
       3.3428352 4.2366743 3.6045723 3.6789286
000120 48 41 98 40 e2 8d 5c 40 14 b6 74 40 42 fc 5f 40
       4.757969 3.4461598 3.8236132 3.4997716
000130 6f 6a 95 40 25 2d 94 40 92 12 75 40 d0 72 6f 40
       4.6692424 4.630511 3.8292584 3.7413826
000140 b9 92 65 40 44 e1 8c 40 fb ec 55 40 d7 0b 6e 40
       3.5870802 4.4024982 3.3425891 3.7194726
000150 67 56 91 40 21 ba 86 40 8a 0e 74 40 a7 ff 70 40
       4.541797 4.210221 3.8133874 3.7656038
000160 14 22 46 40 0f d6 9f 40 0e 8a 8c 40 8d 62 6c 40
       3.09583 4.99488 4.3918524 3.693515
000170 52 db 56 40 0a fb 78 40 77 30 6b 40 bf a4 7c 40
       3.3571362 3.8903222 3.674833 3.9475553
000180 92 00 71 40 44 3a 6d 40 94 e2 a0 40 0b 31 67 40
       3.7656598 3.7066813 5.0276585 3.6123683
000190 61 53 8e 40 3a ad 86 40 89 33 51 40 11 f9 6f 40
       4.447678 4.208646 3.2687705 3.7495768
0001a0 3c a9 0a 3d b0 4d 93 40 24 42 8d 40 7c 4c a5 40
       0.0338528 4.6032333 4.414324 5.1655865
0001b0 ed 7f 82 40 88 a2 55 40 35 12 85 40 3f 55 8b 40
       4.078116 3.3380451 4.1584725 4.354156
0001c0 14 a6 70 40 13 99 71 40 be a4 56 40 9c c1 50 40
       3.7601366 3.774968 3.353805 3.261817
0001d0 a8 00 6b 40 b2 27 58 40 cb 2f 72 40 0d c7 8b 40
       3.671915 3.3774228 3.784167 4.368048
0001e0 fa 72 6e 40 e5 52 8f 40 5e e2 6d 40 77 f7 49 40
       3.7257676 4.478869 3.7169414 3.155729
0001f0 a9 f5 1c bd 2d a3 85 40 cf ab 60 40 49 3a 65 40
       -0.038320217 4.176169 3.5104864 3.5816824

feature_layer.model.2.weight f4 [128, 128]
000000 19 4c 48 40 8b 29 42 40 42 12 23 40 6c 04 a8 3f
       3.1296446 3.0337856 2.5479894 1.312635
000010 be 78 3c 40 8d 99 32 40 3b 66 45 40 40 98 19 40
       2.9448695 2.790622 3.0843647 2.3999176
000020 1c 47 07 40 a1 20 07 40 ee e1 5c 40 3c 81 63 40
       2.1137152 2.1113665 3.4512897 3.5547628
000030 99 c7 02 40 e4 16 2e 40 55 5b 5c 40 a4 ef e7 3f
       2.0434325 2.7201471 3.4430745 1.8120008
000040 43 5f 39 40 53 60 e7 3f eb 3c dd 3f a0 11 f4 3f
       2.8964393 1.8076271 1.7284216 1.9067879
000050 d4 b1 eb 3f 43 3f 40 40 57 27 00 40 db 0a 36 40
       1.8413644 3.0038612 2.002401 2.8444126
000060 df 13 2a 40 3a 16 1f 40 38 94 f7 3f 57 ba 1b 40
       2.6574628 2.4857316 1.9342108 2.4332483
000070 76 9a 51 40 21 71 51 40 f3 80 51 40 85 e5 26 40
       3.2750525 3.2725298 3.2734954 2.6077588
000080 de f3 36 40 36 80 5d 40 cf 7e f5 3f 25 37 f6 3f
       2.8586345 3.4609504 1.9179324 1.9235579
000090 5a b5 28 40 95 7f 0b 40 26 ea 04 40 1b 2e 4d 40
       2.6360688 2.179662 2.0767913 3.205939
0000a0 74 ce 4b 40 59 b6 6c 3f ed c4 2a 40 40 05 4d 40
       3.184476 0.9246574 2.6682694 3.2034454
0000b0 af 8e 50 40 6b 57 e9 3f 21 af 52 40 f7 a8 00 40
       3.2587087 1.8229803 3.291939 2.0103128
0000c0 95 c9 e8 3f 60 61 ba 3f 53 cd 4f 40 33 24 5c 40
       1.8186518 1.4560966 3.246907 3.4397094
0000d0 b4 a4 8d 3f 48 f9 50 40 69 6a 5c 40 a5 ef 6f 40
       1.1065888 3.265215 3.4439948 3.7490017
0000e0 52 ab 2a 40 9f 60 40 40 51 c9 56 40 4c 2c 6f 40
       2.6667066 3.0058973 3.3560374 3.7370787
0000f0 49 09 f0 3f 73 c3 f0 3f be 8a 6a 3f 41 f7 4b 40
       1.8752834 1.8809646 0.91617954 3.1869662
000100 65 b6 5b 40 9d 00 41 40 4e 2e 2a 40 51 f3 4a 40
       3.4330075 3.0156624 2.6590762 3.1711009
000110 36 19 51 40 ee b4 e6 3f 72 ee 24 40 ae ca 42 40
       3.2671638 1.8023965 2.5770535 3.0436206
000120 60 66 05 40 ad 65 59 40 11 53 34 40 74 b4 54 40
       2.0843735 3.3968308 2.81757 3.323514
000130 9a 91 ef 3f 1f 81 fc 3f 52 06 5d 40 8a d9 36 40
       1.8716309 1.9726905 3.4535108 2.8570275
000140 3a d8 51 40 3c c2 03 40 4b e5 68 40 57 c8 1b 40
       3.2788224 2.0587301 3.638995 2.4341028
000150 e1 00 36 40 4b 01 3d 40 31 e7 0b 40 50 2f 4f 40
       2.8438036 2.953204 2.1859858 3.2372627
000160 7e f5 3c 40 e6 55 05 40 ec e1 55 40 57 7d 58 40
       2.9524837 2.0833678 3.3419142 3.3826501
000170 19 c0 9c 3f 30 e1 0b 40 f1 b1 4b 40 43 3a 4b 40
       1.2246124 2.1856194 3.1827357 3.175431
000180 f1 2c 27 40 48 b0 3b 40 63 3e 30 40 07 a1 5b 40
       2.612118 2.9326344 2.7538078 3.4317033
000190 16 f7 f9 3f 68 39 ca 3f 87 37 33 40 1d 0e 62 40
       1.952853 1.5798769 2.8002641 3.5321114
0001a0 62 64 8e bd 1e 17 f6 3f 6e 0e 3d 40 2e 1d 04 40
       -0.0695274 1.9225805 2.9540057 2.064281
0001b0 12 93 c8 3f 72 d6 1a 40 a2 a0 0f 40 32 b7 06 40
       1.5669882 2.4193387 2.2441792 2.1049314
0001c0 88 d3 22 40 a4 4c 3c 40 6f 8a 91 3f 10 2c 41 40
       2.5441608 2.9421778 1.1370372 3.0183144
0001d0 88 fb 43 40 7f 65 27 40 00 d4 17 40 ef 57 f6 3f
       3.0622272 2.6155698 2.3723145 1.9245585
0001e0 a6 ee d8 3f 3c 78 32 40 6a fd 45 40 72 b7 48 40
       1.694783 2.7885885 3.0935922 3.1361966
0001f0 a2 9e 17 bd cf 0a 51 40 02 7c 3c 40 fa 97 56 40
       -0.03701652 3.2662847 2.9450688 3.353026
000200 e9 e7 5f 40 40 b9 40 40 2f 27 49 40 77 f3 18 40
       3.4985297 3.0113068 3.1430166 2.38986
000210 1d 68 4e 40 15 d6 6e 40 bd 2a 56 40 91 ab 4a 40
       3.2251046 3.7318165 3.3463585 3.1667216
000220 bb 5b 16 40 e4 92 12 40 37 df 66 40 ee 95 61 40
       2.3493488 2.2902155 3.607374 3.524776
000230 32 f0 20 40 59 ef 48 40 16 b4 55 40 41 55 0f 40
       2.5146604 3.1396086 3.3391166 2.2395785
000240 a4 f1 55 40 4a 49 15 40 d7 4e 16 40 b5 33 1d 40
       3.3428736 2.3325982 2.348562 2.456281
000250 94 3d 22 40 03 d3 65 40 eb 29 23 40 f3 ae 47 40
       2.5350084 3.5910041 2.5494335 3.120053
000260 84 09 65 40 10 04 32 40 d3 46 15 40 d4 04 40 40
       3.5787058 2.781498 2.3324478 3.0002947
000270 fc aa 5d 40 de 8b 4a 40 06 f5 5c 40 6d b4 60 40
       3.463561 3.1647868 3.452455 3.5110123
000280 18 eb 4f 40 6d a5 5c 40 c8 72 fa 3f 6e c5 1c 40
       3.248724 3.4475968 1.9566278 2.4495502
000290 7c f8 3e 40 6d 9f 1b 40 42 20 0a 40 ae 10 6d 40
       2.9839163 2.4316056 2.1582189 3.704143
0002a0 8f 65 52 40 c0 e8 c3 3f e6 50 52 40 27 fa 67 40
       3.2874486 1.5305405 3.2861876 3.624643
0002b0 d0 e4 4e 40 e9 29 0a 40 0d 0a 69 40 01 7c 21 40
       3.2327156 2.158808 3.6412385 2.5231936
0002c0 af 9b 0c 40 85 02 07 40 c6 2a 50 40 d7 43 5b 40
       2.1970022 2.1095288 3.2526107 3.4260156
0002d0 87 da dd 3f 6f 17 5c 40 80 80 5e 40 5d 99 65 40
       1.7332314 3.4389303 3.476593 3.5874856
0002e0 b4 4e 44 40 a4 1b 48 40 5f 64 52 40 d5 65 64 40
       3.0673037 3.126687 3.2873762 3.5687153
0002f0 0d 82 15 40 69 5f 11 40 d8 50 fb 3f 90 4a 6c 40
       2.3360627 2.2714484 1.9634047 3.692051
000300 f2 39 5b 40 c6 e2 4a 40 58 5b 48 40 92 88 41 40
       3.4254117 3.1700912 3.1305752 3.0239606
000310 1e b8 5f 40 6b 10 07 40 c2 1d 3b 40 08 96 47 40
       3.4956126 2.110377 2.9236913 3.1185322
000320 15 47 19 40 b6 39 5c 40 ce e9 5b 40 2a 7b 56 40
       2.3949635 3.4410224 3.4361453 3.3512673
000330 10 99 13 40 7e 8c 10 40 71 c4 65 40 ec bd 59 40
       2.3062172 2.258575 3.5901148 3.402217
000340 2d 67 4a 40 8c eb 24 40 d4 d3 5f 40 08 df 40 40
       3.1625473 2.5768766 3.497304 3.0136127
000350 52 5c 3a 40 02 83 29 40 1f 9e 64 40 f5 6f 54 40
       2.9118848 2.648621 3.572151 3.3193333
000360 8a c0 4b 40 7c f9 23 40 22 7c 49 40 74 bd 55 40
       3.1836267 2.5621023 3.1482015 3.3396883
000370 1a 34 dd 3f f2 66 6c 40 12 ff 4e 40 f7 3c 4d 40
       1.7281525 3.6937833 3.2343183 3.206846
000380 24 c2 3c 40 1f f9 51 40 87 c8 43 40 24 2a 58 40
       2.9493494 3.2808301 3.0591142 3.377572
000390 4f 50 1d 40 67 1d 13 40 c9 1d 4b 40 53 f6 59 40
       2.4580266 2.2986696 3.173693 3.4056594
0003a0 8e 38 36 3d c8 b7 18 40 bb 5a 40 40 f6 8b 2b 40
       0.04448753 2.386217 3.0055377 2.6804175
0003b0 ab aa 05 40 cc 66 30 40 3b 8b 52 40 d8 57 11 40
       2.0885417 2.7562742 3.289748 2.2709866
0003c0 e6 9d 63 40 09 98 5a 40 97 9e c6 3f fe 78 53 40
       3.5565124 3.4155295 1.5517148 3.3042598
0003d0 d0 85 58 40 71 0e 3a 40 7d 61 48 40 36 36 10 40
       3.3831673 2.9071314 3.1309502 2.2533088
0003e0 18 e4 02 40 56 43 3f 40 e7 84 4c 40 1d 69 47 40
       2.0451717 2.9884849 3.1956117 3.1157906
0003f0 f1 c3 74 ba 3f c7 38 40 88 7c 50 40 6d c7 60 40
       -0.0009337059 2.887161 3.2576008 3.512172

feature_layer.model.2.bias f4 [128]
000000 fb d6 0c 40 f8 ae 2c 40 c6 28 b2 3c 12 50 e3 3f
       2.2006214 2.6981792 0.021747958 1.775881
000010 9a 95 c9 3c 8b f7 20 40 1c 03 06 be 5d fc 89 bb
       0.024607468 2.5151088 -0.13087124 -0.0042109923
000020 b4 57 2b 40 a2 ff cd bf 3f 76 69 40 bf 09 1d 40
       2.677228 -1.6093638 3.6478422 2.4537199
000030 92 32 24 40 9f ad 06 40 83 e7 15 40 23 87 02 40
       2.5655866 2.104347 2.3422554 2.039498
000040 d2 bb 1d 40 1c dd 43 40 30 f5 24 40 c1 b7 5c be
       2.4645886 3.0603704 2.577465 -0.21554472
000050 bf 61 f5 3f 0e fb 00 40 fc 52 11 40 3a 74 1b 40
       1.9170455 2.0153232 2.27069 2.428969
000060 c3 90 5a 40 c1 aa dc 3f 21 3b 1a 40 f6 13 ce 3f
       3.4150856 1.723961 2.409859 1.6099842
000070 be 06 15 40 65 bd 0e 40 9d 65 f3 3f 33 9a 23 40
       2.3285365 2.2303097 1.9015385 2.5562866
000080 85 b5 37 3d 98 2d fe 3f e3 c3 0c 40 d6 e3 e7 3f
       0.044850845 1.9857664 2.199456 1.8116405
000090 02 ce 9a bc 88 3e 24 40 8b 77 17 40 58 79 89 3b
       -0.01889706 2.5663166 2.3666713 0.0041953735
0000a0 8b 09 50 40 8a 66 0a bd 12 9d 25 40 84 8d 5a bd
       3.2505825 -0.033789195 2.5877118 -0.053357616
0000b0 3c a0 5b 40 aa 14 1e 3d 2f f0 3d 40 b6 06 c5 bc
       3.431655 0.038593926 2.9677846 -0.024051052
0000c0 2b 05 a3 bd c2 ad 18 40 1e 53 41 40 e5 7b 1d 40
       -0.0795997 2.3856053 3.020698 2.460687
0000d0 fc 18 23 40 82 58 e9 3f 78 54 0d 40 ab 35 1c 40
       2.5484 1.8230135 2.2082806 2.4407756
0000e0 25 0d 20 40 9a fd 16 40 7d 4a 14 40 cc 54 14 40
       2.5008023 2.3592286 2.3170464 2.3176756
0000f0 51 40 0c 40 f6 72 1c 40 3f d0 0d 40 26 ab 1c 40
       2.1914256 2.4445167 2.2158353 2.447946
000100 31 47 16 40 36 6d 33 40 f4 9f 08 be 8d 6b 1f 40
       2.3480952 2.8035407 -0.13342267 2.4909394
000110 44 53 0b 40 e3 f5 01 40 fc 5f 42 bd 7d e0 f6 3f
       2.1769571 2.0306327 -0.04745482 1.9287258
000120 69 cb 31 40 9c 52 25 40 e2 a8 04 40 1c 2c 9d bd
       2.7780402 2.583167 2.0728078 -0.07674429
000130 f3 6a 1c be 68 e0 0e 40 4b e7 0b 40 f3 9f 1c 40
       -0.15275173 2.2324467 2.185992 2.4472625
000140 75 0f 23 bd c9 77 0b 40 19 60 ea bc 27 a7 2c bd
       -0.039809663 2.179186 -0.028610276 -0.042151596
000150 ba 25 04 3d 6f 7b 2b 40 6f 4b 83 bb e1 1c 10 40
       0.03226254 2.6794088 -0.004006795 2.2517626
000160 e1 e4 41 40 6c e4 7a 3d 10 28 7b 3d e7 c6 45 bd
       3.0295947 0.061252996 0.061317503 -0.04828539
000170 cb 5c ff 3f 35 1b 10 40 f1 cc 09 40 e2 43 19 40
       1.9950193 2.2516606 2.1531336 2.3947682
000180 95 f2 0e 40 5c 14 1c 40 2e 4e ed 3f 9a 90 29 40
       2.233556 2.4387426 1.8539484 2.6494508
000190 cb 66 97 3d 00 b3 30 40 e5 b0 a0 3d a6 c6 0c 40
       0.07392653 2.7609253 0.0784624 2.1996245
0001a0 be d6 17 40 c4 82 15 40 79 46 6d be f9 95 21 40
       2.3724818 2.3361063 -0.23171414 2.5247786
0001b0 ad 90 62 40 8b 85 8c bd 5a b3 19 40 08 8a 22 40
       3.5400803 -0.06861409 2.4015718 2.5396748
0001c0 d5 1b e7 3f ae a7 1d 40 77 62 04 40 99 0a 0e 40
       1.8055369 2.4633594 2.0685098 2.2193968
0001d0 34 3a c1 3c 4b 70 04 bd 41 9d dc 3f 23 a6 49 40
       0.023587324 -0.032333653 1.723549 3.1507652
0001e0 bf 29 8c bd 61 fa 23 40 72 1a 01 40 2d ce 0b bb
       -0.068439 2.562157 2.017239 -0.0021332607
0001f0 3b 87 05 40 30 46 8d bc ae 32 2b 40 d3 81 2d 40
       2.0863788 -0.017245382 2.6749682 2.7110488

value_stream.model.0.weight f4 [128, 128]
000000 71 b3 d7 3b 0a 80 2b bd 5a 22 97 3d 7a 24 2b 3d
       0.0065826704 -0.041870154 0.07379599 0.041782834
000010 d6 c8 04 3d 24 8c ff b9 d0 23 b4 bd 78 f5 54 bd
       0.032418095 -0.00048741803 -0.08795893 -0.05199191
000020 c7 42 ca 3b cc d8 e1 3c 5c 19 9c bd c3 e3 10 bd
       0.0061725113 0.027569197 -0.076220244 -0.03537346
000030 48 b7 05 3b 5a 63 a9 bc 32 f0 86 3d 66 9d 90 3d
       0.0020403434 -0.020677257 0.06588782 0.07061271
000040 06 bb 92 3d 26 5a 93 bd 8b 6c 47 3c e2 1b 9c 3d
       0.07164578 -0.07194929 0.012171875 0.07622506
000050 ef 04 3d 3d 9b 0d 4e bc 72 c4 cb bc 71 52 d0 bd
       0.046147283 -0.012576486 -0.024873946 -0.101719745
000060 f3 32 ed 3c eb ca a7 bd 64 ef a1 3d 2d a8 51 bc
       0.028954959 -0.081930004 0.07906988 -0.012796444
000070 55 cb df 3c fe 2b 7d 3d bd ee ff bc 48 97 2d 3d
       0.027318636 0.061809532 -0.031241769 0.0423806
000080 53 92 f4 3c 8f d9 c3 bd e4 03 3d bd 6b 58 5f bd
       0.02985493 -0.095629804 -0.04614629 -0.05452768
000090 44 c2 87 bd b1 4f 40 3d 10 6e 15 bc 1a 74 c0 bc
       -0.0662885 0.046951 -0.009120479 -0.023492862
0000a0 b4 9f e6 bd b7 8a 28 bd 87 91 d2 bc 2d e3 b2 3d
       -0.1126093 -0.041147914 -0.025704158 0.087347366
0000b0 ea 6e 1e 3d 20 0e 5c bb 41 c6 40 3d f8 f0 04 bc
       0.038679995 -0.0033577755 0.04706407 -0.008114092
0000c0 fc 4f 09 bb a3 ac d6 bc 05 f6 a6 bd 01 53 42 3d
       -0.0020952215 -0.026205366 -0.08152393 0.04744244
0000d0 fc ed d2 3c 9a ef 22 3e ca 64 8a 3d 3f 02 9d bd
       0.025748245 0.15911713 0.06757505 -0.07666444
0000e0 a1 45 a3 bd 82 fe 16 bc 36 bb 64 bd 07 fc c6 bc
       -0.07972265 -0.009215953 -0.0558426 -0.024290098
0000f0 94 59 b1 3d e6 9e 8e bd d9 49 65 bd 93 45 74 bd
       0.08659664 -0.06963901 -0.05597863 -0.059636664
000100 75 1b 76 3d bb 81 8e 3d 6f 3f 8e 3b 2c 91 99 bb
       0.06008478 0.06958338 0.004341058 -0.0046864953
000110 a6 bb 64 3d 3f 44 a1 bc 4b 1c 92 bd 3b 37 1d 3d
       0.055843018 -0.019685863 -0.07134303 0.03838275
000120 33 41 48 3d c5 e9 2a 3d 67 be da 3b e3 d7 1e bd
       0.048890304 0.041726846 0.0066755298 -0.038780104
000130 98 e9 cd bd eb 52 9d bd bd 41 5e bd b8 41 78 bd
       -0.1005432 -0.07681831 -0.05426191 -0.06060955
000140 9b a8 7c bd f0 84 a5 3d 14 29 83 bc 81 19 98 bd
       -0.061684232 0.080819964 -0.016010799 -0.074267395
000150 18 ee d5 3c 32 39 a9 bd 3d 5c 3e bd 61 f4 b6 bd
       0.026114509 -0.08262862 -0.046474684 -0.0893333
000160 12 82 1d bb e0 26 cf 3b b2 fa 1a 3d f3 5f a0 3d
       -0.0024033827 0.006321773 0.037836738 0.07830801
000170 1f 4b 83 bc 14 6e 3c 3d 2b 25 42 3d 0c 35 75 bc
       -0.016027031 0.046003416 0.047398727 -0.014966261
000180 38 ab 1b 3d 22 8e b1 3b d4 66 c6 bd 4d bc 12 bc
       0.038005084 0.005418555 -0.09687582 -0.008956027
000190 4a 38 aa bd 42 08 8f bd e1 d6 a6 3d 40 cc 84 bc
       -0.083115175 -0.06983997 0.08146454 -0.016210675
0001a0 6f 79 10 bd 0e e6 80 bd d5 6c 0d bd 00 3b a6 3d
       -0.035272058 -0.062938794 -0.03452762 0.08116722
0001b0 08 f7 a3 bd 44 99 03 bd 04 56 0f 3c 4c 72 37 bd
       -0.08006102 -0.032128587 0.008748535 -0.044786736
0001c0 9d eb 7d bc e7 a6 78 bd 18 0e 9b bd a3 07 fe 3c
       -0.015498069 -0.060706045 -0.075710475 0.0310095
0001d0 06 c0 18 3d 90 77 a5 bd c2 59 10 bd 81 fc 83 3b
       0.037292503 -0.08079445 -0.03524185 0.0040279035
0001e0 a8 9e f9 bc 1b 5b c5 bc f7 e4 23 3d ea 86 de bc
       -0.030471161 -0.024091294 0.04001328 -0.027163941
0001f0 a4 ab de 39 1d f8 18 bd 0d ab 20 bd 9f 8e 34 bc
       0.00042471022 -0.037345994 -0.039225627 -0.011020332
000200 f2 13 37 40 0d 56 40 40 bb a5 c8 bc ae 3e fe 3f
       2.8605924 3.0052521 -0.024493089 1.9862878
000210 72 1e 2a 3d 0d 9c 36 40 04 1f 1e be 05 b6 88 bd
       0.04153294 2.8532746 -0.15441519 -0.066753425
000220 ca cf 4e 40 a4 e7 95 bf 3c ed 3d 40 82 db 38 40
       3.2314324 -1.1711316 2.9676046 2.8883977
000230 10 7c 42 40 7b 93 43 40 dc 1f 42 40 fe c2 2f 40
       3.0388222 3.0558765 3.0331945 2.7462764
000240 63 6b 3b 40 db b0 40 40 a5 e2 4a 40 62 af b8 bd
       2.9284294 3.0107944 3.1700833 -0.090178266
000250 15 f9 0e 40 a9 1b fe 3f 4d 80 3b 40 3a ff 43 40
       2.2339528 1.9852191 2.9297059 3.0624528
000260 02 82 7b 40 ee 00 03 40 41 24 56 40 3e 57 d7 3f
       3.92981 2.0469317 3.3459628 1.6823499
000270 84 6f 40 40 4e 70 49 40 08 60 13 40 bd 9d 54 40
       3.0068064 3.1474795 2.3027363 3.3221276
000280 be 3b 87 3d 06 dd 07 40 5c 72 37 40 d5 ba 2b 40
       0.06603192 2.1228652 2.866355 2.6832783
000290 1c d3 53 3d 87 a3 39 40 c3 b1 31 40 ed 71 cc 3c
       0.051715 2.900606 2.7764747 0.024956668
0002a0 8e 9b 50 40 db 6c 57 3d b6 cd 4e 40 66 b1 4e 3d
       3.2594943 0.052594047 3.2313056 0.05046215
0002b0 f9 ad 69 40 de d8 12 bd 06 b3 4d 40 4a 26 9b 39
       3.6512434 -0.035851352 3.2140517 0.0002959243
0002c0 7a d3 5a bc b8 8d 46 40 fb 50 51 40 63 96 58 40
       -0.013356084 3.1023998 3.2705677 3.3841789
0002d0 81 40 42 40 59 57 3d 40 c5 4d 2f 40 8b 01 38 40
       3.035187 2.9584563 2.7391217 2.8750942
0002e0 6a c2 47 40 76 81 42 40 2a d5 4b 40 92 9e 33 40
       3.121241 3.0391517 3.1848855 2.8065534
0002f0 0a c6 43 40 54 be 3a 40 0f 9c 38 40 c7 70 46 40
       3.0589623 2.9178667 2.884525 3.1006334
000300 eb 9d 5a 40 fa e6 4c 40 be 6d b8 bd 9e 0f 43 40
       3.4158885 3.2015977 -0.09005307 3.0478282
000310 7e 4f 3a 40 d1 0e 39 40 c9 18 8a bd 77 38 39 40
       2.9111018 2.8915293 -0.06743009 2.8940713
000320 ce 28 4c 40 ba b8 4b 40 59 14 46 40 96 6e e6 3b
       3.1899905 3.1831498 3.094992 0.007032226
000330 0e 67 e0 bc 28 16 42 40 2d 9d 3e 40 04 0a 4d 40
       -0.02739289 3.0326023 2.9783432 3.2037363
000340 65 77 9c 3d a6 b3 1e 40 ed b5 0d bd e6 44 9b 3d
       0.0763996 2.4797149 -0.034597326 0.07581501
000350 de cd 4c bd c1 bc 39 40 54 93 89 3d 05 98 44 40
       -0.050001018 2.9021456 0.06717554 3.0717785
000360 b9 a3 4a 40 7d 6d 2d bd 05 90 83 bd 07 a9 c3 3c
       3.1662428 -0.042340744 -0.06423954 0.02388431
000370 5f ac 37 40 f9 25 40 40 09 df 36 40 91 ce 3e 40
       2.8698957 3.0023177 2.857363 2.9813578
000380 10 7a 34 40 c0 47 40 40 5d 36 08 40 4b 0c 40 40
       2.81995 3.0043793 2.128318 3.0007503
000390 f4 b3 c6 3d 20 bf 43 40 40 1d d3 3c fc 9d 46 40
       0.09702292 3.0585403 0.025770783 3.1033926
0003a0 1d 39 3d 40 67 74 3b 40 54 76 ea bd 76 07 52 40
       2.956611 2.9289796 -0.114483505 3.2817054
0003b0 64 38 54 40 a5 e4 ab 3d e2 bf 49 40 f7 76 44 40
       3.3159418 0.0839322 3.1523366 3.069761
0003c0 22 95 19 40 29 a7 44 40 e2 ec 41 40 e0 29 38 40
       2.3997273 3.0727026 3.0300832 2.8775558
0003d0 b4 95 80 bd a5 00 32 bb 4c dd 2f 40 0a 95 4a 40
       -0.062785536 -0.0027161029 2.747882 3.1653466
0003e0 e8 e2 7c bc e0 22 42 40 00 76 30 40 4b da 91 bd
       -0.015434958 3.0333786 2.7572021 -0.07121714
0003f0 5d a5 44 40 85 e3 65 3d eb 06 4e 40 46 60 43 40
       3.072593 0.056125183 3.2191722 3.052751

value_stream.model.0.bias f4 [128]
000000 68 ea 99 3c 34 87 ff 3e d5 35 1f bd c0 61 48 3f
       0.018788531 0.4990784 -0.038869698 0.78274155
000010 e3 fd 26 3f e6 47 b1 bd bf 5f c6 bd c0 45 1d 3f
       0.6523115 -0.08656292 -0.09686231 0.61434555
000020 27 e9 d3 3e 2a cf 04 3f 49 5f 0c 3d d7 26 e9 3e
       0.4138882 0.5187861 0.03427056 0.45537445
000030 a1 71 83 bc 5c e7 ca bd 5e 92 32 bc 6b 0e ef 3e
       -0.016045393 -0.099074095 -0.0108991545 0.46690688
000040 e6 95 06 3f e0 53 cc 3e b8 c9 29 3f e7 ae 25 3f
       0.52572477 0.39907742 0.66323423 0.64720005
000050 4b 30 bc 3e e4 ea 0f 3f be b5 e8 3e b9 0e c2 3e
       0.36755595 0.5621779 0.45451158 0.37901857
000060 3c 8d 04 3d e2 cc 12 3f 01 65 a7 bd 2d b3 bf bd
       0.032361254 0.57343876 -0.08173562 -0.09360347
000070 a4 92 11 3f 80 4b 8c 3f 71 90 d3 3e 7e be bd 3e
       0.5686438 1.0960541 0.41321138 0.37059397
000080 3f 80 3e 3f cf 30 c3 3c 87 ad 12 3f 12 57 72 3c
       0.7441444 0.023826985 0.5729603 0.014791267
000090 39 ac d1 bd af f4 4a 3f 32 a0 db 3e 4b 41 f3 3e
       -0.10237927 0.7927961 0.42895657 0.47510752
0000a0 81 25 1e bc c1 c1 c3 bd 5a 56 ec bd af 70 86 bd
       -0.009652496 -0.0955844 -0.11539908 -0.065644614
0000b0 2e 6c 43 bd 5b a8 76 3f f0 5d 49 3f ab d6 95 3d
       -0.04771059 0.9635064 0.7865896 0.07316335
0000c0 64 05 25 bc 01 53 2b 3d 79 db 4f 3d 99 97 bc 3e
       -0.010072086 0.041827206 0.050746415 0.3683441
0000d0 96 3e ed 3c f3 d6 fd 3e 0a b6 ea 3e c0 34 ca 3b
       0.028960507 0.49578056 0.4584201 0.006170839
0000e0 ce 70 b3 3e bd 79 d1 3e 75 c6 37 3f 16 cb c5 bd
       0.35047 0.4091319 0.71787196 -0.09657876
0000f0 d2 12 3a 3f 96 94 e2 bd fc 8f ec 3c b4 7f aa bd
       0.7268497 -0.11063497 0.02887725 -0.08325139
000100 83 46 99 bd ba ee 35 bd 70 46 10 3f 0f b9 04 3f
       -0.07484152 -0.04441712 0.5635748 0.51844877
000110 11 55 c9 3e f3 b9 05 3f a9 12 6d bd 58 64 f0 3e
       0.39322713 0.5223686 -0.057879124 0.46951556
000120 76 fd d6 3c 5e 88 53 bd 04 19 ab 3a 11 31 4d bc
       0.026243906 -0.05164372 0.001305372 -0.012523905
000130 04 08 74 bd 58 f1 de 3e 54 b3 06 3f 50 e2 15 3f
       -0.059577957 0.43543506 0.52617383 0.5854845
000140 42 2a 24 bd ad fe 15 3f 85 6e 16 3f 79 02 e3 3e
       -0.040079363 0.5859173 0.5876239 0.44337824
000150 50 02 1d bd a3 f9 81 3c d2 a2 df 3c 0a 28 a9 bc
       -0.038332283 0.015866106 0.027299318 -0.020648975
000160 f9 bc 90 3b 54 78 8c 3d 6a a7 dc 3e e7 64 56 bc
       0.0044170585 0.06858888 0.43096477 -0.01308558
000170 0e df a6 3c 2b 98 0b 3f 87 d3 50 3f 24 b4 83 3c
       0.020370033 0.54529065 0.81572765 0.016077109
000180 ff 6e e0 3c d7 44 d0 3e 8e 82 d9 3e a0 87 13 3f
       0.027396677 0.4067752 0.42482418 0.5762882
000190 91 73 14 3f 94 e5 af 3e 54 0f e2 3e fd 1b 44 bd
       0.5798884 0.34354842 0.4415232 -0.047878254
0001a0 a6 09 80 3d 7b 2e f9 3c ca d9 0d be cd f0 54 3d
       0.0625184 0.030417671 -0.13852611 0.051987458
0001b0 2f cd 83 bc 01 c4 f0 3e 15 aa 68 bd 07 35 1d 3f
       -0.01608905 0.4702454 -0.056802828 0.6140904
0001c0 11 75 bc 3e 81 ba 2f 3f ec df bd bd b0 f6 32 3c
       0.36808065 0.6864396 -0.09271225 0.010923073
0001d0 11 90 62 3f 64 ac 86 bd 98 9d 77 bd 58 5c 76 3f
       0.8850108 -0.0657585 -0.060453027 0.96234655
0001e0 56 f5 3f 3d d6 4c 1c bd 7e 2f ae bd 15 be f5 3e
       0.04686483 -0.038159214 -0.08505152 0.47996584
0001f0 1c 50 c0 3e f3 c2 ae bd 9d 2e 17 bc 01 4f 5a bd
       0.3756112 -0.08533277 -0.009227422 -0.053298

value_stream.model.2.weight f4 [1, 128]
000000 fd 95 c3 bb 4b b8 5b 40 b0 d0 7f bc 06 b9 61 40
       -0.0059688077 3.4331234 -0.01561372 3.526918
000010 92 cf 76 40 23 36 93 bd 38 d3 43 3d 58 7b 5f 40
       3.856419 -0.0718806 0.047808856 3.4919033
000020 d2 d0 6e 40 92 11 68 40 5e 55 c1 bd 09 91 62 40
       3.7314954 3.6260724 -0.094401106 3.5401022
000030 6f ca 42 bd 53 51 2f ba ec 2a 60 be 47 86 65 40
       -0.047556337 -0.00066878385 -0.21891373 3.5863206
000040 54 12 7e 40 19 d8 65 40 0a 09 68 40 09 fb 6a 40
       3.9698687 3.5913146 3.6255517 3.671572
000050 99 14 5e 40 76 7d 72 40 c3 01 61 40 40 8e 61 40
       3.4700072 3.7889075 3.5157325 3.5243073
000060 bd b6 0b bd 6f aa 5a 40 68 61 ab 3d 28 33 8f bd
       -0.03410982 3.4166524 0.08368188 -0.06992179
000070 34 85 7b 40 83 03 66 40 45 3e 5e 40 ad 6c 66 40
       3.930005 3.5939643 3.4725506 3.600383
000080 3e eb 5e 40 a9 67 ef be 60 8a 61 40 e1 81 f1 bd
       3.483108 -0.46758774 3.5240707 -0.117923506
000090 98 c7 4f bd dc c7 82 40 aa 34 61 40 66 92 5e 40
       -0.050727457 4.086897 3.5188394 3.4776855
0000a0 e7 6f b6 be 65 24 80 bd bf 44 e4 bd 7f 49 bc bc
       -0.3563225 -0.06256942 -0.11145925 -0.022984264
0000b0 df 87 66 bd a2 e1 60 40 ca 62 77 40 82 9b 4d 3d
       -0.05628192 3.5137715 3.8654046 0.050197132
0000c0 5c f0 96 bc 2c 98 ee ba 5b 99 2d bd d8 40 61 40
       -0.01842516 -0.001820331 -0.04238258 3.5195827
0000d0 f7 ac 16 bf ae b4 89 40 05 07 5c 40 8e 61 21 bc
       -0.58857673 4.3033056 3.4379284 -0.009849919
0000e0 53 37 61 40 54 e8 5f 40 b5 02 81 40 c3 91 7e be
       3.5190017 3.4985552 4.0315804 -0.24860291
0000f0 53 52 56 40 77 59 e2 bc b1 b1 02 bd 14 f8 0b 3a
       3.3487747 -0.02763055 -0.03190774 0.0005339396
000100 25 8b 12 bc 4d 7e 9a bd ac 06 5d 40 c1 be 82 40
       -0.008944307 -0.07543621 3.4535322 4.0857854
000110 b8 d1 5f 40 38 c4 60 40 81 de 4b 39 bb dc 74 40
       3.4971752 3.5119762 0.00019442478 3.8259723
000120 2f 6c 01 be 76 a7 11 bd 24 f3 17 3d f1 ef 1b bf
       -0.12638925 -0.035560094 0.03709711 -0.60912997
000130 35 6e 7c bd ec 73 6f 40 0b d1 8a 40 39 f0 5c 40
       -0.06162854 3.7414503 4.338018 3.452162
000140 7e 3d c5 bd 8e d3 86 40 a0 7c 89 40 ab a3 5d 40
       -0.09630869 4.2133245 4.296463 3.4631145
000150 3b b9 39 3d e2 f5 b9 ba 35 38 18 bb 94 f2 01 bf
       0.045342665 -0.0014187659 -0.0023226861 -0.5076077
000160 d0 97 cc 3c 6a c5 4b 3d 7c 57 7e 40 cd ad 78 bd
       0.024974734 0.049748816 3.9740896 -0.060712624
000170 b0 ff f5 3c 4a d5 85 40 32 59 84 40 e5 5f 96 3c
       0.030029148 4.1822863 4.135888 0.018356273
000180 0e 02 18 bd d8 f1 65 40 84 69 5d 40 46 5c 67 40
       -0.037111335 3.592886 3.4595652 3.615007
000190 59 09 71 40 06 58 60 40 d8 90 60 40 d4 08 a9 3c
       3.7661955 3.5053725 3.5088406 0.020634092
0001a0 62 cc a3 bd ee 70 81 bd b5 bb 6f be a3 86 a4 be
       -0.07997967 -0.06320368 -0.23411448 -0.3213397
0001b0 c0 5a c8 bd 6c 61 66 40 65 4b 60 3b 0d 97 7d 40
       -0.09782934 3.5996962 0.0034224626 3.9623444
0001c0 6f 70 5e 40 43 fd 78 40 46 3a 54 bf 2a 22 55 bd
       3.4756124 3.8904579 -0.8290142 -0.052034535
0001d0 76 a0 80 40 3b ae 98 be db 9b a1 bb b7 28 85 40
       4.0195875 -0.29820427 -0.0049319095 4.16122
0001e0 ec 05 ed 3b 78 e6 f1 bd 30 d5 96 be e9 cd 5d 40
       0.007233372 -0.118115366 -0.29459524 3.4656928
0001f0 ab d8 6f 40 e6 1f 80 be b2 cf 3e bd 35 da d7 bc
       3.7475994 -0.25024337 -0.046584792 -0.026349166

advantage_stream.model.0.weight f4 [128, 128]
000000 dc 11 a2 bd 0c 41 8c bd 55 6c 42 3d 50 52 92 bd
       -0.07913563 -0.06848344 0.047466595 -0.07144606
000010 33 7e 39 3d ae d0 57 3d db 2d 44 bd 3f 6e 18 bd
       0.04528637 0.052689247 -0.047895294 -0.037214514
000020 ca 4d 4e 3a 30 bb ab 3b 15 3b 62 bd fa a5 ae bd
       0.0007869868 0.0052408203 -0.055232126 -0.08527751
000030 62 1c a1 bc a8 80 08 3d 7e 34 6c 3d 56 86 88 3d
       -0.019666854 0.03332582 0.057667248 0.066662475
000040 d5 82 65 3d 15 60 a2 3d 91 27 c6 bd 63 74 95 bd
       0.056032974 0.079284824 -0.096755154 -0.0729759
000050 87 1f 3b bd 06 2c 17 bd f7 b8 b6 bd ae 08 2b 3d
       -0.045684364 -0.03690722 -0.08921998 0.041756324
000060 00 25 5b bc 31 f4 a5 36 ac 16 28 bc 28 2e 5d 3c
       -0.013375521 4.945811e-06 -0.010259312 0.013499774
000070 1b ac 09 bc 08 5a 52 bc 5e e3 76 bd 38 a8 d8 bc
       -0.00840285 -0.012838848 -0.060275428 -0.0264474
000080 e8 0b f5 3c 50 2d 34 bd c0 4f aa bd 22 ba 81 bd
       0.029912904 -0.043988526 -0.08315992 -0.0633433
000090 57 81 27 bd 0c f6 92 bd c2 6d 5f 3d 03 fc a0 3c
       -0.040894832 -0.07175836 0.054548033 0.019651419
0000a0 96 6e 8d 3d 0c 72 af 3c 32 29 fa 3c a9 cb 98 bd
       0.06905858 0.021416686 0.030537222 -0.0746072
0000b0 60 59 74 bb df 8a 9f 3d 24 e0 07 bd 80 81 2b 3b
       -0.0037284717 0.077901594 -0.03317274 0.0026169717
0000c0 7e 4c 4f 3d 81 ff 06 bd 4e a6 17 3d 83 40 a1 bd
       0.050610058 -0.03295851 0.037023835 -0.07873633
0000d0 0e db 8e 3d a3 a8 ef 3c bc 6c 8a bd 0e 32 69 3d
       0.06975375 0.029255217 -0.06759021 0.0569325
0000e0 f3 8b 76 bc 7d a4 72 bd 99 7a a8 3d b2 cf 8d bd
       -0.015048015 -0.0592389 0.08226509 -0.0692438
0000f0 61 81 c7 3b 5d e2 99 bd 2a b5 9f bc 24 15 b5 3b
       0.006088421 -0.075138785 -0.019495565 0.005526202
000100 68 30 33 bd 93 91 bb bd 17 ce ef bb db 5b b0 bd
       -0.043747336 -0.091586255 -0.007318269 -0.0861127
000110 a0 95 6d bb 7f 9b 7f 3a aa ee 7c bd 17 93 89 bc
       -0.0036252514 0.0009750649 -0.061751045 -0.01679377
000120 24 5a 79 3d d2 02 0f bd 96 7c 70 3d 85 f5 9a bd
       0.06087698 -0.0349148 0.058712564 -0.075663604
000130 d3 33 83 3d 1a a0 42 3d 5b f7 a7 3c 23 0f 58 bd
       0.06406369 0.047515966 0.02050369 -0.05274881
000140 30 2c aa 3c f3 e4 4a bd c8 80 2b bc 5d 7a 94 3d
       0.020773023 -0.04953475 -0.010467716 0.072499014
000150 91 c5 68 3c e8 1b 6a 3c 22 22 04 bd a6 53 2d 3c
       0.01420726 0.01428888 -0.032259114 0.010579025
000160 3e 68 29 3d c7 34 31 bd a8 29 c9 bc 43 98 22 bd
       0.04135918 -0.043263223 -0.024555996 -0.03969599
000170 31 41 c1 bc a8 1b 3d bd ff 03 93 bd b6 53 8a bd
       -0.023590656 -0.046168953 -0.071784966 -0.06754248
000180 e6 9d 21 3d a2 a4 8f bc 2e b5 87 bd b0 a9 5a bd
       0.039457224 -0.017534558 -0.06626354 -0.053384483
000190 b0 5d fa 3c 87 ff 2d 3d a4 cc a8 bd f2 e6 78 3d
       0.030562252 0.042480018 -0.08242157 0.06076712
0001a0 82 2a 57 bb cc aa 35 bc 52 2a 75 bd 56 4f cd 3c
       -0.0032831733 -0.011088084 -0.059854813 0.025062244
0001b0 b2 08 a2 bd aa f8 69 3d db 0d 26 bd bb 6c 86 3d
       -0.07911815 0.05712191 -0.040540557 0.065637074
0001c0 cc bf a6 bd 94 8a 08 bd b4 e1 8c 3c 91 4d 92 bd
       -0.08142051 -0.033335283 0.017197467 -0.07143701
0001d0 a0 ee 82 3b e0 05 e3 bc 31 ed 8b 3d e0 e2 95 bb
       0.0039957315 -0.027712762 0.0683235 -0.0045741647
0001e0 ea 22 55 3d fc fa 61 bc 5f 76 a1 3c ab 85 0a bd
       0.05203525 -0.0137927495 0.019709764 -0.033818882
0001f0 c5 7a a9 bd 90 4c 27 bc 93 f0 c6 bd 60 32 57 3b
       -0.082753696 -0.010211125 -0.09713855 0.0032836422
000200 5a 7f f1 3f f1 2f e5 3f d7 c3 f1 3c 16 51 02 3f
       1.886699 1.7905256 0.029512329 0.5090498
000210 d6 51 c9 bc 2a 59 0a 40 27 d2 d9 be d2 71 5e 3d
       -0.024575155 2.1616921 -0.42543146 0.054307766
000220 bf ca 17 40 6b d6 55 3f 68 61 f7 3f db d5 d2 3f
       2.3717496 0.835303 1.9326601 1.6471514
000230 a6 26 e9 3f c2 25 d9 3f cf b5 f2 3f c2 9e a8 3f
       1.821492 1.6964648 1.8961734 1.3173449
000240 b8 05 fb 3f 1b e3 ee 3f 95 01 ee 3f 18 7f 3e be
       1.961112 1.8663057 1.8594233 -0.1860317
000250 68 92 8e 3f 1e 76 92 3f 6e 72 03 40 bb 0c fe 3f
       1.113843 1.1442297 2.0538592 1.9847635
000260 f5 a0 b6 3f 22 ce be 3e 27 86 15 40 3f f5 cf 3e
       1.426787 0.37266642 2.336313 0.40616795
000270 48 ae c1 3f 1a 59 81 3f bf eb 14 3f ff 1a f2 3f
       1.5131311 1.0105317 0.5817222 1.8914489
000280 21 2c 0a bd 55 1a 17 3f 89 18 b6 3f 19 b7 c6 3f
       -0.03373349 0.59024554 1.4226238 1.5524627
000290 0d df c6 3b ae a1 ff 3f 18 42 fe 3f 61 6f 83 bd
       0.00606907 1.9971216 1.986392 -0.06417728
0002a0 5f dd e5 3f b8 41 c5 3c 27 ad ea 3f e5 9c 28 bd
       1.7958182 0.024079189 1.8334092 -0.04116525
0002b0 23 0d 0f 40 76 ab 52 3d 3e e3 e6 3f 0b d6 8d bd
       2.2351768 0.05143305 1.8038099 -0.06925591
0002c0 83 b4 69 3c 04 2b 04 40 db ec d4 3f eb 74 fa 3f
       0.014264229 2.0651255 1.6634783 1.956693
0002d0 ff 40 d4 3f 08 00 ed 3f 68 01 06 40 a0 59 02 40
       1.6582335 1.8515635 2.0938358 2.0367203
0002e0 59 02 04 40 c1 57 c7 3f 33 eb 0b 40 f4 f1 ef 3f
       2.0626433 1.5573655 2.1862304 1.8745713
0002f0 dd e0 d1 3f 45 04 cc 3f e5 15 f7 3f e5 c8 03 40
       1.6396748 1.5938803 1.9303557 2.0591366
000300 13 4c 2b 40 ab f5 e9 3f 2d 38 83 be 9d e2 f7 3f
       2.6765182 1.8278097 -0.25628796 1.9366032
000310 d8 05 ee 3f f7 e4 e3 3f e1 9d a8 bd 44 d6 d2 3f
       1.8595533 1.780425 -0.08233238 1.6471639
000320 46 93 02 40 70 c7 f9 3f 90 38 f7 3f e6 f7 ed bc
       2.0402389 1.9513988 1.9314137 -0.029048871
000330 02 40 c1 3c d4 be fe 3f 73 86 d7 3f a3 54 00 40
       0.023590092 1.9901986 1.6837906 2.0051658
000340 da ca ff bc b3 b9 83 3f 00 98 bf 3a 08 b5 8d 3d
       -0.031224657 1.0291046 0.0014617443 0.069192946
000350 1d 59 c3 3c 39 ab 1d 40 02 00 c0 3c 18 f4 ea 3f
       0.023846203 2.4635756 0.023437504 1.8355742
000360 a7 8b 0b 40 06 3d af bc f9 71 51 bd 2b 3c 14 bd
       2.1803987 -0.021391403 -0.051134083 -0.036190193
000370 cf 7c e9 3f 33 30 b5 3f 13 f5 e2 3f b1 06 df 3f
       1.8241214 1.4155334 1.7731041 1.7423917
000380 51 27 d7 3f 98 d6 f4 3f ef f7 df 3e f5 3d e6 3f
       1.6808873 1.9127989 0.43743846 1.7987658
000390 5f f1 7b 3d 1c 6f 06 40 72 05 58 3d 27 2c e8 3f
       0.061509486 2.1005316 0.052739568 1.8138474
0003a0 0b a8 ff 3f 67 d9 db 3f b2 4b e7 bd 68 ba e9 3f
       1.9973158 1.7175721 -0.112937346 1.8260012
0003b0 ef ff 18 40 d3 87 a1 bd dd 6d 06 40 a7 78 f4 3f
       2.390621 -0.078872345 2.1004555 1.909932
0003c0 6a c4 f8 3e 6c ac 02 40 54 bb 03 40 27 a8 b3 3f
       0.48587352 2.0417738 2.0583086 1.4035691
0003d0 b0 33 95 bd 01 7a 1d bd 7b dc e5 3f 3c cf f7 3f
       -0.07285249 -0.03844643 1.795791 1.9360118
0003e0 aa 31 e9 bc 05 2e f4 3f 9d c5 99 3f a8 0e 93 3d
       -0.028466064 1.9076544 1.2013432 0.0718053
0003f0 03 cb a0 3f b4 80 ed bc e1 88 db 3f 4a f6 f0 3f
       1.2561954 -0.028992034 1.7151147 1.8825161

advantage_stream.model.0.bias f4 [128]
000000 3e 82 5f bd 14 1c c7 3d 2f ee 95 bd 9b 91 94 3d
       -0.054567568 0.09722152 -0.073208205 0.072543345
000010 cd 12 bf bd ac a0 1b 3c 19 63 47 bd 1d 31 b9 3c
       -0.09329758 0.009498756 -0.04867849 0.022606427
000020 84 e9 a2 bd b6 56 24 3d 39 0e 0a be 49 07 d9 bc
       -0.07954696 0.040121756 -0.13481988 -0.026492732
000030 c0 dc 99 3d 97 a8 6c 3d 7d 5e db 3c 3f 72 17 be
       0.07512808 0.057777967 0.026778454 -0.14789675
000040 ed 4a 71 3c 30 5f 0e bd 0c 38 cf 3d 00 35 97 3d
       0.014727336 -0.034758747 0.10118112 0.07383156
000050 7f a6 90 bd 21 ac 94 3d 0a 7d 5d bd 5d d3 0a 3c
       -0.070630066 0.072593935 -0.054074325 0.0084732445
000060 08 51 24 be 52 f9 08 bc d8 54 60 3d d8 8f 97 3c
       -0.16046536 -0.008360224 0.054768413 0.018501207
000070 16 95 e3 bc c2 f6 21 3e d7 b2 24 bd e3 76 f0 bb
       -0.02778105 0.15816787 -0.040209617 -0.007338391
000080 9d 61 80 bd d7 1a fa 3c ff 01 8f bc 07 15 97 3d
       -0.06268618 0.030530376 -0.017457006 0.073770575
000090 11 84 a0 3d bc d6 92 3d 3b b3 8d 3b f6 a8 3a 3e
       0.0783769 0.071698636 0.0043243445 0.18228516
0000a0 ab c9 81 3c b9 b5 0e 3d 93 b5 30 bd a6 25 96 bd
       0.015843233 0.034841273 -0.043141913 -0.073313996
0000b0 a2 7b b9 bd 89 5c 4b bd 64 ac 28 3d fd d1 7e bd
       -0.09056784 -0.049648795 0.04118003 -0.06221198
0000c0 e0 39 10 3d bb a1 55 bd 9d e5 07 be 14 32 ee bd
       0.035211444 -0.05215619 -0.13271184 -0.116306454
0000d0 00 71 5f bd 64 52 54 bd eb f5 2b 3d 30 45 42 bd
       -0.054551125 -0.051836386 0.041982573 -0.047429264
0000e0 37 c0 bf bd 4c 7c 05 3e 40 21 f1 bd ec 4f a8 bd
       -0.09362834 0.13035697 -0.1177392 -0.08218369
0000f0 07 f3 05 bc 51 87 ff bc f8 e9 8f bd dd c9 a8 bd
       -0.008175618 -0.031192454 -0.07027048 -0.08241627
000100 53 0f be 3d a0 34 49 bd 9e 7e 32 3e 74 61 1b 3c
       0.092802666 -0.049122453 0.17431113 0.009483684
000110 df 5b 07 be 41 cd 0c be 6a 78 a1 3d fb 33 8d bc
       -0.1321864 -0.13750173 0.07884295 -0.0172367
000120 e1 fc f6 3c 4d b4 c4 bb b7 fd da bb 40 b1 d4 3d
       0.030149879 -0.006002939 -0.006683077 0.1038537
000130 71 bc cc bd c1 4a 09 bc 8e ed 3a bd b3 66 ec 3b
       -0.0999688 -0.008379639 -0.045636706 0.007214391
000140 1e 93 83 bd 10 d8 31 bd 38 9e 05 3d 7a 76 fc 3b
       -0.06424545 -0.043418944 0.032621592 0.007704553
000150 8d 9d 69 3d 8e 61 b3 3d b8 51 a8 bc 04 12 bb 3c
       0.057035018 0.087588415 -0.020546779 0.022835739
000160 3a 01 9f 3d 43 b9 38 3d 3c 15 9b bc cf f1 6a 3d
       0.07763906 0.045098554 -0.018931024 0.057359513
000170 a5 57 93 bb c2 12 1a bd d9 de df bd 62 6d e2 bc
       -0.004496532 -0.037615545 -0.10931177 -0.027640048
000180 d2 77 10 bd 1b a8 5e bc a5 56 83 3b fe 67 12 3d
       -0.03527052 -0.013589884 0.0040081316 0.035743706
000190 ef 18 5c 3d 7e bb 02 bd 49 1c 92 bd dc cd 19 bd
       0.053734716 -0.031917088 -0.07134301 -0.03754984
0001a0 cd c4 b8 bd 1d e1 eb 3d 16 db fb bd d0 6b 0d 3d
       -0.09021912 0.11517546 -0.12297647 0.034526646
0001b0 85 95 9a 3d e5 bb a2 3d ce f6 74 3c e8 a9 a4 bd
       0.0754805 0.07945994 0.014951421 -0.080402195
0001c0 ee 22 a9 bd af d6 12 3b 67 2d 1c 3e b2 1f 0b 3e
       -0.082586154 0.0022405793 0.15251695 0.1358631
0001d0 4b a9 03 3d 76 65 9b 3c cc de 2e bb 81 f2 5f bd
       0.032143872 0.018969279 -0.002668309 -0.05467463
0001e0 f4 0c 46 bc 3f 26 6f bd bc 7e df 3c 6b 2f 9f 3d
       -0.012088049 -0.058386084 0.027282111 0.07772716
0001f0 7e 63 97 3d 33 0e a7 bb aa 57 57 bd cf f1 74 bd
       0.073920235 -0.005098128 -0.052573837 -0.05980092
