logs/31-DuelingDQN-random-max-POM-G0-resumed-25_10_24_18-14-04/10/models/152000/DuelingDQN_checkpoint.pth (torch, 833227 bytes, 44 tensors)

feature_layer.model.0.weight f4 [128, 4]
000000 56 5d a4 bd 76 43 17 be 55 5e 0f be e4 b4 ee 3b
       -0.08025615 -0.14771828 -0.14000829 0.0072847474
000010 75 9e 93 be 0f d0 2c be 32 a6 8b bd 55 55 2d bc
       -0.2883183 -0.16876243 -0.068188086 -0.010579427
000020 8a 97 18 bd 7d ee fd bd 57 24 3d 3c 5d 40 6f bd
       -0.037253894 -0.12399004 0.011544309 -0.05841099
000030 6b 5c bf bd 1b 5f f0 bd d1 00 aa bd 90 73 ef bc
       -0.09343799 -0.1173689 -0.08300937 -0.02922991
000040 bf da aa bd 53 cc c7 bd 98 80 b3 3c 58 4b 3b bd
       -0.08342504 -0.097557686 0.021911904 -0.04572615
000050 c0 25 44 bd 1a 8d e2 be e0 d3 dc be 38 5d e6 be
       -0.047887564 -0.44248277 -0.43130398 -0.44992995
000060 22 7e fa be ea 6c ee be 94 ef c1 be 50 e5 e6 be
       -0.48924357 -0.4656747 -0.37878096 -0.45096827
000070 68 31 96 be d4 b1 89 bd 70 9f da bc 1e ae 79 bc
       -0.2933457 -0.06723371 -0.026687354 -0.015239267
000080 1a 6b 22 bc 89 82 39 bd 9d ce 8a 38 58 68 b6 bd
       -0.00991323 -0.045290504 6.6188375e-05 -0.08906621
000090 1f 7c 83 bb 57 9f b7 bd 2b bd a2 3a 13 90 bc bc
       -0.004012599 -0.089659385 0.0012415996 -0.023017919
0000a0 2d d1 01 bd 3b 72 fa ba ef 8e c3 bd df d8 11 be
       -0.031693626 -0.001910753 -0.09548747 -0.14242886
0000b0 49 ce 19 bd 71 66 05 be d3 e3 19 be d6 11 81 3d
       -0.037550244 -0.1302736 -0.15028314 0.0630223
0000c0 0d c5 69 be 00 16 c2 bd 15 38 a0 be 85 fe c7 3d
       -0.22829075 -0.094768524 -0.31292787 0.097653426
0000d0 87 25 aa be ff 7c 2c be f2 18 09 be 90 75 80 bb
       -0.33231756 -0.16844557 -0.13388422 -0.0039202645
0000e0 5a 50 6c bd 44 2a 15 be f3 c7 1b bc 50 24 12 bb
       -0.057693817 -0.14566904 -0.009508121 -0.0022299476
0000f0 fa 39 b5 bd 43 97 56 bf e4 e9 b9 bd c7 a9 4e bc
       -0.08848949 -0.8382456 -0.09077814 -0.01261372
000100 e3 ee 30 bd 6e 30 f5 3d 8b 6f 0d bd 38 59 8e bd
       -0.04319657 0.11972128 -0.034530204 -0.06950611
000110 80 00 88 bd 67 07 9c 3c ef 7b 1f 3e 3d e4 05 be
       -0.0664072 0.019046498 0.1557462 -0.13075347
000120 b9 c3 b7 be 2a c2 b5 ba 34 13 eb bd 84 7a 4d be
       -0.35891512 -0.001386707 -0.11478272 -0.20066267
000130 0a fe 83 bf 39 5c 51 bb d0 e3 36 be 75 e9 1c be
       -1.0311902 -0.0031945838 -0.17860341 -0.15323432
000140 0b 89 ef bd a1 70 d7 bd c5 1f f0 3c 3d 99 05 be
       -0.11696061 -0.10519529 0.029312024 -0.13046737
000150 dc 1c c6 3d db 4f 13 bd 7a 6a 9e bd 00 ea 16 3e
       0.09673473 -0.035964828 -0.077351525 0.14737701
000160 02 8e a8 be fe a1 a8 be 7c 2a 83 be 43 b8 61 3e
       -0.32920843 -0.3293609 -0.2561835 0.22042947
000170 7c e3 60 37 cd b6 9a be b6 ee 41 be be 0f 40 be
       1.3404406e-05 -0.3021759 -0.18938717 -0.18756005
000180 d6 29 c3 bd 9f e1 61 3d 7d 8e 51 be 90 01 c8 bd
       -0.09529464 0.05514681 -0.20464511 -0.09765923
000190 a4 a9 af bc 0c 83 62 3d 98 18 9c 3d ae dd 17 bd
       -0.021443196 0.055300757 0.076218784 -0.037076645
0001a0 a7 01 12 be b0 7f 3a bb 15 64 89 bd 5e 48 a5 bd
       -0.14258443 -0.0028457455 -0.06708542 -0.080704436
0001b0 75 bc 29 be 5a 7f 0a be c6 b1 7f bd 49 80 3a bb
       -0.16575797 -0.13525143 -0.062425397 -0.0028457812
0001c0 5d 85 1a 3d ee 7f 16 be 8f a5 95 bd 12 fa f2 bd
       0.03772484 -0.14697239 -0.073069684 -0.118641034
0001d0 66 b7 48 bd 3e 69 0c be 3a aa bc bc 4d 51 2d 3e
       -0.049003027 -0.13712022 -0.02303039 0.16925545
0001e0 e1 40 62 3e 62 03 cd bd 1c 0c ca bd 72 6c df bd
       0.22095062 -0.10010411 -0.09865591 -0.10909356
0001f0 88 28 1e 3e e2 f9 15 be a6 08 d7 bd 39 f7 98 bd
       0.15445149 -0.14646104 -0.104996964 -0.07469029
000200 2e b2 0a bf e4 08 c2 bd 3a be a2 bd af 6e c0 3a
       -0.5417813 -0.09474352 -0.07946439 0.0014681424
000210 e8 cf f3 bd 18 a7 95 bd e0 c1 9a be 58 05 a9 be
       -0.11904889 -0.07307261 -0.3022604 -0.3301189
000220 33 2e 47 bd f1 01 b9 3d ad f6 30 be 78 0f b3 be
       -0.048628043 0.090335734 -0.172816 -0.3497274
000230 22 e8 8f be 0e 0a 54 3e 34 98 5c bd 66 23 43 be
       -0.2810679 0.2070696 -0.05385609 -0.19056472
000240 e5 79 3d bd 58 fc 47 bd ef e9 e3 3d 0e 90 7b bd
       -0.046258826 -0.048824638 0.11128604 -0.061416678
000250 e5 fe 3c bd c9 a2 10 be 97 45 7e bf 96 cd d9 bd
       -0.046141524 -0.14124598 -0.99324936 -0.106349155
000260 5c 84 77 be 00 63 00 bd b8 1e e2 bd 4c 0f cf be
       -0.24171585 -0.031344414 -0.110410154 -0.40441358
000270 ea 6e 0d be 12 cc 96 3c 14 16 dd bc e1 46 0b be
       -0.13811842 0.018407855 -0.026988067 -0.13601257
000280 de bc f1 be 08 b8 cc be 00 37 57 bd 00 78 54 bd
       -0.47214407 -0.39984155 -0.052542686 -0.051872253
000290 9d 35 51 be 4e ac 85 3a 36 f6 e5 bd f9 84 e1 bd
       -0.20430608 0.0010198446 -0.11228602 -0.11011691
0002a0 a0 12 47 be 1b 18 bd bd 76 90 23 be 4e 01 ca bc
       -0.19440699 -0.092331134 -0.15973076 -0.024658825
0002b0 a1 b1 bf bc c7 18 91 be 30 7f a0 3e c0 aa 9a be
       -0.02340013 -0.28339216 0.31347036 -0.30208397
0002c0 6f 43 7e 39 57 a4 dc bd 9f c8 80 bc ec 49 f3 bc
       0.00024248449 -0.10773533 -0.015720664 -0.029698335
0002d0 18 10 a0 bd 7d e6 07 be 4e 6e 01 bc 78 7e 78 bc
       -0.0781557 -0.13271518 -0.007899834 -0.015166871
0002e0 b9 ec b8 bd a6 5b b2 bd de 0b 78 bd f7 ee 43 b9
       -0.09029526 -0.08708887 -0.060558192 -0.0001868567
0002f0 be a6 41 3c d7 1c 0e 3c d2 77 db bc a2 1a 35 bd
       0.01181954 0.008673868 -0.026790533 -0.044214852
000300 58 c2 a8 be b9 d6 13 be b8 11 c8 3d 6f 82 06 bf
       -0.32960773 -0.14437379 0.097690046 -0.52542776
000310 19 32 5c be f2 17 6a 3e 78 aa 57 be 95 36 76 be
       -0.21503486 0.22860697 -0.21061122 -0.24044259
000320 ed 0e e9 bd 7e ac f7 3b 69 a4 ba 3c af d1 f7 3c
       -0.113798 0.0075584045 0.022783475 0.030251352
000330 97 11 24 bd 7b e1 42 be 22 0b 84 3d ab a4 c2 bd
       -0.040055837 -0.19031326 0.06447436 -0.09504064
000340 66 02 3d be c0 17 3e bc f9 34 28 3d 61 f7 33 be
       -0.18457946 -0.011602342 0.041066144 -0.17574836
000350 c5 e9 f2 be a9 cd 11 3c 58 5f 24 3c 8c 84 ed b9
       -0.47443977 0.008899131 0.010032497 -0.00045302918
000360 ae 95 b3 3b e0 b1 c4 bb 44 5c e1 be 38 d0 a2 3c
       0.0054804897 -0.0060026497 -0.44015706 0.019874677
000370 2c 16 8f 39 ff 08 a3 bd 74 91 39 be ab 48 b2 bd
       0.00027291605 -0.079607 -0.18121892 -0.087052666
000380 40 da 6c bb 02 ba d0 bd 74 d1 ec 3d 67 4c 4c 3a
       -0.003614083 -0.10191728 0.115633875 0.0007793367
000390 68 48 e0 37 55 08 ff bc 08 5b 65 be 91 fa 82 be
       2.6736598e-05 -0.031131903 -0.22398007 -0.25581792
0003a0 28 d3 8e bd 00 af 4e bd ef c4 23 3a d4 92 3b bb
       -0.069738686 -0.05045986 0.0006247302 -0.0028621452
0003b0 dc 04 84 3c 76 5b d5 bc c6 53 9f bd b1 e8 71 bc
       0.016115598 -0.026044589 -0.077796504 -0.014764951
0003c0 d4 9c 40 be 03 65 93 ba a6 b4 80 bd 1e a4 73 bd
       -0.18809825 -0.0011245314 -0.06284456 -0.059482686
0003d0 8b 51 6b bd 74 fd b3 3d af 8c 3c bd c9 64 a8 be
       -0.057450812 0.08788577 -0.046032604 -0.32889393
0003e0 a8 73 d5 bc 9f e1 2f 3e c8 cd f1 bd 06 12 fd bd
       -0.026056126 0.17175911 -0.11806828 -0.12356953
0003f0 c7 5b 53 bb b0 70 ef 3a 9a 9a af bd 23 99 96 bc
       -0.0032250748 0.0018267836 -0.0857441 -0.018383568

feature_layer.model.0.bias f4 [128]
000000 9b 73 0d c0 9d 77 bf bb 9f 90 ff 3f 64 90 ee 3d
       -2.210181 -0.0058431164 1.996601 0.11648634
000010 6b 3e 0e c0 96 79 c2 bb 10 42 dd be e3 c5 b4 ba
       -2.2225597 -0.0059349043 -0.43214464 -0.0013791885
000020 f6 9c 1e bd bc 9d 26 bf 90 75 e0 bf 60 df 0e c0
       -0.03872391 -0.65084434 -1.7535877 -2.2323837
000030 17 e0 90 bf ef a0 c9 ba b5 e9 5c 3f 52 49 40 3f
       -1.1318387 -0.0015383045 0.8629411 0.7511188
000040 8d 65 48 3c 08 60 0a 3f 54 e3 98 be cd a3 b7 bc
       0.012231243 0.5405278 -0.29860938 -0.022416973
000050 79 a4 bc 3f 1e ad 66 be bf 02 45 3f 48 35 df be
       1.4737693 -0.22526976 0.76957315 -0.43595338
000060 78 25 8c 3e 9b f4 7e bf 1d 43 90 3f 81 b5 e9 bc
       0.27372336 -0.9959199 1.1270481 -0.02852893
000070 48 6d ad bf 5d 5c 22 bf e8 6f 59 bf 29 34 0d 3e
       -1.3548975 -0.63422185 -0.8493638 0.13789429
000080 18 76 99 3f d8 a8 12 be 70 14 75 bf 1c d1 87 bf
       1.1989164 -0.14322221 -0.9573431 -1.061069
000090 80 b8 4d 3c b8 47 1b 3f 52 6d 85 be 8e bb 28 c0
       0.012556195 0.6065631 -0.26059967 -2.6364474
0000a0 54 6e 85 be b0 ee 38 bf 98 cc a1 3e f6 c0 31 be
       -0.26060736 -0.7223921 0.31601405 -0.17358765
0000b0 3b c8 a0 bf 0f 26 68 3d 17 a9 a7 bf 4f 24 bd 3e
       -1.2561105 0.05667692 -1.3098477 0.36941764
0000c0 44 36 24 c0 80 95 81 3c a7 c8 85 bf 3b 69 f4 bf
       -2.565812 0.015818357 -1.0451859 -1.9094614
0000d0 68 b5 14 bf d0 7b fa 3f 1c 74 fc 3f 5e ec 1b bf
       -0.58089304 1.9569035 1.9722934 -0.6090754
0000e0 1f 33 4f bf 2e 82 13 bd 1e b2 00 bf ea e6 05 40
       -0.8093738 -0.03601282 -0.50271785 2.0922189
0000f0 aa 48 60 be 3c 6b a9 3f 20 f5 a3 bf 5f 95 65 bf
       -0.21902719 1.323585 -1.2809181 -0.8968105
000100 f1 07 4d 3f 49 3e 78 bf 41 3b 9d bf 71 d3 d9 3e
       0.8009024 -0.9697004 -1.2283708 0.4254413
000110 75 03 b7 3f a0 7f ad bd 5e 56 86 ba 4a ac 52 bb
       1.429793 -0.08471608 -0.0010249128 -0.003214615
000120 0b cc 20 3f c8 8c 2b bf e2 ba e0 be 5d 56 93 3f
       0.62811345 -0.6701169 -0.4389258 1.1510731
000130 57 1d 92 be d6 61 08 3f 9a be 5d 3f b4 c5 bf bf
       -0.2853801 0.53274286 0.8661896 -1.4982209
000140 5d bf 7c bf 56 0b a4 bf d2 d9 ba be bb ed 99 3e
       -0.987295 -1.281596 -0.3649431 0.30064186
000150 32 2d cb 3f 68 0d b9 3e 2b 8e c3 3f 23 9e e8 3e
       1.5873168 0.3614304 1.5277761 0.4543315
000160 79 c7 ba bf 6b 78 8c 3e fc a3 71 3f ff 09 4e 3e
       -1.4592124 0.27435622 0.94390845 0.20121
000170 0e 07 e0 3f 7f 4a 3e bf 4d 65 de 3e 80 f3 bd bd
       1.7502153 -0.7433242 0.4343666 -0.092749596
000180 99 f5 eb 3f ba f3 55 3f 7b 30 61 bf e6 44 f2 be
       1.8434325 0.8357502 -0.879646 -0.4731819
000190 c2 c7 3f bf 3a f6 4d ba b1 79 23 ba d0 93 31 c0
       -0.7491418 -0.000785682 -0.000623609 -2.7746468
0001a0 a5 84 c9 3e db c0 4b 3f e4 f6 7a be 1c 7f 33 3f
       0.39359012 0.7959115 -0.24508244 0.7011583
0001b0 2c 39 14 c0 50 f5 96 3f 04 0e 9e 3f 03 d5 67 3f
       -2.3159895 1.1793613 1.2348027 0.90559405
0001c0 dd d6 b5 bd e3 79 fc ba 78 55 87 be ee c8 b8 bd
       -0.088788725 -0.0019262399 -0.26432395 -0.09022699
0001d0 e4 e8 83 3f 3b 18 12 c0 40 c3 b1 bd c4 ec 25 bf
       1.0305448 -2.282729 -0.08679819 -0.648144
0001e0 a5 4e 1c bd a5 66 68 3f 70 9d aa b9 70 84 f2 bc
       -0.03816094 0.90781623 -0.00032542227 -0.029604167
0001f0 d9 30 1b bf 1e 1d 97 3f 62 67 ed bf 59 a9 32 3f
       -0.6062141 1.1805761 -1.8547175 0.69789654

feature_layer.model.2.weight f4 [128, 128]
000000 b5 03 b1 bd 6d a2 20 bc 93 cd 1d bd 5e 63 4d bd
       -0.08643285 -0.00980435 -0.03852613 -0.050143592
000010 09 49 15 3c 33 24 ad bd c6 df 6c bd 85 04 f5 3b
       0.009111651 -0.0845417 -0.057830594 0.0074773454
000020 17 82 14 3d 45 78 40 3d 0a 22 e5 3a fd 66 a9 bd
       0.036256876 0.046989698 0.0017481458 -0.082715966
000030 85 3c d2 b9 4d ff 86 3d 9e 0d 84 3c c5 51 87 3d
       -0.00040099412 0.065916635 0.016119774 0.06607393
000040 32 32 0f bd ff 07 bd bd c6 b4 97 bd 1e ce 72 3d
       -0.03495998 -0.09230041 -0.07407527 0.0592786
000050 f0 85 72 3d 61 69 c6 bc a1 73 69 3d c7 72 c2 bd
       0.059209764 -0.02422017 0.056995038 -0.09494548
000060 78 73 67 3d fd 3a d7 bd 43 60 1f bd 12 ca a9 bd
       0.056506604 -0.10509298 -0.03891016 -0.08290495
000070 cc 01 e7 bd 99 b6 75 3d 51 33 1c bb 07 3e 68 3b
       -0.112796396 0.05998859 -0.0023834298 0.0035437362
000080 ee fa fc bc a1 40 62 bd 41 db 8e bd 1d 5b b0 bd
       -0.030881371 -0.055237416 -0.06975413 -0.086111285
000090 e5 0e 1f bd b4 91 bb bd 95 1d 9f bd 24 85 3c 3d
       -0.038832564 -0.0915865 -0.07769314 0.04602541
0000a0 6a 39 12 bd 06 ee 69 bd af 3e 7f bd b6 8e 66 3d
       -0.035699286 -0.057111762 -0.06231564 0.056288444
0000b0 21 56 81 bd 31 2b 60 bc de 80 10 3d 64 f1 62 bb
       -0.06315256 -0.013682173 0.035279147 -0.0034628743
0000c0 d4 a0 48 3d fe dc c2 bc 8c 88 06 be 64 dc c4 bd
       0.048981503 -0.023787018 -0.13138026 -0.09612349
0000d0 39 18 ed 3c a3 40 74 3d 5d 24 c6 bd 9e c3 b6 bd
       0.028942214 0.059631955 -0.096749045 -0.0892403
0000e0 2f 21 b7 ba 63 4d b3 3c c0 16 eb bc 03 e2 b0 bd
       -0.0013971681 0.021887487 -0.028697371 -0.08636858
0000f0 71 4d a5 3c 7f d0 c7 ba f6 2b 21 3c 02 93 b2 b9
       0.020178529 -0.0015244632 0.009837141 -0.00034060335
000100 c5 de d7 3c af b2 dc bd 33 60 aa bd 0e 62 51 bd
       0.026351342 -0.10776269 -0.0831913 -0.051118903
000110 41 35 0e bd 4b 34 f9 3b 43 3b f4 3c 86 37 7a bd
       -0.034718756 0.0076051108 0.029813414 -0.061088108
000120 08 5e b8 3c d7 e0 97 bd ac 2f 94 bd ab 32 ff bd
       0.022505775 -0.07415932 -0.07235655 -0.12460836
000130 d7 63 ee bd aa 6b 8e bd 47 47 8d 3c 7c 26 77 3c
       -0.11640137 -0.06954129 0.017245902 0.015084859
000140 35 32 be bc e5 fe 36 3b e5 27 e9 3c 22 4c 1e bd
       -0.0232173 0.0027922925 0.028461406 -0.038646825
000150 b3 bb ba bc 4a fd 64 bd bf 5b b8 bc e2 5d 9b bd
       -0.02279458 -0.055905618 -0.022504685 -0.07586266
000160 62 c8 29 bd 9e 32 a2 bc 72 a6 e8 bc 3d ad d0 bb
       -0.041450866 -0.019799527 -0.02839968 -0.006368308
000170 45 1a a9 3d b4 4d bd bc 5d b0 9d bb 28 df 57 bd
       0.08256964 -0.02310834 -0.004812284 -0.052703053
000180 55 24 4e 3c 3d 61 b9 bd 43 ae 91 bd fa 22 f0 3b
       0.012581904 -0.0905175 -0.07113316 0.0073283883
000190 d8 64 37 3c dd 2e 13 bd 81 8c ef bd 17 f4 a3 bc
       0.011193477 -0.035933364 -0.11696721 -0.020013852
0001a0 4e 25 e1 bd 44 45 ad 3c 00 84 6c ba d6 37 3d 3d
       -0.109934434 0.021151192 -0.0009022355 0.046195827
0001b0 2e 77 15 3d bc a5 32 3c a7 c9 29 bc 35 cf db bd
       0.03649061 0.010903772 -0.010363019 -0.10732881
0001c0 89 70 73 3d 11 ad 27 3d 41 e1 df 39 d9 e4 8b bd
       0.059433494 0.040936533 0.00042701702 -0.068307586
0001d0 c4 f5 33 bc 43 7b 93 3d d8 95 26 3c d4 73 ac bd
       -0.010983888 0.07201245 0.0101675615 -0.0842053
0001e0 05 93 9a bd 1e bf 92 bc 30 f4 6d bc a2 33 78 bd
       -0.07547573 -0.017913397 -0.014523551 -0.060596116
0001f0 b1 ac 0a be 23 4a 08 be 4a 4d 6b bc f2 c6 21 3c
       -0.13542439 -0.13309531 -0.014361689 0.009874092
000200 7a 50 47 3d da 0b 97 3c 42 c3 01 bd f7 38 a9 bd
       0.048660733 0.018438268 -0.031680353 -0.08262818
000210 73 78 d3 bc 9a 6e 6b 3d a8 c1 23 3c aa d5 35 3c
       -0.02581427 0.057478525 0.009994902 0.011098305
000220 1f c1 83 bd ae 6e ce bd 7f f1 68 bd 94 c3 1f 3c
       -0.06433319 -0.10079704 -0.056870934 0.009751219
000230 92 31 a4 bc 19 e0 73 bc 48 cd 7b bd 97 33 36 bd
       -0.020043168 -0.014884972 -0.06147507 -0.044482794
000240 3b fc a3 3d 72 30 61 bd ee 31 70 3d ef 42 61 bd
       0.080070935 -0.05497784 0.058641367 -0.054995473
000250 ab ac 62 3c fd 66 bf bd 81 6f 38 bd a1 ff aa bc
       0.013835113 -0.09345815 -0.045028213 -0.020873846
000260 f8 39 1c bd 70 1c 80 bd 66 c3 85 bd 1a df d1 bc
       -0.03814122 -0.06255424 -0.0653141 -0.025619078
000270 30 de bd 3b cf ca df bd 86 42 63 3d 7e 84 96 bc
       0.005794309 -0.109273545 0.055483364 -0.018373724
000280 1e 5c d9 3a d2 0c 1e 3d 7b 2f 97 3d f8 ff bf bc
       0.0016583239 0.038586445 0.07382103 -0.023437485
000290 26 77 77 3d 03 ef 2e 3d 4e 37 68 3d 0f 3d 1c 3d
       0.060416363 0.042708408 0.056693368 0.038144168
0002a0 ec 89 85 bc 31 d8 a1 bc 2f 55 fc bb 34 96 a3 3c
       -0.016301118 -0.019756408 -0.0077005844 0.019969083
0002b0 7b 4a 26 bd b9 38 83 bd f4 13 e6 3c 4e ce 92 bd
       -0.040598374 -0.06407303 0.028085686 -0.07168256
0002c0 c7 ae 94 3d 60 c8 4d 3b 10 a8 80 3c 0d d3 a5 bd
       0.07259899 0.003139995 0.015705138 -0.08096895
0002d0 80 dd 64 bc 9c 44 cc 3c 62 74 a5 bd 40 49 80 bc
       -0.013968825 0.02493506 -0.08078839 -0.015659928
0002e0 15 89 ab 3c 0e da 3b bd 8b 32 83 bd 25 40 2d 3d
       0.02093939 -0.04586225 -0.06406125 0.0422975
0002f0 83 fb 45 3d 78 c2 74 3c 0f 4f 8e 3d 31 2e 90 bd
       0.048335563 0.014938943 0.06948673 -0.0704006
000300 c5 73 c2 bd ae 69 23 3d 76 67 1d 3c de 66 8c bd
       -0.094947375 0.039895706 0.009607187 -0.06855558
000310 80 66 35 3c 02 27 1d bc 86 ba 8d bd 4f 94 87 bd
       0.011071801 -0.00959182 -0.06920342 -0.066200845
000320 c5 30 99 bd b1 c7 ad 3b 0d 2d d8 bc 90 0f 15 3c
       -0.07480005 0.005303346 -0.02638867 0.009097949
000330 0a 1d 10 ba c6 16 9f bd d0 62 13 bc 1e fd d8 bb
       -0.0005497491 -0.077680156 -0.008995727 -0.006621971
000340 e4 99 8f 3c d5 18 3e bd 23 1a c3 bd 2d 60 88 3c
       0.017529435 -0.0464104 -0.095264696 0.016647423
000350 d2 4c b3 bc a4 7a 04 3d 20 53 28 bd c9 38 9e 3d
       -0.021887217 0.03234352 -0.0410949 0.07725675
000360 3d 5c 81 3d 0d 1b 43 bd 4f 3d 0b bd de 6d 85 bc
       0.06316421 -0.04763322 -0.033994015 -0.01628774
000370 73 07 6c 3d 00 49 64 bc 32 9f 66 bd 36 98 21 bd
       0.05762429 -0.01393342 -0.056304164 -0.0394518
000380 e0 d8 15 3b fc 4d 94 bc f2 81 11 3d 61 39 1e 3c
       0.0022864863 -0.018103592 0.035524316 0.009657235
000390 be 5b d9 bd da 83 b1 bd 83 e7 12 bd ce 7d 61 3d
       -0.106132016 -0.08667727 -0.035865318 0.055051617
0003a0 9a a7 a7 bd db af a8 bd 23 14 4d bd 0c 15 d1 bc
       -0.08186264 -0.08236667 -0.050068032 -0.025522731
0003b0 66 13 40 3d 13 95 38 3c 10 ca 30 bd 37 cf ef 3c
       0.0468935 0.011266011 -0.04316145 0.029273612
0003c0 b8 28 07 bc 61 a6 a3 3d d9 00 8c bd 56 63 a9 bd
       -0.008249454 0.07990719 -0.06836099 -0.082709
0003d0 0a 1a 03 bd c1 84 a7 bd 50 d4 bb bd 4e 02 5e bd
       -0.032007255 -0.08179618 -0.09171355 -0.054201417
0003e0 18 ad 89 bd be 44 03 bd 38 93 19 bc 63 f1 6b bc
       -0.06722468 -0.03204798 -0.009373479 -0.014400813
0003f0 49 2a 88 bd 57 65 a4 bd b5 4f 90 3d 4c dd 6a bb
       -0.0664869 -0.080271415 0.07046453 -0.003583747

feature_layer.model.2.bias f4 [128]
000000 04 c0 04 3e 75 40 63 3b ea d7 fe 3c 6d 0c ef 3e
       0.12963873 0.003467587 0.031108815 0.46689168
000010 06 b1 3b 3d d5 1a 2e bd e7 4d 26 3d 0f bc 2c 3e
       0.04582312 -0.042506058 0.040601637 0.16868614
000020 62 31 ad bd 19 9e 83 3d 7b 35 f7 bd d3 0d 8b bd
       -0.08456685 0.06426639 -0.120707475 -0.06789746
000030 5c 5c db 3c 1f 71 ab 3d f1 e0 ca 3e 23 5c bf 3e
       0.026777439 0.083711855 0.39624742 0.37374982
000040 94 6f 65 bd 51 1c 0d be e9 41 d5 3c 83 c7 82 bd
       -0.056014612 -0.13780333 0.026032405 -0.0638571
000050 b6 5a 6b bd 2b c6 7f bd 18 13 b8 bb 6e ce 0d be
       -0.057459556 -0.062444847 -0.0056175105 -0.13848278
000060 3b d8 79 3f 88 fe a3 3f 80 c8 30 3c ed 18 d5 bd
       0.97595567 1.2812052 0.01078999 -0.10405145
000070 80 41 f0 bd da 47 2e bd ae f8 8e 3d 38 93 27 3f
       -0.11731243 -0.04254899 0.06981026 0.65459013
000080 1b bc 6a bc 83 73 9d 3e ff 71 9d bd 42 c6 e5 bd
       -0.014327074 0.3075219 -0.07687759 -0.11219455
000090 e5 a1 30 3f 0e fb 8d 3d 09 81 84 3e 67 4d f2 bd
       0.6899703 0.069326505 0.25879696 -0.118311696
0000a0 51 63 13 be f0 a3 b8 bc 37 61 13 3e 3d 6a 51 bd
       -0.14393355 -0.022539109 0.14392553 -0.051126707
0000b0 70 92 9e 3c fb a5 e7 bc 4b d1 43 3c 1f a8 82 3f
       0.019356936 -0.028277388 0.011951755 1.0207556
0000c0 67 c1 be bd 7f fb b8 bd 02 37 d5 bd 78 99 e0 bd
       -0.09314232 -0.09032344 -0.104108825 -0.10966772
0000d0 bd eb 99 3b cf a9 fe bd e5 39 77 3e ce 13 82 bd
       0.0046972916 -0.12434732 0.24143179 -0.06351434
0000e0 c9 03 b9 3f 14 7b 11 3d 56 d5 b4 3d 02 85 1e bd
       1.445428 0.035517767 0.08829753 -0.038701065
0000f0 07 a3 ac bc 85 2c 71 3c 77 ad a7 3e 2c 2f f6 3d
       -0.021073831 0.014720087 0.3274953 0.12020716
000100 eb 0e b2 bd 4c e3 03 be 43 9f 90 bd 6a 2e 56 bd
       -0.086942516 -0.12879676 -0.07061627 -0.052290358
000110 3f 11 7f 3f 1b f3 4b bc e9 1c d1 bd 2a 2e 60 bc
       0.9963569 -0.012448098 -0.10210592 -0.013682881
000120 54 86 2f 3e 28 ed 30 bd ae c8 f6 bd 08 a2 4a 3e
       0.17141086 -0.04319492 -0.12049995 0.19788373
000130 9a 88 4a 3d 25 53 b6 bd 2c bb a9 3f ce 36 c8 3e
       0.04944668 -0.08902577 1.3260245 0.39104313
000140 ab 4f 07 be 35 ce c8 3e 56 f9 88 3c d1 53 47 3f
       -0.13213985 0.39219823 0.016720455 0.7786227
000150 29 62 1a be 85 33 3b bd 4a e5 0e 3c d1 aa 14 be
       -0.15076508 -0.04570343 0.008721659 -0.14518286
000160 44 3b 10 3d ad 70 b9 bd 7f da 13 3e 94 9a 7b bc
       0.03521277 -0.09054694 0.14438818 -0.0153566785
000170 a1 23 00 be ff 90 f8 3e ac 68 46 3d 84 81 1b 3d
       -0.12513591 0.48548123 0.048439667 0.037965313
000180 ba 2a a1 3d 51 05 69 3c fb d6 7a bd 43 4d 25 3d
       0.078694776 0.014222459 -0.061240178 0.040356886
000190 52 4a e8 bd 22 09 d2 bc d9 7b fb bd 5c 09 5b 3e
       -0.113423005 -0.02563912 -0.122794814 0.21390289
0001a0 30 42 c9 3d 28 c5 f9 3d 1e 58 30 3f cf 54 8d bd
       0.098270774 0.12195808 0.68884456 -0.069009416
0001b0 56 1e a2 bd 8d 54 b1 bd 7f f1 ce bd f7 cc 35 3f
       -0.07915942 -0.08658705 -0.101046555 0.71015877
0001c0 ed 94 88 3b a9 6e 7b 3f 66 e4 80 bc bc a5 15 bd
       0.004168144 0.9821573 -0.015733909 -0.03653501
0001d0 b1 0b a1 bd 33 d6 16 be 77 4c 3e bd b9 17 5e bd
       -0.07863558 -0.14730148 -0.04645964 -0.054221842
0001e0 2d c8 75 3f 7f 1c dc bc 04 0b 69 3c 21 7d 19 bc
       0.9600857 -0.026869057 0.014223818 -0.009368212
0001f0 9e a2 dc bd ce e9 d8 bd b7 42 c6 3e ca 20 a9 bd
       -0.10773204 -0.1059147 0.38722774 -0.08258207

value_stream.model.0.weight f4 [128, 128]
000000 20 e0 95 3b 6f 41 a4 3d 40 8f fe ba 1a 9f 3a bd
       0.004573837 0.08020293 -0.0019421354 -0.045561887
000010 8c 89 9d bc d8 bf 86 bd 80 1f 05 3b 93 13 dd bc
       -0.019230627 -0.0657956 0.0020312965 -0.026986873
000020 70 51 cb bc 3d ba 45 bd 96 84 76 bd 72 cd ea bc
       -0.024819106 -0.048273314 -0.060185038 -0.028662417
000030 fd b8 93 bd 0b de b3 3d 7b ec 2f bd b3 74 96 bd
       -0.07213018 0.08782586 -0.042950135 -0.07346477
000040 08 33 74 3c 79 04 1a bd cd b3 9f 3d 2e 1a 5f 3d
       0.014904745 -0.03760192 0.07797966 0.054468326
000050 7c ef 8d 3c 13 96 a5 bd 9c dd b9 3c 2b c8 8f 3d
       0.01732611 -0.08085265 0.02268868 0.07020601
000060 2c 1d 36 bd 67 81 2b bd 40 3c f5 bc 69 5a 11 bd
       -0.044461414 -0.041871455 -0.029935956 -0.035486612
000070 0e 37 3c 3d 90 57 ad bb 44 eb ef 3c cd 4e c7 bd
       0.04595094 -0.0052899793 0.029286988 -0.09731827
000080 25 78 aa 3d 5d 64 88 bd a4 b3 84 bd 31 84 91 3d
       0.08323697 -0.06659768 -0.06479576 0.07105292
000090 1b b8 07 bd f6 cd 59 3d 0c 3b 1f bd c6 ba 49 3d
       -0.03313456 0.053174935 -0.03887467 0.049250387
0000a0 00 be 07 bc 5e d2 3f 3d 30 15 ad bd 99 d4 81 bd
       -0.008285046 0.04683148 -0.08451307 -0.06339378
0000b0 3a 69 a0 bd 80 d3 31 3a b0 0c e0 3b ad 55 1c 3c
       -0.078325704 0.000678353 0.00683745 0.009541911
0000c0 56 1c 73 3d 22 a0 4a 3d 40 fc cb 3b e6 cd ab bd
       0.059353195 0.04946912 0.006225139 -0.083888814
0000d0 b0 9f 97 bd 9e 21 65 3d 17 c3 a9 3d 58 b3 50 bc
       -0.07403505 0.055940263 0.082891636 -0.012738071
0000e0 a0 8e 43 bc 64 f9 cf bc 22 88 e9 bd f7 a8 89 3d
       -0.01193586 -0.025387473 -0.114029184 0.067216806
0000f0 38 9d 99 bd 7e 29 85 bd 6a 50 76 3d 38 5b 5d 3c
       -0.0750069 -0.06502055 0.060135283 0.013510518
000100 d3 6f 83 3d b4 60 89 3c 63 42 85 3d e6 14 7a 3d
       0.06417813 0.016769744 0.06506803 0.061055087
000110 d5 fb a2 3c ea 64 24 3d d8 ac 07 3d dd 2c 66 bd
       0.019895473 0.0401353 0.03312382 -0.05619513
000120 28 75 a4 3c 96 b5 1a 3d 74 cc 90 3c 20 5d 95 3c
       0.020075396 0.03777083 0.017675616 0.018232882
000130 ee 7d 87 bd 80 50 0b bd a1 34 75 bc 11 b4 bc bd
       -0.06615816 -0.034012318 -0.014966161 -0.092140324
000140 00 6e 74 b9 62 3b cf bc 9a 68 37 3d 3e 1d 1f bd
       -0.00023310632 -0.02529687 0.04477749 -0.038846247
000150 b0 0d 03 3d e5 cd 66 bd b6 85 88 bd 04 c7 11 3d
       0.031995475 -0.0563487 -0.06666128 0.035590187
000160 6a f5 97 bd 1b 46 9d 3d b0 dd 30 3c f0 32 2a bc
       -0.07419856 0.07679387 0.010795042 -0.010388121
000170 3a c4 4e 3d 62 ee 03 bd b2 f4 6e 3d 79 a8 93 3d
       0.050480105 -0.03220976 0.05833883 0.07209868
000180 22 80 02 bd 1a eb 25 3d fa ae 5e 3d 45 f8 94 bd
       -0.03186048 0.040507413 0.05436609 -0.07273916
000190 22 7f 56 3d e3 a8 4c bd e0 a1 23 3c a6 18 86 bd
       0.052367337 -0.04996575 0.0099873245 -0.0654767
0001a0 ed 98 ac bd 23 28 91 3d c5 3d fc 3c d8 75 58 bc
       -0.08427606 0.070877336 0.030791173 -0.01321169
0001b0 fa 65 ae bd f8 14 05 bd d3 fa aa 3d 91 8f e0 bd
       -0.08515544 -0.0324907 0.08348622 -0.10964883
0001c0 5f c3 70 bd a2 7f 14 bd 84 f2 d2 3c 12 08 86 bd
       -0.05878007 -0.036254533 0.025750406 -0.06544508
0001d0 e0 36 51 3b 06 1a a4 bd e3 4f a4 3d 8a 79 94 bd
       0.0031923577 -0.08012776 0.0802305 -0.07249744
0001e0 43 96 21 3c 08 0a 57 3c a4 11 95 bd aa 0e 00 bd
       0.009862485 0.01312495 -0.07278755 -0.031263985
0001f0 68 6a 4c 3c c5 08 2c 3d 83 a1 0c bd f7 81 78 bd
       0.012476541 0.04200055 -0.034333717 -0.06067082
000200 44 24 99 3c 3d be af bc c2 43 9d bd bd de e4 3c
       0.01869405 -0.021453017 -0.076789394 0.027938241
000210 42 75 6f 3d 5f 39 76 bb fd 8c 86 bd b4 05 2e 3c
       0.058461435 -0.0037570817 -0.0656986 0.010621477
000220 af b3 95 3d b7 90 f0 3c 96 75 25 3d 99 f6 46 bb
       0.073096626 0.02936588 0.04039534 -0.0030359386
000230 0c c4 88 3d 34 52 13 3b 03 21 2e bc f8 c4 24 bd
       0.06678018 0.0022479417 -0.010627988 -0.040226907
000240 f4 9f 12 3d a6 95 f6 bb 53 ca 9d bd 28 0f 8a 3d
       0.035797074 -0.0075251637 -0.07704606 0.06741172
000250 ec 41 0f 3d a5 b7 ea bc 61 11 08 3d 3c 82 8e bd
       0.034974977 -0.028652022 0.0332197 -0.06958434
000260 09 c9 84 bb 49 48 24 3c d4 a9 25 3b 5e be 95 bd
       -0.0040522856 0.010027 0.0025278227 -0.073117
000270 db cb af 3c 7c 23 61 bd 57 7c 98 3c 33 0e 46 bd
       0.02145951 -0.05496548 0.018613977 -0.048353385
000280 4d 1b 76 3d f6 84 6e 3d 92 72 91 bd 83 94 a9 bd
       0.06008463 0.05823227 -0.07101931 -0.082802795
000290 48 e8 18 bd 11 3a 3e bd fd 78 8d 3d 05 f2 ac 3d
       -0.037330896 -0.046442095 0.06907842 0.08444599
0002a0 0e a4 bf 3c 00 a0 18 3d 14 0a 9a 3d 9c b1 15 3d
       0.023393657 0.037261963 0.075214535 0.036546335
0002b0 0d 03 8c bd ae 15 d9 bc 3c f8 3f 3d b4 33 9d bc
       -0.068365194 -0.026499595 0.046867594 -0.019189693
0002c0 40 62 11 3d 07 46 b0 bd 60 fc 3f bc ba 66 97 3c
       0.03549409 -0.08607107 -0.011717886 0.018481601
0002d0 bf 05 65 3c 0f 17 74 bb 86 82 3e 3c 63 7d d5 bc
       0.013978421 -0.003724519 0.011627799 -0.026060766
0002e0 aa 0b 82 3c b2 4d 1a 3d ee 54 7d bd a6 cb ad bd
       0.015874702 0.037671752 -0.061848573 -0.084861085
0002f0 27 45 ae 3c 98 d6 9b bd 41 0c 1b 3c 10 fb 0f 3d
       0.021273209 -0.0760929 0.009463371 0.03515154
000300 bb 20 d2 3d 90 35 f6 bc 68 22 6e 3d 21 1f 5f bc
       0.10260149 -0.030054837 0.05813828 -0.013618262
000310 4d d8 dd bd ef 77 a1 3c ea 9f 85 3c e8 82 aa 3c
       -0.10832272 0.01971051 0.016311605 0.020814374
000320 40 5f 8d bb 98 e4 f4 3c 99 02 9c 3d b1 fe 16 bd
       -0.004314333 0.029894158 0.07617683 -0.036863986
000330 b6 45 29 bc 41 f5 46 3d ec 79 77 bd 07 e7 a5 bd
       -0.010331562 0.048573736 -0.060419008 -0.081007056
000340 1e 69 6a 3d d4 8d ec bc 1b 71 af 3d 1e a3 da bb
       0.057229154 -0.028876223 0.08566495 -0.006672277
000350 62 55 9c bc 52 9f 30 bd 7a 70 05 bc 9b f8 6e 3d
       -0.019083682 -0.04312069 -0.008144492 0.058342557
000360 18 18 1c bd 64 14 a3 bb 9d be 06 3e 14 95 7d bd
       -0.038108915 -0.004976796 0.1315865 -0.06190975
000370 f0 e5 96 bc 27 33 d7 3c 10 c8 f9 bc 1f 40 e4 3c
       -0.01842019 0.026269509 -0.030490905 0.027862607
000380 1c a9 9a bc 5c 0d 3e 3d 6d 53 85 3d 26 be 55 bd
       -0.018879466 0.04639946 0.06510053 -0.052183293
000390 47 22 64 bd 7b 0f ce 3d b4 bb b3 bc ee 46 a0 3c
       -0.055696752 0.100615464 -0.02194009 0.019565072
0003a0 8d 33 84 bd f4 64 91 bb 99 0e e7 bd 70 d2 66 3c
       -0.06455145 -0.0044370834 -0.11282081 0.014088258
0003b0 e4 d2 16 b9 55 36 d3 bb 91 8e 94 3d 8a a8 bc 3c
       -0.00014383678 -0.006445686 0.07253755 0.023029584
0003c0 57 df d7 bb 4a 41 02 be 50 95 fe 3c d3 b9 a1 3c
       -0.0065879035 -0.12720218 0.031077057 0.019741928
0003d0 cf 1b 10 3d b6 b0 28 bd f7 b5 d6 bc aa 0a 88 bd
       0.03518277 -0.04118415 -0.026209814 -0.06642659
0003e0 f6 71 87 bc 24 29 03 3d e0 20 14 bb 54 ca 76 3c
       -0.016533833 0.032021657 -0.0022602603 0.015062887
0003f0 81 e1 a8 bd 51 47 9d 3a b0 9a 4b 3d 71 c1 df 3a
       -0.082461365 0.0011999403 0.04970807 0.00170712

value_stream.model.0.bias f4 [128]
000000 c4 6d 33 be f1 fd f5 be dd bb 43 3f 23 81 3d 3f
       -0.17522341 -0.48045304 0.7645853 0.7402517
000010 dc a6 03 be 19 a4 1c 3f bc 82 64 3e 40 ef db 3d
       -0.1285662 0.61187893 0.22315496 0.10738993
000020 ce f4 02 be c8 32 77 be 23 4d 7e bf 6b 3e 88 bd
       -0.12788698 -0.24140465 -0.9933645 -0.0665253
000030 f2 a0 5e be 73 dc 31 be 2b 02 15 bf 77 66 5f be
       -0.21741083 -0.17369251 -0.58206433 -0.21816431
000040 13 f4 53 be 5d 6a 92 be dc 78 13 bf c6 c7 e8 bd
       -0.20698576 -0.28596774 -0.5760629 -0.11366229
000050 e5 a0 0b 3f 89 c8 73 bf dc 45 52 be 37 46 e2 bd
       0.5454238 -0.9522787 -0.20534462 -0.11048549
000060 a4 ee 16 3e 13 9d 2f 3e e4 d3 23 3f b2 cf b8 3e
       0.14739472 0.17149763 0.63995194 0.3609596
000070 18 7e 14 be 31 22 5d be 7a d5 0a be 71 eb db be
       -0.14501226 -0.21595074 -0.13557997 -0.42953065
000080 58 39 82 3e 01 5d 14 bc 65 ea 5a be 8e 47 d8 3e
       0.25434375 -0.009055377 -0.21378477 0.42242092
000090 80 ac a5 be f3 e4 96 be c0 a2 05 3f 82 ef 73 bf
       -0.3235817 -0.2947155 0.5220146 -0.95287335
0000a0 6d 62 b7 be 0a e3 95 be 39 50 b2 bc f2 85 34 3f
       -0.3581728 -0.2927478 -0.021766769 0.70516884
0000b0 e8 48 1e 3f 08 0b 2f 3f be 98 3a be 7e e9 d4 bd
       0.61829996 0.6837621 -0.18222329 -0.103960976
0000c0 bd 89 e1 be 0e 7f 8c bd e6 aa a7 be 36 d4 a4 be
       -0.44050398 -0.06860171 -0.32747573 -0.32193154
0000d0 34 99 6a bd 33 2f 27 3f 7d 20 52 be 37 55 ba be
       -0.057275012 0.65306395 -0.20520206 -0.3639314
0000e0 51 5e 92 bd 87 40 6e bd f1 9b 7b be 6a 98 92 be
       -0.07146896 -0.058167007 -0.24571206 -0.28631908
0000f0 5a 57 7e be e2 bf 0f bf 69 e2 84 be 43 b9 c8 bd
       -0.2483801 -0.56152165 -0.25953987 -0.09800961
000100 fc 14 e0 3e ce 86 2f 3f 1a fe df bd d9 88 50 be
       0.4376601 0.6856507 -0.10937138 -0.20364703
000110 48 fd 6e be fa 40 13 be 12 64 10 be a8 75 d4 bc
       -0.23338807 -0.14380255 -0.14100674 -0.02593501
000120 c9 8b 6d be 8d 66 94 be 8a a8 db bd f3 4e 6a bd
       -0.23197855 -0.2898449 -0.10725506 -0.057204198
000130 b3 c5 fa 3c 26 91 26 bf 4b 5c c1 bd 20 20 91 3e
       0.030611848 -0.6506523 -0.094414316 0.28344822
000140 30 ec e0 3d a9 f5 56 3f e3 03 b4 bd 6b 91 dd 3d
       0.10982549 0.839686 -0.08789804 0.10818752
000150 13 25 25 3f 70 9d ce be a6 e3 9e 3e 0d 4f 40 3f
       0.64509696 -0.4035449 0.31033057 0.7512062
000160 88 3c 2e bf 78 50 c1 bd 06 8e 3d be 9e 7b 63 be
       -0.68061113 -0.09439176 -0.18511209 -0.22215125
000170 76 63 9d bd 44 37 0e be 5a cd 0c 3f 30 25 06 be
       -0.07684986 -0.1388827 0.5500084 -0.13100123
000180 95 9d 8d 3e 6c a7 a9 bd 18 af 4d be e0 03 25 bf
       0.27659288 -0.08283886 -0.20086324 -0.6445904
000190 47 f9 a9 bd d5 a6 ba bd 9d 6d 27 3f ac df 2e bf
       -0.08299499 -0.09113852 0.6540163 -0.68310046
0001a0 f7 35 f8 3d 99 9e 1d bf b5 a9 97 bd b7 04 0c be
       0.12119668 -0.61570126 -0.07405416 -0.13673674
0001b0 70 59 0b 3f 32 c1 83 be fc 46 18 be 43 79 4f bf
       0.54433346 -0.25733334 -0.14870828 -0.81044406
0001c0 04 e7 72 bd ac 78 14 bd 8e 98 3b be 2e 6b e8 3e
       -0.059302345 -0.036247894 -0.18319914 0.45394272
0001d0 50 fd 62 be 7c d3 6d 3d 31 67 8b 3e b1 0f 91 be
       -0.22166944 0.058063015 0.27227166 -0.28332284
0001e0 d1 8f c5 b9 e3 59 f2 bb 04 7c d5 bd 95 ea 16 be
       -0.0003768192 -0.0073959692 -0.10424045 -0.14737923
0001f0 27 bb 83 be e6 3d f2 3e 59 dd 39 be ca 8d 97 be
       -0.25728723 0.4731285 -0.18150844 -0.29600364

value_stream.model.2.weight f4 [1, 128]
000000 3f ef 7d 3c f2 94 d3 bb af 2c 08 3d 46 3b e9 bc
       0.015498935 -0.0064569646 0.03324574 -0.028470647
000010 26 fb 8d ba 57 c0 27 bd eb 4a 0b be 73 25 1d 3d
       -0.0010832294 -0.040954914 -0.13602798 0.038365792
000020 78 94 42 3c 9c 08 06 bd 0b d8 bd bc 0e 90 43 3c
       0.011876218 -0.032723054 -0.023174306 0.011936201
000030 99 c3 61 3b bd fd d7 39 35 ba d3 bc 38 33 00 3a
       0.003444886 0.00041197045 -0.025845626 0.00048904447
000040 11 fb 44 3c 46 5f 5b 3c 82 c1 60 bc d7 12 12 3c
       0.0120227495 0.013389414 -0.013718011 0.008915625
000050 e2 d9 b3 3c 99 f2 c7 bc e5 22 76 bc a3 27 0d bb
       0.02195448 -0.024407672 -0.015022968 -0.0021538518
000060 e6 53 73 bc 44 44 35 bc c2 23 31 3d f1 c8 be bc
       -0.014851546 -0.011063639 0.043246992 -0.023289176
000070 ae 9c 9b 3a 9c 32 27 bb 56 48 76 bc 51 b4 94 bc
       0.0011872256 -0.0025512343 -0.015031895 -0.018152388
000080 e2 60 2e bd 00 4d 82 3c 93 fc 79 3c 9f c6 42 3d
       -0.042572863 0.015905857 0.015257972 0.0475527
000090 9c 3d 6e bc ca 39 27 3c 43 2c 06 3e 9c 21 ef bc
       -0.014541056 0.010206649 0.13102822 -0.02919083
0000a0 d2 ea 8b ba 4f 3e 07 bb 63 e1 77 3c c5 f6 62 3d
       -0.001067484 -0.0020636504 0.01512942 0.05541112
0000b0 a4 5d b3 3c 3e 67 0d bd 7f 16 1b bc 3a 7b ba bb
       0.021895237 -0.034522288 -0.009465813 -0.0056909593
0000c0 16 e1 b7 b9 35 7f fa 3c 50 20 63 3c 96 17 e8 3c
       -0.00035072182 0.030578235 0.013862684 0.02833156
0000d0 16 20 0c 3c 74 a0 40 3d e9 3d a9 3b 0c b4 27 bc
       0.008552572 0.04702802 0.005164851 -0.010235798
0000e0 5c fa 46 bb bc 13 2c bc 5d 53 82 bc dd 61 75 3c
       -0.0030361628 -0.010502752 -0.015908891 0.014976946
0000f0 b5 5e 7c 3b eb 13 9c bb 0c f6 95 bb b1 c9 6e bc
       0.0038508598 -0.0047631166 -0.00457645 -0.014574454
000100 1f 4a 13 bd e8 36 28 bd 36 52 b5 bb 10 f8 36 bc
       -0.03595936 -0.041067988 -0.005533482 -0.011167541
000110 83 7e 36 bc e1 cf 6b 3c 57 97 0d 3c 40 96 d7 bb
       -0.011138561 0.014392824 0.008642039 -0.0065791905
000120 14 72 c8 3b 24 c9 24 3b 7e 80 f7 3c 2a b5 06 3b
       0.006117115 0.0025144303 0.030212637 0.002055476
000130 fa 04 12 3d c1 4f 54 bb a6 8c 0a bc d2 91 8d bc
       0.035649277 -0.003239617 -0.008456385 -0.017281447
000140 21 9a ce 3d 49 b3 21 3d b2 06 d7 3b 9e 32 a0 3c
       0.100879915 0.03947762 0.0065620774 0.019555386
000150 c0 fd 1a 3d 8e 27 57 bc 91 d2 74 bc 59 5b 17 3d
       0.03783965 -0.013131989 -0.014942781 0.03695235
000160 d7 62 cf bb 16 d1 0a 3c 62 a5 ac 3a 4e bb ce 3a
       -0.0063289213 0.008472702 0.0013171847 0.0015772374
000170 b8 9b 55 bb 9b 38 4d 3c 6d f9 9a 3d 8f 56 1f 3d
       -0.0032594036 0.012525703 0.075671054 0.038900908
000180 84 53 a9 3c 4b c2 bb 3a 52 53 03 bc cc 47 8d bc
       0.020669706 0.0014324872 -0.008015471 -0.01724615
000190 a9 7a 15 3d 71 94 cd bb 95 30 44 3d 62 e5 de 3b
       0.03649393 -0.006273799 0.047897894 0.006802247
0001a0 db e6 8f 3a a0 aa 83 bc 0d e5 02 3a 7d bf 5d 3c
       0.0010978834 -0.016072571 0.00049932377 0.013534424
0001b0 a1 f6 de bc ad a3 8a 3b 8f 84 13 ba 5f 73 08 3c
       -0.027217211 0.0042309375 -0.0005627358 0.008328288
0001c0 7b 53 17 bd 35 52 8e 3a 29 d6 07 bc a5 00 7d 3c
       -0.036944848 0.001085824 -0.008290806 0.015442048
0001d0 cc a4 ee bb 2f 3e c0 3c d4 27 03 3d 73 f3 13 3c
       -0.007282829 0.023467151 0.032020405 0.009030211
0001e0 f8 1d a4 bc 28 25 3b 3c cb e7 2e 3b df 04 e7 3c
       -0.020033821 0.011422433 0.0026688452 0.028200565
0001f0 ba 74 66 3c 2d 27 fc 3c bb 76 47 3c cd bf 25 3c
       0.014065916 0.0307804 0.012174304 0.01011653

advantage_stream.model.0.weight f4 [128, 128]
000000 04 fd 12 3b c7 ea 59 3b 42 13 c2 3d 8d 47 a2 be
       0.002242864 0.003325151 0.094763294 -0.31695214
000010 6e 8e 81 bd 80 0b 37 bc b1 0f 7f 3c 26 7a 13 be
       -0.063259944 -0.011172175 0.015567706 -0.14402065
000020 9d 55 29 bd b5 53 d6 3d 0c 4f 11 bd 3b cf f1 3d
       -0.041341413 0.104651846 -0.035475776 0.11807104
000030 39 a5 3d 3a af 62 a5 3b 2d 51 4b be 67 24 aa bd
       0.0007234398 0.0050471644 -0.19855185 -0.083077244
000040 c0 f2 95 3d eb 16 93 bb 50 42 4e 3d 95 68 96 bd
       0.073216915 -0.004488816 0.05035621 -0.07344166
000050 03 80 a8 bc dc 7e 17 bd 4e 0a d9 3c 20 cf 97 3d
       -0.020568853 -0.036986217 0.026494171 0.07412553
000060 f4 ab 11 3d cf 16 31 be cd 4a 2f bd e4 70 a2 3d
       0.035564378 -0.17293857 -0.042795945 0.079316884
000070 86 d1 af bd 14 83 c9 3d 9f 14 19 bd 40 6a 8d 3d
       -0.08584885 0.09839454 -0.03737318 0.06905031
000080 a4 47 86 3d 4e de 57 bd b5 68 a4 bd f3 d8 32 bd
       0.06556633 -0.05270224 -0.08027784 -0.04366393
000090 70 4e c1 bd 99 d1 30 3d 8d f1 a6 3a 39 0e 3c 3b
       -0.09438789 0.043168638 0.0012736783 0.0028695
0000a0 78 0c 34 3d b2 f6 03 bc d3 01 2f bd 5d 5c a0 bb
       0.043957204 -0.008054422 -0.04272635 -0.004893823
0000b0 8c 1b e3 bc 74 2a 93 3d d6 2f 0a 3d 9e 30 26 be
       -0.027723096 0.07185832 0.033737026 -0.16229483
0000c0 7a 03 ec 3b eb e4 b5 3d 70 24 8c bd 78 18 d5 3c
       0.007202563 0.08881553 -0.068428874 0.026012644
0000d0 7d c9 46 bc 8e d9 b4 bc 4e 40 6c bd cf 4b 8a bd
       -0.0121329995 -0.022076394 -0.057678513 -0.067527406
0000e0 39 cd 30 bd 86 46 cd bd dc 5c 49 3d 90 25 53 3c
       -0.043164466 -0.10023217 0.049160823 0.012887374
0000f0 35 d2 64 bd e9 29 c8 bc 4a 9e 12 3d e6 79 a4 bd
       -0.05586453 -0.024434047 0.035795487 -0.08031063
000100 85 6f 2f bd da 76 b1 bd 9a 36 8f 3d 8f 86 8c bd
       -0.042830963 -0.08665247 0.06992836 -0.068616025
000110 65 5c 95 be 4a ec f9 bc 5a 9a a0 bc 27 26 e7 bd
       -0.29172054 -0.03050818 -0.01960485 -0.11286574
000120 9e 76 77 bd 28 20 5c bd 56 8a 90 bd 19 5b 26 3c
       -0.060415857 -0.053741604 -0.070576355 0.010153555
000130 7c aa 0f bd 0c 6c 81 3d 5e 01 cb 3d 9c 50 04 bf
       -0.035074696 0.063194364 0.0991237 -0.516855
000140 06 17 e2 bc fe f4 e5 bd fa 74 27 3d 92 6f e2 bd
       -0.027598869 -0.11228369 0.040883042 -0.110564366
000150 ca 84 a2 3d 1d 21 d1 bd 5c cc 9c bc 87 9a 8f 3d
       0.07935484 -0.10211394 -0.019140415 0.070118956
000160 41 da 77 3d 73 d9 80 bd 2b c2 35 be 3c 24 4e bd
       0.060510878 -0.06291475 -0.1774985 -0.050327525
000170 2c 98 31 3c f2 b7 5d 3d 05 5c 78 bc 00 0d 8d 3d
       0.010839503 0.054130502 -0.015158658 0.06887245
000180 3f ee 57 be 53 83 e1 bb da ac b1 bd 0e da 31 bd
       -0.21086977 -0.00688211 -0.08675547 -0.043420844
000190 bd 25 aa 3b 69 3f 7c bd 31 fa 2b 3d 66 06 19 bc
       0.005192487 -0.06158391 0.041986648 -0.009339904
0001a0 29 4d d3 bc ff 22 36 bd 32 39 28 be ec 85 c0 bc
       -0.025793629 -0.04446697 -0.16428068 -0.023501359
0001b0 e6 1e 2e bd 4a 56 02 bd 5f 73 fa 3c 49 ef 4f 3d
       -0.042509936 -0.031820573 0.030572591 0.05076531
0001c0 dd 67 88 3d f9 7a 93 3d 7a 4c 48 bd 3c 92 7a 3d
       0.06660435 0.072011895 -0.04890106 0.061174616
0001d0 44 70 8e bc a7 da 9b bc 49 9d 99 3d 60 03 0e bb
       -0.017387517 -0.01902516 0.07500703 -0.0021669492
0001e0 c5 0a 5c bd e3 49 65 3d d9 a4 01 3d 7f a4 4e 3c
       -0.053721208 0.055978667 0.03165135 0.012612461
0001f0 bf 9b 15 bb 4c d4 1e 3d 27 35 97 bd 7d 21 9e 3d
       -0.0022828428 0.03877668 -0.07383185 0.07721231
000200 ea f3 a9 b7 1e 56 17 3d 64 12 8a bc 32 52 5c bd
       -2.0259951e-05 0.036947362 -0.016854472 -0.053789325
000210 4a 7e 60 bd 34 9c 65 bd f3 42 88 3c a6 27 5e be
       -0.05480794 -0.05605717 0.016633486 -0.21694812
000220 9a 65 76 bc b5 54 7b bc e2 80 a1 3c 15 fb 96 3d
       -0.015038872 -0.01534002 0.019714776 0.07372109
000230 6a 8f 1e bc 02 8c d4 3d 2d a2 d4 bd 34 f5 14 bc
       -0.009677747 0.10378267 -0.10382495 -0.009091664
000240 30 e5 63 3d e3 58 8f 3d 90 9c df bc a9 ee 41 bd
       0.055638492 0.06999376 -0.027296335 -0.047346745
000250 a5 06 a2 3d 6f ef 80 bc 80 3f e3 3c cb 4c 6d 3d
       0.079114236 -0.01573917 0.02774024 0.057934564
000260 47 e5 ab 3d 4f c4 a7 bd e0 4b d4 bd 1b 51 f2 3d
       0.083933406 -0.0819174 -0.103660345 0.11831876
000270 44 b2 a3 3d da 9c eb 3c 13 40 0d bd 6c b6 bf 3c
       0.07992986 0.028761316 -0.034484934 0.023402415
000280 f2 53 25 bc fe 26 23 bc 2f 3e b8 bd ab fa c5 3d
       -0.010090815 -0.009958027 -0.089962356 0.09666952
000290 d2 a4 5f bd 33 58 51 3d ec ac cf 3b 06 5b 73 bd
       -0.054600544 0.051109504 0.0063377526 -0.05941298
0002a0 af 42 b4 bd 98 8d 1d 3d 5f 1d c2 3d c6 15 8f bd
       -0.088017814 0.038465112 0.09478258 -0.06986575
0002b0 74 12 ec 3b 3b 8a 88 3c 78 0b ca 3c e9 c6 df 3b
       0.007204348 0.016667476 0.024663672 0.006829132
0002c0 c5 18 62 bb 41 30 c0 3d ad cd 41 bd fb fd 60 bd
       -0.0034499627 0.09384204 -0.04731529 -0.054929715
0002d0 48 55 53 3d a0 37 a5 bc 4a d4 2c bc a0 32 e8 bd
       0.051595002 -0.020168126 -0.0105486605 -0.11337781
0002e0 68 fc 83 bd ca e6 74 bc 70 3b 9d bd 4f 4a 69 3d
       -0.06444627 -0.0149476025 -0.076773524 0.05695563
0002f0 be 13 5f bd f4 6a 49 3d 3e 9b 88 3d d7 93 cb 3c
       -0.054462187 0.049174264 0.06670235 0.024850769
000300 80 59 45 3d 18 1a 56 3d bd 55 68 3d 23 0f 3b bd
       0.048181057 0.05227098 0.05672239 -0.045668732
000310 c4 24 b5 bd b9 25 e2 3c cd cb 90 bd f3 2e c0 bb
       -0.08844903 0.027605878 -0.07070122 -0.005864972
000320 73 0a 59 bc cf 6d 93 bd 86 a0 21 3d 9d 8e c8 bc
       -0.01324712 -0.07198679 0.039459728 -0.024482066
000330 e1 a3 ec bc c3 05 4a 3d 79 8d 2b be 24 00 ea bd
       -0.028886737 0.0493219 -0.16753186 -0.11425808
000340 96 01 58 bb f5 87 61 3d 93 c4 7a ba 3f 7b a9 bd
       -0.003295993 0.0550613 -0.0009566035 -0.082754605
000350 61 8f 24 bd 98 1b 96 bc 38 5b 57 bd e1 20 88 bd
       -0.0401758 -0.018323705 -0.052577227 -0.06646896
000360 96 90 fd bc 9e 93 e9 bb 50 ce 4f be ea 95 e6 3c
       -0.030952733 -0.007128193 -0.20293546 0.028147656
000370 7d be be 3d 04 8b ee bb 2f af 85 3d 71 dc ad ba
       0.093136765 -0.0072797555 0.06527554 -0.0013264549
000380 db cc 1f 3d c1 5b 03 3d 3d 40 71 3d 6f d1 26 bd
       0.039013725 0.032069925 0.058899153 -0.040727075
000390 70 ed d7 3c 64 07 8e bc 93 8c f1 3c ad 1b 39 3d
       0.026358336 -0.017337508 0.029485976 0.04519241
0003a0 b7 1e de 3d 5d dd b6 3d 52 72 11 bd 7e a5 68 bd
       0.10845702 0.089289404 -0.035509415 -0.05679845
0003b0 09 99 89 3d fb 09 19 3d da 58 dd bd 4f c8 42 bd
       0.06718642 0.037363034 -0.10807963 -0.04755431
0003c0 9d 23 ec 3b 81 e1 03 bd a3 a8 04 3d 50 90 9c bd
       0.007206394 -0.03219748 0.032387387 -0.07644713
0003d0 96 34 93 3d ca d7 ed 3c f7 6d b5 bc 19 86 96 bd
       0.07187764 0.02903356 -0.022147162 -0.07349796
0003e0 3a 8b bb bd 40 1b d1 3a 54 28 94 bd 9f 88 00 3d
       -0.09157415 0.0015953556 -0.072342545 0.031380292
0003f0 5c c0 a2 3c 08 42 f5 3c 70 92 3d bc 53 48 12 bd
       0.019867115 0.029938713 -0.011570558 -0.035713505

advantage_stream.model.0.bias f4 [128]
000000 23 6f ff 3e 3a 9b 05 3f 76 8f 64 bf 76 ec ff 3e
       0.49889478 0.5218998 -0.89281404 0.49985093
000010 22 95 0a bf 6c 05 95 3d 6f 19 c4 bd 68 82 9a be
       -0.5413381 0.07276425 -0.095751636 -0.30177617
000020 07 be 6c 3f 1a 41 f8 3e 2e 0c 8a bd c9 6d 97 3e
       0.9247746 0.4848717 -0.06740604 0.29575947
000030 a1 d6 d2 3e 0a 37 7d bf b4 41 84 bc 24 31 a0 be
       0.41179374 -0.9891211 -0.016144611 -0.3128749
000040 8f a6 36 3f a7 cc 8a 3d bd 22 18 bd 42 ca 5f bf
       0.713479 0.067773156 -0.037142504 -0.87417996
000050 4d fd 80 be 31 3b e8 3e 15 5c 86 bf 0d d3 2c 3f
       -0.25193253 0.4535766 -1.0496851 0.6750954
000060 2f de 0d bf 0a 02 49 3f ae cb 4a 3f 64 c3 68 be
       -0.5541715 0.78518736 0.7921704 -0.22730786
000070 f5 0d dc 3e d6 14 a6 3d 12 f9 20 bf 1f 17 56 3b
       0.42979398 0.08109443 -0.6288005 0.003266759
000080 9f f1 30 be 2d 95 4d be 9c 85 eb 3e 7e 61 45 bf
       -0.17279671 -0.20076437 0.46000373 -0.77101886
000090 90 6a 64 bf 4d e8 89 bd 23 c9 28 bf 00 18 ee 3e
       -0.892251 -0.06733761 -0.6593191 0.46502686
0000a0 76 b7 b2 bd 2c 2b 2f be 59 8a 56 3d d7 be 4a be
       -0.08726399 -0.17106313 0.052378032 -0.19799362
0000b0 af 87 11 be 47 e9 45 3f aa 75 0b 3f 99 f7 a4 bd
       -0.14211915 0.7730908 0.54476416 -0.08055038
0000c0 d3 d3 8a 3d 63 b0 4c bf 3b 57 81 3f 6b 38 c9 3e
       0.067786835 -0.79956645 1.0104746 0.39300856
0000d0 65 9d 85 3f c9 dc 1f 3f 62 bd d6 be c0 2d 4e 3f
       1.0438658 0.62446266 -0.41941363 0.8053856
0000e0 f3 be 7b 3f df 22 76 3f ee f1 8b bd 06 a3 37 3f
       0.9833824 0.9614696 -0.06833254 0.7173313
0000f0 b7 75 57 3f c7 64 70 3f 84 11 cd 3e aa 32 d9 3e
       0.84163994 0.93903774 0.40052426 0.42421466
000100 26 0f 21 bc 64 04 ed be dd e3 44 3f e5 82 c6 be
       -0.009830272 -0.46292412 0.7691019 -0.3877174
000110 8d 41 1c 3f 9b 1a 45 bf 21 f3 06 bf 40 ac 73 3f
       0.6103752 -0.7699372 -0.52714735 0.9518471
000120 96 bf 20 3f 4e bf 8c 3e 88 ce 1e bf 58 7b dc be
       0.62792337 0.27489704 -0.6203389 -0.43062854
000130 3b 80 3b 3f cd 5f 3f bd 6e bf 49 3f 05 93 32 be
       0.7324254 -0.046722222 0.78807724 -0.17438896
000140 3a 7f bc 3e 1e 4b 4f 3f d2 cf e3 3d e3 7d ab be
       0.36815816 0.80973995 0.11123623 -0.3349448
000150 13 03 25 3f 9b 63 47 bf c8 d8 36 bf a1 56 19 3f
       0.64457816 -0.7788636 -0.7142453 0.5989781
000160 53 69 2f bf 09 19 4b 3f 3d dc e2 be 46 9a e3 3c
       -0.68520087 0.79335076 -0.44308653 0.027783524
000170 d1 f8 e9 bd 86 fa b8 3e e2 42 75 be b6 36 a1 be
       -0.11424411 0.36128634 -0.23951295 -0.31487054
000180 a0 01 3f bf de 5b 07 be 30 80 ab 3e cc 0e 3f bc
       -0.74611855 -0.13218638 0.33496237 -0.011661243
000190 cb 7d 9c be 2a 59 e4 be 67 48 23 3d ef ef 4e bf
       -0.30564722 -0.44599277 0.03986397 -0.8083486
0001a0 cd d1 1f bf cb a7 59 be 38 7b 67 3f 4c 4f 62 3f
       -0.62429506 -0.21255414 0.9042239 0.8840225
0001b0 f1 55 89 be 0e 18 c3 3e 0c ed 4a 3f 09 67 04 bf
       -0.2682338 0.3810429 0.79267955 -0.5171972
0001c0 9f ca 56 3f aa b1 20 3f 0b 23 00 bf 47 d1 08 bf
       0.83902925 0.62771094 -0.5005347 -0.5344433
0001d0 7a 9e 93 be 9b 64 e3 3e cb f2 81 3f cc c3 1b 3f
       -0.28831846 0.44412693 1.015222 0.6084564
0001e0 56 cf bb be 18 1a 35 be 52 0a 5d 3f 01 f9 8d 3e
       -0.36681622 -0.17685735 0.8634387 0.27729037
0001f0 d7 a0 76 bf 48 cb 5a 3f 69 64 40 be 16 3f 4b bd
       -0.9633917 0.8546643 -0.18788303 -0.04962071
