logs/35-DuelingDQN-random-max-HIER-25_10_24_23-30-41/10/models/11000/DuelingDQN_checkpoint.pth (torch, 868043 bytes, 44 tensors)

feature_layer.model.0.weight f4 [128, 23]
0.06553474 0.030059364 -0.19601326 0.05098371 -0.77743036 0.45305628 -0.3128372 2.0448282
-0.33982927 3.6471128 -0.46254763 -2.0397727 -2.3878417 -2.7397065 -1.8085477 0.7816065
-1.2284921 2.1783905 2.9647512 3.5465562 3.7334812 0.18994194 -0.3587786 -0.18763375
-0.20402867 -0.19419977 -0.15796258 -0.17018047 -0.1829158 0.100728855 0.13767758 0.17283498
0.1123309 0.06436253 0.09186016 -0.17867598 0.18773614 0.017556591 0.19259137 0.088069394
0.16320764 0.1663314 -0.043566093 -0.06988656 0.05410031 0.011110073 0.032825083 0.36466005
-0.57046765 0.1520998 0.7531541 0.30971622 0.20860186 -1.1983718 0.37557217 -3.0375316
1.1093243 2.2787364 2.6451535 2.8372426 2.1560175 -0.3551983 1.7019382 -1.8026439
-2.1248367 -2.7268689 -3.040821 0.5411649 0.5514555 0.39575934 0.395362 -0.18114658
-0.5254068 -0.18103991 1.160551 -0.25302228 0.8686331 -0.76726747 1.519129 0.818819
-0.105522364 -0.29128852 -0.5069983 0.36173388 -0.6320246 0.72801006 1.0256076 2.0998635
1.6002786 0.8373613 0.16743638 0.36510667 0.40552968 -0.11002396 -0.43559712 0.21431768
-0.75600713 1.6892103 -1.2838777 1.0152367 -1.0845153 2.1112008 0.86745214 0.6919496
-1.1539543 -0.9712701 0.22287191 -1.2671989 0.06372695 1.1359063 2.2187405 2.4903502
1.9803743 0.4960686 -0.28780773 0.065977514 0.30624878 -0.47150874 -0.017482836 1.056862
1.6555967 0.76830506 0.18603846 -0.39384484 1.1236525 0.5572381 0.76142055 0.0121960975
-0.38347492 0.8735864 0.44339946 2.4394655 0.814193 1.0835893 0.84102535 0.82276016
1.8288916 1.1945713 -0.21862616 -0.34660733 -0.038541924 0.5131819 -0.47849742 0.92330074
-1.0466819 0.6428522 -0.8232148 2.224502 1.2379528 0.5867785 -0.47938848 -1.1461881
0.11981223 -0.6100802 -0.21784 1.2117093 2.385247 3.143106 2.0362446 0.25481433
-0.6274522 -0.36210513 -0.04075248 0.03975708 -0.4853034 0.31994358 -0.040036276 0.6063712
0.26800266 0.3535683 -0.044257455 -0.37252823 0.6364263 -0.60829 0.4455646 -0.11308854
0.099861 0.73369277 0.017252823 0.0867955 -0.16481206 0.06789539 0.40754145 0.53432304
0.19689016 -0.4982729 0.14063586 0.23883708 1.8004771 1.0755554 1.4089473 1.1065564
-0.18463136 -0.74830437 -0.23423532 1.2687302 1.0350765 1.0767728 0.95382965 -2.04397
0.60492 -0.783183 -2.1171763 -2.5077722 0.27834284 1.711642 1.6475999 -0.28418916
-0.31784737 -0.007684713 0.4651346 -0.8180747 1.1445296 -0.6924474 1.169975 -0.62207645
2.8417406 1.4158283 0.47724676 -0.13257253 -0.9218682 0.3465984 -0.66925734 -0.03481226
1.1161577 2.0825787 3.181087 2.2200413 0.64414805 0.03564315 0.12229706 -0.32444218
0.20904225 0.3014893 0.72999316 0.15631974 1.4382751 0.22897966 0.3974572 3.2591083
-0.81907344 -1.892017 -2.4929867 -2.2778697 -2.1794615 -0.14880437 -0.18440513 1.8282181
2.0594122 2.4605575 3.0238435 1.4106299 0.5430607 0.5645328 -0.36843488 -0.011020486
00000000: 1437 863d 0e3f f63c b3b7 48be 4bd4 503d
00000010: ad05 47bf fef6 e73e 332c a0be 77de 0240
00000020: 1afe adbe 4c6a 6940 0bd3 ecbe a38b 02c0
00000030: 66d2 18c0 5a57 2fc0 7e7e e7bf 5d17 483f
00000040: 3b3f 9dbf c06a 0b40 7cbe 3d40 c7fa 6240
00000050: 5bf1 6e40 2480 423e d4b1 b7be 1023 40be
00000060: e4ec 50be 4edc 46be f1c0 21be ca43 2ebe
00000070: 484e 3bbe ee4a ce3d 5afb 0c3e a7fb 303e
00000080: be0d e63d 81d0 833d 2e21 bc3d d6f6 36be
00000090: e73d 403e d7d2 8f3c ac36 453e ba5d b43d
000000a0: e71f 273e c752 2a3e 5c72 32bd af20 8fbd
000000b0: 4998 5d3d 0607 363c 9873 063d b9b4 ba3e
000000c0: 2b0a 12bf 0dc0 1b3e b5ce 403f 2093 9e3e
000000d0: ba9b 553e 3f64 99bf ff4a c03e eb66 42c0
000000e0: 57fe 8d3f d1d6 1140 324a 2940 6295 3540
000000f0: 31fc 0940 8ddc b5be 1cd9 d93f 09bd e6bf
00000100: 53fd 07c0 0585 2ec0 d09c 42c0 c889 0a3f
00000110: 302c 0d3f f8a0 ca3e e36c ca3e 7d7e 39be
00000120: 0f81 06bf 8762 39be ef8c 943f 238c 81be
00000130: bd5e 5e3f a46b 44bf d272 c23f 1f9e 513f
00000140: 1c1c d8bd c523 95be a4ca 01bf 2f35 b93e
00000150: 5dcc 21bf de5e 3a3f 1c47 833f 2a64 0640
00000160: eed5 cc3f 4f5d 563f 7174 2b3e 43ef ba3e
00000170: 96a1 cf3e 3e54 e1bd 9606 dfbe 1876 5b3e
00000180: af89 41bf 0b38 d83f 1b56 a4bf 47f3 813f
00000190: 66d1 8abf ea1d 0740 5811 5e3f 9c23 313f
000001a0: c6b4 93bf 28a5 78bf 8938 643e 9333 a2bf
000001b0: 4683 823d 6165 913f d8ff 0d40 e661 1f40
000001c0: e87c fd3f b4fc fd3e 895b 93be 381f 873d
000001d0: a4cc 9c3e 9869 f1be 2a38 8fbc 4147 873f
000001e0: 98ea d33f a4af 443f de80 3e3e 08a6 c9be
000001f0: d8d3 8f3f 28a7 0e3f 75ec 423f 24d2 473c
00000200: d356 c4be 5ca3 5f3f 4105 e33e 3420 1c40
00000210: f46e 503f 0eb3 8a3f 704d 573f 69a0 523f
00000220: 1f19 ea3f b6e7 983f 89df 5fbe 8476 b1be
00000230: 23de 1dbd e45f 033f 9dfd f4be 705d 6c3f
00000240: acf9 85bf f691 243f 35be 52bf 3e5e 0e40
00000250: 3d75 9e3f 1e37 163f 6872 f5be 4bb6 92bf
00000260: 1d60 f53d 372e 1cbf 7311 5fbe 4a19 9b3f
00000270: e3a7 1840 a628 4940 d551 0240 0677 823e
00000280: b5a0 20bf d865 b9be 13ec 26bd 52d8 223d
00000290: b079 f8be a5cf a33e 14fd 23bd 253b 1b3f
000002a0: a537 893e e706 b53e 4e47 35bd 05bc bebe
000002b0: d6ec 223f e5b8 1bbf 0b21 e43e f79a e7bd
000002c0: ed83 cc3d 4ad3 3b3f cb55 8d3c d7c1 b13d
000002d0: 7ec4 28be bd0c 8b3d 46a9 d03e 65c9 083f
000002e0: 939d 493e a01d ffbe d902 103e b591 743e
000002f0: 0976 e63f cdab 893f 6358 b43f a4a3 8d3f
00000300: 0110 3dbe e090 3fbf 62db 6fbe c065 a23f
00000310: 637d 843f b1d3 893f 2e2e 743f 68d0 02c0
00000320: 0adc 1a3f ae7e 48bf d17f 07c0 577f 20c0
00000330: f482 8e3e 1617 db3f 8ee4 d23f 3e81 91be
00000340: e4bc a2be 0cd0 fbbb 1f26 ee3e 586d 51bf
00000350: f27f 923f 3c44 31bf bec1 953f 6740 1fbf
00000360: 14df 3540 dd39 b53f b059 f43e 18c1 07be
00000370: 8eff 6bbf 5875 b13e 7354 2bbf 4d97 0ebd
00000380: 41de 8e3f f848 0540 ee96 4b40 2815 0e40
00000390: e3e6 243f 8dfe 113d e276 fa3d 491d a6be
000003a0: 2c0f 563e ce5c 9a3e d5e0 3a3f 4812 203e
000003b0: 6619 b83f a579 6a3e 837f cb3e 3b95 5040
000003c0: ccae 51bf 9d2d f2bf 188d 1fc0 9ec8 11c0
000003d0: 4c7c 0bc0 2c60 18be b3d4 3cbe 0d03 ea3f
000003e0: 69cd 0340 c679 1d40 a786 4140 858f b43f
000003f0: 0706 0b3f 3985 103f 7fa3 bcbe 458f 34bc

feature_layer.model.0.bias f4 [128]
-0.06489428 0.05423615 0.24462396 -0.05046979 -0.33664593 1.0175343 -0.54527074 0.5068393
1.4311755 -0.1515578 0.50103927 0.8290516 0.37035134 0.31689376 0.0880854 -1.1241105
0.4821179 -0.15194765 -0.012121244 -0.88262385 -0.4848189 0.26559386 0.5594795 0.042740665
0.23956776 -0.08235256 0.29009998 -0.09694971 0.15686417 -0.43511033 -0.033389714 0.1656574
0.56573975 -0.52189356 -0.29279697 -0.55831224 -0.31192252 0.36715767 0.57993156 0.2621015
0.47980693 -0.6314103 1.2766715 0.50410086 0.34226117 0.16633631 0.35033116 0.72660476
0.7485193 -0.705477 0.21353811 0.47848162 0.08799539 0.26013273 -0.009351395 0.304778
0.22203538 -0.13507102 0.11903168 -0.11474223 0.26593602 -0.070961125 -0.97435534 0.23753594
-0.12415187 -0.66223323 0.8625863 -0.024138983 0.31378996 -0.6812379 0.16195506 0.79539937
1.1793917 0.66303366 0.80720556 0.36274815 0.049625397 0.7800471 -0.4539626 0.19941197
0.29142705 -0.40405384 -0.46445155 0.48995405 0.30747604 -0.5827949 0.59435624 0.9507673
-0.13587415 -0.06769569 0.53075504 -0.12947397 -0.38096395 0.19073142 0.5961433 0.683056
-0.19893664 0.2943191 0.018900365 -0.6560941 0.026847046 0.053338837 0.02183779 0.6281243
0.0338528 -0.052689403 0.3686869 0.19889387 -0.39274904 -0.17261817 0.82798225 -0.61130273
0.77077085 0.44933006 0.64263093 -0.1763428 0.59090614 -0.26155645 0.43596882 -0.087136894
-0.91555786 -0.10417605 0.41345656 -0.91838676 0.09937583 -0.17874587 -0.23163074 -0.054094285
00000000: 4be7 84bd ba26 5e3d b47e 7a3e 69b9 4ebd
00000010: db5c acbe 903e 823f dd96 0bbf 38c0 013f
00000020: c230 b73f f831 1bbe 1c44 003f ba3c 543f
00000030: b19e bd3e e63f a23e 1e66 b43d dae2 8fbf
00000040: 28d8 f63e 2a98 1bbe 2f98 46bc a3f3 61bf
00000050: 2f3a f8be ebfb 873e 0c3a 0f3f d610 2f3d
00000060: 4051 753e 75a8 a8bd fc87 943e 928d c6bd
00000070: 00a1 203e c8c6 debe a7c3 08bd 18a2 293e
00000080: 52d4 103f d19a 05bf 7ce9 95be 8ded 0ebf
00000090: 4fb4 9fbe 17fc bb3e 6576 143f 2b32 863e
000000a0: 41a9 f53e 1ba4 21bf f969 a33f c10c 013f
000000b0: db3c af3e 1154 2a3e 9b5e b33e c502 3a3f
000000c0: f69e 3f3f 249a 34bf bca9 5a3e 8bfb f43e
000000d0: ed36 b43d 1e30 853e 9836 19bc dd0b 9c3e
000000e0: 3e5d 633e 0f50 0abe e2c6 f33d f9fd eabd
000000f0: c428 883e 1154 91bd 5a6f 79bf 9f3c 733e
00000100: 5643 febd 1e88 29bf 75d2 5c3f 1ebf c5bc
00000110: 14a9 a03e 9b65 2ebf 8cd7 253e 4b9f 4b3f
00000120: 4ff6 963f 93bc 293f 06a5 4e3f 20ba b93e
00000130: 0044 4b3d 2bb1 473f c96d e8be a732 4c3e
00000140: ed35 953e 25e0 cebe 98cc edbe 42db fa3e
00000150: 806d 9d3e 0c32 15bf bb27 183f 7c65 733f
00000160: 9822 0bbe 0aa4 8abd 90df 073f d394 04be
00000170: b50d c3be 194f 433e d99c 183f c2dc 2e3f
00000180: 0cb6 4bbe feb0 963e f0d4 9a3c c8f5 27bf
00000190: 56ee db3c d379 5a3d 2ae5 b23c c1cc 203f
000001a0: 3ca9 0a3d d8d0 57bd 88c4 bc3e d6aa 4b3e
000001b0: 6716 c9be d1c2 30be a5f6 533f 567e 1cbf
000001c0: 3d51 453f 970e e63e 7683 243f 3593 34be
000001d0: a045 173f baea 85be 4e37 df3e d474 b2bd
000001e0: 0062 6abf 415a d5bd 94b0 d33e 651b 6bbf
000001f0: 8e85 cb3d 2809 37be 9c30 6dbe f891 5dbd

feature_layer.model.2.weight f4 [128, 128]
0.031790964 -0.056057457 -0.042069595 -0.087779306 -0.06810095 -0.00625214 0.04588139 -0.082928024
0.052652057 0.076877505 -0.09252015 0.06269787 -0.013961028 -0.031337015 -0.061409708 0.021657992
-0.04251146 -0.085470825 -0.0864991 -0.07022293 -0.08351735 -0.03212143 -0.078099415 0.021929232
0.010088451 0.035736747 -0.06576952 -0.019735526 0.046659898 -0.038275164 -0.07115054 -0.055053707
-0.0040954608 0.0078110276 0.03426079 -0.008393352 0.061999675 0.06647988 0.018352415 -0.002843134
0.0360011 -0.07978376 -0.08134256 0.070183985 -0.04705954 -0.05483294 0.061762184 0.013455941
-0.056925744 -0.039486893 -0.00084788416 0.05976213 -0.086471125 0.017795645 0.0005034326 0.04211495
0.015311642 -0.0057747066 0.076942645 0.06856097 0.07452263 -0.09511349 -0.013207389 -0.005852461
-0.020544058 0.061492965 0.069179945 -0.06435286 0.031973578 -0.022813477 -0.0461247 -0.021564435
0.008532042 0.054475598 -0.014096722 -0.0960875 0.020678176 0.0022502572 -0.049609832 -0.03586248
-0.07241069 -0.007421125 0.056960307 -0.04532224 0.01188112 0.016155243 -0.0654679 -0.04189696
-0.03966718 0.0013434106 0.07932978 -0.048851747 0.071356095 -0.07885902 0.08704964 -0.06130067
-0.019465394 0.050000742 0.06003774 0.024138216 -0.05434377 0.06170492 0.024798147 -0.056225996
-0.0695274 -0.033869974 -0.018555924 -0.0065978807 -0.09027673 0.04883536 0.07133241 0.019891655
0.06256785 0.04694794 -0.06004866 -0.06046233 -0.09049651 0.039370857 -0.037153225 0.031029426
-0.03432662 -0.049125567 0.06553526 -0.047950312 -0.022651136 0.08667695 -0.054248694 0.0015205517
1.6592312 0.026862148 -0.6108228 0.14995056 -0.06692426 0.16933018 -0.15944563 1.0100659
0.11329609 -0.11216078 0.2753866 0.4782394 0.22620362 -0.03028688 -0.30530706 0.40270364
-0.34966278 0.34554675 -0.012946023 0.08456452 0.47124663 0.7030014 -0.38725019 -0.31915432
0.9237382 -0.6111496 -0.74014646 0.16842838 0.6715864 -0.14436789 -0.23518877 -0.33344463
-0.23496637 -0.02816125 -0.35464036 -0.006054236 0.18791747 -0.24906866 0.5803215 2.0697055
0.38934284 -0.068621576 0.21237516 -0.46322843 1.3057666 -0.46458206 0.1812131 -0.04142134
-0.056497954 0.045995913 -0.23440896 0.29514006 -0.08691567 0.046625208 -0.04015101 -0.68689513
0.18626243 -0.52376807 0.1338474 -0.53004205 -0.15941405 -0.06617002 0.8638222 -0.5525221
0.60830885 -0.3801086 0.25724837 0.60973734 0.11788122 0.9651074 0.594018 0.04579227
0.004590651 -0.36789256 1.0601217 0.069513775 0.018197885 -0.22697371 -0.28382638 -0.39171067
-0.022451648 0.25000018 0.54784006 0.0014026988 0.6845805 -0.45239213 -0.44496515 0.20106766
-0.1704952 0.04331234 -0.54513246 0.75489694 0.7953646 1.2703241 0.60177433 -0.0069431737
0.22963391 -0.5302562 0.32820854 0.26796815 -0.29106605 0.13506961 0.07654951 -0.59687746
0.04448753 -0.2823196 0.6886841 -0.06405186 0.024810728 -0.49879128 0.36740106 -0.5198121
0.22279099 -0.1086444 0.087399356 0.081147134 -0.16969067 -0.13715442 -0.18567973 0.29859766
0.11118732 1.3607751 -0.18880783 -0.4752449 0.14110623 2.405816 0.40667647 -0.23468395
00000000: 3e37 023d 819c 65bd 2b51 2cbd a3c5 b3bd
00000010: 8378 8bbd c0de ccbb 20ee 3b3d 2bd6 a9bd
00000020: afa9 573d f471 9d3d 347b bdbd be67 803d
00000030: ccbc 64bc 3e5b 00bd bf88 7bbd 1a6c b13c
00000040: 7f20 2ebd 540b afbd 7126 b1bd 0ad1 8fbd
00000050: 250b abbd c391 03bd 96f2 9fbd efa4 b33c
00000060: 084a 253c b260 123d 2cb2 86bd 66ac a1bc
00000070: 731e 3f3d 6bc6 1cbd 60b7 91bd ff7f 61bd
00000080: 3733 86bb a6f3 ff3b 0b55 0c3d 4584 09bc
00000090: 5ff3 7d3d 9a26 883d ce57 963c e053 3abb
000000a0: e475 133d ab65 a3bd ee96 a6bd 9fbc 8f3d
000000b0: 81c1 40bd 8198 60bd 58fa 7c3d 4f76 5c3c
000000c0: f82a 69bd 02bd 21bd 8b44 5eba 23c9 743d
000000d0: c617 b1bd 2cc8 913c caf8 033a ba80 2c3d
000000e0: aedd 7a3c c039 bdbb 1b94 9d3d b269 8c3d
000000f0: 529f 983d ddca c2bd ce63 58bc 00c6 bfbb
00000100: 034c a8bc 0ce0 7b3d 37ae 8d3d 6fcb 83bd
00000110: baf6 023d 54e3 babc 41ed 3cbd e6a7 b0bc
00000120: fac9 0b3c ce21 5f3d f0f5 66bc 86c9 c4bd
00000130: 4765 a93c 0d79 133b ae33 4bbd 89e4 12bd
00000140: 0e4c 94bd e92c f3bb 364f 693d d0a3 39bd
00000150: 07a9 423c 0058 843c 0914 86bd 269c 2bbd
00000160: 0e7a 22bd 6115 b03a a777 a23d c518 48bd
00000170: 2523 923d d680 a1bd 1547 b23d 6916 7bbd
00000180: e475 9fbc 94cd 4c3d 22ea 753d 82bd c53c
00000190: 9397 5ebd 4cbe 7c3d 7c25 cb3c 3b4d 66bd
000001a0: 6264 8ebd 3ebb 0abd 9802 98bc 0933 d8bb
000001b0: 02e3 b8bd 9607 483d ba16 923d d3f3 a23c
000001c0: 9323 803d 7c4c 403d 95f5 75bd 59a7 77bd
000001d0: 3c56 b9bd 5643 213d fb2d 18bd 6c31 fe3c
000001e0: 129a 0cbd e437 49bd 5a37 863d 8c67 44bd
000001f0: e08e b9bc af83 b13d e133 5ebd 404d c73a
00000200: b061 d43f 020e dc3c e25e 1cbf a48c 193e
00000210: 960f 89bd e464 2d3e b745 23be d749 813f
00000220: c807 e83d 8db4 e5bd 79ff 8c3e cbdb f43e
00000230: eca1 673e 311c f8bc 3551 9cbe 2c2f ce3e
00000240: 0007 b3be 81eb b03e 8e1b 54bc 2a30 ad3d
00000250: 3d47 f13e e6f7 333f a845 c6be 3268 a3be
00000260: 1b7a 6c3f 4d74 1cbf 3d7a 3dbf 7d78 2c3e
00000270: 16ed 2b3f 2dd5 13be 53d5 70be 41b9 aabe
00000280: 069b 70be 6cb2 e6bc 6c93 b5be 9d62 c6bb
00000290: 706d 403e db0b 7fbe f38f 143f 0e76 0440
000002a0: f257 c73e 7889 8cbd e078 593e 472c edbe
000002b0: 5c23 a73f b3dd edbe ed8f 393e 6ca9 29bd
000002c0: 666a 67bd 3666 3c3d e708 70be 991c 973e
000002d0: d800 b2bd 13fa 3e3d 6375 24bd 5cd8 2fbf
000002e0: 94bb 3e3e aa15 06bf 4b0f 093e d6b0 07bf
000002f0: 703d 23be 2684 87bd 7423 5d3f 1772 0dbf
00000300: 21ba 1b3f 989d c2be 0fb6 833e bf17 1c3f
00000310: b66b f13d 4711 773f 9011 183f ad90 3b3d
00000320: 2c6d 963b 6a5c bcbe 11b2 873f 3d5d 8e3d
00000330: bb13 953c cc6b 68be b151 91be 4d8e c8be
00000340: 85ec b7bc 0600 803e 3f3f 0c3f c3da b73a
00000350: ab40 2f3f f19f e7be 79d2 e3be aee4 4d3e
00000360: 4b96 2ebe 4868 313d cd8d 0bbf ed40 413f
00000370: 049d 4b3f fb99 a23f e20d 1a3f 9083 e3bb
00000380: 2725 6b3e dfbe 07bf f30a a83e 1f33 893e
00000390: 9c06 95be b04f 0a3e fdc5 9c3d f6cc 18bf
000003a0: 8e38 363d 328c 90be 9a4d 303f 9f2d 83bd
000003b0: de3f cb3c 9261 ffbe fe1b bc3e 6812 05bf
000003c0: 5223 643e f580 debd 6ffe b23d 7830 a63d
000003d0: 64c3 2dbe 3572 0cbe d422 3ebe cbe1 983e
000003e0: 2db6 e33d e12d ae3f d756 41be 4d53 f3be
000003f0: 277e 103e e4f8 1940 e637 d03e fd50 70be

feature_layer.model.2.bias f4 [128]
0.080876514 0.42024633 0.04686467 0.09608941 -0.043816675 -0.007064192 0.08473853 0.27034974
0.14172737 0.048225626 -0.09786414 -0.287828 0.43288702 -0.065815546 0.2880755 -0.059759554
0.07864823 -0.08167906 -0.14976417 -0.08283954 0.39923444 0.21612062 0.5976519 0.1049613
0.04720861 0.34892395 0.017583055 0.16806984 0.09546816 -0.006468469 0.40284103 0.02494551
0.3792836 0.42974558 -0.02956382 -0.12692188 -0.0066676005 0.3709793 0.012229668 -0.011341815
-0.10245257 -0.06041396 0.01669889 -0.19196618 0.15916947 0.025384462 -0.29662716 -0.024205767
-0.5076093 -0.035656765 0.17887203 0.025898468 0.7032328 0.30285844 -0.028015478 -0.013478601
0.41190514 0.6382228 0.007199034 0.56788385 -0.08638263 -0.012656514 0.66592747 0.23039322
0.015647143 0.21247402 -0.18895152 0.038708232 -0.39902326 0.10512824 0.18918727 -0.10524662
0.05146493 -0.10594868 0.054377265 0.12251303 -0.08249972 -0.07554298 0.3460227 0.46567005
0.29307446 0.21430027 -0.033663355 0.022595847 0.33376664 -0.050486 -0.007538914 0.117880784
0.44971034 1.4565073 0.02692357 -0.03593319 0.37435848 -0.23925623 0.15065849 0.39619163
0.5021154 -0.10578164 0.32099894 0.1079391 0.06780964 0.12180585 0.0784624 -0.044864025
0.4194606 -0.056781128 -0.12505054 0.70515096 0.054240648 -0.0909534 0.073906094 0.45163557
-0.048989102 -0.044364437 0.25294307 0.48971787 0.015954172 -0.041060608 0.0029942251 0.34987944
-0.07813844 -0.12642501 0.1751103 -0.0028423115 -0.0062173484 0.013378988 0.03470007 0.022008661
00000000: 96a2 a53d 872a d73e 2bf5 3f3d 86ca c43d
00000010: 1d79 33bd bd7a e7bb 658b ad3d 486b 8a3e
00000020: fb20 113e 3c88 453d ff6c c8bd 315e 93be
00000030: 5ea3 dd3e 4dca 86bd a27e 933e 6fc6 74bd
00000040: 5312 a13d 5a47 a7bd c75b 19be c7a7 a9bd
00000050: 7568 cc3e b94e 5d3e b7ff 183f f3f5 d63d
00000060: d15d 413d 29a6 b23e 570a 903c 801a 2c3e
00000070: d084 c33d 73f5 d3bb 2e41 ce3e 875a cc3c
00000080: 7631 c23e 9d07 dc3e d32f f2bc cff7 01be
00000090: e37b dabb 00f1 bd3e f25e 483c 05d3 39bc
000000a0: a7d2 d1bd a174 77bd 1ccc 883c c892 44be
000000b0: 52fd 223e 13f3 cf3c 84df 97be 2c4b c6bc
000000c0: aff2 01bf d40c 12bd 3b2a 373e 0629 d43c
000000d0: 1107 343f 4310 9b3e b780 e5bc 5ad5 5cbc
000000e0: 3be5 d23e 9262 233f e0e5 eb3b d660 113f
000000f0: 60e9 b0bd 445d 4fbc 397a 2a3f 33ec 6b3e
00000100: 702e 803c ca92 593e 827c 41be 868c 1e3d
00000110: c74c ccbe 7a4d d73d 4fba 413e 8a8b d7bd
00000120: e4cc 523d 9ffb d8bd b2ba 5e3d 1de8 fa3d
00000130: 9df5 a8bd 47b6 9abd e329 b13e 4e6c ee3e
00000140: db0d 963e 8871 5b3e 96e2 09bd ed1a b93c
00000150: 76e3 aa3e 68ca 4ebd ff08 f7bb 7b6b f13d
00000160: 6f40 e63e d56e ba3f d28e dc3c ae2e 13bd
00000170: eaab bf3e 96ff 74be 3846 1a3e a1d9 ca3e
00000180: a38a 003f 0ba4 d8bd f959 a43e 2d0f dd3d
00000190: c8df 8a3d 5875 f93d e5b0 a03d 57c3 37bd
000001a0: 8ac3 d63e 5493 68bd 400d 00be c684 343f
000001b0: 712b 5e3d c745 babd 145c 973d c73c e73e
000001c0: cca8 48bd 7cb7 35bd c181 813e 4dbc fa3e
000001d0: 53b2 823c 2b2f 28bd c33a 443b 6623 b33e
000001e0: 0c07 a0bd 8f75 01be 1d50 333e 1346 3abb
000001f0: e6ba cbbb 8b33 5b3c a921 0e3d 824b b43c

value_stream.model.0.weight f4 [128, 128]
-0.019368641 1.3881603 0.08294582 0.16246437 0.09684926 0.067324445 -0.17180121 0.14026183
0.43899885 0.03343741 -0.077910155 -0.0014995098 -0.55304873 -0.15457302 0.1998541 0.10532301
-0.16250095 -0.07958155 0.25141057 0.40564495 0.5239061 0.51709116 0.2513032 0.09138293
0.027227463 -0.2835747 0.010645649 0.09404527 -0.21847637 0.068143286 0.056606513 0.054518484
-0.31520376 -0.07037696 -0.050085094 -0.06281084 -0.06416568 -0.56030625 -0.005937409 -0.03273824
-0.089684315 -0.06589174 0.0035341042 0.117254935 0.28550753 -0.0033577755 -0.8932634 -0.008114092
-0.0045913025 -0.23731853 0.8089791 0.06430384 -0.17980516 -0.6394548 0.0136729255 0.3084148
-0.65299964 -0.44340026 -0.049906358 0.08892092 0.076829754 -0.1880601 -0.31809956 -0.17456791
0.067041434 0.19415884 0.11150454 -0.005209086 -0.13718314 -0.019725531 -0.9575171 0.07730681
0.052128542 0.03665895 -0.97404927 -0.09376146 -0.05387916 -0.0633675 -0.08703995 0.11642951
0.59957 -0.68263984 -0.016010799 -0.073737316 -0.29382727 -0.07625505 -0.054698348 0.61746913
1.0819153 0.19074996 0.0390864 0.028745411 -0.0454618 0.56871617 0.5434735 -0.3399718
-0.23030217 0.25889763 0.05792591 0.33937442 -0.083115175 0.5859176 0.08146454 0.012526934
0.35534045 -0.37962872 -0.07032753 -0.031454694 -0.018307054 -0.033381313 0.26330873 0.7575751
0.013343511 -0.06590401 -0.654907 0.16652589 0.037292503 -0.07655468 -0.035781942 -0.23710993
-0.030471161 0.23633462 -0.22639391 -0.020699281 -0.013020277 -0.035933547 -0.010243789 -0.0031669014
0.051231112 -1.1036828 -0.02752409 0.53765875 0.039827816 -0.061173365 -0.36125457 0.2032108
-0.27399406 -0.04604499 0.08730394 -0.21616812 1.0796678 0.4592002 0.14159791 0.058668792
0.16453294 0.018710025 0.20775817 0.13815936 -0.6269164 -0.7360583 0.5932085 0.4860926
-0.009382064 0.80998045 0.19081897 -0.1671643 0.48078462 0.060416862 0.056877866 0.008953245
0.87920976 0.5430454 0.009240123 1.3714389 0.04105917 1.3049123 -0.06098257 1.1101233
-0.002465021 -0.22236152 -0.078983076 0.3410622 0.6113908 -0.022630522 1.3689733 0.009288054
-0.33603668 -0.12589256 -0.48372966 0.048824057 0.5932818 1.3808346 -0.06766454 -0.73220557
0.9300678 0.649979 0.07513499 0.482109 0.0062402375 -0.12859179 0.8152377 0.08606475
0.0058288514 0.3904049 0.3532514 -0.048244447 0.64525616 0.09285761 1.6869515 1.6455853
0.081763595 0.04065158 1.4861057 0.68284094 0.004405138 0.010792682 0.24410142 -0.90189683
-0.66874915 0.52587193 -0.050966248 0.9108336 0.20756371 -0.0849101 0.091237396 -0.52858484
-0.94579613 0.9131352 -0.07055376 0.100491785 0.2154438 -0.653975 -0.38049567 0.9176815
0.22604495 0.37310088 0.14765988 -0.26825884 0.07817318 -0.3892462 0.025770783 0.058123425
-0.1741806 0.52672094 0.072804384 0.92930514 -0.048951995 0.078162946 -0.054467242 -1.061826
0.05723821 1.3748248 0.6617786 0.21030536 -0.052097514 0.010647727 -0.074892744 0.61771107
-0.030743284 0.37048155 0.34531036 -0.07721434 -0.057524703 0.03446111 -0.043185618 0.06939754
00000000: fcaa 9ebc 3daf b13f 80df a93d 0f5d 263e
00000010: e858 c63d 66e1 893d a8ec 2fbe cca0 0f3e
00000020: 75c4 e03e aaf5 083d 5c8f 9fbd 338b c4ba
00000030: 9a94 0dbf 6448 1ebe 8ea6 4c3e 97b3 d73d
00000040: a666 26be a7fb a2bd e3b8 803e b2b0 cf3e
00000050: b61e 063f 1660 043f d0aa 803e f926 bb3d
00000060: 210c df3c b430 91be 176b 2e3c ce9a c03d
00000070: 45b8 5fbe b58e 8b3d 3bdc 673d c64e 5f3d
00000080: 6362 a1be cc21 90bd 0726 4dbd f8a2 80bd
00000090: 4c69 83bd 3b70 0fbf 998e c2bb 8818 06bd
000000a0: 69ac b7bd 40f2 86bd 6e9c 673b 5b23 f03d
000000b0: 0b2e 923e 200e 5cbb e9ac 64bf f8f0 04bc
000000c0: a372 96bb a103 73be 4119 4f3f bbb1 833d
000000d0: d81e 38be 4fb3 23bf 6804 603c 8be8 9d3e
000000e0: fc2a 27bf 5c05 e3be 9c6a 4cbd 2c1c b63d
000000f0: eb58 9d3d d492 40be f2dd a2be eec1 32be
00000100: 054d 893d 93d1 463e 7e5c e43d fbb0 aabb
00000110: bd79 0cbe 7097 a1bc d71f 75bf 0853 9e3d
00000120: bd84 553d b227 163d 4b5b 79bf 0206 c0bd
00000130: 65b0 5cbd d2c6 81bd 0042 b2bd 9872 ee3d
00000140: 6b7d 193f 7cc1 2ebf 1429 83bc 9703 97bd
00000150: 8770 96be 9c2b 9cbd 600b 60bd 7512 1e3f
00000160: 337c 8a3f f553 433e 1019 203d 7f7b eb3c
00000170: 2736 3abd 6297 113f 1421 0b3f c910 aebe
00000180: 55d4 6bbe 3b8e 843e b843 6d3d 7cc2 ad3e
00000190: 4a38 aabd b2fe 153f e1d6 a63d c53d 4d3c
000001a0: 2fef b53e b25e c2be e107 90bd a3d6 00bd
000001b0: adf8 95bc d8ba 08bd 67d0 863e 71f0 413f
000001c0: be9e 5a3c aef8 86bd fca7 27bf c385 2a3e
000001d0: 06c0 183d b3c8 9cbd 1690 12bd f2cc 72be
000001e0: a89e f9bc b401 723e ced3 67be 8a91 a9bc
000001f0: 0053 55bc 0e2f 13bd 91d5 27bc ca8b 4fbb
00000200: b7d7 513d 7a45 8dbf 337a e1bc 01a4 093f
00000210: 7e22 233d ec90 7abd 5cf6 b8be 7e16 503e
00000220: f348 8cbe ac99 3cbd 68cc b23d 2d5b 5dbe
00000230: 8e32 8a3f 4a1c eb3e 0bff 103e b04e 703d
00000240: 537b 283e c445 993c 8fbe 543e a679 0d3e
00000250: 987d 20bf 516e 3cbf 83dc 173f 21e1 f83e
00000260: 3bb7 19bc e15a 4f3f 0c66 433e 1e2d 2bbe
00000270: 6729 f63e ac77 773d c4f8 683d a2b0 123c
00000280: e413 613f 0605 0b3f e363 173c 4f8b af3f
00000290: a92d 283d 5e07 a73f dcc8 79bd 8518 8e3f
000002a0: 318c 21bb bdb2 63be e1c1 a1bd b49f ae3e
000002b0: 1c84 1c3f a563 b9bc 843a af3f ec2c 183c
000002c0: 000d acbe fbe9 00be 6aab f7be bcfb 473d
000002d0: 51e1 173f 30bf b03f b593 8abd d371 3bbf
000002e0: ec18 6e3f 0665 263f 60e0 993d fed6 f63e
000002f0: e87a cc3b 91ad 03be 6bb3 503f b742 b03d
00000300: f3ff be3b 27e3 c73e 5edd b43e f89b 45bd
00000310: 822f 253f 212c be3d 07ee d73f 8aa2 d23f
00000320: ac73 a73d 4582 263d b638 be3f aace 2e3f
00000330: fa58 903b cad3 303c b9f5 793e b6e2 66bf
00000340: 2533 2bbf 8b9f 063f fcc1 50bd 642c 693f
00000350: 958b 543e 59e5 adbd acda ba3d 5651 07bf
00000360: b21f 72bf 3ac3 693f 7d7e 90bd a3ce cd3d
00000370: 4d9d 5c3e e86a 27bf 54d0 c2be 2ded 6a3f
00000380: 5478 673e 1407 bf3e 2734 173e 3959 89be
00000390: 4319 a03d 474b c7be 401d d33c d412 6e3d
000003a0: 665c 32be 2fd7 063f 771a 953d f1e6 6d3f
000003b0: e381 48bd e513 a03d 0b19 5fbd eae9 87bf
000003c0: 9d72 6a3d 42fa af3f 536a 293f 4a5a 573e
000003d0: 3464 55bd ce73 2e3c 5e61 99bd 5022 1e3f
000003e0: 57d9 fbbc c2af bd3e 85cc b03e 8d22 9ebd
000003f0: 069f 6bbd 1827 0d3d 67e3 30bd 4c20 8e3d

value_stream.model.0.bias f4 [128]
0.09295952 0.20278953 0.040748324 0.13072571 0.2770658 -0.10782851 -0.055211954 0.39749914
0.03620566 0.19136505 -0.014949693 0.04496401 -0.090271756 -0.0762336 -0.012531634 0.21579969
0.212345 0.12551847 0.33836728 0.3225143 0.1248708 0.06138578 0.077671394 0.089087486
0.01654369 0.27854416 -0.114172354 0.00047495792 0.3176419 0.050388508 0.14668737 0.028172424
0.027878292 0.011287323 0.19623815 0.06933489 -0.056084946 0.045204327 0.08609496 0.16679408
-0.024361825 -0.018561421 -0.11334202 -0.072349675 -0.041501507 0.37190476 0.1155201 0.059187423
0.053924385 0.36723104 0.023683783 0.091673814 0.006669554 -0.025241723 0.18011709 0.04117922
0.081861354 0.11657592 0.24992278 -0.04441128 0.3075918 -0.106360905 0.053230796 -0.11669014
-0.019513845 -0.03023842 0.035656717 -0.07300078 0.1555157 0.25724357 -0.008227516 0.03297647
0.03319361 -0.075286694 0.3640147 0.3068753 -0.05610146 0.12695113 0.06994648 0.049162455
-0.050833818 0.064471535 0.19685826 0.19867542 -0.031918075 0.058014166 0.05276334 0.044575647
0.21410184 0.31014282 0.047348134 0.10229624 0.22904596 0.011784299 0.122419864 0.26265728
0.030380365 0.10680791 0.11129327 0.20798261 0.41150397 0.06781748 0.033648323 0.008183389
0.05023062 0.08926161 -0.11457795 0.0016601419 0.0575927 0.19847624 0.2503251 0.26127326
0.11408359 -0.014577224 -0.061155662 0.13177861 0.078201205 -0.0544667 -0.058750033 0.19831753
0.10090328 0.06073134 -0.08699341 0.20867614 0.12366243 -0.082124874 -0.010471955 -0.04073293
00000000: 9061 be3d 0fa8 4f3e b7e7 263d f6dc 053e
00000010: 92db 8d3e 32d5 dcbd ee25 62bd 0285 cb3e
00000020: 634c 143d 33f5 433e 8fef 74bc 2f2c 383d
00000030: 66e0 b8bd 5d20 9cbd 7c51 4dbc 98fa 5c3e
00000040: f870 593e ea87 003e 7a3e ad3e 9820 a53e
00000050: 43bc ff3d a86f 7b3d 2e12 9f3d 8073 b63d
00000060: a286 873c 579d 8e3e 32d3 e9bd c603 f939
00000070: f6a1 a23e 2e64 4e3d 3735 163e dbc9 e63c
00000080: 0461 e43c 77ee 383c a7f2 483e 73ff 8d3d
00000090: 54b9 65bd 2c28 393d 8e52 b03d 11cc 2a3e
000000a0: 7392 c7bc 1f0e 98bc dc1f e8bd 112c 94bd
000000b0: 7cfd 29bd 4d6a be3e cd95 ec3d 836e 723d
000000c0: d1df 5c3d b505 bc3e 7e04 c23c 7bbf bb3d
000000d0: 468c da3b bbc7 cebc 9d70 383e 8bab 283d
000000e0: eda6 a73d 5bbf ee3d c2eb 7f3e 9ae8 35bd
000000f0: ac7c 9d3e bfd3 d9bd 8908 5a3d 3dfb eebd
00000100: 80db 9fbc 90b6 f7bc c70c 123d 6f81 95bd
00000110: 823f 1f3e 6eb5 833e b4cc 06bc 5612 073d
00000120: 06f6 073d e92f 9abd 2260 ba3e c21e 9d3e
00000130: a5ca 65bd 7aff 013e 1a40 8f3d 925e 493d
00000140: 1f37 50bd a709 843d 3695 493e 9271 4b3e
00000150: 87bc 02bd 43a0 6d3d 5f1e 583d f494 363d
00000160: 833d 5b3e 0acb 9e3e 1ef0 413d b180 d13d
00000170: 068b 6a3e ef12 413c 44b7 fa3d 047b 863e
00000180: 3ee0 f83c 1bbe da3d baed e33d 65f9 543e
00000190: a6b0 d23e e4e3 8a3d d3d2 093d 9f13 063c
000001a0: 9fbe 4d3d cace b63d d8a7 eabd 1e99 d93a
000001b0: 53e6 6b3d 5b3d 4b3e 9d2a 803e 9cc5 853e
000001c0: a8a4 e93d 4fd5 6ebc 5c7e 7abd f9f0 063e
000001d0: f427 a03d 7918 5fbd e0a3 70bd c013 4b3e
000001e0: 61a6 ce3d 6dc1 783d 9a29 b2bd 33af 553e
000001f0: ba42 fd3d 1631 a8bd 9092 2bbc 93d7 26bd

value_stream.model.2.weight f4 [1, 128]
-1.0666488 1.1237289 -1.1457576 -1.3395172 1.8719798 -1.498163 1.9917215 1.9772762
1.2832227 1.5742643 -0.16555466 0.048174117 -1.0418544 0.00630728 -0.008006573 0.81076324
0.9940225 0.98766726 2.2870893 1.3797362 0.76734143 1.4243054 1.0680627 1.1606055
-0.022870956 1.1432697 0.08881061 -1.7278347 2.2024844 0.4230873 1.515209 1.3219638
-1.002913 -0.6735355 1.4279289 -0.05999641 -0.6893843 1.8559202 0.7824538 1.7662851
-0.34778365 -1.4597785 -0.047700983 -0.0076773874 -0.060009338 2.1394246 0.53661674 0.03622606
-1.0647597 2.5104194 -0.05669515 0.82592946 0.00084515405 2.2168076 1.0167466 0.8218944
0.7915065 1.0975695 2.19769 -1.5904052 2.0058305 -1.2690693 -0.013401396 0.034766726
-1.5363413 -0.078797065 1.8549118 2.0698786 0.9509582 2.152207 0.701186 2.0076065
-0.47490436 -0.04285067 2.2915585 2.214993 -0.73263526 1.216264 1.7503543 1.511798
-0.33465862 2.740552 1.2132227 1.2327036 1.8468045 -0.5118825 -0.019657444 -0.0021016188
2.1902282 1.5306226 1.5582862 -1.4782035 2.166341 1.1454124 2.6561036 2.3704243
-0.030871823 2.408579 1.2520515 1.2332144 1.978108 2.304445 1.1252356 -0.10814561
-0.08132582 -1.4583204 -0.04087862 -1.5642843 -1.4284332 1.0814943 -1.3465292 1.2264943
0.89574474 1.047059 -0.061963357 -0.99092466 2.4604986 -0.011433626 -0.013263778 2.508666
-0.85528576 -0.085876554 -0.85593 1.0054471 0.69293624 -0.07035289 -0.040174212 -0.02898796
00000000: f387 88bf 59d6 8f3f 2fa8 92bf 4d75 abbf
00000010: 099d ef3f cec3 bfbf bbf0 fe3f 6317 fd3f
00000020: a440 a43f 7e81 c93f 2987 29be 3952 453d
00000030: 7c5b 85bf 4dad ce3b 002e 03bc 2e8e 4f3f
00000040: 4278 7e3f c3d7 7c3f ac5f 1240 329b b03f
00000050: 7d70 443f a44f b63f 47b6 883f b98e 943f
00000060: df5b bbbc a956 923f 56e2 b53d b029 ddbf
00000070: 81f5 0c40 e69e d83e 5ef2 c13f 1c36 a93f
00000080: 745f 80bf d36c 2cbf 60c6 b63f ccbe 75bd
00000090: 7d7b 30bf cb8e ed3f e44e 483f a115 e23f
000000a0: b310 b2be 06da babf 1b62 43bd 9892 fbbb
000000b0: 5acc 75bd 55ec 0840 b75f 093f c761 143d
000000c0: 0c4a 88bf b6aa 2040 2c39 68bd 1d70 533f
000000d0: 548d 5d3a 2de0 0d40 c124 823f ac67 523f
000000e0: 2ca0 4a3f 287d 8c3f f4a6 0c40 6692 cbbf
000000f0: 875f 0040 dd70 a2bf 8791 5bbc 8e67 0e3d
00000100: d5a6 c4bf 5b60 a1bd c06d ed3f e478 0440
00000110: ff71 733f c2bd 0940 ed80 333f a07c 0040
00000120: aa26 f3be 2f84 2fbd e5a8 1240 72c2 0d40
00000130: fc8d 3bbf 8aae 9b3f 9c0b e03f 9982 c13f
00000140: 6058 abbe 3465 2f40 e24a 9b3f 3bc9 9d3f
00000150: 1764 ec3f bb0a 03bf a608 a1bc 50bb 09bb
00000160: b32c 0c40 71eb c33f ec75 c73f c635 bdbf
00000170: 55a5 0a40 e09c 923f 9afd 2940 08b5 1740
00000180: e8e6 fcbc 2926 1a40 3943 a03f f8d9 9d3f
00000190: a532 fd3f 077c 1340 b807 903f 727b ddbd
000001a0: 278e a6bd 3eaa babf 5770 27bd 783a c8bf
000001b0: e6d6 b6bf 686e 8a3f 125b acbf c4fd 9c3f
000001c0: 874f 653f 0806 863f 4acd 7dbd 3dad 7dbf
000001d0: cf78 1d40 1a54 3bbc 5150 59bc fc8d 2040
000001e0: 02f4 5abf 0ce0 afbd 3a1e 5bbf 7eb2 803f
000001f0: 4564 313f 2d15 90bd b78d 24bd 2978 edbc

advantage_stream.model.0.weight f4 [128, 128]
-0.07913563 -0.06848344 0.046295557 -0.061835423 0.047278907 0.04633239 -0.044797264 -0.031061392
0.009123367 0.008568457 -0.055232126 -0.08374925 -0.015221329 0.035335887 0.06192076 0.072864674
0.063979946 0.08400626 -0.101012826 -0.08081801 -0.053150836 -0.024134096 -0.08550158 0.039975815
-0.013375521 0.002884805 0.0026116415 -0.027850382 -0.0034427277 -0.012838848 -0.058604725 -0.0264474
0.029912904 -0.052690614 -0.07522447 -0.0655434 -0.040894832 -0.07173101 0.039961062 0.025135009
0.07208719 0.0074426574 0.039340604 -0.086015105 -0.0072200657 0.077901594 -0.038683664 0.0026169717
0.050625782 -0.033968024 0.037023835 -0.08502101 0.07178339 0.03494148 -0.06759021 0.04237163
-0.021355262 -0.055474866 0.08226509 -0.06525879 0.012079696 -0.065156244 -0.013857844 -0.006502801
-0.037277382 -0.08469811 -0.0028523558 -0.08561714 -0.006737517 0.010583335 -0.06775135 -0.0040499675
0.069003366 -0.02521749 0.05286011 -0.066320166 0.06406369 0.060216658 0.011435855 -0.058055304
0.01307706 -0.05370114 -0.010467716 0.077793464 0.015340404 0.01428888 -0.032259114 0.013418996
0.011946781 -0.043263223 -0.021121664 -0.033357047 -0.020980248 -0.045625117 -0.07433724 -0.057582192
0.038283218 -0.012247142 -0.066600844 -0.06456289 0.030562252 0.04462059 -0.08242157 0.06076712
0.00063631363 -0.006951201 -0.056169134 0.02870942 -0.08121856 0.05712191 -0.03613394 0.06996068
-0.08142051 -0.026040396 0.017864866 -0.06927268 0.0039957315 -0.027712762 0.07708973 -0.022308055
0.05203525 -0.0047960137 0.021766145 -0.033818882 -0.07659016 -0.010211125 -0.08503034 0.0032836422
-0.049452618 -0.31942067 0.03750612 -0.07342053 0.12396694 -0.07485287 -0.052181702 0.12272718
0.019661544 0.0026866377 0.033584006 0.091636136 -0.025741352 -0.101573855 0.060015984 -0.022765975
0.059219245 -0.07725122 0.038249608 0.010212986 0.0034216957 -0.15560086 0.1772886 -0.052261066
-0.012012556 -0.0018984431 -0.3251362 -0.102003306 0.2336924 -0.030953098 0.1377029 0.0092344
0.054636516 -0.06356184 -0.066499114 0.0076403976 -0.012579325 -0.065400936 -0.042639695 -0.06779642
0.077012524 -0.32337245 0.03367553 0.13312565 0.009624059 0.05143305 -0.0532831 -0.06925591
-0.1244812 0.11870736 -0.5781232 -0.031493552 0.1138783 0.33437294 -0.0495307 -0.22479461
0.27114508 0.1343261 0.030741997 -0.023709718 0.026075931 0.19888243 -0.015800651 0.317141
-0.07134474 -0.0847492 -0.09673111 0.0634812 -0.057014257 0.007817202 -0.07905958 -0.06862809
-0.028559718 0.071992904 0.03975037 -0.028421223 0.04095774 -0.020668902 0.049176354 0.39679185
-0.07470993 -0.056386236 0.0014617443 0.06612136 0.36632317 0.0036940873 0.012611538 -0.27027604
-0.09207047 0.046787374 -0.059194386 -0.035748634 0.081065364 -0.22431798 -0.2063312 -0.07525014
0.14782472 -0.22346717 -0.2828229 -0.18840575 0.05375213 -0.18787736 0.052739568 -0.04211025
-0.09865252 -0.07661157 -0.06374004 -0.117828645 0.0705762 -0.051025614 -0.14241308 -0.25350192
-0.07193585 0.06931498 -0.059912402 -0.1480722 -0.07285249 -0.03844643 -0.060942255 0.21409532
-0.04075998 -0.085491315 -0.48605666 0.063710734 -0.0025473759 -0.04438134 -0.08033135 -0.030494493
00000000: dc11 a2bd 0c41 8cbd 69a0 3d3d 2447 7dbd
00000010: 87a7 413d 08c7 3d3d 567d 37bd 7674 febc
00000020: 2d7a 153c b762 0c3c 153b 62bd ba84 abbd
00000030: e262 79bc 5dbc 103d 9fa0 7d3d 133a 953d
00000040: eb07 833d 790b ac3d d0df cebd ea83 a5bd
00000050: b1b4 59bd deb4 c5bc 741b afbd aebd 233d
00000060: 0025 5bbc ff0e 3d3b 1328 2b3b 7c26 e4bc
00000070: 639f 61bb 085a 52bc 820b 70bd 38a8 d8bc
00000080: e80b f53c 1dd2 57bd 490f 9abd 9e3b 86bd
00000090: 5781 27bd b5e7 92bd 36ae 233d efe7 cd3c
000000a0: 73a2 933d 89e1 f33b 9d23 213d b028 b0bd
000000b0: 4d96 ecbb df8a 9f3d c372 1ebd 8081 2b3b
000000c0: fb5c 4f3d 0e22 0bbd 4ea6 173d 7f1f aebd
000000d0: 2c03 933d cc1e 0f3d bc6c 8abd e08d 2d3d
000000e0: 3bf1 aebc 9d39 63bd 997a a83d 67a6 85bd
000000f0: ebe9 453c a370 85bd 030c 63bc 7315 d5bb
00000100: 2bb0 18bd 3476 adbd 97ee 3abb 0a58 afbd
00000110: 64c6 dcbb b965 2d3c 38c1 8abd 97b5 84bb
00000120: a351 8d3d e994 cebc d883 583d ded2 87bd
00000130: d333 833d bea5 763d 745d 3b3c 66cb 6dbd
00000140: 2a41 563c baf5 5bbd c880 2bbc 2e52 9f3d
00000150: 5156 7b3c e81b 6a3c 2222 04bd 59db 5b3c
00000160: 6ebc 433c c734 31bd 5707 adbc 66a1 08bd
00000170: c5de abbc 67e1 3abd 1f3e 98bd 4edb 6bbd
00000180: ddce 1c3d 3da8 48bc 0666 88bd 8c39 84bd
00000190: b05d fa3c 14c4 363d a4cc a8bd f2e6 783d
000001a0: 49ce 263a e6c6 e3bb 9b11 66bd 0430 eb3c
000001b0: eb55 a6bd aaf8 693d 2f01 14bd 8c47 8f3d
000001c0: ccbf a6bd ab52 d5bc 5759 923c d6de 8dbd
000001d0: a0ee 823b e005 e3bc 38e1 9d3d 62bf b6bc
000001e0: ea22 553d e127 9dbb ea4e b23c ab85 0abd
000001f0: 4ddb 9cbd 904c 27bc 6324 aebd 6032 573b
00000200: d48e 4abd 1b8b a3be 04a0 193d 815d 96bd
00000210: 61e2 fd3d 764c 99bd 7bbc 55bd 6358 fb3d
00000220: 3f11 a13c 4d12 303b 628f 093d baab bb3d
00000230: 87df d2bc f405 d0bd 52d3 753d b67f babc
00000240: e18f 723d e335 9ebd 9fab 1c3d 5e54 273c
00000250: 873e 603b d555 1fbe 258b 353e b30f 56bd
00000260: 50d0 44bc 2ed5 f8ba 4178 a6be 1ce7 d0bd
00000270: 0f4d 6f3e 5a91 fdbc fd01 0d3e e14b 173c
00000280: 8aca 5f3d b62c 82bd b030 88bd 4d5c fa3b
00000290: 8319 4ebc edf0 85bd f6a6 2ebd d9d8 8abd
000002a0: beb8 9d3d 1391 a5be 5aef 093d 1752 083e
000002b0: 3bae 1d3c 76ab 523d 613f 5abd 0bd6 8dbd
000002c0: 00f0 febd d81c f33d e2ff 13bf 62ff 00bd
000002d0: 0739 e93d ee32 ab3e b4e0 4abd 8f30 66be
000002e0: 87d3 8a3e c88c 093e a4d6 fb3c e23a c2bc
000002f0: 319d d53c d6a7 4b3e 5e70 81bc 4e60 a23e
00000300: 311d 92bd fd90 adbd f61a c6bd 6e02 823d
00000310: c887 69bd b913 003c fde9 a1bd e28c 8cbd
00000320: 12f6 e9bc 0471 933d 49d1 223d a0d3 e8bc
00000330: 4ec3 273d d451 a9bc 256d 493d 4d28 cb3e
00000340: 8501 99bd 41f5 66bd 0098 bf3a a36a 873d
00000350: b68e bb3e 8018 723b a0a0 4e3c 9f61 8abe
00000360: 718f bcbd 1ea4 3f3d d075 72bd 296d 12bd
00000370: 9905 a63d 9db3 65be 7c48 53be bf1c 9abd
00000380: 5d5f 173e 94d4 64be 2ace 90be 70ed 40be
00000390: 322b 5c3d ec62 40be 7205 583d cc7b 2cbd
000003a0: 550a cabd 87e6 9cbd 238a 82bd 2550 f1bd
000003b0: 418a 903d 3c00 51bd bcd4 11be 01cb 81be
000003c0: 1a53 93bd 03f5 8d3d b566 75bd 3da0 17be
000003d0: b033 95bd 017a 1dbd 969e 79bd ce3b 5b3e
000003e0: f0f3 26bd 1216 afbd 6bdc f8be c67a 823d
000003f0: e0f1 26bb 35c9 35bd c384 a4bd 96cf f9bc

advantage_stream.model.0.bias f4 [128]
-0.054510795 0.089062475 0.042097498 0.0708192 0.15680021 0.0045026224 -0.008348402 0.11444606
-0.026436659 0.09667229 -0.08752117 -0.092178956 0.25611576 0.023301665 0.04281442 -0.03912971
0.003380089 0.14273614 0.03132563 0.04794046 -0.00034329647 0.034488007 0.0026580922 0.104144275
-0.042564947 0.16128248 0.17725152 0.037065335 -0.050759505 0.32752255 0.11008042 0.09173724
-0.078471996 -0.02094375 0.1731811 0.07853006 0.2785397 0.4413093 -0.086581565 0.18866433
0.1331107 0.0068946453 0.31849024 -0.043109715 -0.018856548 -0.01034525 -0.035031937 0.013758366
0.006426993 0.07953714 0.016382257 -0.012664511 0.03206926 0.11725562 0.15715589 0.3636002
0.03261512 0.12722164 -0.05797414 -0.10707979 0.25016996 0.045543067 0.040792517 -0.10018834
0.16995536 0.049141537 0.07345695 -0.016101833 0.057003155 -0.05782695 0.121116176 0.044305496
-0.01926112 0.17827661 -0.05598756 0.0145995375 -0.12655652 0.19346763 -0.007973526 0.039561357
0.15052426 0.039280713 -0.01191631 0.08013068 0.049364697 0.05239948 -0.033264883 0.15572321
0.13284308 0.3084099 0.22007976 0.021959152 0.0031065787 0.037254173 -0.004879293 0.0141181955
0.00081720244 -0.13081098 -0.0896218 0.15537772 0.47257882 0.093752846 0.017020287 -0.010740842
-0.05730375 0.19318557 -0.010434397 0.14034408 0.03999784 0.07424229 0.015262026 -0.120027535
-0.013239907 -0.0015528745 0.07143005 0.060924023 0.1153456 0.0244243 -0.029596172 0.076331526
0.026606413 -0.05847845 0.15734282 0.18558347 0.02950127 -0.030516688 0.041169155 -0.08495688
00000000: b646 5fbd 6366 b63d 6d6e 2c3d a809 913d
00000010: 3c90 203e bc8a 933b bcc7 08bc b262 ea3d
00000020: b191 d8bc 1ffc c53d 4d3e b3bd 52c8 bcbd
00000030: 9b21 833e 22e3 be3c 2c5e 2f3d 7a46 20bd
00000040: 7c84 5d3b 6c29 123e 4e4f 003d 375d 443d
00000050: 79fc b3b9 4c43 0d3d 6333 2e3b 9849 d53d
00000060: 9558 2ebd 3c27 253e 6c81 353e d2d1 173d
00000070: 33e9 4fbd 09b1 a73e d871 e13d bce0 bb3d
00000080: edb5 a0bd 3a92 abbc 6356 313e 5ed4 a03d
00000090: c19c 8e3e 4bf3 e13e ad51 b1bd 3931 413e
000000a0: 2c4e 083e 7aec e13b 2711 a33e d093 30bd
000000b0: 0c79 9abc 207f 29bc a67d 0fbd c56a 613c
000000c0: 8699 d23b 5ee4 a23d 1534 863c cf7e 4fbc
000000d0: 0e5b 033d b723 f03d 79ed 203e ce29 ba3e
000000e0: 6f97 053d 6446 023e 4b76 6dbd a64c dbbd
000000f0: 4716 803e 5e8b 3a3d 0e16 273d 8b2f cdbd
00000100: c708 2e3e a348 493d 9970 963d fee7 83bc
00000110: 247c 693d f4db 6cbd c20b f83d ae79 353d
00000120: 7fc9 9dbc 258e 363e 3653 65bd e632 6f3c
00000130: 0898 01be 611c 463e 64a3 02bc 170b 223d
00000140: 0823 1a3e d0e4 203d a03c 43bc 8e1b a43d
00000150: a332 4a3d d6a0 563d c240 08bd e875 1f3e
00000160: 0408 083e e7e7 9d3e 975c 613e aee3 b33c
00000170: be97 4b3b d597 183d 7ae2 9fbb 0150 673c
00000180: 8739 563a 50f3 05be a28b b7bd 561b 1f3e
00000190: daf5 f13e 7e01 c03d 216e 8b3c 5bfa 2fbc
000001a0: 56b7 6abd 70d2 453e 08f5 2abc 5cb6 0f3e
000001b0: c6d4 233d 570c 983d 940d 7a3c ffd0 f5bd
000001c0: 32ec 58bc d289 cbba eb49 923d 788b 793d
000001d0: 503a ec3d 7815 c83c ac73 f2bc b453 9c3d
000001e0: b1f5 d93c 1987 6fbd 7a1e 213e 9809 3e3e
000001f0: a6ac f13c 22fe f9bc fda0 283d dffd adbd

advantage_stream.model.2.weight f4 [2, 128]
0.0024365007 0.4657067 2.133586 -0.90176237 -1.3027393 -0.11454477 -0.7180141 -1.075197
2.438162 -0.91628027 -1.4112486 -0.9393759 -0.49668816 2.1642904 2.7139425 -1.0085149
0.38098764 -0.97077477 2.3714848 0.05807969 -0.87838316 0.112595946 1.0931282 0.938928
1.4224368 -0.2922701 -1.1624197 -0.9223401 0.045150634 -0.86735857 -1.6187449 0.039337825
0.053086657 -0.84463537 0.56001514 1.5229198 -1.2396879 -1.2118565 -0.789888 0.46152058
-0.36365375 9.9286e-05 -1.0461506 1.9216658 -0.12362921 0.07719139 -0.76172704 0.0017323913
-1.0359687 0.89209646 -1.3182338 0.013833899 -0.69596237 -0.8728601 0.4925803 -2.106177
-0.9474649 -0.94906455 0.06616971 -0.030245643 -0.86746436 0.6126867 0.613067 -0.048560023
-1.131253 -0.5625224 -0.88528645 -0.0010636604 -1.2273082 2.3092132 0.021069301 -0.699192
0.02086448 -1.0183393 -0.93830085 0.025364062 -0.46322286 -0.299104 2.4124727 2.2095037
0.8592134 -1.099928 -0.044502575 -0.7156224 -0.0041729296 2.4849384 1.8356912 -0.7164676
2.092366 -1.0090806 -0.079539455 -0.89303476 -1.0676333 1.6132672 -0.6959449 -1.2401279
-0.87917167 -0.9082379 0.25527918 0.9922301 -1.0923945 -0.4053381 2.465919 0.38594985
0.092766844 -1.8779827 1.5447733 -1.251978 0.70629495 -0.8621931 -1.1578165 -0.17758125
-0.08286134 1.7444819 0.009961788 2.2376516 0.78190434 -0.63292253 0.7209656 -1.0357157
-1.1472188 -0.624804 1.9753773 1.4659336 1.8378367 0.03344392 -1.0384146 0.038322173
-0.04438032 -0.18500051 0.44933224 2.1448295 1.4125913 -0.8585963 -0.23715799 2.503798
0.19954015 2.2031782 0.014863224 -0.6620814 0.29510322 0.9006122 0.40003195 0.6825154
-0.9049047 -0.90150553 -0.09119724 0.026465276 1.2820694 -0.09229473 -0.7719794 -0.7194457
-0.58903426 0.9849371 0.63400686 0.18112527 0.065363586 -1.8828369 -1.6200883 -1.1467202
0.04698753 -0.5679691 -1.5824866 -0.64383596 0.28214636 1.9464422 -1.0206596 -1.7471086
-1.8725275 0.008645968 1.5138437 0.12961768 -1.0424175 0.008356501 -0.9262506 -0.0003058315
1.0308423 -1.0050724 -1.2284007 0.04156917 -0.8763194 2.1031487 -0.17669912 0.16036262
1.2091546 2.1738412 0.046894535 0.01999485 1.9718852 -0.24139792 -1.1186582 -0.007473021
1.2023692 -1.3080608 2.1738474 0.00560823 -1.0969135 0.10942393 -0.89652526 -0.4382145
-0.045107085 2.5444503 -0.35168585 0.07754281 -0.010509542 0.9545592 0.115247816 -0.014785381
-1.609178 -0.5826518 -0.05768736 -0.7824954 -0.032022152 2.1552975 -1.5472118 -0.81193644
0.071606465 2.5462747 1.2098169 1.7671446 1.1143109 -0.04172255 -0.98116547 -1.1235725
2.3514304 2.4176118 -0.08384823 -1.075947 2.3568342 0.8455656 0.14324352 2.2192435
0.062224675 -1.4270802 -1.1830803 1.5876426 -0.7794311 0.56585246 -1.0358868 -1.0634326
-0.8628333 -0.13783512 -0.08166593 -0.04829063 -0.9681746 0.89005846 -0.89625573 -1.0425434
-1.2050644 -0.37682098 1.7345655 2.0800323 -0.00094811816 0.046422184 2.392474 0.021630429
00000000: b3ad 1f3b 1c71 ee3e ac8c 0840 e6d9 66bf
00000010: 29c0 a6bf 7396 eabd c6cf 37bf 0ea0 89bf
00000020: d90a 1c40 5891 6abf cba3 b4bf f07a 70bf
00000030: e94d febe bc83 0a40 3cb1 2d40 0417 81bf
00000040: d010 c33e b284 78bf 68c6 1740 f8e4 6d3d
00000050: b8dd 60bf b498 e63d a0eb 8b3f 965d 703f
00000060: 6912 b63f 6da4 95be 2bca 94bf 7b1e 6cbf
00000070: dfef 383d 360b 5ebf 0833 cfbf b320 213d
00000080: 6571 593d 063a 58bf 275d 0f3f 09ef c23f
00000090: 18ae 9ebf 1d1e 9bbf 1a36 4abf 6d4c ec3e
000000a0: d330 babe c437 d038 43e8 85bf 25f9 f53f
000000b0: 5031 fdbd 8516 9e3d 8b00 43bf 6811 e33a
000000c0: 9f9a 84bf 6f60 643f e3bb a8bf 94a7 623c
000000d0: 972a 32bf c273 5fbf 7c33 fc3e 9bcb 06c0
000000e0: 0f8d 72bf e5f5 72bf fc83 873d b6c5 f7bc
000000f0: 2512 5ebf 09d9 1c3f f5f1 1c3f e0e6 46bd
00000100: e6cc 90bf 7801 10bf 22a2 62bf 856a 8bba
00000110: 6f18 9dbf 26ca 1340 8799 ac3c 3ffe 32bf
00000120: fceb aa3c f158 82bf 7c34 70bf 4bc8 cf3c
00000130: 8c2b edbe 2924 99be f465 1a40 8268 0d40
00000140: 69f5 5b3f 71ca 8cbf 5548 36bd 0833 37bf
00000150: 12bd 88bb 3b09 1f40 eef7 ea3f 6c6a 37bf
00000160: 53e9 0540 8e29 81bf 95e5 a2bd ed9d 64bf
00000170: 35a8 88bf 8a7f ce3f 7229 32bf 83bc 9ebf
00000180: 6511 61bf 4782 68bf f4b3 823e cb02 7e3f
00000190: 95d3 8bbf 7a88 cfbe 9ed1 1d40 389b c53e
000001a0: 8bfc bd3d bd61 f0bf 22bb c53f d140 a0bf
000001b0: bfcf 343f b0b8 5cbf 5533 94bf dcd7 35be
000001c0: 35b3 a9bd 2f4b df3f c436 233c af35 0f40
000001d0: e22a 483f 3607 22bf 3491 383f 5592 84bf
000001e0: 11d8 92bf 28f3 1fbf 2ad9 fc3f b6a3 bb3f
000001f0: 3c3e eb3f 7efc 083d c5ea 84bf b6f7 1c3d
00000200: 23c8 35bd c670 3dbe e00e e63e e344 0940
00000210: cbcf b43f f8cc 5bbf 8bd9 72be 3a3e 2040
00000220: 4154 4c3e df00 0d40 e184 733c 2b7e 29bf
00000230: c517 973e 858e 663f fdd0 cc3e 54b9 2e3f
00000240: d6a7 67bf 11c9 66bf 9ec5 babd b5cd d83c
00000250: da1a a43f 0505 bdbd 71a0 45bf 982d 38bf
00000260: f3ca 16bf d624 7c3f 464e 223f e778 393e
00000270: 58dd 853d cd00 f1bf 0e5f cfbf bac7 92bf
00000280: ff75 403d 6c66 11bf ec8e cabf 6fd2 24bf
00000290: 7d75 903e 0525 f93f f9a4 82bf 41a1 dfbf
000002a0: fbae efbf d1a7 0d3c a1c5 c13f 7fba 043e
000002b0: f06d 85bf b5e9 083c c21e 6dbf 0258 a0b9
000002c0: a4f2 833f 36a6 80bf 3c3c 9dbf 6f44 2a3d
000002d0: 7856 60bf fd99 0640 9df0 34be 1936 243e
000002e0: 94c5 9a3f 3720 0b40 7c14 403d 3dcc a33c
000002f0: bc66 fc3f 0431 77be 3130 8fbf 3ee0 f4bb
00000300: 3ce7 993f 896e a7bf 5120 0b40 3ec5 b73b
00000310: a967 8cbf a719 e03d ae82 65bf a75d e0be
00000320: 35c2 38bd 46d8 2240 2b10 b4be c4ce 9e3d
00000330: 3730 2cbc fe5d 743f 0c07 ec3d 623e 72bc
00000340: 8bf9 cdbf ab28 15bf 9549 6cbd 9e51 48bf
00000350: a929 03bd 65f0 0940 090b c6bf 11db 4fbf
00000360: 69a6 923d 2af6 2240 48db 9a3f cb31 e23f
00000370: bda1 8e3f 44e5 2abd a92d 7bbf 39d1 8fbf
00000380: d67d 1640 27ba 1a40 9fb8 abbd a2b8 89bf
00000390: 5fd6 1640 fd76 583f 6eae 123e 1608 0e40
000003a0: 4ddf 7e3d 90aa b6bf 2d6f 97bf df37 cb3f
000003b0: cc88 47bf b5db 103f f097 84bf 8f1e 88bf
000003c0: a5e2 5cbf a624 0dbe 7840 a7bd 65cc 45bd
000003d0: 4ada 77bf dfda 633f 0471 65bf 1072 85bf
000003e0: 8d3f 9abf aeee c0be 3e06 de3f 401f 0540
000003f0: 228b 78ba 3025 3e3d 4b1e 1940 4c32 b13c

advantage_stream.model.2.bias f4 [2]
0.024730409 0.05662055
00000000: 6d97 ca3c f3ea 673d
