logs/6-Dueling-noNoisy/31-DuelingDQN-random-max-POM-G0-resumed-25_10_24_18-14-04/10/models/143000/DuelingDQN_checkpoint.pth (torch, 833227 bytes, 44 tensors)

feature_layer.model.0.weight f4 [128, 4]
0	0xbd98360d	-0.07432184
1	0xbdd5d7a4	-0.10441521
2	0xbdfd91ab	-0.123812996
3	0x3ce78dee	0.02826592
4	0xbe939e75	-0.2883183
5	0xbe2cd00f	-0.16876243
6	0xbd8ba632	-0.068188086
7	0xbc2d5555	-0.010579427
8	0xbd1d8496	-0.038456522
9	0xbdf6cb5d	-0.12050507
10	0x3c640501	0.013917209
11	0xbd9deadf	-0.07710814
12	0xbdbf5c6b	-0.09343799
13	0xbdf05f1b	-0.1173689
14	0xbdaa00d1	-0.08300937
15	0xbcef7390	-0.02922991
16	0xbdd31f6c	-0.103087276
17	0xbdd9e4af	-0.10639321
18	0x3d4541e2	0.048158534
19	0xbcfe8bf0	-0.031072587
20	0xbd4425c0	-0.047887564
21	0xbee28d1a	-0.44248277
22	0xbedcd3e0	-0.43130398
23	0xbee65d38	-0.44992995
24	0xbefa7e22	-0.48924357
25	0xbeee6cea	-0.4656747
26	0xbec1ef94	-0.37878096
27	0xbee6e550	-0.45096827
28	0xbe963168	-0.2933457
29	0xbd89b1d4	-0.06723371
30	0xbcda9f70	-0.026687354
31	0xbc79ae1e	-0.015239267
32	0xbc226b1a	-0.00991323
33	0xbd398289	-0.045290504
34	0x388ace9d	6.6188375e-05
35	0xbdb66858	-0.08906621
36	0xbb837c1f	-0.004012599
37	0xbdb79f57	-0.089659385
38	0x3aa2bd2b	0.0012415996
39	0xbcbc9013	-0.023017919
40	0xbd01d12d	-0.031693626
41	0xbafa723b	-0.001910753
42	0xbdc38eef	-0.09548747
43	0xbe11d8df	-0.14242886
44	0xbce8d180	-0.02842021
45	0xbe08ab23	-0.13346533
46	0xbdfbe9fa	-0.12300487
47	0x3d74e292	0.059786387
48	0xbe754ee6	-0.23955879
49	0xbd90439e	-0.07044147
50	0xbea8e214	-0.32984984
51	0x3dbd6165	0.09247092
52	0xbeaa2587	-0.33231756
53	0xbe2c7cff	-0.16844557
54	0xbe0918f2	-0.13388422
55	0xbb807590	-0.0039202645
56	0xbdc72bc6	-0.09725146
57	0xbdf70c9c	-0.12062952
58	0xbb582983	-0.0032983727
59	0xbbe6d5a7	-0.0070445123
60	0xbda9e494	-0.08295551
61	0xbf569743	-0.8382456
62	0xbdfd666f	-0.12373053
63	0xbb9225b0	-0.004460059
64	0xbd35547e	-0.04427003
65	0x3dfb260d	0.12263117
66	0xbca7d183	-0.020485645
67	0xbdbcf058	-0.092255294
68	0xbda3d52b	-0.07999643
69	0x3ce6cb5f	0.028173147
70	0x3e28647c	0.16444582
71	0xbe0d76e8	-0.1381489
72	0xbeb7c3b9	-0.35891512
73	0xbab5c22a	-0.001386707
74	0xbdeb1334	-0.11478272
75	0xbe4d7a84	-0.20066267
76	0xbf83fe0a	-1.0311902
77	0xbb515c39	-0.0031945838
78	0xbe36e3d0	-0.17860341
79	0xbe1ce975	-0.15323432
80	0xbe2135bb	-0.15743153
81	0xbdbc865f	-0.09205317
82	0x3c2fa631	0.010720775
83	0xbdd855f3	-0.105632685
84	0x3dc29f33	0.09503021
85	0xbd44848f	-0.04797798
86	0xbd98e81c	-0.07466146
87	0x3e243d78	0.16039073
88	0xbea476af	-0.32121798
89	0xbeb1de5f	-0.34739968
90	0xbe6c25e0	-0.23061323
91	0x3e739b55	0.23789723
92	0x3760e37c	1.3404406e-05
93	0xbe9ab6cd	-0.3021759
94	0xbe41eeb6	-0.18938717
95	0xbe400fbe	-0.18756005
96	0xbdfbadee	-0.12289034
97	0x3d4dfb7a	0.050288655
98	0xbe4f0080	-0.20215034
99	0xbdb821f8	-0.08990854
100	0xbcbb701e	-0.02288061
101	0x3d524707	0.05133727
102	0x3dab05e9	0.08350737
103	0xbd03433b	-0.032046538
104	0xbe0f8672	-0.1401613
105	0xbb00861a	-0.001961118
106	0xbd8bd254	-0.06827226
107	0xbd32741b	-0.043567758
108	0xbe29bc75	-0.16575797
109	0xbe0a7f5a	-0.13525143
110	0xbd7fb1c6	-0.062425397
111	0xbb3a8049	-0.0028457812
112	0x3d3f18c4	0.046654478
113	0xbe2c13eb	-0.16804473
114	0xbd93e340	-0.07221079
115	0xbe37c7b3	-0.17947273
116	0xbd5275a6	-0.05138173
117	0xbe1166b2	-0.14199331
118	0xbc9e48f6	-0.0193219
119	0x3e3363e7	0.17518578
120	0x3e6467d3	0.22305231
121	0xbdcdf5c5	-0.100566424
122	0xbdbdcbc3	-0.0926738
123	0xbdea3797	-0.11436384
124	0x3e28106b	0.16412513
125	0xbe1a8645	-0.15090282
126	0xbde566de	-0.11201261
127	0xbd9ab506	-0.07554059
128	0xbf0ab22e	-0.5417813
129	0xbe02f44b	-0.12788503
130	0xbd9fb6bd	-0.077985264
131	0x3bb9bebd	0.0056684897
132	0xbdf3cfe8	-0.11904889
133	0xbd95a718	-0.07307261
134	0xbe9ac1e0	-0.3022604
135	0xbea90558	-0.3301189
136	0xbc8c8175	-0.017151574
137	0x3dd40887	0.10353189
138	0xbe4cc66a	-0.19997564
139	0xbeb88179	-0.3603628
140	0xbe974c46	-0.2955038
141	0x3e5d0705	0.21584709
142	0xbd2d4c2c	-0.04230897
143	0xbe4dae44	-0.20086008
144	0xbd300644	-0.042974725
145	0xbd24cce1	-0.04023445
146	0x3df31d03	0.11870768
147	0xbd913cd6	-0.07091682
148	0xbd3cfee5	-0.046141524
149	0xbe10a2c9	-0.14124598
150	0xbf7e4597	-0.99324936
151	0xbdd9cd96	-0.106349155
152	0xbe77845c	-0.24171585
153	0xbd006300	-0.031344414
154	0xbde21eb8	-0.110410154
155	0xbecf0f4c	-0.40441358
156	0xbdb8e57d	-0.090281464
157	0x3d025459	0.03181872
158	0xbc5055f0	-0.012715802
159	0xbe240c9c	-0.16020435
160	0xbef1bcde	-0.47214407
161	0xbeccb808	-0.39984155
162	0xbd573700	-0.052542686
163	0xbd547800	-0.051872253
164	0xbe51359d	-0.20430608
165	0x3a85ac4e	0.0010198446
166	0xbde5f636	-0.11228602
167	0xbde184f9	-0.11011691
168	0xbe4712a0	-0.19440699
169	0xbdbd181b	-0.092331134
170	0xbe239076	-0.15973076
171	0xbcca014e	-0.024658825
172	0x3b8aed6a	0.0042397277
173	0xbe9c2bbc	-0.30502117
174	0x3ea5238d	0.32253686
175	0xbe9ba0dc	-0.30396163
176	0x397e436f	0.00024248449
177	0xbddca457	-0.10773533
178	0xbc80c89f	-0.015720664
179	0xbcf349ec	-0.029698335
180	0xbda20b2e	-0.079122886
181	0xbe04f6fc	-0.12984842
182	0xbb878a5e	-0.0041363677
183	0xbb498cee	-0.0030754167
184	0xbdb8ecb9	-0.09029526
185	0xbdb25ba6	-0.08708887
186	0xbd780bde	-0.060558192
187	0xb943eef7	-0.0001868567
188	0x3ccd391a	0.025051642
189	0x3d23b519	0.03996763
190	0xbc42bcf7	-0.011885873
191	0xbcf3eab6	-0.029775005
192	0xbea299d8	-0.31757998
193	0xbe144b66	-0.14481887
194	0x3def52f8	0.11685747
195	0xbf10446d	-0.5635441
196	0xbe3dca64	-0.18534237
197	0x3e73ef36	0.2382172
198	0xbe713aaa	-0.23557535
199	0xbe7c6f1b	-0.24651758
200	0xbdfdbefa	-0.123899415
201	0x3c9428c4	0.018085845
202	0x3c426e64	0.0118671395
203	0x3cd40176	0.025879603
204	0xbd73835b	-0.059451442
205	0xbe28488e	-0.16433927
206	0x3d8e1293	0.069371365
207	0xbe044025	-0.12915094
208	0xbe44f782	-0.19235042
209	0x3b6e17f8	0.0036330204
210	0x3d1a332c	0.037646458
211	0xbe634eeb	-0.22198074
212	0xbefcd1e2	-0.49378878
213	0xba7da2ca	-0.00096754415
214	0x3c14f396	0.009091279
215	0xb9fe5829	-0.0004851234
216	0x3a9bcedc	0.001188721
217	0xbb9e387f	-0.004828512
218	0xbed71116	-0.42005223
219	0x3b93d5e5	0.004511582
220	0x398f162c	0.00027291605
221	0xbda308ff	-0.079607
222	0xbe399174	-0.18121892
223	0xbdb248ab	-0.087052666
224	0x39fa1189	0.0004769678
225	0xbdc2a2d1	-0.09503711
226	0x3df9ca72	0.121968165
227	0x3a9e1be6	0.0012062758
228	0x37e04868	2.6736598e-05
229	0xbcff0855	-0.031131903
230	0xbe655b08	-0.22398007
231	0xbe82fa91	-0.25581792
232	0xbd8ed328	-0.069738686
233	0xbd4eaf00	-0.05045986
234	0x3a23c4ef	0.0006247302
235	0xbb3b92d4	-0.0028621452
236	0x3c8c57ca	0.017131705
237	0xbcbd85b8	-0.023135051
238	0xbdaed239	-0.085361905
239	0xbc77228c	-0.01508392
240	0xbe409cd4	-0.18809825
241	0xba936503	-0.0011245314
242	0xbd80b4a6	-0.06284456
243	0xbd73a41e	-0.059482686
244	0xbd519bdc	-0.05117403
245	0x3da36445	0.07978109
246	0xbd5001b4	-0.050782874
247	0xbeae339a	-0.34023744
248	0xbcacafac	-0.02107986
249	0x3e34eb44	0.17667872
250	0xbdefa570	-0.117014766
251	0xbe02c475	-0.12770255
252	0xbb535bc7	-0.0032250748
253	0x3aef70b0	0.0018267836
254	0xbdaf9a9a	-0.0857441
255	0xbc969923	-0.018383568

feature_layer.model.0.bias f4 [128]
0	0xc00c5ea5	-2.1932766
1	0xbbbf779d	-0.0058431164
2	0x3ffa6a0b	1.9563612
3	0x3e127ae0	0.14304686
4	0xc00a8d08	-2.1648579
5	0xbbc27996	-0.0059349043
6	0xbedd4210	-0.43214464
7	0xbab4c5e3	-0.0013791885
8	0xbd1e9cf6	-0.03872391
9	0xbf269dbc	-0.65084434
10	0xbfe07590	-1.7535877
11	0xc00a0674	-2.1566439
12	0xbf936425	-1.1514937
13	0x3d0acb78	0.03388545
14	0x3f4bad43	0.7956125
15	0x3f3c084c	0.7345016
16	0xbcc7cf29	-0.024390774
17	0x3f05e750	0.5230608
18	0xbe98e354	-0.29860938
19	0xbcb7a3cd	-0.022416973
20	0x3fb760d7	1.4326428
21	0xbe740c86	-0.23832902
22	0x3f477378	0.77910566
23	0xbedf3548	-0.43595338
24	0x3e92b868	0.28656316
25	0xbf7bce10	-0.983613
26	0x3f8edb4d	1.1160675
27	0xbce9b581	-0.02852893
28	0xbfa92a46	-1.3216026
29	0xbf2e034a	-0.6797377
30	0xbf5ed277	-0.87039894
31	0x3e01b9eb	0.12668578
32	0x3f98fb0f	1.1951617
33	0xbe12a8d8	-0.14322221
34	0xbf75b6ad	-0.95981866
35	0xbf8d7b92	-1.1053336
36	0xbbcd4c4a	-0.006265198
37	0x3f23cf47	0.63988155
38	0xbe856d52	-0.26059967
39	0xc026453e	-2.5979762
40	0xbe856e54	-0.26060736
41	0xbf38eeb0	-0.7223921
42	0x3eafc2cc	0.34328306
43	0xbe4f3ab5	-0.20237239
44	0xbfa0c83b	-1.2561105
45	0x3d961d66	0.07329826
46	0xbfa7a917	-1.3098477
47	0x3ec1cbca	0.3785079
48	0xc01da83f	-2.463394
49	0xbaa01bbf	-0.00122153
50	0xbf7fddf3	-0.9994804
51	0xbff146bd	-1.8849713
52	0xbf0cc111	-0.54982096
53	0x3ff6a562	1.9269221
54	0x3ff664ce	1.9249513
55	0xbf1bec5e	-0.6090754
56	0xbf506b2c	-0.8141353
57	0xbd13822e	-0.03601282
58	0xbf00b21e	-0.50271785
59	0x4003fdab	2.0623577
60	0xbe6048aa	-0.21902719
61	0x3fa8b778	1.318099
62	0xbfa204d2	-1.2657721
63	0xbf65955f	-0.8968105
64	0x3f495bbe	0.7865561
65	0xbf783e49	-0.9697004
66	0xbf9d3b41	-1.2283708
67	0x3ecacfea	0.3961175
68	0x3fb46db5	1.409598
69	0xbdad7fa0	-0.08471608
70	0xba86565e	-0.0010249128
71	0xbb52ac4a	-0.003214615
72	0x3f1be68a	0.6089865
73	0xbf2b8cc8	-0.6701169
74	0xbee0bae2	-0.4389258
75	0x3f918ab6	1.1370456
76	0xbe921d57	-0.2853801
77	0x3f03626d	0.5132206
78	0x3f525052	0.8215381
79	0xbfbfc5b4	-1.4982209
80	0xbf7296b3	-0.947612
81	0xbfa1dfb1	-1.264639
82	0xbebad9d2	-0.3649431
83	0x3e9b72c1	0.30360988
84	0x3fc4ecfb	1.5384821
85	0x3eba48ed	0.36383763
86	0x3fc1fb9d	1.5154911
87	0x3efacb26	0.48983115
88	0xbfb5e8bd	-1.4211651
89	0x3e91dfe9	0.28491142
90	0x3f6a5043	0.9152872
91	0x3e646bb7	0.22306715
92	0x3fdef8b3	1.7419647
93	0xbf3e4a7f	-0.7433242
94	0x3ecde32a	0.40212375
95	0xbdbdf380	-0.092749596
96	0x3fed157c	1.8522182
97	0x3f54b46f	0.8308782
98	0xbf61307b	-0.879646
99	0xbef244e6	-0.4731819
100	0xbf4b8098	-0.79493093
101	0xba4df63a	-0.000785682
102	0xba2379b1	-0.000623609
103	0xc02ee7ed	-2.7329056
104	0x3ed196d3	0.40935382
105	0x3f472a6c	0.77799106
106	0xbe7af6e4	-0.24508244
107	0x3f3c57e1	0.7357159
108	0xc0103d1c	-2.2537298
109	0x3f9039d1	1.1267644
110	0x3f9f714a	1.2456448
111	0x3f65eef5	0.89817744
112	0xbdb5d6dd	-0.088788725
113	0xbafc79e3	-0.0019262399
114	0xbe855be2	-0.26046664
115	0xbdafb502	-0.085794464
116	0x3f7a8293	0.9785549
117	0xc00e8245	-2.226701
118	0xbdb1c340	-0.08679819
119	0xbf2e69ad	-0.6813
120	0xbd1c4ea5	-0.03816094
121	0x3f6071f8	0.876739
122	0xb9aa9d70	-0.00032542227
123	0x3d474d2f	0.048657592
124	0xbf1b30d9	-0.6062141
125	0x3f914ce4	1.135159
126	0xbfed6762	-1.8547175
127	0x3f25d96a	0.6478487

feature_layer.model.2.weight f4 [128, 128]
0	0xbdb103b5	-0.08643285
1	0xbc20a26d	-0.00980435
2	0xbd1dcd93	-0.03852613
3	0xbd4d635e	-0.050143592
4	0x3c154909	0.009111651
5	0xbdad2433	-0.0845417
6	0xbd6cdfc6	-0.057830594
7	0x3bf50485	0.0074773454
8	0x3d148217	0.036256876
9	0x3d407845	0.046989698
10	0x3ae5220a	0.0017481458
11	0xbda966fd	-0.082715966
12	0xb9d23c85	-0.00040099412
13	0x3d86ff4d	0.065916635
14	0x3c840d9e	0.016119774
15	0x3d8751c5	0.06607393
16	0xbd0f3232	-0.03495998
17	0xbdbd07ff	-0.09230041
18	0xbd97b4c6	-0.07407527
19	0x3d72ce1e	0.0592786
20	0x3d7285f0	0.059209764
21	0xbcc66961	-0.02422017
22	0x3d6973a1	0.056995038
23	0xbdc272c7	-0.09494548
24	0x3d677378	0.056506604
25	0xbdd73afd	-0.10509298
26	0xbd1f6043	-0.03891016
27	0xbda9ca12	-0.08290495
28	0xbde701cc	-0.112796396
29	0x3d75b699	0.05998859
30	0xbb1c3351	-0.0023834298
31	0x3b683e07	0.0035437362
32	0xbcfcfaee	-0.030881371
33	0xbd6240a1	-0.055237416
34	0xbd8edb41	-0.06975413
35	0xbdb05b1d	-0.086111285
36	0xbd1f0ee5	-0.038832564
37	0xbdbb91b4	-0.0915865
38	0xbd9f1d95	-0.07769314
39	0x3d3c8524	0.04602541
40	0xbd12396a	-0.035699286
41	0xbd69ee06	-0.057111762
42	0xbd7f3eaf	-0.06231564
43	0x3d668eb6	0.056288444
44	0xbd815621	-0.06315256
45	0xbc602b31	-0.013682173
46	0x3d1080de	0.035279147
47	0xbb62f164	-0.0034628743
48	0x3d48a0d4	0.048981503
49	0xbcc2dcfe	-0.023787018
50	0xbe06888c	-0.13138026
51	0xbdc4dc64	-0.09612349
52	0x3ced1839	0.028942214
53	0x3d7440a3	0.059631955
54	0xbdc6245d	-0.096749045
55	0xbdb6c39e	-0.0892403
56	0xbab7212f	-0.0013971681
57	0x3cb34d63	0.021887487
58	0xbceb16c0	-0.028697371
59	0xbdb0e203	-0.08636858
60	0x3ca54d71	0.020178529
61	0xbac7d07f	-0.0015244632
62	0x3c212bf6	0.009837141
63	0xb9b29302	-0.00034060335
64	0x3cd7dec5	0.026351342
65	0xbddcb2af	-0.10776269
66	0xbdaa6033	-0.0831913
67	0xbd51620e	-0.051118903
68	0xbd0e3541	-0.034718756
69	0x3bf9344b	0.0076051108
70	0x3cf43b43	0.029813414
71	0xbd7a3786	-0.061088108
72	0x3cb85e08	0.022505775
73	0xbd97e0d7	-0.07415932
74	0xbd942fac	-0.07235655
75	0xbdff32ab	-0.12460836
76	0xbdee63d7	-0.11640137
77	0xbd8e6baa	-0.06954129
78	0x3c8d4747	0.017245902
79	0x3c77267c	0.015084859
80	0xbcbe3235	-0.0232173
81	0x3b36fee5	0.0027922925
82	0x3ce927e5	0.028461406
83	0xbd1e4c22	-0.038646825
84	0xbcbabbb3	-0.02279458
85	0xbd64fd4a	-0.055905618
86	0xbcb85bbf	-0.022504685
87	0xbd9b5de2	-0.07586266
88	0xbd29c862	-0.041450866
89	0xbca2329e	-0.019799527
90	0xbce8a672	-0.02839968
91	0xbbd0ad3d	-0.006368308
92	0x3da91a45	0.08256964
93	0xbcbd4db4	-0.02310834
94	0xbb9db05d	-0.004812284
95	0xbd57df28	-0.052703053
96	0x3c4e2455	0.012581904
97	0xbdb9613d	-0.0905175
98	0xbd91ae43	-0.07113316
99	0x3bf022fa	0.0073283883
100	0x3c3764d8	0.011193477
101	0xbd132edd	-0.035933364
102	0xbdef8c81	-0.11696721
103	0xbca3f417	-0.020013852
104	0xbde1254e	-0.109934434
105	0x3cad4544	0.021151192
106	0xba6c8400	-0.0009022355
107	0x3d3d37d6	0.046195827
108	0x3d15772e	0.03649061
109	0x3c32a5bc	0.010903772
110	0xbc29c9a7	-0.010363019
111	0xbddbcf35	-0.10732881
112	0x3d737089	0.059433494
113	0x3d27ad11	0.040936533
114	0x39dfe141	0.00042701702
115	0xbd8be4d9	-0.068307586
116	0xbc33f5c4	-0.010983888
117	0x3d937b43	0.07201245
118	0x3c2695d8	0.0101675615
119	0xbdac73d4	-0.0842053
120	0xbd9a9305	-0.07547573
121	0xbc92bf1e	-0.017913397
122	0xbc6df430	-0.014523551
123	0xbd7833a2	-0.060596116
124	0xbe0aacb1	-0.13542439
125	0xbe084a23	-0.13309531
126	0xbc6b4d4a	-0.014361689
127	0x3c21c6f2	0.009874092
128	0x3d47507a	0.048660733
129	0x3c970bda	0.018438268
130	0xbd01c342	-0.031680353
131	0xbda938f7	-0.08262818
132	0xbcd37873	-0.02581427
133	0x3d6b6e9a	0.057478525
134	0x3c23c1a8	0.009994902
135	0x3c35d5aa	0.011098305
136	0xbd83c11f	-0.06433319
137	0xbdce6eae	-0.10079704
138	0xbd68f17f	-0.056870934
139	0x3c1fc394	0.009751219
140	0xbca43192	-0.020043168
141	0xbc73e019	-0.014884972
142	0xbd7bcd48	-0.06147507
143	0xbd363397	-0.044482794
144	0x3da3fc3b	0.080070935
145	0xbd613072	-0.05497784
146	0x3d7031ee	0.058641367
147	0xbd6142ef	-0.054995473
148	0x3c62acab	0.013835113
149	0xbdbf66fd	-0.09345815
150	0xbd386f81	-0.045028213
151	0xbcaaffa1	-0.020873846
152	0xbd1c39f8	-0.03814122
153	0xbd801c70	-0.06255424
154	0xbd85c366	-0.0653141
155	0xbcd1df1a	-0.025619078
156	0x3bbdde30	0.005794309
157	0xbddfcacf	-0.109273545
158	0x3d634286	0.055483364
159	0xbc96847e	-0.018373724
160	0x3ad95c1e	0.0016583239
161	0x3d1e0cd2	0.038586445
162	0x3d972f7b	0.07382103
163	0xbcbffff8	-0.023437485
164	0x3d777726	0.060416363
165	0x3d2eef03	0.042708408
166	0x3d68374e	0.056693368
167	0x3d1c3d0f	0.038144168
168	0xbc8589ec	-0.016301118
169	0xbca1d831	-0.019756408
170	0xbbfc552f	-0.0077005844
171	0x3ca39634	0.019969083
172	0xbd264a7b	-0.040598374
173	0xbd8338b9	-0.06407303
174	0x3ce613f4	0.028085686
175	0xbd92ce4e	-0.07168256
176	0x3d94aec7	0.07259899
177	0x3b4dc860	0.003139995
178	0x3c80a810	0.015705138
179	0xbda5d30d	-0.08096895
180	0xbc64dd80	-0.013968825
181	0x3ccc449c	0.02493506
182	0xbda57462	-0.08078839
183	0xbc804940	-0.015659928
184	0x3cab8915	0.02093939
185	0xbd3bda0e	-0.04586225
186	0xbd83328b	-0.06406125
187	0x3d2d4025	0.0422975
188	0x3d45fb83	0.048335563
189	0x3c74c278	0.014938943
190	0x3d8e4f0f	0.06948673
191	0xbd902e31	-0.0704006
192	0xbdc273c5	-0.094947375
193	0x3d2369ae	0.039895706
194	0x3c1d6776	0.009607187
195	0xbd8c66de	-0.06855558
196	0x3c356680	0.011071801
197	0xbc1d2702	-0.00959182
198	0xbd8dba86	-0.06920342
199	0xbd87944f	-0.066200845
200	0xbd9930c5	-0.07480005
201	0x3badc7b1	0.005303346
202	0xbcd82d0d	-0.02638867
203	0x3c150f90	0.009097949
204	0xba101d0a	-0.0005497491
205	0xbd9f16c6	-0.077680156
206	0xbc1362d0	-0.008995727
207	0xbbd8fd1e	-0.006621971
208	0x3c8f99e4	0.017529435
209	0xbd3e18d5	-0.0464104
210	0xbdc31a23	-0.095264696
211	0x3c88602d	0.016647423
212	0xbcb34cd2	-0.021887217
213	0x3d047aa4	0.03234352
214	0xbd285320	-0.0410949
215	0x3d9e38c9	0.07725675
216	0x3d815c3d	0.06316421
217	0xbd431b0d	-0.04763322
218	0xbd0b3d4f	-0.033994015
219	0xbc856dde	-0.01628774
220	0x3d6c0773	0.05762429
221	0xbc644900	-0.01393342
222	0xbd669f32	-0.056304164
223	0xbd219836	-0.0394518
224	0x3b15d8e0	0.0022864863
225	0xbc944dfc	-0.018103592
226	0x3d1181f2	0.035524316
227	0x3c1e3961	0.009657235
228	0xbdd95bbe	-0.106132016
229	0xbdb183da	-0.08667727
230	0xbd12e783	-0.035865318
231	0x3d617dce	0.055051617
232	0xbda7a79a	-0.08186264
233	0xbda8afdb	-0.08236667
234	0xbd4d1423	-0.050068032
235	0xbcd1150c	-0.025522731
236	0x3d401366	0.0468935
237	0x3c389513	0.011266011
238	0xbd30ca10	-0.04316145
239	0x3cefcf37	0.029273612
240	0xbc0728b8	-0.008249454
241	0x3da3a661	0.07990719
242	0xbd8c00d9	-0.06836099
243	0xbda96356	-0.082709
244	0xbd031a0a	-0.032007255
245	0xbda784c1	-0.08179618
246	0xbdbbd450	-0.09171355
247	0xbd5e024e	-0.054201417
248	0xbd89ad18	-0.06722468
249	0xbd0344be	-0.03204798
250	0xbc199338	-0.009373479
251	0xbc6bf163	-0.014400813
252	0xbd882a49	-0.0664869
253	0xbda46557	-0.080271415
254	0x3d904fb5	0.07046453
255	0xbb6add4c	-0.003583747

feature_layer.model.2.bias f4 [128]
0	0x3e04c004	0.12963873
1	0x3b634075	0.003467587
2	0x3cfed7ea	0.031108815
3	0x3ef17c9e	0.47165388
4	0x3d38de76	0.04513403
5	0xbd2e1ad5	-0.042506058
6	0x3d264de7	0.040601637
7	0x3e37405d	0.17895646
8	0xbdad3162	-0.08456685
9	0x3d839e19	0.06426639
10	0xbdf7357b	-0.120707475
11	0xbd8b0dd3	-0.06789746
12	0x3cdb5c5c	0.026777439
13	0x3dab711f	0.083711855
14	0x3ecdf8dc	0.40228927
15	0x3ebe1b18	0.37130046
16	0xbd656f94	-0.056014612
17	0xbe0d1c51	-0.13780333
18	0x3cd541e9	0.026032405
19	0xbd82c783	-0.0638571
20	0xbd6b5ab6	-0.057459556
21	0xbd416fbc	-0.0472257
22	0xbbb81318	-0.0056175105
23	0xbe0dce6e	-0.13848278
24	0x3f7ade3f	0.9799537
25	0x3fa55a70	1.2918224
26	0x3c30c880	0.01078999
27	0xbdb5d8b5	-0.08879224
28	0xbdf04180	-0.11731243
29	0xbd2e47da	-0.04254899
30	0x3d8ef8ae	0.06981026
31	0x3f2a41e0	0.6650677
32	0xbc6abc1b	-0.014327074
33	0x3e9d7383	0.3075219
34	0xbd9d71ff	-0.07687759
35	0xbde5c642	-0.11219455
36	0x3f35bb1d	0.7098864
37	0x3d8dfb0e	0.069326505
38	0x3e856f28	0.26061368
39	0xbdf24d67	-0.118311696
40	0xbe136351	-0.14393355
41	0xbcb8a3f0	-0.022539109
42	0x3e136137	0.14392553
43	0xbd516a3d	-0.051126707
44	0x3c9e9270	0.019356936
45	0xbce7a5fb	-0.028277388
46	0x3cb351b1	0.02188954
47	0x3f837cd5	1.0272471
48	0xbdbec167	-0.09314232
49	0xbdb8fb7f	-0.09032344
50	0xbdd53702	-0.104108825
51	0xbde09978	-0.10966772
52	0x3b99ebbd	0.0046972916
53	0xbdfea9cf	-0.12434732
54	0x3e7739e5	0.24143179
55	0xbd8213ce	-0.06351434
56	0x3fb7465d	1.4318348
57	0x3d117b14	0.035517767
58	0x3db953e1	0.09049202
59	0xbcc34064	-0.023834415
60	0xbcaca307	-0.021073831
61	0x3c712c85	0.014720087
62	0x3e915aaf	0.283895
63	0x3df62f2c	0.12020716
64	0xbdb20eeb	-0.086942516
65	0xbe03e34c	-0.12879676
66	0xbd909f43	-0.07061627
67	0xbd562e6a	-0.052290358
68	0x3f7eef01	0.9958344
69	0xbc4bf31b	-0.012448098
70	0xbdd11ce9	-0.10210592
71	0xba2007cc	-0.00061046774
72	0x3e2f8654	0.17141086
73	0xbd30ed28	-0.04319492
74	0xbdf6c8ae	-0.12049995
75	0x3e4aa208	0.19788373
76	0x3d4a889a	0.04944668
77	0xbdb65325	-0.08902577
78	0x3faa6f9c	1.331531
79	0x3ece59c4	0.4030286
80	0xbe074fab	-0.13213985
81	0x3ec99f6e	0.39379448
82	0x3c88f956	0.016720455
83	0x3f49d558	0.7884116
84	0xbe1a6229	-0.15076508
85	0xbd1abe29	-0.037779007
86	0x3c0ee54a	0.008721659
87	0xbe14aad1	-0.14518286
88	0x3d27c69f	0.040960904
89	0xbdb970ad	-0.09054694
90	0x3e201635	0.15633471
91	0xbc7b9a94	-0.0153566785
92	0xbde12178	-0.10992712
93	0x3ef29b50	0.4738412
94	0x3d4668ac	0.048439667
95	0x3d1b8184	0.037965313
96	0x3d99b9ab	0.075061165
97	0x3c690551	0.014222459
98	0xbd7ad6fb	-0.061240178
99	0x3d4f778c	0.05065112
100	0xbde84a52	-0.113423005
101	0xbcd20922	-0.02563912
102	0xbdfb7bd9	-0.122794814
103	0x3e5b095c	0.21390289
104	0x3dc94230	0.098270774
105	0x3e05b25a	0.13056317
106	0x3f350395	0.7070859
107	0xbd8d54cf	-0.069009416
108	0xbda21e56	-0.07915942
109	0xbdb1548d	-0.08658705
110	0xbdcef17f	-0.101046555
111	0x3f36c618	0.7139602
112	0x3b8894ed	0.004168144
113	0x3f7aef52	0.98021424
114	0xbc80e466	-0.015733909
115	0xbd15a5bc	-0.03653501
116	0xbda10bb1	-0.07863558
117	0xbe16d633	-0.14730148
118	0xbd3e4c77	-0.04645964
119	0xbd5e17b9	-0.054221842
120	0x3f77777f	0.9666671
121	0xbcdc1c7f	-0.026869057
122	0x3c690b04	0.014223818
123	0xbc197d21	-0.009368212
124	0xbddca29e	-0.10773204
125	0xbdb1d432	-0.08683051
126	0x3ece4cb3	0.40292892
127	0xbda920ca	-0.08258207

value_stream.model.0.weight f4 [128, 128]
0	0x3b95e020	0.004573837
1	0x3da4416f	0.08020293
2	0xbafe8f40	-0.0019421354
3	0xbd3a9f1a	-0.045561887
4	0xbc9d898c	-0.019230627
5	0xbd86bfd8	-0.0657956
6	0x3b051f80	0.0020312965
7	0xbcdd1393	-0.026986873
8	0xbccb5170	-0.024819106
9	0xbd45ba3d	-0.048273314
10	0xbd768496	-0.060185038
11	0xbceacd72	-0.028662417
12	0xbd93b8fd	-0.07213018
13	0x3db3de0b	0.08782586
14	0xbd2fec7b	-0.042950135
15	0xbd9674b3	-0.07346477
16	0x3c743308	0.014904745
17	0xbd1a0479	-0.03760192
18	0x3d9fb3cd	0.07797966
19	0x3d5f1a2e	0.054468326
20	0x3c8def7c	0.01732611
21	0xbda59613	-0.08085265
22	0x3cb9dd9c	0.02268868
23	0x3d8fc82b	0.07020601
24	0xbd361d2c	-0.044461414
25	0xbd2b8167	-0.041871455
26	0xbcf53c40	-0.029935956
27	0xbd115a69	-0.035486612
28	0x3d3c370e	0.04595094
29	0xbbad5790	-0.0052899793
30	0x3cefeb44	0.029286988
31	0xbdc74ecd	-0.09731827
32	0x3daa7825	0.08323697
33	0xbd88645d	-0.06659768
34	0xbd84b3a4	-0.06479576
35	0x3d918431	0.07105292
36	0xbd07b81b	-0.03313456
37	0x3d59cdf6	0.053174935
38	0xbd1f3b0c	-0.03887467
39	0x3d49bac6	0.049250387
40	0xbc07be00	-0.008285046
41	0x3d3fd25e	0.04683148
42	0xbdad1530	-0.08451307
43	0xbd81d499	-0.06339378
44	0xbda0693a	-0.078325704
45	0x3a31d380	0.000678353
46	0x3be00cb0	0.00683745
47	0x3c1c55ad	0.009541911
48	0x3d731c56	0.059353195
49	0x3d4aa022	0.04946912
50	0x3bcbfc40	0.006225139
51	0xbdabcde6	-0.083888814
52	0xbd979fb0	-0.07403505
53	0x3d65219e	0.055940263
54	0x3da9c317	0.082891636
55	0xbc50b358	-0.012738071
56	0xbc438ea0	-0.01193586
57	0xbccff964	-0.025387473
58	0xbde98822	-0.114029184
59	0x3d89a8f7	0.067216806
60	0xbd999d38	-0.0750069
61	0xbd85297e	-0.06502055
62	0x3d76506a	0.060135283
63	0x3c5d5b38	0.013510518
64	0x3d836fd3	0.06417813
65	0x3c8960b4	0.016769744
66	0x3d854263	0.06506803
67	0x3d7a14e6	0.061055087
68	0x3ca2fbd5	0.019895473
69	0x3d2464ea	0.0401353
70	0x3d07acd8	0.03312382
71	0xbd662cdd	-0.05619513
72	0x3ca47528	0.020075396
73	0x3d1ab596	0.03777083
74	0x3c90cc74	0.017675616
75	0x3c955d20	0.018232882
76	0xbd877dee	-0.06615816
77	0xbd0b5080	-0.034012318
78	0xbc7534a1	-0.014966161
79	0xbdbcb411	-0.092140324
80	0xb9746e00	-0.00023310632
81	0xbccf3b62	-0.02529687
82	0x3d37689a	0.04477749
83	0xbd1f1d3e	-0.038846247
84	0x3d030db0	0.031995475
85	0xbd66cde5	-0.0563487
86	0xbd8885b6	-0.06666128
87	0x3d11c704	0.035590187
88	0xbd97f56a	-0.07419856
89	0x3d9d461b	0.07679387
90	0x3c30ddb0	0.010795042
91	0xbc2a32f0	-0.010388121
92	0x3d4ec43a	0.050480105
93	0xbd03ee62	-0.03220976
94	0x3d6ef4b2	0.05833883
95	0x3d93a879	0.07209868
96	0xbd028022	-0.03186048
97	0x3d25eb1a	0.040507413
98	0x3d5eaefa	0.05436609
99	0xbd94f845	-0.07273916
100	0x3d567f22	0.052367337
101	0xbd4ca8e3	-0.04996575
102	0x3c23a1e0	0.0099873245
103	0xbd8618a6	-0.0654767
104	0xbdac98ed	-0.08427606
105	0x3d912823	0.070877336
106	0x3cfc3dc5	0.030791173
107	0xbc5875d8	-0.01321169
108	0xbdae65fa	-0.08515544
109	0xbd0514f8	-0.0324907
110	0x3daafad3	0.08348622
111	0xbde08f91	-0.10964883
112	0xbd70c35f	-0.05878007
113	0xbd147fa2	-0.036254533
114	0x3cd2f284	0.025750406
115	0xbd860812	-0.06544508
116	0x3b5136e0	0.0031923577
117	0xbda41a06	-0.08012776
118	0x3da44fe3	0.0802305
119	0xbd94798a	-0.07249744
120	0x3c219643	0.009862485
121	0x3c570a08	0.01312495
122	0xbd9511a4	-0.07278755
123	0xbd000eaa	-0.031263985
124	0x3c4c6a68	0.012476541
125	0x3d2c08c5	0.04200055
126	0xbd0ca183	-0.034333717
127	0xbd7881f7	-0.06067082
128	0x3c992444	0.01869405
129	0xbcafbe3d	-0.021453017
130	0xbd9d43c2	-0.076789394
131	0x3ce4debd	0.027938241
132	0x3d6f7542	0.058461435
133	0xbb76395f	-0.0037570817
134	0xbd868cfd	-0.0656986
135	0x3c2e05b4	0.010621477
136	0x3d95b3af	0.073096626
137	0x3cf090b7	0.02936588
138	0x3d257596	0.04039534
139	0xbb46f699	-0.0030359386
140	0x3d88c40c	0.06678018
141	0x3b135234	0.0022479417
142	0xbc2e2103	-0.010627988
143	0xbd24c4f8	-0.040226907
144	0x3d129ff4	0.035797074
145	0xbbf695a6	-0.0075251637
146	0xbd9dca53	-0.07704606
147	0x3d8a0f28	0.06741172
148	0x3d0f41ec	0.034974977
149	0xbceab7a5	-0.028652022
150	0x3d081161	0.0332197
151	0xbd8e823c	-0.06958434
152	0xbb84c909	-0.0040522856
153	0x3c244849	0.010027
154	0x3b25a9d4	0.0025278227
155	0xbd95be5e	-0.073117
156	0x3cafcbdb	0.02145951
157	0xbd61237c	-0.05496548
158	0x3c987c57	0.018613977
159	0xbd460e33	-0.048353385
160	0x3d761b4d	0.06008463
161	0x3d6e84f6	0.05823227
162	0xbd917292	-0.07101931
163	0xbda99483	-0.082802795
164	0xbd18e848	-0.037330896
165	0xbd3e3a11	-0.046442095
166	0x3d8d78fd	0.06907842
167	0x3dacf205	0.08444599
168	0x3cbfa40e	0.023393657
169	0x3d18a000	0.037261963
170	0x3d9a0a14	0.075214535
171	0x3d15b19c	0.036546335
172	0xbd8c030d	-0.068365194
173	0xbcd915ae	-0.026499595
174	0x3d3ff83c	0.046867594
175	0xbc9d33b4	-0.019189693
176	0x3d116240	0.03549409
177	0xbdb04607	-0.08607107
178	0xbc3ffc60	-0.011717886
179	0x3c9766ba	0.018481601
180	0x3c6505bf	0.013978421
181	0xbb74170f	-0.003724519
182	0x3c3e8286	0.011627799
183	0xbcd57d63	-0.026060766
184	0x3c820baa	0.015874702
185	0x3d1a4db2	0.037671752
186	0xbd7d54ee	-0.061848573
187	0xbdadcba6	-0.084861085
188	0x3cae4527	0.021273209
189	0xbd9bd698	-0.0760929
190	0x3c1b0c41	0.009463371
191	0x3d0ffb10	0.03515154
192	0x3dd220bb	0.10260149
193	0xbcf63590	-0.030054837
194	0x3d6e2268	0.05813828
195	0xbc5f1f21	-0.013618262
196	0xbdddd84d	-0.10832272
197	0x3ca177ef	0.01971051
198	0x3c859fea	0.016311605
199	0x3caa82e8	0.020814374
200	0xbb8d5f40	-0.004314333
201	0x3cf4e498	0.029894158
202	0x3d9c0299	0.07617683
203	0xbd16feb1	-0.036863986
204	0xbc2945b6	-0.010331562
205	0x3d46f541	0.048573736
206	0xbd7779ec	-0.060419008
207	0xbda5e707	-0.081007056
208	0x3d6a691e	0.057229154
209	0xbcec8dd4	-0.028876223
210	0x3daf711b	0.08566495
211	0xbbdaa31e	-0.006672277
212	0xbc9c5562	-0.019083682
213	0xbd309f52	-0.04312069
214	0xbc05707a	-0.008144492
215	0x3d6ef89b	0.058342557
216	0xbd1c1818	-0.038108915
217	0xbba31464	-0.004976796
218	0x3e06be9d	0.1315865
219	0xbd7d9514	-0.06190975
220	0xbc96e5f0	-0.01842019
221	0x3cd73327	0.026269509
222	0xbcf9c810	-0.030490905
223	0x3ce4401f	0.027862607
224	0xbc9aa91c	-0.018879466
225	0x3d3e0d5c	0.04639946
226	0x3d85536d	0.06510053
227	0xbd55be26	-0.052183293
228	0xbd642247	-0.055696752
229	0x3dce0f7b	0.100615464
230	0xbcb3bbb4	-0.02194009
231	0x3ca046ee	0.019565072
232	0xbd84338d	-0.06455145
233	0xbb9164f4	-0.0044370834
234	0xbde70e99	-0.11282081
235	0x3c66d270	0.014088258
236	0xb916d2e4	-0.00014383678
237	0xbbd33655	-0.006445686
238	0x3d948e91	0.07253755
239	0x3cbca88a	0.023029584
240	0xbbd7df57	-0.0065879035
241	0xbe02414a	-0.12720218
242	0x3cfe9550	0.031077057
243	0x3ca1b9d3	0.019741928
244	0x3d101bcf	0.03518277
245	0xbd28b0b6	-0.04118415
246	0xbcd6b5f7	-0.026209814
247	0xbd880aaa	-0.06642659
248	0xbc8771f6	-0.016533833
249	0x3d032924	0.032021657
250	0xbb1420e0	-0.0022602603
251	0x3c76ca54	0.015062887
252	0xbda8e181	-0.082461365
253	0x3a9d4751	0.0011999403
254	0x3d4b9ab0	0.04970807
255	0x3adfc171	0.00170712

value_stream.model.0.bias f4 [128]
0	0xbe336dc4	-0.17522341
1	0xbef5fdf1	-0.48045304
2	0x3f43bfa0	0.7646427
3	0x3f39c7b9	0.7257038
4	0xbe03a6dc	-0.1285662
5	0x3f1a02c4	0.6016047
6	0x3e71500d	0.23565693
7	0x3ddbef40	0.10738993
8	0xbe02f4ce	-0.12788698
9	0xbe6835bf	-0.22676753
10	0xbf7de751	-0.99181086
11	0xbd883e6b	-0.0665253
12	0xbe5ea0f2	-0.21741083
13	0xbe31dc73	-0.17369251
14	0xbf148eed	-0.5803059
15	0xbe5f6677	-0.21816431
16	0xbe53f413	-0.20698576
17	0xbe926a5d	-0.28596774
18	0xbf136701	-0.57579046
19	0xbde8c7c6	-0.11366229
20	0x3f0b75f3	0.5447685
21	0xbf70fa05	-0.941315
22	0xbe5245dc	-0.20534462
23	0xbde24637	-0.11048549
24	0x3e1374f3	0.14400081
25	0x3e2c9024	0.1685186
26	0x3f1f5c92	0.62250626
27	0x3eb41ef9	0.3517988
28	0xbe147e18	-0.14501226
29	0xbe5d2231	-0.21595074
30	0xbdf7eca7	-0.12105685
31	0xbedbeb71	-0.42953065
32	0x3e802f26	0.2503597
33	0xbc145d01	-0.009055377
34	0xbe5aea65	-0.21378477
35	0x3ed5e201	0.4177399
36	0xbea5ac80	-0.3235817
37	0xbe96e4f3	-0.2947155
38	0x3f086d88	0.5329213
39	0xbf71abd0	-0.9440279
40	0xbeb7626d	-0.3581728
41	0xbe95e30a	-0.2927478
42	0xbcb25039	-0.021766769
43	0x3f3269d4	0.6969273
44	0x3f1f6f0f	0.62278837
45	0x3f321963	0.6956999
46	0xbe3a98be	-0.18222329
47	0xbdd4e97e	-0.103960976
48	0xbee189bd	-0.44050398
49	0xbd8c7f0e	-0.06860171
50	0xbea7aae6	-0.32747573
51	0xbe9c718b	-0.30555376
52	0xbd6a9934	-0.057275012
53	0x3f2b4736	0.66905534
54	0xbe52207d	-0.20520206
55	0xbeba5537	-0.3639314
56	0xbd925e51	-0.07146896
57	0xbd6e4087	-0.058167007
58	0xbe7b9bf1	-0.24571206
59	0xbe92986a	-0.28631908
60	0xbe7e575a	-0.2483801
61	0xbf0fbfe2	-0.56152165
62	0xbe84e269	-0.25953987
63	0xbdc8b943	-0.09800961
64	0x3edb2361	0.4280043
65	0x3f300fc8	0.6877408
66	0xbddffe1a	-0.10937138
67	0xbe5088d9	-0.20364703
68	0xbe5efd97	-0.21776424
69	0xbe1340fa	-0.14380255
70	0xbe106412	-0.14100674
71	0xbc26e004	-0.010185245
72	0xbe6d8bc9	-0.23197855
73	0xbe94668d	-0.2898449
74	0xbddba88a	-0.10725506
75	0xbd6a4ef3	-0.057204198
76	0x3d3e5449	0.0464671
77	0xbf269126	-0.6506523
78	0xbdc15c4b	-0.094414316
79	0x3e90364b	0.28166422
80	0x3de0aa9f	0.109700434
81	0x3f574e27	0.84103626
82	0xbdb403e3	-0.08789804
83	0x3ddd916b	0.10818752
84	0x3f2801f1	0.6562796
85	0xbece9d70	-0.4035449
86	0x3e9ef104	0.31043255
87	0x3f3fe34f	0.7495622
88	0xbf2e3c88	-0.68061113
89	0xbdc15078	-0.09439176
90	0xbe3d8e06	-0.18511209
91	0xbe637b9e	-0.22215125
92	0xbd9d6376	-0.07684986
93	0xbe0e3744	-0.1388827
94	0x3f0e133e	0.5549811
95	0xbe062530	-0.13100123
96	0x3e95ba43	0.2924367
97	0xbda9a76c	-0.08283886
98	0xbe4daf18	-0.20086324
99	0xbf204935	-0.62611705
100	0xbd891480	-0.06693363
101	0xbdbaa6d5	-0.09113852
102	0x3f2796c7	0.6546444
103	0xbf2c7b26	-0.6737541
104	0x3e0a354c	0.13496894
105	0xbf1d9e99	-0.61570126
106	0xbd97a9b5	-0.07405416
107	0xbe057d68	-0.1303612
108	0x3f0c1986	0.54726446
109	0xbe83c132	-0.25733334
110	0xbe1846fc	-0.14870828
111	0xbf4f7943	-0.81044406
112	0xbd72e704	-0.059302345
113	0xbd1478ac	-0.036247894
114	0xbe3b988e	-0.18319914
115	0x3eebe46d	0.46072713
116	0xbe62fd50	-0.22166944
117	0x3d975d92	0.07390894
118	0x3e84bed2	0.25926834
119	0xbe910fb1	-0.28332284
120	0x3a84fa49	0.0010145392
121	0xbbf259e3	-0.0073959692
122	0xbddaaa7a	-0.10677047
123	0xbe16ea95	-0.14737923
124	0xbe83bb27	-0.25728723
125	0x3eef8f4f	0.46789023
126	0xbe39dd59	-0.18150844
127	0xbe978dca	-0.29600364

value_stream.model.2.weight f4 [1, 128]
0	0x3c7def3f	0.015498935
1	0xbbd394f2	-0.0064569646
2	0x3d127ff9	0.035766575
3	0xbd004fb1	-0.031326
4	0xba8dfb26	-0.0010832294
5	0xbd23146d	-0.0398144
6	0xbe03011f	-0.12793396
7	0x3d1d2573	0.038365792
8	0x3c429478	0.011876218
9	0xbd063532	-0.032765575
10	0xbcd2ba54	-0.025723614
11	0x3c43900e	0.011936201
12	0x3b61c399	0.003444886
13	0x39d7fdbd	0.00041197045
14	0xbd163861	-0.03667486
15	0x3a003338	0.00048904447
16	0x3c44fb11	0.0120227495
17	0x3c5b5f46	0.013389414
18	0xbcd6d7b0	-0.026225895
19	0x3c1212d7	0.008915625
20	0x3c9763c4	0.01848019
21	0xbca29b69	-0.019849496
22	0xbc7622e5	-0.015022968
23	0xbb0d27a3	-0.0021538518
24	0xbc6f3aff	-0.014601468
25	0x3d2d729b	0.042345624
26	0x3d72dcdd	0.059292663
27	0xbcf2b5fd	-0.029627794
28	0x3a9b9cae	0.0011872256
29	0xbb27329c	-0.0025512343
30	0x3a5babba	0.0008379776
31	0xbc94b451	-0.018152388
32	0xbd28b41b	-0.041187387
33	0x3c824d00	0.015905857
34	0x3c79fc93	0.015257972
35	0x3d3ad0a7	0.045609143
36	0xbc6e3d9c	-0.014541056
37	0x3c2739ca	0.010206649
38	0x3e09c9e6	0.13455924
39	0xbcf346a8	-0.029696777
40	0xba8bead2	-0.001067484
41	0xbb073e4f	-0.0020636504
42	0x3c77e163	0.01512942
43	0x3d60f5ef	0.05492204
44	0x3cd94279	0.026520954
45	0xbd043404	-0.03227617
46	0xbc1b167f	-0.009465813
47	0xbbba7b3a	-0.0056909593
48	0xb9b7e116	-0.00035072182
49	0x3cfa7f35	0.030578235
50	0x3c632050	0.013862684
51	0x3cfb46d1	0.030673416
52	0x3c0c2016	0.008552572
53	0x3d10f6d9	0.035391662
54	0x3ba93de9	0.005164851
55	0xbc27b40c	-0.010235798
56	0xbb46fa5c	-0.0030361628
57	0xbc2c13bc	-0.010502752
58	0xbc82535d	-0.015908891
59	0x3c7561dd	0.014976946
60	0x3b7c5eb5	0.0038508598
61	0xbb9c13eb	-0.0047631166
62	0xbb95f60c	-0.00457645
63	0xbc6ec9b1	-0.014574454
64	0xbd0418e8	-0.032250315
65	0xbd0f8557	-0.035039272
66	0xbbb55236	-0.005533482
67	0xbc36f810	-0.011167541
68	0x3b9b1b71	0.004733496
69	0x3c6bcfe1	0.014392824
70	0x3c0d9757	0.008642039
71	0x3c180ccd	0.009280396
72	0x3bc87214	0.006117115
73	0x3b24c924	0.0025144303
74	0x3cf7807e	0.030212637
75	0x3b06b52a	0.002055476
76	0x3d52d1f4	0.05146976
77	0xbb544fc1	-0.003239617
78	0xbc0a8ca6	-0.008456385
79	0xbcc1055c	-0.023562126
80	0x3db979f8	0.09056467
81	0x3d1a3fe8	0.037658602
82	0x3bd706b2	0.0065620774
83	0x3ca0329e	0.019555386
84	0x3cfefed5	0.031127373
85	0xbc57278e	-0.013131989
86	0xbc42cfb1	-0.011890338
87	0x3d0add87	0.03390267
88	0xbbcf62d7	-0.0063289213
89	0x3c0ad116	0.008472702
90	0x3aaca562	0.0013171847
91	0x3acebb4e	0.0015772374
92	0xbb559bb8	-0.0032594036
93	0x3c4d389b	0.012525703
94	0x3d63855a	0.055547096
95	0x3d1f568f	0.038900908
96	0x3d15a8c6	0.036537908
97	0x3abbc24b	0.0014324872
98	0xbc035352	-0.008015471
99	0xbc895f95	-0.01676921
100	0x3d051f9e	0.032500856
101	0xbbcd9471	-0.006273799
102	0x3d40247a	0.046909787
103	0x3b1422b9	0.0022603704
104	0x3d25ab65	0.040446658
105	0xbc83aaa0	-0.016072571
106	0x3a02e50d	0.00049932377
107	0x3cc40e05	0.023932466
108	0xbcb3127c	-0.0218594
109	0x3b8aa3ad	0.0042309375
110	0xba13848f	-0.0005627358
111	0x3c08735f	0.008328288
112	0xbd17537b	-0.036944848
113	0x3a8e5235	0.001085824
114	0xbc07d629	-0.008290806
115	0x3cdb585e	0.026775535
116	0xbbeea4cc	-0.007282829
117	0x3d2105d3	0.039312195
118	0x3c907a00	0.0176363
119	0x3c13f373	0.009030211
120	0xbca89d34	-0.020582773
121	0x3c3b2528	0.011422433
122	0x3c9623d8	0.018327639
123	0x3ce704df	0.028200565
124	0x3c6674ba	0.014065916
125	0x3d203a29	0.039117966
126	0x3c4776bb	0.012174304
127	0x3c25bfcd	0.01011653

advantage_stream.model.0.weight f4 [128, 128]
0	0x3b12fd04	0.002242864
1	0x3b59eac7	0.003325151
2	0x3dc21342	0.094763294
3	0xbea1605e	-0.31518835
4	0xbd2e6ec8	-0.042586118
5	0xbc370b80	-0.011172175
6	0x3c7f0fb1	0.015567706
7	0xbe254b0f	-0.16141914
8	0xbd29559d	-0.041341413
9	0x3dd653b5	0.104651846
10	0xbd114f0c	-0.035475776
11	0x3df1cf3b	0.11807104
12	0x3a3da539	0.0007234398
13	0x3ba562af	0.0050471644
14	0xbe3eb215	-0.1862262
15	0xbd7a4d76	-0.06110903
16	0x3d95f2c0	0.073216915
17	0xbb9316eb	-0.004488816
18	0x3d4e4250	0.05035621
19	0xbd966895	-0.07344166
20	0xbca88003	-0.020568853
21	0xbd177edc	-0.036986217
22	0x3cd90a4e	0.026494171
23	0x3d97cf20	0.07412553
24	0x3d38f091	0.045151297
25	0xbe19817a	-0.14990798
26	0xbd2f4acd	-0.042795945
27	0x3da270e4	0.079316884
28	0xbdafd186	-0.08584885
29	0x3dc98314	0.09839454
30	0xbd19149f	-0.03737318
31	0x3d3b8c14	0.045787886
32	0x3d8647a4	0.06556633
33	0xbd57de4e	-0.05270224
34	0xbda468b5	-0.08027784
35	0xbd32d8f3	-0.04366393
36	0xbdb9126a	-0.09036715
37	0x3d30d199	0.043168638
38	0xbd038f96	-0.032119356
39	0x3b3c0e39	0.0028695
40	0x3d340c78	0.043957204
41	0xbc03f6b2	-0.008054422
42	0xbd2f01d3	-0.04272635
43	0xbba05c5d	-0.004893823
44	0xbce31b8c	-0.027723096
45	0x3d932a74	0.07185832
46	0x3d0a2fd6	0.033737026
47	0xbe1949c1	-0.14969541
48	0x3bec037a	0.007202563
49	0x3db5e4eb	0.08881553
50	0xbd8c2470	-0.068428874
51	0x3cd51878	0.026012644
52	0xbc46c97d	-0.0121329995
53	0xbcb4d98e	-0.022076394
54	0xbd6c404e	-0.057678513
55	0xbd8a4bcf	-0.067527406
56	0xbcdf8375	-0.027284363
57	0xbdcd4686	-0.10023217
58	0x3b70a9b2	0.003672224
59	0x3cd806a9	0.026370363
60	0xbd64d235	-0.05586453
61	0xbcc829e9	-0.024434047
62	0x3cae65ac	0.021288715
63	0xbda479e6	-0.08031063
64	0xbd2f6f85	-0.042830963
65	0xbdb176da	-0.08665247
66	0x3d8f369a	0.06992836
67	0xbd8c868f	-0.068616025
68	0xbe8817ae	-0.26580566
69	0xbcf9ec4a	-0.03050818
70	0xbca09a5a	-0.01960485
71	0xbde72627	-0.11286574
72	0xbd77769e	-0.060415857
73	0xbd5c2028	-0.053741604
74	0xbd908a56	-0.070576355
75	0x3c265b19	0.010153555
76	0xbd0faa7c	-0.035074696
77	0x3d816c0c	0.063194364
78	0x3dcbb838	0.09947246
79	0xbee3b2f2	-0.44472462
80	0xbce21706	-0.027598869
81	0xbdd0b739	-0.10191197
82	0x3d2774fa	0.040883042
83	0xbdef17e1	-0.116744764
84	0x3da284ca	0.07935484
85	0xbdfe8020	-0.12426782
86	0xbc9ccc5c	-0.019140415
87	0x3d8f9a87	0.070118956
88	0x3d4fd89c	0.050743684
89	0xbd80d973	-0.06291475
90	0xbe13824a	-0.1440517
91	0xbd4e243c	-0.050327525
92	0x3c31982c	0.010839503
93	0x3db41ccc	0.08794555
94	0xbc785c05	-0.015158658
95	0x3d8d0d00	0.06887245
96	0xbe481d54	-0.19542438
97	0xbbe18353	-0.00688211
98	0xbdb1acda	-0.08675547
99	0xbd31da0e	-0.043420844
100	0x3baa25bd	0.005192487
101	0xbd7c3f69	-0.06158391
102	0x3d2bfa31	0.041986648
103	0xbc190666	-0.009339904
104	0xbcd34d29	-0.025793629
105	0xbd3622ff	-0.04446697
106	0xbe282425	-0.16420038
107	0xbcc085ec	-0.023501359
108	0xbd2e1ee6	-0.042509936
109	0xbd02564a	-0.031820573
110	0x3cfa735f	0.030572591
111	0x3d4f2c1a	0.050579168
112	0x3d8867dd	0.06660435
113	0x3d3a3d86	0.04546883
114	0xbd484c7a	-0.04890106
115	0x3d7a923c	0.061174616
116	0xbc8e7044	-0.017387517
117	0xbc9bdaa7	-0.01902516
118	0x3d999d49	0.07500703
119	0xbb0e0360	-0.0021669492
120	0xbd97d935	-0.07414476
121	0x3d6549e3	0.055978667
122	0x3d01a4d9	0.03165135
123	0x3c4ea47f	0.012612461
124	0xbb159bbf	-0.0022828428
125	0x3d1ed44c	0.03877668
126	0xbd973527	-0.07383185
127	0x3d9e217d	0.07721231
128	0xb7a9f3ea	-2.0259951e-05
129	0x3d17561e	0.036947362
130	0xbc8a1264	-0.016854472
131	0xbc9a7221	-0.018853249
132	0xbd60bbcd	-0.0548666
133	0xbd659c34	-0.05605717
134	0x3c8842f3	0.016633486
135	0xbe352497	-0.17689739
136	0xbc76659a	-0.015038872
137	0xbc7b54b5	-0.01534002
138	0x3ca180e2	0.019714776
139	0x3d96fb15	0.07372109
140	0xbc1e8f6a	-0.009677747
141	0x3dd48c02	0.10378267
142	0xbdb70960	-0.08937335
143	0xb82651e4	-3.965375e-05
144	0x3d63e530	0.055638492
145	0x3d8f58e3	0.06999376
146	0xbcdf9c90	-0.027296335
147	0xbd41eea9	-0.047346745
148	0x3da206a5	0.079114236
149	0xbc80ef6f	-0.01573917
150	0x3ce33f80	0.02774024
151	0x3d6d4ccb	0.057934564
152	0x3db35a36	0.08757441
153	0xbdbcadad	-0.092128135
154	0xbdd44be0	-0.103660345
155	0x3dda54dc	0.10660717
156	0x3da3b244	0.07992986
157	0x3ceb9cda	0.028761316
158	0xbd0d4013	-0.034484934
159	0x3cd01091	0.025398524
160	0xbc2553f2	-0.010090815
161	0xbc2326fe	-0.009958027
162	0xbdb83e2f	-0.089962356
163	0x3dc5faab	0.09666952
164	0xbd2008dc	-0.03907095
165	0x3d515833	0.051109504
166	0xba2c6f40	-0.0006577857
167	0xbd735b06	-0.05941298
168	0xbdb442af	-0.088017814
169	0x3d1d8d98	0.038465112
170	0x3dc21d5f	0.09478258
171	0xbd8f15c6	-0.06986575
172	0x3bec1274	0.007204348
173	0x3c888a3b	0.016667476
174	0x3d24a858	0.040199608
175	0x3c2e9ae3	0.010657045
176	0xbb6218c5	-0.0034499627
177	0x3dc03041	0.09384204
178	0xbd41cdad	-0.04731529
179	0xbd60fdfb	-0.054929715
180	0x3d535548	0.051595002
181	0xbca537a0	-0.020168126
182	0xbc2cd44a	-0.0105486605
183	0xbde832a0	-0.11337781
184	0xbd62712c	-0.05528371
185	0xbc74e6ca	-0.0149476025
186	0xbdfdaed2	-0.1238686
187	0x3d88f08a	0.06686504
188	0xbd5f13be	-0.054462187
189	0x3d496af4	0.049174264
190	0x3d47924e	0.04872351
191	0x3ccb93d7	0.024850769
192	0x3d455980	0.048181057
193	0x3d561a18	0.05227098
194	0x3d6855bd	0.05672239
195	0xbd3b0f23	-0.045668732
196	0xbdd34204	-0.10315326
197	0x3ce225b9	0.027605878
198	0xbd90cbcd	-0.07070122
199	0xbbc911ba	-0.0061361464
200	0xbc590a73	-0.01324712
201	0xbd936dcf	-0.07198679
202	0x3d21a086	0.039459728
203	0xbcc88e9d	-0.024482066
204	0xbceca3e1	-0.028886737
205	0x3d4a05c3	0.0493219
206	0xbe0d6194	-0.13806754
207	0xbdde1603	-0.10844042
208	0xbb580196	-0.003295993
209	0x3d7baf49	0.06144646
210	0xba7ac493	-0.0009566035
211	0xbd952a01	-0.07283402
212	0xbd248f61	-0.0401758
213	0xbca94c79	-0.020666348
214	0xbd575b38	-0.052577227
215	0xbd8820e1	-0.06646896
216	0xbc8f7baa	-0.017515022
217	0xbbe9939e	-0.007128193
218	0xbe4d200c	-0.20031756
219	0x3ce695ea	0.028147656
220	0x3dbf21a2	0.09332587
221	0x3c2dae19	0.01060059
222	0x3d85af2f	0.06527554
223	0xbaaddc71	-0.0013264549
224	0x3ce639c0	0.02810371
225	0x3d035bc1	0.032069925
226	0x3d71403d	0.058899153
227	0xbd1fa675	-0.038977105
228	0x3cd7ed70	0.026358336
229	0xbc8e0764	-0.017337508
230	0x3cf18c93	0.029485976
231	0x3d391bad	0.04519241
232	0x3dde1eb7	0.10845702
233	0x3dcec537	0.100962095
234	0xbd2fdb92	-0.042934008
235	0xbd68a57e	-0.05679845
236	0x3d899909	0.06718642
237	0x3d1909fb	0.037363034
238	0xbddd58da	-0.10807963
239	0xbd6d3b18	-0.057917684
240	0x3bec239d	0.007206394
241	0xbd2420ee	-0.040070467
242	0x3d04a8a3	0.032387387
243	0xbd9c9050	-0.07644713
244	0x3d933496	0.07187764
245	0x3cedd7ca	0.02903356
246	0xbcb56df7	-0.022147162
247	0xbd968619	-0.07349796
248	0xbda66e7f	-0.08126544
249	0x3ad11b40	0.0015953556
250	0xbd942854	-0.072342545
251	0x3d00889f	0.031380292
252	0x3ca2c05c	0.019867115
253	0x3d40ef47	0.047103193
254	0xbc6ba1a8	-0.014381804
255	0xbd124853	-0.035713505

advantage_stream.model.0.bias f4 [128]
0	0x3efd00a6	0.49414557
1	0x3f0967da	0.5367409
2	0xbf5f1449	-0.8714033
3	0x3f087a36	0.5331148
4	0xbf0a9522	-0.5413381
5	0x3d95056c	0.07276425
6	0xbda3ad5b	-0.07992049
7	0xbe9a8268	-0.30177617
8	0x3f6c9093	0.924081
9	0x3f02dfd2	0.5112277
10	0xbd84f14e	-0.06491338
11	0x3e94967b	0.29021057
12	0x3ed10648	0.40825105
13	0xbf7aee9a	-0.9802033
14	0xbc9b329c	-0.01894503
15	0xbea03124	-0.3128749
16	0x3f37fb1e	0.7186755
17	0x3d8cb2ea	0.06870063
18	0xbd1822bd	-0.037142504
19	0xbf61cc22	-0.88202107
20	0xbe876da9	-0.26450852
21	0x3edb5a4d	0.42842332
22	0xbf8525cd	-1.0402161
23	0x3f2e0b83	0.67986315
24	0xbf151014	-0.5822766
25	0x3f4c82f2	0.79887307
26	0x3f4b61af	0.7944593
27	0xbe68c364	-0.22730786
28	0x3edd51e7	0.4322655
29	0x3d9e812a	0.0773948
30	0xbf16a608	-0.58847094
31	0x3b56171f	0.003266759
32	0xbe30f19f	-0.17279671
33	0xbe4d952d	-0.20076437
34	0x3eebee52	0.4608026
35	0xbf45617e	-0.77101886
36	0xbf5ac100	-0.85450745
37	0xbd4d462b	-0.050115746
38	0xbf20e20b	-0.62844914
39	0x3ef6a1ec	0.48170412
40	0xbd9245db	-0.0714223
41	0xbe2cea24	-0.16886193
42	0x3d8bbfcc	0.06823692
43	0xbe4abed7	-0.19799362
44	0xbe1187af	-0.14211915
45	0x3f472cf8	0.7780299
46	0x3f0878df	0.53309435
47	0xbda4f799	-0.08055038
48	0x3db777f9	0.0895843
49	0xbf48aa3a	-0.78384745
50	0x3f8053a3	1.0025524
51	0x3ec8f6ee	0.39250892
52	0x3f856dca	1.042413
53	0x3f2091e8	0.62722635
54	0xbed6bd62	-0.41941363
55	0x3f4eb905	0.8075107
56	0x3f7b39ae	0.9813489
57	0x3f7478ff	0.95497125
58	0xbd8bf1ee	-0.06833254
59	0x3f34d52c	0.70637774
60	0x3f5c343e	0.86017215
61	0x3f708197	0.9394774
62	0x3ecfdc90	0.40597963
63	0x3ed9ebe5	0.42562786
64	0xbb8fe7f6	-0.0043916656
65	0xbef62ea4	-0.4808246
66	0x3f4607d4	0.77355695
67	0xbec682e5	-0.3877174
68	0x3f20da82	0.62833416
69	0xbf45a52f	-0.77205175
70	0xbf06f321	-0.52714735
71	0x3f728dce	0.94747627
72	0x3f209ee5	0.62742454
73	0x3e87189f	0.26385972
74	0xbf1b10b3	-0.60572356
75	0xbedc7b58	-0.43062854
76	0x3f386834	0.72034
77	0xbd3f5fcd	-0.046722222
78	0x3f4a9677	0.7913584
79	0xbe329305	-0.17438896
80	0x3ebc87cf	0.36822364
81	0x3f4e70b7	0.8064074
82	0x3de3cfd2	0.11123623
83	0xbea77bc9	-0.32711628
84	0x3f24fd0e	0.6444863
85	0xbf458deb	-0.77169675
86	0xbf35d080	-0.7102127
87	0x3f19fe2b	0.60153455
88	0xbf2ea4f4	-0.6822045
89	0x3f4ca269	0.7993532
90	0xbee2dc3d	-0.44308653
91	0x3c1c3588	0.009534247
92	0xbde9f8d1	-0.11424411
93	0x3ea8223a	0.32838613
94	0xbe7542e2	-0.23951295
95	0xbea136b6	-0.31487054
96	0xbf3f79b1	-0.7479506
97	0xbe075bde	-0.13218638
98	0x3eabf72d	0.33587018
99	0xbc3f0ecc	-0.011661243
100	0xbe9c7dcb	-0.30564722
101	0xbee4592a	-0.44599277
102	0x3d57c289	0.052675758
103	0xbf4f5af0	-0.80998135
104	0xbf21906b	-0.6311099
105	0xbe6ff57d	-0.2343349
106	0x3f66cac3	0.9015314
107	0x3f6112ed	0.87919503
108	0xbe8e74db	-0.2782353
109	0x3eca7ba4	0.39547455
110	0x3f4aeb0f	0.7926492
111	0xbf076ddf	-0.52902025
112	0x3f547c3d	0.8300207
113	0x3f26fe4a	0.65231764
114	0xbef2c7a5	-0.47417942
115	0xbf087cc7	-0.53315395
116	0xbe939e7a	-0.28831846
117	0x3eef49bc	0.46735942
118	0x3f814c9f	1.0101508
119	0x3f1e9583	0.61946887
120	0xbebbcf56	-0.36681622
121	0xbe2bebc7	-0.1678916
122	0x3f5c60c3	0.86085147
123	0x3e87cb3c	0.26522243
124	0xbf6e45e9	-0.93075424
125	0x3f5af66f	0.8553228
126	0xbe406469	-0.18788303
127	0xbd0a6aeb	-0.03379337
