logs/34-DuelingDQN-random-max-BC-simple-25_10_24_19-19-25/10/models/57000/DuelingDQN_checkpoint.pth (torch, 884427 bytes, 44 tensors)

feature_layer.model.0.weight f4 [128, 23]
00000000: 8f89 ed3f 916e 843e ce06 b53e 0f5a f83f
00000010: 6bf8 5640 f54f 9c40 8669 6e40 9b7b a040
00000020: bb96 4740 b341 a740 4142 4240 dfb6 1f40
00000030: 5558 3440 0f97 a640 283a b240 5f23 4140
00000040: a714 4340 85da 9440 8988 a340 d01b 6340
00000050: d46a 6e40 70ef 6e40 f215 7040 0a73 d93f
00000060: 6fe0 8b3e 6167 7e3f 451a d5be eb03 8d40
00000070: 212a 9340 c9b2 9140 4bbd a140 b3c1 9240
00000080: 4728 9240 57a8 7a40 f91b 7840 ed8c 8340
00000090: 7202 8a40 ceea 8440 32c2 8740 00eb 9e40
000000a0: 5f8a 6e40 0175 8b40 9780 9040 2763 8b40
000000b0: 1b9a 9040 86cc 9340 07ad e13f 3b0e a73e
000000c0: 8a34 aa3e 9020 0140 648f 4940 1ab4 a240
000000d0: 2bec 7140 deae 9240 27e6 7240 4016 a540
000000e0: 0fbd 6140 5340 3740 3cc4 3c40 0de3 9840
000000f0: 0ade 9b40 e043 3940 c57e 5f40 bff7 8d40
00000100: b907 8f40 0697 7c40 5b68 7f40 88d1 7f40
00000110: 4c78 7e40 c406 e93f 6a9d 2540 c9d2 e43f
00000120: 984b 51bf d4af 8b40 720a 6a40 f44a 8540
00000130: 051c 6440 ebbe a740 5c9e 5e40 9f14 9c40
00000140: 3778 9b40 a6f0 a540 cff4 6f40 7094 6a40
00000150: 7892 9940 d920 9240 3dac 4840 4dc8 7740
00000160: b15a 9a40 db5e 9240 57f5 8f40 1dba 9740
00000170: be84 0b40 9d21 f1bd 4ef9 d03e 7ba1 0940
00000180: 78a0 5440 442a 9f40 c119 5940 8db7 9840
00000190: ba9a 4f40 3c51 b740 420a 5240 3b88 2740
000001a0: 79c5 2d40 a078 af40 3ae9 b440 1009 3d40
000001b0: d189 4b40 af45 9740 bd09 a340 dd6a 6340
000001c0: f21e 7d40 6b08 7a40 46bd 8440 b87a d53f
000001d0: 5ac4 0240 1cd3 c63f 515b a4bf 39f3 6740
000001e0: 186c 9e40 c170 9340 6a6a 9a40 b28c 7340
000001f0: d5b8 9240 761f 6440 5c27 3c40 d4f2 6a40
00000200: 08de 7240 6eab 8d40 fb23 8240 7ffe 7b40
00000210: d2e4 7140 828f 8840 d4e4 8840 fe35 6d40
00000220: 46c7 8b40 5f5a 9140 4305 e83f 88d8 33bf
00000230: b385 b33e 570c 1640 c965 7540 5904 9440
00000240: 84b6 5b40 86e1 9840 0c4c 5140 ca83 a940
00000250: b6a3 5340 2945 1d40 1aac 2b40 98cb a340
00000260: 652c a840 eda7 2c40 4e5d 5640 0d6e 8e40
00000270: 5ef0 9e40 d154 6f40 f2ed 8140 036b 8140
00000280: cc5d 7340 e444 b93f 0438 1540 5419 d73f
00000290: ba5b a1bf 89ca a340 0312 9c40 e9f0 9b40
000002a0: e85f 9d40 41be 9940 32fe a140 c903 a840
000002b0: c66f 9c40 0dd7 a040 f9e0 a740 372a a140
000002c0: 9328 9640 1a1f 9640 167f 9f40 9566 a440
000002d0: bb2b ac40 8047 a740 4a9b af40 6525 ab40
000002e0: b575 30bf 1675 0f40 7bf3 d83f ba6e 2240
000002f0: 6dcb aa40 59c7 9440 4b59 7640 9cc0 8640
00000300: 04aa af40 156d 6640 da08 b740 e1c8 a240
00000310: b30c a640 cd97 8440 a53a 8340 1f9e 8a40
00000320: 5e2e 9640 47d2 6f40 5259 8e40 5a30 b740
00000330: 031a ac40 5273 a440 2af3 a840 694c 8ebf
00000340: 7f76 1640 904b e93f 0272 2f40 403d 9d40
00000350: 87d1 8040 0d5c 7340 b96c 7140 2bc3 bb40
00000360: d902 6140 22c5 b340 545a a140 2d61 a040
00000370: 39ae 6240 64a8 6e40 558b 9040 26fb 9c40
00000380: a2dc 4640 daa7 6b40 371b b440 2dea ac40
00000390: 7bdc aa40 2f0e a940 d93e d73f 1d58 3abf
000003a0: c24c 123f b2a0 0740 09f1 7c40 2800 a740
000003b0: a89b 6e40 e33b a240 9180 3440 c7da b940
000003c0: 11b4 1e40 0474 2440 0b6d 5140 60da b440
000003d0: 0774 b440 0f7e 1a40 98e7 4040 9ab5 9440
000003e0: b8a8 a940 3cd5 6140 cd00 6c40 2a74 7b40
000003f0: 90ee 8240 dc18 0040 5d85 71bf 4ca5 4b3f
1.8557605 0.25865605 0.35356754 1.9402484 3.3589122 4.8847604 3.7251906 5.0150886
3.1185749 5.22677 3.0352938 2.4955366 2.8178914 5.20594 5.569599 3.0177839
3.0481355 4.6516747 5.110417 3.5485725 3.7252703 3.733364 3.7513394 1.6988232
0.27319667 0.99376494 -0.41621605 4.4067283 4.5988927 4.5530744 5.054357 4.586145
4.5674167 3.9165246 3.8767073 4.110953 4.3127985 4.1536627 4.2424555 4.9661865
3.7271955 4.3580327 4.515697 4.3558536 4.5188117 4.6187162 1.7630929 0.32628044
0.3324321 2.0176125 3.1493769 5.084485 3.7800395 4.583846 3.7952974 5.158966
3.5271642 2.863301 2.9494772 4.777716 4.8708544 2.8947678 3.4921124 4.4364924
4.4696927 3.9467177 3.9907444 3.9971638 3.9760923 1.820519 2.5877328 1.7876827
-0.8175597 4.3652134 3.6568875 4.1653996 3.5642102 5.2420554 3.4784155 4.877517
4.8584247 5.185626 3.749317 3.66531 4.7991295 4.5665097 3.1355126 3.8716004
4.8235707 4.574079 4.4986987 4.741469 2.179977 -0.11773989 0.40815204 2.150481
3.3222942 4.9739094 3.392197 4.772406 3.2438188 5.7286663 3.281876 2.6176898
2.7151778 5.4834747 5.65347 2.9536781 3.1802866 4.7272563 5.0949388 3.5533974
3.9550138 3.9067638 4.1481047 1.6678076 2.0432343 1.5533175 -1.2840368 3.6242201
4.950695 4.607514 4.82549 3.8054624 4.5850625 3.5644202 2.9399023 3.671071
3.7948017 4.4271765 4.066892 3.9374082 3.779591 4.267518 4.277933 3.7064204
4.3680754 4.5422816 1.8126606 -0.70252275 0.35062942 2.3445032 3.8343375 4.6255307
3.4330149 4.7775297 3.2702665 5.2973375 3.3068671 2.4573462 2.6823792 5.1186028
5.2554193 2.6977494 3.3494449 4.450934 4.9668417 3.7395518 4.060296 4.044313
3.8026 1.4474149 2.331544 1.6804605 -1.2606118 5.1184735 4.8771987 4.873158
4.9179573 4.8044744 5.0622797 5.250462 4.888644 5.0262513 5.2462125 5.036403
4.692453 4.6912966 4.9842634 5.137522 5.380338 5.227478 5.487706 5.348315
-0.68929607 2.2415214 1.6949304 2.5380082 5.3373322 4.6493344 3.8492 4.211012
5.489504 3.6004078 5.7198305 5.0870214 5.18905 4.1435304 4.1009088 4.331802
4.69316 3.7472093 4.4484034 5.7246523 5.3781753 5.139077 5.279683 -1.1117069
2.3509824 1.8226185 2.7413335 4.913727 4.025577 3.8024933 3.772261 5.867574
3.5157988 5.617814 5.0422764 5.0118623 3.5418837 3.7290277 4.5170083 4.905658
3.1072164 3.6821198 5.628322 5.403586 5.339414 5.2829814 1.6816055 -0.727907
0.57148373 2.119183 3.9522116 5.218769 3.7282505 5.0698104 2.820347 5.807956
2.4797404 2.569581 3.2722805 5.651657 5.6391635 2.413944 3.0141354 4.647168
5.3018456 3.5286398 3.6875489 3.928965 4.0916214 2.0015173 -0.9434412 0.795491

feature_layer.model.0.bias f4 [128]
00000000: 1979 7240 4e5f 9740 9fa7 7a40 1bf1 8a40
00000010: 0519 7e40 fb06 8740 622b 7140 5fc6 a540
00000020: bba0 a640 f25e 9f40 7fc7 7040 560c 8640
00000030: ec90 8f40 c5d5 7e40 f805 8640 a82f 9240
00000040: dedb 7240 69b9 9440 afde 8840 c63d a340
00000050: c854 8d40 717c 8140 a20d a440 1965 8440
00000060: c59f 8640 55aa 6e40 1700 9340 fc1e 7c40
00000070: 457f 8e40 3b58 8840 d855 8240 3634 7d40
00000080: 39fb 8f40 645a 8340 6b20 9340 3f79 9e40
00000090: b24f 8440 cbca a340 a892 9c40 8a8b 9440
000000a0: b5c0 7c40 d5fd 6b40 6a26 a340 5317 a540
000000b0: 7d00 8040 2d29 9b40 86fa 8340 816a ab40
000000c0: 89e2 9940 d829 8640 8b3e 7640 5d5a 8040
000000d0: 266a 6540 1488 7440 6e05 8440 e021 8240
000000e0: 72e7 6e40 0ae1 8740 1f39 8640 f273 7d40
000000f0: 2ce1 9340 59e5 a440 4f87 5c40 d308 7c40
00000100: aa2f 7840 156c 7840 4ce2 8640 eace 6740
00000110: 7a74 6b40 cc50 9240 910b 7c40 f36c 8040
00000120: 5d02 a340 9b0f 7240 56f9 8440 105e 7540
00000130: 4129 a040 05e9 9e40 833a 8540 9a7a 8240
00000140: 3c14 7b40 129d 9740 7247 6b40 ecc7 8140
00000150: 4657 9b40 c747 9140 eac7 8440 4f0d 8340
00000160: 51b0 5b40 f396 aa40 5948 9740 79df 8040
00000170: 8157 6c40 0946 8740 5b57 8040 24f7 8840
00000180: 2c44 8340 3d5e 8140 caa2 ab40 b392 7c40
00000190: b008 9940 ca7d 9140 735e 6540 4cac 8240
000001a0: 3ca9 0a3d 5610 9e40 d958 9740 6a0d b040
000001b0: 4a42 8d40 7cee 6a40 61cf 8f40 9013 9640
000001c0: 04fa 8240 d78d 8340 f027 6c40 3b52 6640
000001d0: d611 8040 32b8 6d40 36da 8340 d187 9640
000001e0: df03 8240 7562 9940 0a9e 8140 565b 5f40
000001f0: 633f 3ebd df60 9040 f62e 7640 26bf 7a40
3.7886412 4.730384 3.9164808 4.341932 3.970277 4.219602 3.7682729 5.180465
5.2071204 4.98034 3.7621763 4.189006 4.4864407 3.9817975 4.1882286 4.5683174
3.7946696 4.647633 4.277183 5.1012907 4.4165993 4.0464406 5.126664 4.137341
4.207003 3.7291462 4.593761 3.9393911 4.453036 4.2607703 4.072979 3.9563117
4.499417 4.104784 4.5977073 4.9523005 4.1347284 5.118505 4.8929024 4.6420336
3.949262 3.6873677 5.098439 5.159097 4.0000596 4.8487763 4.1243315 5.356751
4.808903 4.192608 3.8475673 4.0110307 3.5846038 3.8208055 4.125663 4.066635
3.7328763 4.2462206 4.194473 3.9602017 4.621237 5.1529965 3.4457586 3.9380386
3.8779092 3.8815968 4.215124 3.622004 3.6789842 4.572363 3.938206 4.0132995
5.0940385 3.7822025 4.1554365 3.8338661 5.005036 4.965945 4.1633925 4.077466
3.92311 4.7379236 3.6762357 4.0556545 4.8544035 4.540012 4.1494036 4.0953746
3.4326365 5.3309264 4.7275815 4.0272794 3.6928408 4.227299 4.0106635 4.2801685
4.102072 4.0427537 5.3636217 3.9464538 4.7823105 4.546605 3.5838897 4.0835323
0.0338528 4.939494 4.7295957 5.5016375 4.414342 3.670806 4.494065 4.689888
4.0930195 4.1110644 3.6899376 3.598769 4.0021772 3.7143674 4.120387 4.704079
4.0629725 4.7932687 4.050542 3.4899497 -0.04644717 4.511825 3.8466163 3.9179168

feature_layer.model.2.weight f4 [128, 128]
00000000: 9499 5740 bb65 5340 ec51 3240 6267 c23f
00000010: 149a 4a40 090d 4140 cd72 5240 6574 2840
00000020: d1e1 1440 d9ac 1340 0b6e 6a40 aa8d 7040
00000030: 959c 0f40 1561 3d40 64de 6940 393c 0140
00000040: 03e8 4840 dd98 0040 76a5 f43f 5515 0740
00000050: c36c 0240 ec84 4d40 0964 0d40 8061 4440
00000060: 235c 3940 6148 2d40 5c37 0840 e0cf 2840
00000070: f3b7 5e40 b788 5e40 29b2 5e40 f62e 3640
00000080: 2ecf 4440 8df8 6a40 4aff 0740 ddf4 0840
00000090: b4f4 3540 972c 1940 18bd 1140 5eed 5b40
000000a0: d434 5940 7a24 8f3f aebe 3940 db6b 5a40
000000b0: 3b46 5e40 1a40 0140 274b 6140 1587 0e40
000000c0: 9fa2 0140 e282 d23f a73b 5d40 2218 6940
000000d0: 0a74 a43f ca42 5f40 ea88 6940 08f1 7d40
000000e0: fdc7 3740 b913 4e40 201a 6440 329f 7c40
000000f0: a229 0540 381f 0640 9079 8e3f 0697 5b40
00000100: 7c5a 6940 2ec0 4e40 1757 3840 8996 5840
00000110: 5213 5e40 1a2e 0040 c892 3340 68cb 4f40
00000120: 9a24 1340 6382 6840 b5fd 4140 b035 6240
00000130: ea9a 0440 f06b 0b40 a099 6a40 e914 4640
00000140: d3c0 5f40 5e93 1040 e731 7640 e9a1 2a40
00000150: f5aa 4340 a9c3 4940 f10e 1b40 7605 5c40
00000160: 7113 4c40 c230 1340 adbd 6440 a3f9 6540
00000170: 2c62 b53f d6d4 1a40 c93d 5940 6a50 5840
00000180: 10b7 3440 07cb 4a40 71c2 3e40 7d08 6940
00000190: 019c 0940 f089 e13f d313 4140 33ee 6f40
000001a0: 6264 8ebd 9249 0840 5b9f 4b40 3750 1240
000001b0: 0b7d e43f 3f5b 2940 e191 1d40 f27e 1340
000001c0: 338f 3040 a78b 4b40 406e a93f 2384 4e40
000001d0: 85ce 5040 336d 3440 c228 2740 1012 0840
000001e0: 39a9 ef3f cdbc 4040 232c 5340 30a7 5540
000001f0: 28c0 0bbd 5019 6140 066c 4940 d19b 6540
00000200: bea2 6e40 409a 5140 05d2 5740 23a4 2540
00000210: 54e2 5b40 b3c1 7c40 5077 6240 3208 5940
00000220: 6b17 2340 952c 1e40 0aaf 7340 5fd7 6d40
00000230: 49d0 2c40 36a7 5740 3761 6240 9dab 1b40
00000240: 6fec 6440 d545 2140 407b 2140 c54f 2940
00000250: 0ad8 2d40 715f 7240 c977 2f40 3564 5540
00000260: 4ae5 7340 a3bb 3f40 edb7 2040 d280 4c40
00000270: fb08 6a40 8ec9 5640 da61 6940 b191 6f40
00000280: e137 5d40 8f47 6940 a49b 0940 13a6 2940
00000290: 5192 4b40 9952 2840 8905 1640 f047 7b40
000002a0: f341 5f40 667e db3f b779 6040 aae1 7440
000002b0: c315 5c40 ebc9 1540 f308 7740 2062 2e40
000002c0: a2fc 1840 6b85 1240 a4df 5c40 f36d 6740
000002d0: 6994 f33f d3d6 6940 02d7 6a40 b1d4 7240
000002e0: 4cc6 5040 514a 5540 b5da 5e40 bb18 7140
000002f0: 5fbd 2140 1223 1e40 01b1 0940 e75e 7b40
00000300: 3728 6840 89f4 5740 330e 5640 da9b 4e40
00000310: 162e 6c40 8af8 1240 e34e 4940 f3d0 5340
00000320: 910e 2640 3fcb 6a40 3b22 6940 5a29 6340
00000330: 947c 1f40 45ce 1c40 d384 7240 fc64 6840
00000340: d08a 5740 70c7 3040 b25d 6c40 ec1c 4f40
00000350: 417a 4740 987b 3540 9231 7340 f17c 6040
00000360: 3169 5a40 0ddb 3040 85be 5740 386b 6240
00000370: dfab f43f 9bec 7a40 4d06 5c40 928a 5940
00000380: 41a9 4940 9a7d 6040 816c 5140 f3ba 6440
00000390: 06f7 2840 fc3f 1e40 5d72 5840 1b22 6740
000003a0: 8e38 363d b10b 2540 216b 4e40 2bcb 3840
000003b0: e9ac 1240 1370 3e40 63ec 5f40 622c 1d40
000003c0: 3ae3 7040 db43 6940 3d56 dd3f 233a 6040
000003d0: 3d91 6440 596e 4640 a222 5740 ea2b 1c40
000003e0: fea5 0d40 c101 4d40 fcf5 5840 fa92 5340
000003f0: e4df 123b 0a50 4840 dad6 5c40 a03f 6f40
3.3687487 3.3030841 2.78625 1.51878 3.1656542 3.0164206 3.288257 2.6321042
2.3262827 2.3074248 3.6629665 3.7586465 2.243932 2.9590504 3.6541986 2.0193007
3.1391609 2.00933 1.9112995 2.110677 2.0378883 3.211238 2.2092307 3.068451
2.8962486 2.7075427 2.1283789 2.6376877 3.4799774 3.4770944 3.479624 2.8466163
3.0751452 3.6714203 2.1249566 2.1399453 2.8430605 2.3933465 2.2771664 3.4363627
3.3938494 1.1183007 2.9022632 3.412833 3.4730365 2.0195374 3.520212 2.2269948
2.0255506 1.6446192 3.456766 3.642098 1.2847912 3.4884515 3.6489816 3.9678364
2.8715813 3.2199538 3.5640945 3.9472165 2.080666 2.0956554 1.1130848 3.4310927
3.6461477 3.2304797 2.8803155 3.384188 3.4699292 2.0028138 2.8058338 3.24679
2.299109 3.6329582 3.03111 3.5345268 2.0719552 2.178463 3.6656265 3.0950263
3.496144 2.2589946 3.8467958 2.6661322 3.0573094 3.1525671 2.422787 3.4378333
3.1886866 2.299851 3.574077 3.5933616 1.4170585 2.4192405 3.394396 3.379908
2.8236732 3.1686418 2.9806178 3.641143 2.1501467 1.762022 3.016835 3.7489135
-0.0695274 2.1294904 3.1816013 2.286146 1.785066 2.6461942 2.4620287 2.3046231
2.7587402 3.1803987 1.3236771 3.226815 3.262605 2.819165 2.6118627 2.1261024
1.8723518 3.0115235 3.299569 3.3383293 -0.0341188 3.51717 3.1472182 3.5876353
3.728683 3.2750397 3.3721936 2.588143 3.435689 3.9493225 3.5385323 3.3911252
2.5483043 2.471471 3.8075585 3.7162702 2.7002127 3.3695807 3.5371835 2.4323494
3.5769308 2.5198872 2.5231476 2.6454937 2.716311 3.7870753 2.741686 3.3342412
3.8108697 2.9958274 2.511226 3.1953626 3.6567981 3.356052 3.6465974 3.7432673
3.4565356 3.6449926 2.1501245 2.6507614 3.1808054 2.6300414 2.3440878 3.9262657
3.4884002 1.7147949 3.507429 3.8262734 3.4388282 2.340449 3.8599212 2.724739
2.3904195 2.2893932 3.45115 3.6160858 1.9029666 3.6537368 3.669373 3.7942317
3.262103 3.332661 3.4820988 3.7671344 2.5271833 2.4708905 2.1514285 3.9276674
3.6274545 3.3743002 3.3446167 3.2282624 3.6903129 2.2964196 3.1454399 3.3096282
2.594639 3.6686552 3.6427143 3.549399 2.4919786 2.4500897 3.789357 3.6311636
3.3678474 2.7621727 3.6932187 3.2361403 3.1168368 2.8356686 3.7999005 3.5076258
3.4126704 2.7633698 3.3710034 3.537794 1.9114951 3.9206913 3.4378846 3.3990827
3.1509554 3.507666 3.2722476 3.5739105 2.640077 2.4726553 3.3819802 3.6114566
0.04448753 2.5788386 3.2252886 2.8874004 2.2918036 2.9755905 3.498803 2.455834
3.7638688 3.6447666 1.7291943 3.5035484 3.5713646 3.100485 3.3614888 2.4401803
2.2132564 3.203232 3.3900137 3.3058457 0.0022411281 3.1298852 3.4506135 3.7382584

feature_layer.model.2.bias f4 [128]
00000000: 54a7 2140 8997 4140 c628 b23c ca9f 0640
00000010: 9a95 c93c 7ad7 3540 1c03 06be 5dfc 89bb
00000020: d95d 4040 331d f7bf 3a6f 7e40 4109 3240
00000030: fd1e 3940 85ab 1b40 b2df 2a40 ec85 1740
00000040: 2da3 3240 c9c8 5840 b4f3 3940 c1b7 5cbe
00000050: d7af 0f40 2bec 1540 3941 2640 b770 3040
00000060: 69c0 6f40 d74e 0340 c532 2f40 efd9 f73f
00000070: 5c0c 2a40 3bc7 2340 c4b3 0e40 09ab 3840
00000080: 85b5 373d 1812 1440 71c3 2140 4bd9 0840
00000090: 02ce 9abc 8a24 3940 024c 2c40 5879 893b
000000a0: 1405 6540 8a66 0abd 9c9a 3a40 848d 5abd
000000b0: 4bac 7040 aa14 1e3d c6dc 5240 b606 c5bc
000000c0: 2b05 a3bd 80a4 2d40 6b52 5640 7888 3240
000000d0: 8f14 3840 c290 0940 f832 2240 4519 3140
000000e0: 2eff 3440 93ff 2b40 7845 2940 1340 2940
000000f0: dc42 2140 806f 3140 5bbb 2240 bf9c 3140
00000100: 6b38 2b40 e476 4840 f49f 08be e86a 3440
00000110: 8549 2040 2dd3 1640 fc5f 42bd 664a 1040
00000120: 43bd 4640 c840 3a40 63a3 1940 1c2c 9dbd
00000130: f36a 1cbe 44d6 2340 cae4 2040 ab91 3140
00000140: 750f 23bd e67d 2040 1960 eabc 27a7 2cbd
00000150: ba25 043d 725c 4040 6f4b 83bb fc0d 2540
00000160: 91e1 5640 6ce4 7a3d 1028 7b3d e7c6 45bd
00000170: 7b91 1440 1c1d 2540 0cb8 1e40 d23e 2e40
00000180: 34ee 2340 d915 3140 cda2 0b40 b67f 3e40
00000190: cb66 973d f9a2 4540 e5b0 a03d 7db6 2140
000001a0: d2c7 2c40 3269 2a40 7946 6dbe 2ba6 3640
000001b0: bb75 7740 8b85 8cbd 12ab 2e40 8b7e 3740
000001c0: 6294 0840 269e 3240 a359 1940 a509 2340
000001d0: 343a c13c 4b70 04bd f527 0340 26a5 5e40
000001e0: bf29 8cbd 23fb 3840 1220 1640 2dce 0bbb
000001f0: 288e 1a40 3046 8dbc 2433 4040 5d69 4240
2.525838 3.024874 0.021747958 2.1035028 0.024607468 2.8412766 -0.13087124 -0.0042109923
3.005728 -1.9305786 3.9755387 2.7818148 2.8925164 2.4323437 2.6699033 2.367549
2.7912095 3.387255 2.9054995 -0.21554472 2.2451074 2.3425395 2.5977309 2.7568796
3.7461188 2.051687 2.7374737 1.9363383 2.6570044 2.559035 2.229722 2.8854392
0.044850845 2.3136044 2.5275538 2.1382625 -0.01889706 2.8928552 2.6921391 0.0041953735
3.578435 -0.033789195 2.9156866 -0.053357616 3.760516 0.038593926 3.294725 -0.024051052
-0.0795997 2.7131653 3.3487804 2.7895794 2.8762548 2.1494603 2.534361 2.7671673
2.828075 2.687474 2.644865 2.6445358 2.5197058 2.7724304 2.5426853 2.775192
2.6753185 3.1322565 -0.13342267 2.819025 2.5044873 2.3566391 -0.04745482 2.254541
3.1053016 2.910204 2.4005973 -0.07674429 -0.15275173 2.5599527 2.5139642 2.7745159
-0.039809663 2.5076842 -0.028610276 -0.042151596 0.03226254 3.0056424 -0.004006795 2.5789785
3.3575175 0.061252996 0.061317503 -0.04828539 2.3213794 2.5799017 2.4799833 2.7225842
2.5614138 2.7669585 2.1818116 2.9765449 0.07392653 3.088072 0.0784624 2.5267632
2.699696 2.6626706 -0.23171414 2.853892 3.8665607 -0.06861409 2.7291913 2.8670986
2.1340566 2.7909026 2.396096 2.5474637 0.023587324 -0.032333653 2.0493138 3.4788299
-0.068439 2.8903282 2.3457074 -0.0021332607 2.4149265 -0.017245382 3.0031214 3.0376809

value_stream.model.0.weight f4 [128, 128]
00000000: 71b3 d73b 0a80 2bbd 5a22 973d 7a24 2b3d
00000010: d6c8 043d 248c ffb9 d023 b4bd 78f5 54bd
00000020: c742 ca3b ccd8 e13c 5c19 9cbd c3e3 10bd
00000030: 48b7 053b 5a63 a9bc 32f0 863d 669d 903d
00000040: 06bb 923d 265a 93bd 8b6c 473c e21b 9c3d
00000050: ef04 3d3d 9b0d 4ebc 72c4 cbbc 7152 d0bd
00000060: f332 ed3c ebca a7bd 64ef a13d 2da8 51bc
00000070: 55cb df3c fe2b 7d3d bdee ffbc 4897 2d3d
00000080: 5392 f43c 8fd9 c3bd e403 3dbd 6b58 5fbd
00000090: 44c2 87bd b14f 403d 106e 15bc 1a74 c0bc
000000a0: b49f e6bd b78a 28bd 8791 d2bc 2de3 b23d
000000b0: ea6e 1e3d 200e 5cbb 41c6 403d f8f0 04bc
000000c0: fc4f 09bb a3ac d6bc 05f6 a6bd 0153 423d
000000d0: fced d23c 9aef 223e ca64 8a3d 3f02 9dbd
000000e0: a145 a3bd 82fe 16bc 36bb 64bd 07fc c6bc
000000f0: 9459 b13d e69e 8ebd d949 65bd 9345 74bd
00000100: 751b 763d bb81 8e3d 6f3f 8e3b 2c91 99bb
00000110: a6bb 643d 3f44 a1bc 4b1c 92bd 3b37 1d3d
00000120: 3341 483d c5e9 2a3d 67be da3b e3d7 1ebd
00000130: 98e9 cdbd eb52 9dbd bd41 5ebd b841 78bd
00000140: 9ba8 7cbd f084 a53d 1429 83bc 8119 98bd
00000150: 18ee d53c 3239 a9bd 3d5c 3ebd 61f4 b6bd
00000160: 1282 1dbb e026 cf3b b2fa 1a3d f35f a03d
00000170: 1f4b 83bc 146e 3c3d 2b25 423d 0c35 75bc
00000180: 38ab 1b3d 228e b13b d466 c6bd 4dbc 12bc
00000190: 4a38 aabd 4208 8fbd e1d6 a63d 40cc 84bc
000001a0: 6f79 10bd 0ee6 80bd d56c 0dbd 003b a63d
000001b0: 08f7 a3bd 4499 03bd 0456 0f3c 4c72 37bd
000001c0: 9deb 7dbc e7a6 78bd 180e 9bbd a307 fe3c
000001d0: 06c0 183d 9077 a5bd c259 10bd 81fc 833b
000001e0: a89e f9bc 1b5b c5bc f7e4 233d ea86 debc
000001f0: a4ab de39 1df8 18bd 0dab 20bd 9f8e 34bc
00000200: 8ca3 3d40 ccd2 4640 bba5 c8bc 760b 0640
00000210: 721e 2a3d 6c2f 3d40 041f 1ebe 05b6 88bd
00000220: f2c7 5440 649d 98bf 35dc 4340 bd97 3e40
00000230: ffce 4840 0e6c 4940 c666 4840 7798 3540
00000240: 37da 4140 26a7 4640 f006 5140 62af b8bd
00000250: f366 1640 3230 0540 3fe9 4140 55f9 4940
00000260: a112 8140 d1f1 0940 f84e 5c40 394f e53f
00000270: 922a 4640 da18 4f40 8ef9 1940 fde0 5a40
00000280: be3b 873d 50c6 0e40 d425 3d40 e51a 3240
00000290: 1cd3 533d 3e18 4040 d14a 3840 ed71 cc3c
000002a0: dde0 5640 db6c 573d c200 5540 66b1 4e3d
000002b0: 68f4 6f40 ded8 12bd bdf9 5340 4a26 9b39
000002c0: 7ad3 5abc 4bc9 4c40 bd8b 5740 7f87 5e40
000002d0: b2e7 4740 a8c2 4340 d4d7 3540 f18b 3e40
000002e0: b913 4e40 5e2d 4840 7e01 5240 b3fc 3940
000002f0: b580 4940 8862 4040 9ffb 3e40 c1c8 4c40
00000300: e0b2 6040 e09e 5240 be6d b8bd fcd9 4840
00000310: 1c94 4040 6b89 3f40 c918 8abd 589d 3f40
00000320: 5766 5240 90ea 5140 9a61 4c40 966e e63b
00000330: 0e67 e0bc ac6a 4840 df67 4440 0c63 5340
00000340: 6577 9c3d c98b 2540 edb5 0dbd e644 9b3d
00000350: decd 4cbd 7c13 4040 5493 893d 63cd 4a40
00000360: 82d6 5040 7d6d 2dbd 0590 83bd 07a9 c33c
00000370: 4dfe 3d40 f8ce 4540 0243 3d40 85a2 4440
00000380: 6938 3a40 571a 4640 010c 0f40 657c 4640
00000390: f4b3 c63d e531 4a40 401d d33c 9bdc 4c40
000003a0: 2e9e 4340 3ac1 4140 5476 eabd 2054 5840
000003b0: 7e79 5a40 a5e4 ab3d 5df8 4f40 25c3 4a40
000003c0: e361 2040 7ce8 4a40 bd31 4840 4ce6 3d40
000003d0: b495 80bd a500 32bb bb52 3640 3dd1 5040
000003e0: e8e2 7cbc 150d 4840 6850 3640 4bda 91bd
000003f0: 4463 4a40 85e3 653d 8938 5440 eed3 4940
0.0065826704 -0.041870154 0.07379599 0.041782834 0.032418095 -0.00048741803 -0.08795893 -0.05199191
0.0061725113 0.027569197 -0.076220244 -0.03537346 0.0020403434 -0.020677257 0.06588782 0.07061271
0.07164578 -0.07194929 0.012171875 0.07622506 0.046147283 -0.012576486 -0.024873946 -0.101719745
0.028954959 -0.081930004 0.07906988 -0.012796444 0.027318636 0.061809532 -0.031241769 0.0423806
0.02985493 -0.095629804 -0.04614629 -0.05452768 -0.0662885 0.046951 -0.009120479 -0.023492862
-0.1126093 -0.041147914 -0.025704158 0.087347366 0.038679995 -0.0033577755 0.04706407 -0.008114092
-0.0020952215 -0.026205366 -0.08152393 0.04744244 0.025748245 0.15911713 0.06757505 -0.07666444
-0.07972265 -0.009215953 -0.0558426 -0.024290098 0.08659664 -0.06963901 -0.05597863 -0.059636664
0.06008478 0.06958338 0.004341058 -0.0046864953 0.055843018 -0.019685863 -0.07134303 0.03838275
0.048890304 0.041726846 0.0066755298 -0.038780104 -0.1005432 -0.07681831 -0.05426191 -0.06060955
-0.061684232 0.080819964 -0.016010799 -0.074267395 0.026114509 -0.08262862 -0.046474684 -0.0893333
-0.0024033827 0.006321773 0.037836738 0.07830801 -0.016027031 0.046003416 0.047398727 -0.014966261
0.038005084 0.005418555 -0.09687582 -0.008956027 -0.083115175 -0.06983997 0.08146454 -0.016210675
-0.035272058 -0.062938794 -0.03452762 0.08116722 -0.08006102 -0.032128587 0.008748535 -0.044786736
-0.015498069 -0.060706045 -0.075710475 0.0310095 0.037292503 -0.08079445 -0.03524185 0.0040279035
-0.030471161 -0.024091294 0.04001328 -0.027163941 0.00042471022 -0.037345994 -0.039225627 -0.011020332
2.963107 3.106616 -0.024493089 2.0944495 0.04153294 2.9560194 -0.15441519 -0.066753425
3.3247037 -1.1923032 3.0603154 2.9780114 3.137634 3.1472201 3.1312728 2.8374307
3.0289438 3.103952 3.2660484 -0.090178266 2.3500335 2.0810666 3.0298612 3.155843
4.033524 2.1553843 3.4423199 1.7914802 3.0963483 3.2358918 2.4058566 3.4199822
0.06603192 2.230854 2.9554338 2.7828915 0.051715 3.0014796 2.8795664 0.024956668
3.3574746 0.052594047 3.3281713 0.05046215 3.7492924 -0.035851352 3.3121178 0.0002959243
-0.013356084 3.199786 3.367904 3.47702 3.1235166 3.0587559 2.841298 2.9772913
3.2199538 3.127769 3.281341 2.9060485 3.1484807 3.0060139 2.9841077 3.199753
3.5109177 3.290947 -0.09005307 3.1383047 3.0090399 2.9927623 -0.06743009 2.9939785
3.2874963 3.2799416 3.1934571 0.007032226 -0.02739289 3.1315107 3.0688398 3.3029203
0.0763996 2.5866568 -0.034597326 0.07581501 -0.050001018 3.0011892 0.06717554 3.1687858
3.2630925 -0.042340744 -0.06423954 0.02388431 2.9686463 3.0907574 2.9572148 3.0724194
2.909693 3.0953577 2.2351077 3.1013424 0.09702292 3.1592953 0.025770783 3.2009647
3.0565295 3.0274186 -0.114483505 3.3801346 3.4136653 0.0839322 3.249534 3.1681607
2.5059745 3.1704397 3.1280358 2.9671812 -0.062785536 -0.0027161029 2.8487995 3.262771
-0.015434958 3.1257985 2.8486576 -0.07121714 3.1623087 0.056125183 3.3159506 3.1535602

value_stream.model.0.bias f4 [128]
00000000: 68ea 993c 00c7 123f d535 1fbd 83c8 5b3f
00000010: 17b7 3b3f e647 b1bd bf5f c6bd 7487 303f
00000020: 015f fc3e 499d 183f 495f 0c3d 0d08 083f
00000030: a171 83bc 5ce7 cabd 5e92 32bc f22b 0b3f
00000040: 7cc0 1b3f 50a8 f33e 5797 3d3f f2ab 393f
00000050: c485 e23e f95f 243f c5b5 073f b3d6 e83e
00000060: 3c8d 043d c5be 253f 0165 a7bd 2db3 bfbd
00000070: 9995 263f a921 963f 78eb f93e 0726 e53e
00000080: bbb8 513f cf30 c33c 2e11 263f 1257 723c
00000090: 39ac d1bd 5c92 603f 4f2e 013f 68d3 0c3f
000000a0: 8125 1ebc c1c1 c3bd 5a56 ecbd af70 86bd
000000b0: 2e6c 43bd 6e00 853f 5220 5e3f abd6 953d
000000c0: 6405 25bc 0153 2b3d 79db 4f3d 9955 e33e
000000d0: 963e ed3c 9159 153f 9363 083f c034 ca3b
000000e0: b32d da3e 670b f83e f62d 4d3f 16cb c5bd
000000f0: ddbb 4c3f 9694 e2bd fc8f ec3c b47f aabd
00000100: 8346 99bd baee 35bd a05f 233f b555 1a3f
00000110: dae3 ef3e dc10 193f a912 6dbd e6cc 0c3f
00000120: 76fd d63c 5e88 53bd 0419 ab3a 1131 4dbc
00000130: 0408 74bd bbbd 033f 4d42 1d3f 06fa 283f
00000140: 422a 24bd c516 2c3f 40d6 2c3f 96a4 043f
00000150: 5002 1dbd a3f9 813c d2a2 df3c 0a28 a9bc
00000160: f9bc 903b 5478 8c3d a882 033f e764 56bc
00000170: 0edf a63c 7e92 213f dfa0 663f 24b4 833c
00000180: ff6e e03c ab9c f73e f6c1 ff3e 5c4a 273f
00000190: b3d1 283f b685 d63e 505b 043f fd1b 44bd
000001a0: a609 803d 7b2e f93c cad9 0dbe cdf0 543d
000001b0: 2fcd 83bc c014 0c3f 15aa 68bd 1658 323f
000001c0: 58d6 e23e db95 443f ecdf bdbd b0f6 323c
000001d0: e5eb 773f 64ac 86bd 989d 77bd f820 863f
000001e0: 56f5 3f3d d64c 1cbd 7e2f aebd 1105 0e3f
000001f0: d7e6 e83e f3c2 aebd 9d2e 17bc 014f 5abd
0.018788531 0.573349 -0.038869698 0.8585283 0.7332625 -0.08656292 -0.09686231 0.68956685
0.49291232 0.59615 0.03427056 0.53137285 -0.016045393 -0.099074095 -0.0108991545 0.5436393
0.6084058 0.4758935 0.7405905 0.7252799 0.4424268 0.6420894 0.53011733 0.45476303
0.032361254 0.64744216 -0.08173562 -0.09360347 0.6507202 1.1729022 0.4881246 0.44755575
0.819225 0.023826985 0.64869964 0.014791267 -0.10237927 0.87723327 0.50461286 0.5501008
-0.009652496 -0.0955844 -0.11539908 -0.065644614 -0.04771059 1.0390756 0.86768067 0.07316335
-0.010072086 0.041827206 0.050746415 0.44401243 0.028960507 0.5833979 0.5327694 0.006170839
0.4261299 0.484462 0.80148256 -0.09657876 0.79974157 -0.11063497 0.02887725 -0.08325139
-0.07484152 -0.04441712 0.6381779 0.6028703 0.46853524 0.5979135 -0.057879124 0.5500015
0.026243906 -0.05164372 0.001305372 -0.012523905 -0.059577957 0.5146138 0.6142929 0.66006505
-0.040079363 0.67222244 0.6751442 0.5181364 -0.038332283 0.015866106 0.027299318 -0.020648975
0.0044170585 0.06858888 0.5137124 -0.01308558 0.020370033 0.63114154 0.9008922 0.016077109
0.027396677 0.48361716 0.49952668 0.6534784 0.65944976 0.41898888 0.5170183 -0.047878254
0.0625184 0.030417671 -0.13852611 0.051987458 -0.01608905 0.5471916 -0.056802828 0.6966566
0.44304156 0.7679116 -0.09271225 0.010923073 0.9684432 -0.0657585 -0.060453027 1.0478811
0.04686483 -0.038159214 -0.08505152 0.5547648 0.45488617 -0.08533277 -0.009227422 -0.053298

value_stream.model.2.weight f4 [1, 128]
00000000: fd95 c3bb 5bdd 6140 b0d0 7fbc 11e3 6740
00000010: cded 7c40 2336 93bd 38d3 433d 049f 6540
00000020: b8f4 7440 c835 6e40 5e55 c1bd 5fbb 6840
00000030: 6fca 42bd 5351 2fba ec2a 60be 72ac 6b40
00000040: b117 8240 7bfd 6b40 5f2b 6e40 121d 7140
00000050: d33a 6440 0ba0 7840 a727 6740 e3b2 6740
00000060: bdb6 0bbd c5ce 6040 6861 ab3d 2833 8fbd
00000070: 15d2 8040 df2f 6c40 9c67 6440 e195 6c40
00000080: a715 6540 a967 efbe 9bb3 6740 e181 f1bd
00000090: 98c7 4fbd 1bd4 8540 fe5a 6740 49b9 6440
000000a0: e76f b6be 6524 80bd bf44 e4bd 7f49 bcbc
000000b0: df87 66bd 710d 6740 a181 7d40 829b 4d3d
000000c0: 5cf0 96bc 2c98 eeba 5b99 2dbd 3766 6740
000000d0: f7ac 16bf a9c1 8c40 fc2b 6240 8e61 21bc
000000e0: 9e5d 6740 010d 6640 780f 8440 c391 7ebe
000000f0: 807a 5c40 7759 e2bc b1b1 02bd 14f8 0b3a
00000100: 258b 12bc 4d7e 9abd db30 6340 b2cb 8540
00000110: 9ef8 6540 41ed 6640 81de 4b39 c4fd 7a40
00000120: 2f6c 01be 76a7 11bd 24f3 173d f1ef 1bbf
00000130: 356e 7cbd 6a94 7540 5ddf 8d40 1419 6340
00000140: 7e3d c5bd e5df 8940 a18a 8c40 94ca 6340
00000150: 3bb9 393d e2f5 b9ba 3538 18bb 94f2 01bf
00000160: d097 cc3c 6ac5 4b3d 8c3a 8240 cdad 78bd
00000170: b0ff f53c 82e2 8840 6465 8740 e55f 963c
00000180: 0e02 18bd a419 6c40 988f 6340 1287 6d40
00000190: 6228 7740 2980 6640 c3b4 6640 d408 a93c
000001a0: 62cc a3bd ee70 81bd b5bb 6fbe a386 a4be
000001b0: c05a c8bd e682 6c40 654b 603b e2d8 8140
000001c0: 9f96 6440 ea15 7f40 463a 54bf 2a22 55bd
000001d0: fab0 8340 3bae 98be db9b a1bb dc34 8840
000001e0: ec05 ed3b 78e6 f1bd 30d5 96be 7bf3 6340
000001f0: 4afd 7540 e61f 80be b2cf 3ebd 35da d7bc
-0.0059688077 3.5291355 -0.01561372 3.623234 3.9520142 -0.0718806 0.047808856 3.5878305
3.8274364 3.7220325 -0.094401106 3.6364362 -0.047556337 -0.00066878385 -0.21891373 3.6824002
4.065392 3.6873462 3.7213972 3.7673993 3.5660903 3.8847682 3.6117952 3.6202934
-0.03410982 3.5126202 0.08368188 -0.06992179 4.025645 3.6904218 3.5688238 3.696648
3.5794466 -0.46758774 3.6203372 -0.117923506 -0.050727457 4.182142 3.6149287 3.573809
-0.3563225 -0.06256942 -0.11145925 -0.022984264 -0.05628192 3.6101954 3.961037 0.050197132
-0.01842516 -0.001820331 -0.04238258 3.6156137 -0.58857673 4.39864 3.5339346 -0.009849919
3.615089 3.5945437 4.1268883 -0.24860291 3.4449768 -0.02763055 -0.03190774 0.0005339396
-0.008944307 -0.07543621 3.549857 4.181115 3.5932994 3.6082308 0.00019442478 3.9217386
-0.12638925 -0.035560094 0.03709711 -0.60912997 -0.06162854 3.8371835 4.433516 3.5484056
-0.09630869 4.308581 4.3919225 3.5592394 0.045342665 -0.0014187659 -0.0023226861 -0.5076077
0.024974734 0.049748816 4.069647 -0.060712624 0.030029148 4.27765 4.231127 0.018356273
-0.037111335 3.689065 3.5556393 3.711369 3.8618398 3.6015723 3.6047828 0.020634092
-0.07997967 -0.06320368 -0.23411448 -0.3213397 -0.09782934 3.6954894 0.0034224626 4.057725
3.5716932 3.9857125 -0.8290142 -0.052034535 4.1153536 -0.29820427 -0.0049319095 4.2564526
0.007233372 -0.118115366 -0.29459524 3.5617359 3.8435845 -0.25024337 -0.046584792 -0.026349166

advantage_stream.model.0.weight f4 [128, 128]
00000000: dc11 a2bd 0c41 8cbd 556c 423d 5052 92bd
00000010: 337e 393d aed0 573d db2d 44bd 3f6e 18bd
00000020: ca4d 4e3a 30bb ab3b 153b 62bd faa5 aebd
00000030: 621c a1bc a880 083d 7e34 6c3d 5686 883d
00000040: d582 653d 1560 a23d 9127 c6bd 6374 95bd
00000050: 871f 3bbd 062c 17bd f7b8 b6bd ae08 2b3d
00000060: 0025 5bbc 31f4 a536 ac16 28bc 282e 5d3c
00000070: 1bac 09bc 085a 52bc 5ee3 76bd 38a8 d8bc
00000080: e80b f53c 502d 34bd c04f aabd 22ba 81bd
00000090: 5781 27bd 0cf6 92bd c26d 5f3d 03fc a03c
000000a0: 966e 8d3d 0c72 af3c 3229 fa3c a9cb 98bd
000000b0: 6059 74bb df8a 9f3d 24e0 07bd 8081 2b3b
000000c0: 7e4c 4f3d 81ff 06bd 4ea6 173d 8340 a1bd
000000d0: 0edb 8e3d a3a8 ef3c bc6c 8abd 0e32 693d
000000e0: f38b 76bc 7da4 72bd 997a a83d b2cf 8dbd
000000f0: 6181 c73b 5de2 99bd 2ab5 9fbc 2415 b53b
00000100: 6830 33bd 9391 bbbd 17ce efbb db5b b0bd
00000110: a095 6dbb 7f9b 7f3a aaee 7cbd 1793 89bc
00000120: 245a 793d d202 0fbd 967c 703d 85f5 9abd
00000130: d333 833d 1aa0 423d 5bf7 a73c 230f 58bd
00000140: 302c aa3c f3e4 4abd c880 2bbc 5d7a 943d
00000150: 91c5 683c e81b 6a3c 2222 04bd a653 2d3c
00000160: 3e68 293d c734 31bd a829 c9bc 4398 22bd
00000170: 3141 c1bc a81b 3dbd ff03 93bd b653 8abd
00000180: e69d 213d a2a4 8fbc 2eb5 87bd b0a9 5abd
00000190: b05d fa3c 87ff 2d3d a4cc a8bd f2e6 783d
000001a0: 822a 57bb ccaa 35bc 522a 75bd 564f cd3c
000001b0: b208 a2bd aaf8 693d db0d 26bd bb6c 863d
000001c0: ccbf a6bd 948a 08bd b4e1 8c3c 914d 92bd
000001d0: a0ee 823b e005 e3bc 31ed 8b3d e0e2 95bb
000001e0: ea22 553d fcfa 61bc 5f76 a13c ab85 0abd
000001f0: c57a a9bd 904c 27bc 93f0 c6bd 6032 573b
00000200: 07b5 0840 0c79 0240 d7c3 f13c 89da 373f
00000210: d651 c9bc 7343 1a40 27d2 d9be d271 5e3d
00000220: 4f84 2740 394f 883f 527c 0b40 9909 f23f
00000230: bd6b 0440 3f8f f83f 3526 0940 5cee c73f
00000240: 385f 0d40 f128 0740 b0c3 0640 187f 3ebe
00000250: 3809 a93f bcff b13f ae51 1340 a8bf 0e40
00000260: 892f d53f ffa0 153f 1840 2540 7f66 253f
00000270: ead0 e03f 5464 a03f f63d 483f 0db9 0840
00000280: 212c 0abd 26c1 4c3f 7b5f d53f ef75 e63f
00000290: 0ddf c63b 5caf 0f40 8419 0f40 616f 83bd
000002a0: 75bd 0240 b841 c53c 061f 0540 e59c 28bd
000002b0: b0d2 1e40 76ab 523d 6145 0340 0bd6 8dbd
000002c0: 83b4 693c cff1 1340 e586 f43f 73e9 0c40
000002d0: 4b77 f33f f960 0640 79f1 1540 7c3d 1240
000002e0: 4ad1 1340 b37b e63f cabc 1b40 fbd6 0740
000002f0: a420 f13f 433b eb3f c167 0b40 2494 1340
00000300: 610b 3b40 4c8c 0440 2d38 83be b9a7 0b40
00000310: aece 0640 f7dd 0140 e19d a8bd d79f f23f
00000320: 4f62 1240 53b3 0c40 1868 0b40 e6f7 edbc
00000330: 0240 c13c 9a31 0f40 d0e0 f63f f127 1040
00000340: daca ffbc f31f 9e3f 0098 bf3a 08b5 8d3d
00000350: 1d59 c33c f67d 2d40 0200 c03c 3950 0540
00000360: 464b 1b40 063d afbc f971 51bd 2b3c 14bd
00000370: 489b 0440 0851 d43f 445a 0140 dd6e fe3f
00000380: a982 f63f c510 0a40 6518 263f 10f5 0240
00000390: 5ff1 7b3d 9443 1640 7205 583d 57ec 0340
000003a0: 36b0 0f40 4699 fb3f b24b e7bd 7e84 0440
000003b0: 8dc7 2840 d387 a1bd c433 1640 4a09 0a40
000003c0: 3fd8 2f3f 0b7b 1240 118f 1340 50f3 d23f
000003d0: b033 95bd 017a 1dbd 91d8 0240 edad 0b40
000003e0: aa31 e9bc 41ce 0940 cc0b b93f a80e 933d
000003f0: 78f5 bf3f b480 edbc f913 fb3f ba5e 0840
-0.07913563 -0.06848344 0.047466595 -0.07144606 0.04528637 0.052689247 -0.047895294 -0.037214514
0.0007869868 0.0052408203 -0.055232126 -0.08527751 -0.019666854 0.03332582 0.057667248 0.066662475
0.056032974 0.079284824 -0.096755154 -0.0729759 -0.045684364 -0.03690722 -0.08921998 0.041756324
-0.013375521 4.945811e-06 -0.010259312 0.013499774 -0.00840285 -0.012838848 -0.060275428 -0.0264474
0.029912904 -0.043988526 -0.08315992 -0.0633433 -0.040894832 -0.07175836 0.054548033 0.019651419
0.06905858 0.021416686 0.030537222 -0.0746072 -0.0037284717 0.077901594 -0.03317274 0.0026169717
0.050610058 -0.03295851 0.037023835 -0.07873633 0.06975375 0.029255217 -0.06759021 0.0569325
-0.015048015 -0.0592389 0.08226509 -0.0692438 0.006088421 -0.075138785 -0.019495565 0.005526202
-0.043747336 -0.091586255 -0.007318269 -0.0861127 -0.0036252514 0.0009750649 -0.061751045 -0.01679377
0.06087698 -0.0349148 0.058712564 -0.075663604 0.06406369 0.047515966 0.02050369 -0.05274881
0.020773023 -0.04953475 -0.010467716 0.072499014 0.01420726 0.01428888 -0.032259114 0.010579025
0.04135918 -0.043263223 -0.024555996 -0.03969599 -0.023590656 -0.046168953 -0.071784966 -0.06754248
0.039457224 -0.017534558 -0.06626354 -0.053384483 0.030562252 0.042480018 -0.08242157 0.06076712
-0.0032831733 -0.011088084 -0.059854813 0.025062244 -0.07911815 0.05712191 -0.040540557 0.065637074
-0.08142051 -0.033335283 0.017197467 -0.07143701 0.0039957315 -0.027712762 0.0683235 -0.0045741647
0.05203525 -0.0137927495 0.019709764 -0.033818882 -0.082753696 -0.010211125 -0.09713855 0.0032836422
2.136049 2.038638 0.029512329 0.71817833 -0.024575155 2.4103668 -0.42543146 0.054307766
2.6174505 1.0649177 2.179463 1.8909179 2.0690758 1.9418715 2.142957 1.5619617
2.2089367 2.1118739 2.1056938 -0.1860317 1.3205938 1.3906169 2.3018603 2.2304478
1.6655132 0.58448786 2.582037 0.6460952 1.7563756 1.2530618 0.78219545 2.1362946
-0.03373349 0.7998222 1.6669763 1.800474 0.00606907 2.245078 2.2359324 -0.06417728
2.0428135 0.024079189 2.0800185 -0.04116525 2.4816093 0.05143305 2.0511096 -0.06925591
0.014264229 2.3116338 1.9103667 2.2017486 1.902078 2.0996687 2.3428633 2.2850027
2.309649 1.80065 2.4333978 2.1224964 1.8838086 1.837746 2.1782076 2.3059168
2.9225695 2.071063 -0.25628796 2.182112 2.1063647 2.0291727 -0.08233238 1.8955029
2.2872503 2.198445 2.1782284 -0.029048871 0.023590092 2.2374024 1.9287357 2.2524378
-0.031224657 1.23535 0.0014617443 0.069192946 0.023846203 2.710813 0.023437504 2.0830214
2.4264693 -0.021391403 -0.051134083 -0.036190193 2.0719776 1.6587229 2.0211344 1.9877583
1.9258624 2.1572735 0.64880973 2.0462074 0.061509486 2.3478746 0.052739568 2.0613
2.24513 1.965615 -0.112937346 2.0705867 2.6371796 -0.078872345 2.3469095 2.156817
0.6868934 2.28876 2.305607 1.6480503 -0.07285249 -0.03844643 2.0444682 2.1824906
-0.028466064 2.1532137 1.4456725 0.0718053 1.4996786 -0.028992034 1.961547 2.1307817

advantage_stream.model.0.bias f4 [128]
00000000: 3e82 5fbd 8363 c53d 3097 99bd 7b68 923d
00000010: ed3f c2bd aca0 1b3c 81c9 4cbd 15c6 ac3c
00000020: 84e9 a2bd 8544 1e3d 92dc 0bbe 9850 dcbc
00000030: c0dc 993d 4fd3 703d 7d5e db3c 59c3 19be
00000040: ed4a 713c 305f 0ebd 0c38 cf3d b5e8 953d
00000050: fc31 96bd 21ac 943d 0a7d 5dbd abed c53b
00000060: cf30 26be 52f9 08bc d854 603d 7224 8c3c
00000070: 1695 e3bc 65a1 203e d7b2 24bd 8bcd e3bb
00000080: 9d61 80bd 1287 f33c ff01 8fbc 0715 973d
00000090: c77c 9f3d a35d 913d 3bb3 8d3b f6a8 3a3e
000000a0: abc9 813c dcfd 093d 93b5 30bd d303 9abd
000000b0: a27b b9bd 895c 4bbd 7b1f 233d 33c3 82bd
000000c0: d5ec 043d 372e 64bd f095 0abe 839b edbd
000000d0: 2e34 64bd 6452 54bd ebf5 2b3d 1ede 48bd
000000e0: db47 c2bd 4c7c 053e 4021 f1bd ec4f a8bd
000000f0: 07f3 05bc 049d 04bd 686c 92bd ddc9 a8bd
00000100: 530f be3d 40aa 4fbd b319 323e 7461 1b3c
00000110: df5b 07be e604 0ebe 6a78 a13d f444 9abc
00000120: 69ee e83c 2ec0 edbb b7fd dabb 3db2 e13d
00000130: 8d99 cfbd 79c3 2bbc 8eed 3abd 7b9b ce3b
00000140: 1e93 83bd 52c6 35bd 389e 053d 4fe3 b63b
00000150: 8d9d 693d 114c b33d de76 b1bc 7c91 a33c
00000160: 3a01 9f3d ca2e 323d 3c15 9bbc 8cb1 6b3d
00000170: a557 93bb c212 1abd 4667 e4bd bd5e ebbc
00000180: d277 10bd ecd2 82bc 1289 f23a 0756 0c3d
00000190: ef18 5c3d 7ebb 02bd bf05 94bd d30d 26bd
000001a0: cdc4 b8bd c343 ea3d 0d8a 00be 31bf 083d
000001b0: 7154 9c3d e153 9e3d 3875 6a3c 23dd aabd
000001c0: ee22 a9bd afd6 123b 23c0 1a3e 14c7 093e
000001d0: 4ba9 033d a061 943c 9574 90bb 3459 53bd
000001e0: f40c 46bc 0453 76bd f110 be3c 6b2f 9f3d
000001f0: 633a 953d 330e a7bb 5e43 5ebd cff1 74bd
-0.054567568 0.09638121 -0.0749954 0.07148834 -0.09484849 0.009498756 -0.049996857 0.021090547
-0.07954696 0.038639564 -0.1365836 -0.026893899 0.07512808 0.05879527 0.026778454 -0.15015925
0.014727336 -0.034758747 0.10118112 0.07319776 -0.073337525 0.072593935 -0.054074325 0.006040295
-0.16229557 -0.008360224 0.054768413 0.017107222 -0.02778105 0.15686567 -0.040209617 -0.006951993
-0.06268618 0.029727492 -0.017457006 0.073770575 0.07787471 0.07097938 0.0043243445 0.18228516
0.015843233 0.033689365 -0.043141913 -0.07520261 -0.09056784 -0.049648795 0.039824944 -0.063848875
0.032452423 -0.055708136 -0.13533759 -0.11601927 -0.055713825 -0.051836386 0.041982573 -0.049039952
-0.094863616 0.13035697 -0.1177392 -0.08218369 -0.008175618 -0.032376304 -0.07149583 -0.08241627
0.092802666 -0.050699472 0.17392616 0.009483684 -0.1321864 -0.13869056 0.07884295 -0.018831708
0.028433995 -0.0072555756 -0.006683077 0.110203244 -0.10136709 -0.010483616 -0.045636706 0.006305156
-0.06424545 -0.044378586 0.032621592 0.0055812965 0.057035018 0.08754743 -0.021663126 0.019966833
0.07763906 0.043501653 -0.018931024 0.05754237 -0.004496532 -0.037615545 -0.1115251 -0.028731698
-0.03527052 -0.015969716 0.0018503985 0.03426173 0.053734716 -0.031917088 -0.072276585 -0.040540528
-0.09021912 0.11438706 -0.12552662 0.03338546 0.076332934 0.077308424 0.014310174 -0.0834296
-0.082586154 0.0022405793 0.15112357 0.13454849 0.032143872 0.018112957 -0.004408429 -0.051598743
-0.012088049 -0.060137764 0.023201438 0.07772716 0.07286527 -0.005098128 -0.054263465 -0.05980092

advantage_stream.model.2.weight f4 [10, 128]
00000000: c7d2 0d3b 4b01 66bf 15f6 53bf 3426 8bbf
00000010: 53ed 87bf 5e85 bcbe 5f11 7ebf f076 3dbf
00000020: 1acb c8be 96e4 6dbf 8e57 6fbf 0ddd 6ebf
00000030: 287f 80be ed09 43bf 22bb 813d ce9a 80bf
00000040: c43c e93c bb17 73bd 376b e5bd d7bd 67bf
00000050: bf47 98bf a1cb 923d 08d7 303d 2a04 75bf
00000060: 93bd 63bf 3dea a4be 6197 b8be b85d 8cbf
00000070: 58cd 933d 93a0 42bf 9d86 98bd d855 88bf
00000080: b2fa 81be 4394 96bf 584a 9b3d 1160 bebe
00000090: 2e23 82bf e21d 54bf c208 c8be c5a3 43bf
000000a0: 1ac7 01be fa0c 68bf e0a2 37bf f4d7 a2bf
000000b0: bcb7 573c 69c5 46be 2c2c 94bf 01fa a6bf
000000c0: de8e 8ebf ee4b 6fbf 1de0 77bf e5ba 46bf
000000d0: b741 6fbf 5dbc 8fbd b538 a3bd ac2c 86bf
000000e0: f726 80bf 109f b8be 5df8 17bf 16fc d3bd
000000f0: f90f 8bbe 5e9c 36bf c2b7 88bf ce8e 09bf
00000100: 4651 5bbe 9693 64bf 64fb 78bf d968 dc3a
00000110: 58ba e1be a845 68bf da0e a1be a3cf 76bf
00000120: f7de 59bf 14ee 87bf 6402 c5be 90dd 64be
00000130: 6d2d 5bbf 37b1 79bf d140 933d 3e7c 4bbf
00000140: c133 8f3c fa7c 84bf 1941 79bd 8c20 81bf
00000150: 827f 693c 88e4 76bf 8939 79bf fa2b 71bf
00000160: 5171 36be f743 54bf 2162 99be d0c8 6ebf
00000170: 1c40 d8bd 9f5f a03d 4601 84bf 9834 8bbf
00000180: 5104 06be 0f5c 68bf 49cd 81bf 18a4 50bf
00000190: 2232 68bb 8071 edbe 9c1a 64bf 26e8 4fbf
000001a0: 86ac 8f3d 990e 74bf 28a4 7dbf cf6f 7ebf
000001b0: 289d 7abf 0cf8 81bf 1ff9 6abf 514f 72bf
000001c0: a839 e2be aa92 64bc 76f8 77bf 0429 50bf
000001d0: 7e92 3c3d a963 83bf dd1f 6abf 1619 a1be
000001e0: 6dd0 493c 2a3b 86bf 48a1 99bf 797d 05bf
000001f0: 94fc 82bf 47d1 39be 4e7c 98bf 831e b73c
00000200: 7890 58bd c3c9 93bf d16f 80bf 6417 b7bf
00000210: 779c a5bf 0b52 10bf 9345 99bf b9c4 7cbf
00000220: a849 dcbe 6479 9dbf 53dc 84bf 75a0 98bf
00000230: 9337 88bd 19d8 6abf dee7 853c e5fa 92bf
00000240: 15e3 a4bc b23b 42bd 4097 9fbe 2e27 8fbf
00000250: a2d5 8cbf 6ab4 b1bd ea3f 48bd b091 9fbf
00000260: fc81 8cbf 8d1c a2be 7925 b4be 18f4 a1bf
00000270: 62c6 983d b737 a5bf 8599 3bbd 46c6 a2bf
00000280: bbb1 32bf 08df 94bf 2297 ffbc f87e 53bf
00000290: b79c 84bf 9516 91bf 7d37 22bf d7e8 37bf
000002a0: 3249 ffbe 2fa1 8ebf 3a59 19bf 09e5 96bf
000002b0: ab46 3cbd c449 06bf 3dca c9bf d6a8 a0bf
000002c0: ab1f 8dbf 5ced 90bf fef4 94bf 6529 a6bf
000002d0: e33a 92bf 6c6d 873d a860 72be df6b 9cbf
000002e0: 8efd bebf 0f10 3cbf bc52 43be 99ec bd3c
000002f0: 0606 d0be c35b a0bf 58d1 9cbf 1ca1 edbe
00000300: a75d 87be efd7 a0bf a122 9ebf 7c24 253d
00000310: acf0 fbbe d4e0 92bf 6386 a0be d0db a8bf
00000320: 1e8d b2bf 9c04 99bf 3c5b a0be e862 c83e
00000330: eeeb 91bf 0393 95bf 85c7 66bd 8fb5 99bf
00000340: f82e e7bb 6f7f 89bf 8b46 46bd 0cfc 98bf
00000350: 9628 1fbd 9f40 8bbf cd67 b2bf 1919 8dbf
00000360: f05f 69be 493c a2bf 6353 96be f984 b8bf
00000370: 2853 a538 4488 dcbc 495b a2bf 164a cdbf
00000380: 8255 77be 486f 78bf 42ad 8ebf 028b b1bf
00000390: 8e92 48bb dc52 0cbf f6c0 a5bf 9523 91bf
000003a0: 942d 863d a4df 8dbf 1b62 92bf 6839 94bf
000003b0: 4e24 abbf 831b a3bf 6aae 8ebf 7a07 96bf
000003c0: a29d 20bf c31b 9abd d009 bdbf a770 a5bf
000003d0: a3bc c7bd 4c56 a0bf 9ce1 97bf 2502 91be
000003e0: a04f 03bd f8f1 96bf 4b28 b3bf 03f3 0bbf
000003f0: 7716 a1bf 1637 22be 54bd 97bf 6d6f ed3c
0.0021640526 -0.8984572 -0.82797366 -1.0871034 -1.0619301 -0.368205 -0.99245256 -0.7400961
-0.39217454 -0.9292692 -0.9349297 -0.93306047 -0.25097013 -0.7618702 0.06334521 -1.0047243
0.028471358 -0.059348803 -0.1120209 -0.9052405 -1.1896895 0.071677454 0.04317382 -0.9570948
-0.8896114 -0.3220996 -0.36052993 -1.0966101 0.072169006 -0.76026267 -0.074475504 -1.0651197
-0.25386578 -1.1763996 0.07582539 -0.37182668 -1.0166986 -0.828581 -0.39069182 -0.7642177
-0.12673607 -0.906448 -0.717329 -1.2722154 0.013166364 -0.19411243 -1.157598 -1.3045045
-1.113735 -0.93475235 -0.96826345 -0.7762893 -0.9345965 -0.07018349 -0.079698004 -1.0482383
-1.0011891 -0.36058855 -0.5936335 -0.10350816 -0.27160624 -0.7133235 -1.0681078 -0.5373353
-0.21417722 -0.892877 -0.9725859 0.0016815915 -0.44087481 -0.90731287 -0.31456643 -0.9641058
-0.8510584 -1.0619531 -0.38478386 -0.22350144 -0.8561619 -0.97536033 0.07190097 -0.79486454
0.017480733 -1.035064 -0.060853098 -1.0088058 0.014251592 -0.9644246 -0.97353417 -0.9420773
-0.17816664 -0.82916206 -0.2995768 -0.93275166 -0.10559103 0.07830738 -1.0312889 -1.0875425
-0.13087584 -0.9076547 -1.0140773 -0.8150039 -0.0035430272 -0.46375656 -0.891031 -0.81213605
0.07015328 -0.95334774 -0.9907861 -0.99389356 -0.9789605 -1.0153823 -0.9178638 -0.9465228
-0.44184613 -0.013950983 -0.96863496 -0.81312585 0.046038143 -1.0264789 -0.9145487 -0.31464452
0.012317759 -1.0486805 -1.2002344 -0.5214458 -1.0233331 -0.18146239 -1.1912935 0.022353416
-0.05287215 -1.1545948 -1.0034124 -1.4304013 -1.2938374 -0.5637519 -1.1974357 -0.98737675
-0.43024945 -1.230267 -1.0379738 -1.1923968 -0.06651225 -0.9173599 0.016345914 -1.1482817
-0.020127812 -0.04742021 -0.31170082 -1.1183832 -1.1002696 -0.086769894 -0.04888908 -1.2466335
-1.0977168 -0.31662408 -0.3518484 -1.2652617 0.074597135 -1.2907628 -0.045800705 -1.2716758
-0.69802445 -1.1630564 -0.031199995 -0.82615614 -1.0360326 -1.1335016 -0.6336592 -0.7183966
-0.4986053 -1.1142939 -0.59901774 -1.1788646 -0.04596583 -0.5245631 -1.5764843 -1.2551525
-1.1025289 -1.1322436 -1.1637266 -1.2981383 -1.1424221 0.066126674 -0.23669684 -1.222042
-1.4921129 -0.73462003 -0.1907453 0.023184108 -0.40629596 -1.2528003 -1.2251387 -0.4641198
-0.2643864 -1.2565898 -1.2354318 0.040317997 -0.49207056 -1.1474862 -0.3135253 -1.3192081
-1.3949316 -1.1954532 -0.31319606 0.3913796 -1.1400125 -1.168549 -0.05634262 -1.2008532
-0.0070551597 -1.0742015 -0.04840712 -1.1951919 -0.038857065 -1.0879096 -1.3937927 -1.1023284
-0.22790504 -1.2674648 -0.29360494 -1.441558 7.883302e-05 -0.026920445 -1.2684108 -1.6038234
-0.24153712 -0.970448 -1.1146624 -1.3870547 -0.0030604932 -0.54813933 -1.2949512 -1.1338984
0.06551662 -1.1083875 -1.143619 -1.1580019 -1.3370454 -1.2742771 -1.1146977 -1.1721032
-0.6274053 -0.075248264 -1.476862 -1.2925004 -0.097527765 -1.2526336 -1.1865726 -0.2832195
-0.03205836 -1.1792593 -1.3996671 -0.5466768 -1.2584981 -0.15841326 -1.1854653 0.028983796

advantage_stream.model.2.bias f4 [10]
00000000: edd7 d6bd df84 e1bd db2c f1bc 6ccd 0e3d
00000010: 5d70 6cbc ab8b 733c f8ff 843d 14bb 16bc
00000020: 68eb 46be ca52 f1bb
-0.10490403 -0.11011671 -0.029440334 0.034863874 -0.014431086 0.014864842 0.06494135 -0.009199876
-0.19425738 -0.0073646056
