logs/8-Naive-Again/43-DuelingDQN-random-max-Naive-WLKOD-25_10_25_13-48-56/10/models/38000/DuelingDQN_checkpoint.pth (torch, 917195 bytes, 44 tensors)

feature_layer.model.0.weight f4 [128, 39]
-0.25389382 0.007900842 -0.22001204 0.16336253 0.25796244 0.51237655 0.5318603 0.7587711
0.7225934 0.32795838 0.20688784 0.4452036 0.6301391 0.84704703 0.9049071 0.8730057
0.7377122 0.5161576 0.43516824 0.40933067 0.46335393 0.39517167 0.42020464 0.038251355
0.14766152 0.22059686 0.15096068 0.3176992 0.17653574 0.5869358 0.30730617 0.8779185
0.78872466 0.6670577 0.7966203 0.54959905 0.7322031 0.51715773 0.498091 -0.013281744
0.2997867 0.16061954 -0.13163196 0.49236816 0.4827798 0.50383955 0.5672747 0.7183885
0.21725857 0.3671565 1.4000356 1.7111584 1.4940394 1.3664374 1.5118879 1.7060934
0.5411752 0.3771393 0.5177994 0.5006807 0.29954278 0.29762888 0.392488 0.32610676
0.38482738 0.6196536 0.51518685 0.12743166 0.16960321 0.61391556 1.6756244 1.3987428
1.3033441 1.1143038 0.72664917 0.58433986 0.16040583 0.5306886 0.012999948 0.03571502
0.13401805 -0.13186023 0.6521319 0.45387816 0.62836826 0.43850458 0.2023169 0.36542848
0.2637923 0.9064596 0.9960645 1.2633215 0.6228331 1.0218991 1.0410786 0.5282948
0.19333842 0.3905123 0.13946137 0.21986927 0.21896866 0.6509714 0.45888045 0.4658663
0.41432193 0.31308416 0.3425555 0.2781526 0.6021575 1.0748988 1.1336815 1.074763
0.7073401 0.43969572 0.5475915 0.21626137 0.2065047 -0.15537414 0.067118056 0.06760923
0.36890087 0.41373226 0.42016903 0.58416355 0.81385374 0.23918922 0.45760116 0.33077124
-0.2403256 -0.03446893 0.07574565 0.1262582 0.034055904 -0.053020492 0.61831105 0.5736703
0.7077227 0.7456192 0.4645776 0.44238657 0.17106625 0.6337769 0.4954123 0.004000693
0.5961592 0.51701856 0.7389085 0.5320069 0.2287802 0.017251004 -0.048475392 0.3037455
0.31243965 0.43877393 0.591037 0.40382487 0.23497787 0.5107195 0.2998072 -0.070489705
0.4534491 0.1686272 0.4472249 0.43077287 -0.70114434 0.17785144 0.3310036 0.2025539
0.073696114 0.03897699 -0.5699996 0.28223446 -0.009078632 0.3161506 0.25444373 0.24439079
0.22691214 0.09414497 0.049979605 0.6287095 0.29144424 0.3241384 0.5855805 0.13356386
0.374758 0.15015237 0.6545519 0.16507502 0.25107288 0.3123697 -0.055922363 0.091456465
0.06210889 0.032845635 0.1798033 -0.2927443 0.27603972 0.09680916 -0.14656802 0.22342515
0.14716858 0.37579837 0.40140545 0.010235346 0.36712432 0.22762302 -0.33633 -0.51492214
-0.44420096 -0.33389324 -0.2691851 -0.5761561 0.17316492 0.545305 0.35463074 0.421606
0.5428078 0.3493038 0.25595814 0.38616145 0.44777653 0.24750155 0.18178144 0.3670087
0.4294839 0.4544452 -0.13985787 -0.24486051 -0.20385475 -0.07731817 0.004485145 0.065176256
0.5567556 0.15067317 0.2507992 0.52444255 0.27228332 -0.07524845 0.5751561 0.32934397
0.29165864 0.46652988 -0.498747 0.07368453 0.45466018 0.29689 0.34705147 -0.117572755
-0.6452608 0.291975 -0.08926472 0.34208015 0.16967992 0.45748782 -0.05690117 0.21131007
00000000: 5ffe 81be 8972 013c d64a 61be 8248 273e
00000010: a713 843e 1c2b 033f ff27 083f d33e 423f
00000020: e2fb 383f 29ea a73e 68da 533e baf1 e33e
00000030: cc50 213f 13d8 583f fea7 673f 4d7d 5f3f
00000040: b5da 3c3f e822 043f 5fce de3e ca93 d13e
00000050: ba3c ed3e f153 ca3e 1025 d73e 74ad 1c3d
00000060: 9534 173e 25e4 613e 7095 1a3e 78a9 a23e
00000070: c9c5 343e 6d41 163f 3c57 9d3e 44bf 603f
00000080: dce9 493f 4bc4 2a3f 4fef 4b3f 86b2 0c3f
00000090: aa71 3b3f 7364 043f c905 ff3e ac9b 59bc
000000a0: a47d 993e 7379 243e 87ca 06be ae17 fc3e
000000b0: ea2e f73e a1fb 003f ea38 113f 4fe8 373f
000000c0: 0879 5e3e f0fb bb3e 5e34 b33f 3d07 db3f
000000d0: af3c bf3f 6ce7 ae3f 8b85 c13f 4561 da3f
000000e0: 758a 0a3f 6718 c13e 808e 043f 9c2c 003f
000000f0: ac5d 993e d062 983e 30f4 c83e 77f7 a63e
00000100: 1808 c53e 9ea1 1e3f 49e3 033f 727d 023e
00000110: 77ac 2d3e 9229 1d3f dc7a d63f 010a b33f
00000120: fbd3 a63f 82a1 8e3f ae05 3a3f 4c97 153f
00000130: 6d41 243e 35db 073f bcfd 543c ea49 123d
00000140: 073c 093e 5e06 07be 1ef2 263f b862 e83e
00000150: bedc 203f ac83 e03e 292c 4f3e 7119 bb3e
00000160: c90f 873e bd0d 683f 15fe 7e3f 85b4 a13f
00000170: fd71 1f3f 97cd 823f 1042 853f 543e 073f
00000180: 82fa 453e 3af1 c73e f6ce 0e3e 6925 613e
00000190: 5239 603e 10a6 263f 61f2 ea3e 0786 ee3e
000001a0: 0122 d43e 914c a03e 6f63 af3e 056a 8e3e
000001b0: fe26 1a3f 4996 893f 7a1c 913f d591 893f
000001c0: 3e14 353f cc1f e13e f52e 0c3f 9f73 5d3e
000001d0: f875 533e 661a 1fbe 3175 893d b576 8a3d
000001e0: 93e0 bc3e b7d4 d33e 6520 d73e be8b 153f
000001f0: b858 503f 05ee 743e b34a ea3e d95a a93e
00000200: ea17 76be 4b2f 0dbd 8920 9b3d d449 013e
00000210: 347e 0b3d 042c 59bd a249 1e3f 0fdc 123f
00000220: 512d 353f e6e0 3e3f 1ddd ed3e 7e80 e23e
00000230: fe2b 2f3e 343f 223f aea6 fd3e 3f18 833b
00000240: e49d 183f 545b 043f 1c29 3d3f 9b31 083f
00000250: 5b45 6a3e fa51 8d3c 228e 46bd 8884 9b3e
00000260: 17f8 9f3e faa6 e03e 334e 173f 22c2 ce3e
00000270: 0a9e 703e 83be 023f 5480 993e e85c 90bd
00000280: 7b2a e83e 9cac 2c3e a9fa e43e 438e dc3e
00000290: 327e 33bf b01e 363e 4e79 a93e 4a6a 4f3e
000002a0: fded 963d 56a6 1f3d 7eeb 11bf 0981 903e
000002b0: 8bbe 14bc 7ede a13e 7346 823e 9441 7a3e
000002c0: a85b 683e 14cf c03d 6ab7 4c3d 1bf3 203f
000002d0: 2e38 953e 78f5 a53e 9be8 153f f7c4 083e
000002e0: 48e0 bf3e 8bc1 193e b790 273f 6d09 293e
000002f0: a08c 803e ecee 9f3e d90e 65bd 874d bb3d
00000300: e465 7e3d 2589 063d 5b1e 383e 95e2 95be
00000310: 1455 8d3e e243 c63d ed15 16be 90c9 643e
00000320: 5cb3 163e a568 c03e 0485 cd3e 27b2 273c
00000330: b8f7 bb3e 0216 693e 7233 acbe f0d1 03bf
00000340: 4f6e e3be 0ef4 aabe a1d2 89be f77e 13bf
00000350: 2552 313e 1c99 0b3f 2992 b53e bedc d73e
00000360: 74f5 0a3f f3d7 b23e f20c 833e f4b6 c53e
00000370: f742 e53e 0c71 7d3e ea24 3a3e 90e8 bb3e
00000380: 50e5 db3e 0bad e83e e736 0fbe b7bc 7abe
00000390: 4dbf 50be fd58 9ebd 20f8 923b 217b 853d
000003a0: 8987 0e3f 114a 1a3e c168 803e de41 063f
000003b0: b868 8b3e dc1b 9abd 6e3d 133f c69f a83e
000003c0: 4854 953e 01dd ee3e c45b ffbe eae7 963d
000003d0: 38c9 e83e f701 983e bbb0 b13e fcc9 f0bd
000003e0: d02f 25bf bf7d 953e 6cd0 b6bd 2125 af3e
000003f0: 93c0 2d3e d83b ea3e 3411 69bd ab61 583e

feature_layer.model.0.bias f4 [128]
0.46374133 0.6201353 0.3799895 0.7738321 0.26892543 0.27924296 0.23087 0.6644592
0.6773753 0.43715358 0.28097427 -0.07964924 0.420404 0.9105298 0.693186 0.68608135
0.4343402 0.20337488 0.34161016 0.45534933 0.23968937 0.24007991 0.44704363 0.48044002
0.45350033 0.505926 0.36638987 0.20939349 0.44774505 0.3683563 0.7154967 0.46089813
0.45397747 0.62260747 0.22153668 0.3487683 0.341732 0.51400536 0.56850845 0.4745952
0.3836924 0.31169757 0.56317097 0.35542348 0.6433208 0.4638707 0.38259333 0.37029988
0.5886236 0.45637137 0.39067587 0.39497748 0.3720573 0.7090373 0.2638575 0.18192682
0.47113186 0.363344 0.29792082 0.2800368 0.52317315 0.4901122 0.3879319 0.29345047
0.43541035 0.55729717 0.37258333 0.26630262 0.55330807 0.55708486 0.29365936 0.5381226
0.3688858 0.6540953 0.5832468 0.13602778 0.43662006 0.6436806 0.68587023 0.4334156
0.5763339 0.69559926 0.22178088 0.39073494 0.7776503 0.4482535 0.6190761 0.57443047
0.48265976 0.36830944 0.3234271 0.33252847 0.46882045 0.5634173 0.6146631 0.3889594
0.29238406 0.21294981 0.49017844 0.5337549 0.44503146 0.46422234 0.5299918 0.22222437
0.16547132 0.38690335 0.45095322 0.28741354 0.113965735 0.15318222 0.31117728 0.41561812
0.5726471 0.21468297 0.3288589 0.5434473 0.3964183 0.28413326 0.26991785 0.4873896
0.42659977 0.45766374 0.4966694 0.50035954 0.27930403 0.3574943 0.4027388 0.7469744
00000000: 816f ed3e 30c1 1e3f fc8d c23e dc19 463f
00000010: 98b0 893e eff8 8e3e 2f69 6c3e 001a 2a3f
00000020: 7868 2d3f 98d2 df3e dcdb 8f3e 241f a3bd
00000030: 313f d73e 7b18 693f a374 313f 07a3 2f3f
00000040: d761 de3e 8141 503e 87e7 ae3e 8c23 e93e
00000050: 2171 753e 82d7 753e e7e2 e43e 3cfc f53e
00000060: 3231 e83e 5e84 013f 7497 bb3e 3f6b 563e
00000070: d73e e53e 3299 bc3e cb2a 373f d7fa eb3e
00000080: bc6f e83e 3463 1f3f 83da 623e c291 b23e
00000090: 7ff7 ae3e db95 033f c589 113f 24fe f23e
000000a0: 5573 c43e d396 9f3e f92b 103f 11fa b53e
000000b0: acb0 243f 7680 ed3e 46e3 c33e f297 bd3e
000000c0: 09b0 163f 82a9 e93e ab06 c83e 7d3a ca3e
000000d0: 4b7e be3e 7883 353f 5518 873e 064b 3a3e
000000e0: 3238 f13e 3a08 ba3e 1489 983e fc60 8f3e
000000f0: adee 053f fcef fa3e 039f c63e 243f 963e
00000100: 1bee de3e 07ab 0e3f 3ec3 be3e d158 883e
00000110: 99a5 0d3f 1d9d 0e3f 855a 963e 67c2 093f
00000120: 99de bc3e ca72 273f aa4f 153f de4a 0b3e
00000130: aa8c df3e 40c8 243f 3195 2f3f a6e8 dd3e
00000140: 9e8a 133f cb12 323f 871a 633e 690e c83e
00000150: 1714 473f 7c81 e53e c57b 1e3f e00d 133f
00000160: 2e1f f73e 0e93 bc3e 3d98 a53e 2c41 aa3e
00000170: 3c09 f03e 1e3c 103f 905a 1d3f b025 c73e
00000180: 5db3 953e 840f 5a3e abf8 fa3e 29a4 083f
00000190: 2adb e33e 8dae ed3e 8bad 073f c98e 633e
000001a0: 5071 293e 3218 c63e 57e3 e63e de27 933e
000001b0: de66 e93d cddb 1c3e a152 9f3e e6cb d43e
000001c0: 0099 123f dad5 5b3e 3260 a83e 5d1f 0b3f
000001d0: 57f7 ca3e ea79 913e ac32 8a3e 218b f93e
000001e0: 496b da3e e752 ea3e 744b fe3e 9017 003f
000001f0: f000 8f3e 7e09 b73e c833 ce3e b739 3f3f

feature_layer.model.2.weight f4 [128, 128]
0.051483072 0.049646545 0.0067815427 -0.015970763 -0.043738797 -0.01314437 -0.016743865 0.079972796
0.054770183 0.041672003 0.07112255 0.04852783 0.008361176 -0.013862535 0.07137061 -0.052601613
0.04376873 -0.023919053 -0.0112673305 -0.021261908 -0.075215116 0.07453317 0.067948185 0.06317716
-0.06303152 -0.06366574 0.050028708 -0.07881455 0.028440848 0.060308434 0.028197184 0.002977087
0.024991829 0.03286542 -0.021771803 -0.07433537 -0.025957448 0.015204854 -0.03328772 -0.01541337
0.04381851 0.0047450364 -0.0851959 -0.021282114 -0.078897946 0.06995258 -0.009817584 -0.0019817054
-0.0070315227 -0.025375046 -0.0008339882 -0.044334684 -0.07605371 -0.07219668 -0.006797403 0.08745771
-0.059968494 0.0744157 0.07021309 0.054200154 -0.093287334 -0.065832354 -0.047702324 -0.006787277
-0.06517811 0.0720256 0.07864409 -0.0652982 0.028849036 0.030351901 -0.0080452785 0.028882287
-0.029606871 -0.060846765 -0.045109868 0.078061916 0.05152674 -0.014737309 -0.06427882 -0.05956173
-0.016770467 0.05272273 -0.02602285 -0.03647971 0.020580927 0.008361399 0.0006769077 -0.08450323
0.019768849 -0.018729532 0.050858848 -0.046281368 0.029938627 -0.08447492 -0.06240221 0.075936444
0.040101036 -0.060636774 -0.0101588145 0.06986676 0.063690156 0.067603454 0.08054781 0.07407534
0.041885443 0.081938006 0.07528303 0.012634364 -0.08542404 -0.05578942 0.016981544 -0.060602143
0.026670434 -0.04096651 0.04647345 -0.085101806 -0.017615112 -0.05272387 -0.031051999 0.06297547
-0.07585457 0.06123632 -0.08205763 -0.04483369 -0.084298514 -0.01240541 -0.053024307 0.06529425
0.086802416 0.0478851 0.2674262 0.055867948 0.12942478 -0.081668675 0.08390502 0.14555438
0.12128765 0.25948566 -0.107037716 0.016904935 -0.28078362 -0.10288031 -0.08319706 0.13577637
0.15658756 0.1484181 0.07907395 0.3160305 0.23270498 -0.062412385 0.11734241 -0.18234481
-0.03079131 0.035920374 0.039778132 -0.20932284 -0.07769913 -0.10891329 -0.1280501 0.13355838
0.107426286 -0.2610312 0.10305709 0.032265976 0.108002506 -0.017065285 0.083075866 0.15515499
0.0828934 -0.22739856 0.03550616 0.03221529 0.21841356 0.14797291 -0.17513876 0.34329736
0.050503716 -0.027537312 -0.3554905 0.12763801 0.17755708 -0.13924196 0.22811718 0.18170395
0.04935319 0.039079756 0.17175525 0.23211925 0.08241503 0.3228361 -0.099114016 0.2952922
0.1969664 0.13237733 0.07121784 0.13905007 0.10838547 0.10603575 0.32822186 -0.031141723
0.15967244 0.05289599 0.15180507 0.21270661 0.01059834 0.12597716 -0.1274988 0.025704803
-0.025679149 0.07126768 0.34233534 -0.003586151 -0.053424157 -0.28368014 0.10724566 0.03354111
0.34435683 0.13537185 -0.20042758 0.32946226 0.14626849 0.18915296 0.05222434 0.27945736
0.1601641 -0.300325 -0.14555013 0.12083429 0.20971303 0.08669647 0.046481926 -0.02070859
0.25867108 0.22710824 0.15213971 0.21455275 -0.23457052 -0.15020363 0.25689432 -0.11354497
0.15838556 0.040372573 -0.42713943 0.16019695 0.2306453 0.097172074 0.05425925 0.019685665
0.16758728 0.274002 0.20184089 0.4293333 0.11762216 -0.39735737 0.4086765 0.039395217
00000000: eadf 523d 2d5a 4b3d b437 de3b 1ed5 82bc
00000010: 7427 33bd 7c5b 57bc 6e2a 89bc c7c8 a33d
00000020: b356 603d 43b0 2a3d b3a8 913d 1ec5 463d
00000030: 50fd 083c b01f 63bc c12a 923d ca74 57bd
00000040: d746 333d e4f1 c3bc 9c9a 38bc 742d aebc
00000050: 620a 9abd d9a4 983d 6b28 8b3d 0763 813d
00000060: ab16 81bd 2f63 82bd e7ea 4c3d 8669 a1bd
00000070: c8fc e83c fa05 773d c8fd e63c 3b1b 433b
00000080: aabb cc3c e49d 063d c85a b2bc 243d 98bd
00000090: b7a4 d4bc c81d 793c b458 08bd 5c88 7cbc
000000a0: 0a7b 333d 407c 9b3b 307b aebd d457 aebc
000000b0: 3f95 a1bd 4c43 8f3d efd9 20bc 80df 01bb
000000c0: b068 e6bb 54df cfbc 00a0 5aba 4998 35bd
000000d0: 0cc2 9bbd dadb 93bd c0bc debb 071d b33d
000000e0: 86a1 75bd 4267 983d e1cb 8f3d fb00 5e3d
000000f0: 6e0d bfbd 1dd3 86bd 8363 43bd ce67 debb
00000100: 1a7c 85bd 2882 933d 2710 a13d 10bb 85bd
00000110: d054 ec3c 8da4 f83c 58d0 03bc 8c9a ec3c
00000120: 1c8a f2bc 753a 79bd 20c5 38bd edde 9f3d
00000130: b40d 533d c174 71bc 9da4 83bd 00f7 73bd
00000140: 3862 89bc caf3 573d df2d d5bc c06b 15bd
00000150: 5599 a83c 40fe 083c 8272 313a 0810 adbd
00000160: 48f2 a13c ad6e 99bc 5e51 503d 8891 3dbd
00000170: da41 f53c 3001 adbd 7699 7fbd 9184 9b3d
00000180: fc40 243d 445e 78bd 2871 26bc 4e16 8f3d
00000190: fc6f 823d ae73 8a3d 40f6 a43d d0b4 973d
000001a0: 1290 2b3d 1dcf a73d fd2d 9a3d 5d00 4f3c
000001b0: cdf2 aebd 7283 64bd e11c 8b3c f439 78bd
000001c0: f47b da3c 80cc 27bd f25a 3e3d db49 aebd
000001d0: 914d 90bc fcf4 57bd c360 febc 49f9 803d
000001e0: a459 9bbd efd2 7a3d d50d a8bd 88a3 37bd
000001f0: b3a4 acbd 1040 4bbc 0430 59bd feb8 853d
00000200: 77c5 b13d 2b23 443d 16ec 883e cad5 643d
00000210: ee87 043e e841 a7bd 65d6 ab3d 350c 153e
00000220: a965 f83d 4edb 843e 9736 dbbd 387c 8a3c
00000230: dfc2 8fbe e9b2 d2bd 3863 aabd f608 0b3e
00000240: 7d58 203e eafa 173e 86f1 a13d c0ce a13e
00000250: 374a 6e3e 21a4 7fbd 3851 f03d 99b8 3abe
00000260: 0f3e fcbc 3e21 133d 65ee 223d ba58 56be
00000270: b920 9fbd ee0d dfbd 911f 03be 87c3 083e
00000280: 5002 dc3d e2a5 85be 980f d33d 5429 043d
00000290: 6b30 dd3d 7fcc 8bbc ae23 aa3d f3e0 1e3e
000002a0: 04c4 a93d 2bdb 68be e86e 113d 2ef4 033d
000002b0: cea7 5f3e 3686 173e 9357 33be acc4 af3e
000002c0: fcdc 4e3d ee95 e1bc da02 b6be 8ab3 023e
000002d0: 86d1 353e 7295 0ebe 8d97 693e 9a10 3a3e
000002e0: 9226 4a3d 1812 203d 9ce0 2f3e abb0 6d3e
000002f0: 36c9 a83d c64a a53e 4afc cabd 8a30 973e
00000300: 8fb1 493e ec8d 073e a9da 913d 2463 0e3e
00000310: 34f9 dd3d 4529 d93d b20c a83e ed1c ffbc
00000320: 2c81 233e 77a9 583d ca72 1b3e c3cf 593e
00000330: a9a4 2d3c 2800 013e 0c8f 02be e192 d23c
00000340: 145d d2bc caf4 913d 9446 af3e a105 6bbb
00000350: 4ad3 5abd 863e 91be 9da3 db3d 6762 093d
00000360: 8a4f b03e eb9e 0a3e e33c 4dbe 47af a83e
00000370: 68c7 153e 50b1 413e 31e9 553d 0915 8f3e
00000380: 0f02 243e 33c4 99be 180b 15be f877 f73d
00000390: 03bf 563e eb8d b13d d563 3e3d 10a5 a9bc
000003a0: 8970 843e 108f 683e 83ca 1b3e b7b3 5b3e
000003b0: 4133 70be fbce 19be a787 833e 448a e8bd
000003c0: d32f 223e b65d 253d 05b2 dabe ab0a 243e
000003d0: 482e 6c3e 2702 c73d f33e 5e3d d543 a13c
000003e0: 009c 2b3e fd49 8c3e 61af 4e3e 93d1 db3e
000003f0: e3e3 f03d 6d72 cbbe 0c3e d13e e15c 213d

feature_layer.model.2.bias f4 [128]
-0.03198814 0.093531996 0.24292809 0.23913808 0.07701857 0.18340221 0.066895954 0.17477745
0.40133443 -0.09149166 0.21956703 0.07134345 0.14958903 0.36895153 0.23809738 0.36735323
0.06083263 0.12275548 0.26102605 0.018571837 -0.007159839 0.23112056 0.07837651 0.16824055
0.20852937 0.067600034 0.18154706 0.27771646 0.44536844 0.13542007 0.17527598 0.06741023
0.19542983 0.23250416 -0.01941334 0.3394476 0.1536393 0.22693712 0.007846341 0.19042698
0.19229424 0.17486952 0.027450599 0.24881423 0.17671502 -0.057050865 0.23572865 0.18954718
0.16183297 0.26253745 0.14385109 0.17564428 0.1782047 0.21955153 0.27496564 0.18711813
0.12139806 0.036549423 0.10302643 0.3150391 0.12629284 0.33027926 0.27455482 0.11413561
0.100664295 0.38929078 -0.046172407 0.2651693 0.032463405 0.07100817 0.2396963 0.34068397
0.2718994 0.24933656 0.078537285 0.108779185 0.22727151 0.07811897 0.21338871 0.30348828
0.40233302 0.21916318 0.14702564 0.07393573 -0.11950318 0.1020124 0.27549937 -0.016442943
0.28774607 0.23635462 0.16370207 0.17450511 0.35644653 0.16781619 0.3386412 0.26287398
0.1519101 0.21754467 0.18630703 0.25330213 0.16135384 -0.02058402 0.13899353 -0.0015532741
0.03698703 0.059073213 0.26075473 0.39918953 -0.057039205 0.14115363 0.34713024 0.12276698
0.104487516 0.16745205 0.10947846 0.21273059 0.17543909 0.30530164 0.028216422 0.21375504
0.44755602 -0.07608703 0.1332885 0.19768782 0.21886362 0.2742936 0.1222604 0.0076580136
00000000: ff05 03bd b48d bf3d 24c2 783e 9de0 743e
00000010: e9bb 9d3d cacd 3b3e bf00 893d dcf8 323e
00000020: b57b cd3e fb5f bbbd 2ed6 603e 841c 923d
00000030: de2d 193e 37e7 bc3e cdcf 733e b915 bc3e
00000040: a32b 793d 3a67 fb3d 35a5 853e f723 983c
00000050: 159d eabb deaa 6c3e dd83 a03d 4047 2c3e
00000060: b988 553e e371 8a3d 79e7 393e da30 8e3e
00000070: 5507 e43e 8fab 0a3e 8c7b 333e 600e 8a3d
00000080: c21e 483e 9215 6e3e ba08 9fbc 13cc ad3e
00000090: 9f53 1d3e 3462 683e f08d 003c 4aff 423e
000000a0: c8e8 443e ff10 333e 14e0 e03c 28c9 7e3e
000000b0: c8f4 343e 2bae 69bd da62 713e a818 423e
000000c0: 8bb7 253e 4f6b 863e b34d 133e 18dc 333e
000000d0: 4b7b 363e 1ed2 603e 4cc8 8c3e e59b 3f3e
000000e0: 8c9f f83d d9b4 153d 85ff d23d ce4c a13e
000000f0: e952 013e 5d1a a93e 7392 8c3e eebf e93d
00000100: 1529 ce3d 1f51 c73e 471f 3dbd 45c4 873e
00000110: 59f8 043d bb6c 913d f272 753e 216e ae3e
00000120: 6636 8b3e 1552 7f3e 28d8 a03d 9fc7 de3d
00000130: ddb9 683e d7fc 9f3d 9282 5a3e d162 9b3e
00000140: 98fe cd3e 506c 603e e48d 163e 9e6b 973d
00000150: 15be f4bd e1eb d03d 410e 8d3e 5ab3 86bc
00000160: 7453 933e f206 723e 84a1 273e 78b1 323e
00000170: 2980 b63e 02d8 2b3e 6162 ad3e 6b97 863e
00000180: 528e 1b3e 08c4 5e3e 45c7 3e3e d1b0 813e
00000190: f139 253e d29f a8bc 5254 0e3e 3b97 cbba
000001a0: b67f 173d c1f6 713d a581 853e 9262 cc3e
000001b0: f1a1 69bd 948a 103e 0ebb b13e 416d fb3d
000001c0: 8dfd d53d 8d78 2b3e 3e36 e03d 0cd6 593e
000001d0: 4ea6 333e 7f50 9c3e 2026 e73c 9ae2 5a3e
000001e0: 1026 e53e 84d3 9bbd c87c 083e ad6e 4a3e
000001f0: c91d 603e 3670 8c3e a963 fa3d 13f0 fa3b

value_stream.model.0.weight f4 [128, 128]
0.070236884 -0.026395261 -0.06848239 0.04718548 0.049291935 -0.05358883 0.065350205 0.043856576
-0.021869803 0.007800985 -0.021899387 -0.0024586925 -0.0054209414 -0.07188133 -0.13456869 -0.027020874
-0.033779256 0.04659165 0.030498432 -0.056933418 0.05807658 -0.018237403 0.029247524 0.03833704
0.038062163 0.035890803 0.07206646 0.05684652 0.060501322 -0.009251969 -0.040934242 0.044367544
0.028125351 0.033617917 0.022913821 -0.08037335 0.055725623 -0.04747618 0.010090418 -0.08446154
0.0036282227 -0.049728878 0.056265943 -0.0379394 0.047089797 0.08640051 -0.009807183 -0.03797074
-0.08802538 -0.011875728 0.002670214 0.04089181 0.033081587 0.041287947 -0.003959785 -0.021751076
-0.03594366 -0.025893377 0.07125128 0.0110157775 -0.0920328 -0.08950682 -0.024674332 -0.038807184
0.019458896 -0.017646777 0.057815723 0.013588847 0.021046422 -0.021358073 -0.054789953 -0.022826402
-0.06712001 0.08309039 -0.08232064 -0.066116825 -0.080681406 -0.10049511 0.08123118 0.08165624
-0.03320675 0.08784554 -0.04307398 -0.035128884 0.07853311 0.0070873196 0.002490235 -0.0054580495
0.04088349 0.034145728 0.03477299 -0.066054516 -0.050957926 0.07850822 0.0048206644 -0.06961941
-0.046377614 0.032151543 0.08031652 -0.044830862 -0.04492584 0.031756043 0.02559632 -0.007800849
-0.054971352 -0.059261285 0.054286994 0.027871909 -0.03874874 -0.02761395 0.0038121603 0.022634128
0.043222394 0.010975212 -0.056137677 0.010572834 -0.08628692 -0.07367276 0.06294776 -0.07197128
0.009087259 -0.053183537 0.038911875 -0.08487531 -0.08009166 0.048831068 -0.06311494 -0.089228824
0.056075014 0.054037813 -0.057629902 0.03378131 0.008944149 -0.08453746 0.038686268 0.0716603
0.05480192 -0.08325745 -0.08519898 -0.072739124 -0.0705563 0.026149068 -0.08191796 0.0722571
0.042374816 -0.04587491 -0.09027143 -0.068308584 -0.03605418 -0.07736569 -0.029044662 -0.063006766
0.05038851 0.043755963 -0.03840888 0.061523736 -0.035433915 0.028061997 0.039529517 -0.09908951
0.025370236 0.035430633 -0.0048229606 -0.07240746 -0.09420312 0.06486298 -0.0037980825 0.040092025
0.05168982 -0.07303249 0.07616485 -0.073850825 -0.005410698 -0.008001427 -0.070879854 0.053579785
-0.05079117 -0.07126685 0.0024583782 0.04085234 0.07551133 -0.058780473 -0.06876165 0.0053243446
-0.045907404 0.06392864 0.054879315 0.08204513 -0.06678294 -0.043772303 0.035397958 -0.018279621
0.0650753 0.05552187 -0.060813516 0.07826955 0.061381202 -0.07942728 0.038922552 0.059868526
0.0106272185 0.019658977 -0.05033541 -0.0589532 0.02904554 -0.04574071 0.06252625 -0.085025094
-0.03559797 0.0694473 -0.09334121 0.010178731 -0.062335655 0.063086405 -0.017247627 -0.085566774
-0.09795935 0.07273425 -0.057335917 0.07814261 -0.019748973 0.017441833 0.007878256 -0.09285805
0.0518907 0.060610462 0.010882397 -0.015581925 -0.07054027 0.021373417 -0.0067930073 -0.005359978
-0.06525782 0.05954929 0.043194607 0.06607276 0.072476186 -0.022908833 0.020355508 0.06646385
-0.072893046 -0.05579323 0.054392096 -0.033232868 0.031989943 0.062794454 0.045778953 0.07340036
-0.029047659 -0.06261139 0.0036889478 0.038736455 -0.019968422 0.0696071 0.032333758 0.021965714
00000000: 5bd8 8f3d e03a d8bc 7f40 8cbd 9045 413d
00000010: 57e6 493d f67f 5bbd 54d6 853d f4a2 333d
00000020: 4d28 b3bc 689f ff3b 5866 b3bc 0422 21bb
00000030: 27a2 b1bb 8536 93bd 60cc 09be e15a ddbc
00000040: 1e5c 0abd e3d6 3e3d d9d7 f93c 0433 69bd
00000050: b5e1 6d3d 9b66 95bc 8198 ef3c 4d07 1d3d
00000060: 12e7 1b3d 3c02 133d 9597 933d e6d7 683d
00000070: 3cd0 773d 9295 17bc aaaa 27bd beba 353d
00000080: 2367 e63c f1b2 093d c4b5 bb3c c89a a4bd
00000090: 8d40 643d 6276 42bd 4852 253c 2cfa acbd
000000a0: 7ac7 6d3b 82b0 4bbd 1e77 663d 5866 1bbd
000000b0: 3be1 403d c0f2 b03d 4fae 20bc 3587 1bbd
000000c0: a746 b4bd 6a92 42bc c2fe 2e3b 2c7e 273d
000000d0: 8f80 073d 8d1d 293d 16c1 81bb 502f b2bc
000000e0: a939 13bd 591e d4bc 31ec 913d 857b 343c
000000f0: b17b bcbd 5a4f b7bd d321 cabc 48f4 1ebd
00000100: 4368 9f3c f98f 90bc 2ed0 6c3d c1a3 5e3c
00000110: 8c69 ac3c 20f7 aebc 6e6b 60bd 6ffe babc
00000120: 3776 89bd 4b2b aa3d b997 a8bd 4268 87bd
00000130: 4b3c a5bd 61d0 cdbd 885c a63d 633b a73d
00000140: cd03 08bd 5de8 b33d 576e 30bd 4ee3 0fbd
00000150: f8d5 a03d bf3c e83b 3633 233b 70d9 b2bb
00000160: 7275 273d 64dc 0b3d 1f6e 0e3d 9747 87bd
00000170: 42b9 50bd ebc8 a03d aaf6 9d3b 9f94 8ebd
00000180: 74f6 3dbd 56b1 033d fd7c a43d 91a0 37bd
00000190: 2804 38bd a012 023d 60af d13c 449e ffbb
000001a0: a429 61bd f6bb 72bd 0a5c 5e3d a153 e43c
000001b0: 00b7 1ebd a736 e2bc 70d5 793b 356b b93c
000001c0: f709 313d 60d1 333c 9ff0 65bd ae39 2d3c
000001d0: 32b7 b0bd bee1 96bd c1ea 803d ae65 93bd
000001e0: bae2 143c fbd6 59bd 0f62 1f3d 1bd3 adbd
000001f0: 1907 a4bd 1603 483d 6842 81bd 9abd b6bd
00000200: eaae 653d c156 5d3d 550d 6cbd 455e 0a3d
00000210: 7b8a 123c fa21 adbd 7e75 1e3d a3c2 923d
00000220: fa77 603d e282 aabd ce7c aebd 40f8 94bd
00000230: d27f 90bd 9236 d63c 9ac4 a7bd 88fb 933d
00000240: 3791 2d3d 54e7 3bbd 3ae0 b8bd 5fe5 8bbd
00000250: 8cad 13bd e771 9ebd 12ef edbc b109 81bd
00000260: 2f64 4e3d 7439 333d a152 1dbd 5000 7c3d
00000270: 2723 11bd 46e2 e53c b4e9 213d 71ef cabd
00000280: 3ed5 cf3c b61f 113d ed09 9ebb 5d4a 94bd
00000290: 91ed c0bd e2d6 843d 40e9 78bb 8937 243d
000002a0: b4b8 533d 0f92 95bd 51fc 9b3d 1a3f 97bd
000002b0: 394c b1bb 6b18 03bc 7529 91bd 7a76 5b3d
000002c0: 670a 50bd 5bf4 91bd be1c 213b c954 273d
000002d0: afa5 9a3d cbc3 70bd e8d2 8cbd d777 ae3b
000002e0: 6709 3cbd 05ed 823d 22c9 603d 4707 a83d
000002f0: 7ec5 88bd 964a 33bd 73fd 103d 25bf 95bc
00000300: 3346 853d e66a 633d 9817 79bd c94b a03d
00000310: db6a 7b3d c5aa a2bd 416d 1f3d b338 753d
00000320: c91d 2e3c dd0b a13c 812c 4ebd e978 71bd
00000330: eaf0 ed3c 9c5a 3bbd c30d 803d a321 aebd
00000340: 2dcf 11bd 633a 8e3d ad29 bfbd b1c4 263c
00000350: ac53 7fbd 7233 813d e54a 8dbc a23d afbd
00000360: e99e c8bd b2f5 943d 11d9 6abd 3c09 a03d
00000370: 99c8 a1bc 2de2 8e3c cd13 013c 5c2c bebd
00000380: 588b 543d ad42 783d 154c 323c 554b 7fbc
00000390: 6b77 90bd 4e17 af3c e097 debb c1a2 afbb
000003a0: e4a5 85bd f5e9 733d d4ec 303d 2851 873d
000003b0: 656e 943d 4eab bbbc 98c0 a63c 331e 883d
000003c0: f348 95bd 7187 64bd 3fca 5e3d 301f 08bd
000003d0: e307 033d 619a 803d b682 3b3d ee52 963d
000003e0: 5bf5 edbc 673a 80bd 46c2 713b 1eaa 1e3d
000003f0: d194 a3bc 2b8e 8e3d 6770 043d 71f1 b33c

value_stream.model.0.bias f4 [128]
0.0714874 -0.069012806 -0.07777737 -0.14423616 -0.05847782 -0.13577427 0.356509 -0.14783734
-0.19345137 -0.14443587 -0.16828403 0.106076814 0.047771513 0.070572026 0.27495444 0.10189996
-0.09688285 0.06309329 -0.15810616 0.27440047 0.33479095 -0.20191444 -0.0077662827 0.14396697
0.11021505 0.1356045 0.22703244 0.026353274 0.28347915 -0.06736208 -0.023633791 -0.034409974
0.014177787 0.23611103 -0.27127948 0.35656604 0.06504799 -0.024477774 -0.2626302 -0.07003816
-0.1267427 -0.08387895 -0.12320583 0.29731232 0.12804487 0.0051817573 0.14632876 -0.10232809
-0.31823525 -0.17887236 -0.036034837 -0.015967142 -0.014302687 -0.18747789 0.066523254 0.045908637
0.048057694 0.27654833 0.15007262 0.10729417 0.051537346 -0.011713524 0.1802373 -0.05093995
-0.22524048 0.018504143 -0.13309574 0.21232872 -0.13080737 -0.28870466 0.04476207 0.061230052
-0.053459115 -0.00067638094 0.1614615 0.029314712 -0.21377149 0.17788969 0.3738583 0.037257254
-0.053263307 0.20973864 -0.02975098 0.04964087 0.08091607 0.34830144 0.34425318 0.024401784
-0.009559584 -0.092042044 -0.0008977875 0.03856717 0.014058543 0.34297436 0.03478723 -0.18310475
-0.27824724 -0.02997461 0.050974127 0.06078323 0.17453383 -0.1304033 0.32209864 -0.009273182
0.08500638 -0.11408435 -0.14074795 0.33921018 -0.085701115 0.13415676 -0.02496905 -0.04023915
-0.047712658 0.35443705 0.049293857 0.27799296 0.015210186 0.05094112 -0.26778418 0.27121845
-0.0113841565 -0.11841886 -0.21520644 0.18477109 -0.2238517 -0.25240722 -0.2128754 0.07018956
00000000: fc67 923d 9656 8dbd be49 9fbd a5b2 13be
00000010: 7086 6fbd 6908 0bbe 5988 b63e ac62 17be
00000020: 1e18 46be ffe6 13be a652 2cbe cd3e d93d
00000030: 10ac 433d 1188 903d d4c6 8c3e edb0 d03d
00000040: 846a c6bd 0e37 813d 95e6 21be 387e 8c3e
00000050: b869 ab3e a9c2 4ebe 4d7c febb 146c 133e
00000060: 6eb8 e13d e8db 0a3e 317b 683e d2e2 d73c
00000070: 2e24 913e 21f5 89bd a79b c1bc 79f1 0cbd
00000080: f349 683c 17c7 713e 25e5 8abe d38f b63e
00000090: e137 853d 9d85 c8bc 7777 86be 2b70 8fbd
000000a0: d7c8 01be bac8 abbd 5753 fcbd 5239 983e
000000b0: 321e 033e bbcb a93b 35d7 153e 6491 d1bd
000000c0: bbef a2be 512a 37be 4499 13bd 86cd 82bc
000000d0: d155 6abc 34fa 3fbe 583d 883d b20a 3c3d
000000e0: 25d8 443d be97 8d3e a3ac 193e 0cbd db3d
000000f0: d318 533d 15ea 3fbc 2090 383e 69a6 50bd
00000100: 71a5 66be 0096 973c 404a 08be b36c 593e
00000110: 5ef2 05be 19d1 93be 6f58 373d 5dcc 7a3d
00000120: f2f7 5abd 284f 31ba 2a56 253e 6825 f03c
00000130: eae6 5abe b728 363e 5b6a bf3e 109b 183d
00000140: a02a 5abd bac5 563e 54b8 f3bc 3a54 4b3d
00000150: 53b7 a53d 9154 b23e f441 b03e 40e6 c73c
00000160: cd9f 1cbc 8a80 bcbd 8059 6bba 9cf8 1d3d
00000170: ce55 663c 569a af3e 0e7d 0e3d d07f 3bbe
00000180: 6c76 8ebe 508d f5bc 3fca 503d d6f7 783d
00000190: ffb8 323e 7188 05be 1dea a43e 8bee 17bc
000001a0: d317 ae3d 0ea5 e9bd 3b20 10be f5ac ad3e
000001b0: 1184 afbd 6460 093e e58b ccbc cfd1 24bd
000001c0: 596e 43bd c678 b53e 5be8 493d 1855 8e3e
000001d0: 2534 793c a3a7 503d 021b 89be 25dd 8a3e
000001e0: 9d84 3abc 9685 f2bd 145f 5cbe a234 3d3e
000001f0: 6139 65be 853b 81be 02fc 59be 8bbf 8f3d

value_stream.model.2.weight f4 [1, 128]
-0.016802076 -0.038969636 -0.06417243 0.34104577 0.4247564 0.39562592 -0.45309514 0.37627727
0.3053449 0.4109413 0.25263655 0.38474402 -0.07220389 -0.08379252 -0.28617564 0.37231368
0.3857264 0.40067276 0.34688768 -0.4349872 -0.39569592 0.34125006 0.36203483 0.42467195
0.39369023 -0.46740025 -0.53206784 -0.0653013 -0.60863745 0.349811 0.22875921 0.065521725
0.29703957 0.3287079 0.41669294 -0.48610145 -0.6161761 0.038185827 0.4017593 -0.035267025
0.30586904 -0.008367747 0.42643702 -0.42612323 0.37121266 0.43404594 0.30975318 0.40894353
0.25731465 0.41651663 -0.03938227 0.35226983 0.42868942 0.27008682 -0.54818636 -0.0067758337
0.030761223 -0.64196706 -0.6344903 0.455553 0.009288245 0.0025342791 0.38964212 -0.052029572
0.32675183 -0.023985062 0.0606637 -0.52090955 0.3271058 0.3948538 0.04627095 -0.06395266
0.04316851 -0.012432088 0.41425738 -0.07164123 0.37504405 -0.48172426 -0.46604118 -0.52934897
-0.049417786 -0.3741316 0.37375963 -0.033428468 -0.55215454 -0.49541178 -0.48148924 0.3330751
-0.051030256 -0.03486377 0.049791988 0.06751356 0.32557347 -0.22378893 0.3447967 0.4262799
0.35520935 0.4003938 0.08513969 -0.52533805 0.39540628 0.23315369 -0.4962546 0.37011585
0.08293956 0.29026207 0.4328433 -0.40230265 0.04335931 0.3976632 0.37322864 0.26956782
-0.010937129 -0.46743858 -0.039169 -0.5546219 0.34310037 0.38578978 0.40166524 -0.37711653
0.41692737 0.3869694 0.34320793 0.3205635 0.26857772 0.38498917 0.24538419 -0.048514616
00000000: 82a4 89bc a09e 1fbd d66c 83bd 8d9d ae3e
00000010: ac79 d93e 7b8f ca3e 16fc e7be 6aa7 c03e
00000020: 2b56 9c3e e666 d23e 9459 813e 2bfd c43e
00000030: a2df 93bd 6a9b abbd 9d85 92be e69f be3e
00000040: ee7d c53e fb24 cd3e 439b b13e a4b6 debe
00000050: a898 cabe 54b8 ae3e a15c b93e 9a6e d93e
00000060: c491 c93e 164f efbe 9935 08bf b0bc 85bd
00000070: aacf 1bbf 6d1a b33e db3f 6a3e 4130 863d
00000080: 9215 983e 674c a83e c758 d53e 4ae2 f8be
00000090: b8bd 1dbf be68 1c3d 65b3 cd3e 2874 10bd
000000a0: de9a 9c3e e018 09bc f455 da3e d32c dabe
000000b0: 960f be3e 453b de3e f897 9e3e 0c61 d13e
000000c0: bfbe 833e ab41 d53e 4e4f 21bd b65c b43e
000000d0: 2e7d db3e d248 8a3e f155 0cbf d007 debb
000000e0: f6fe fb3c f457 24bf f56d 22bf 3e3e e93e
000000f0: b92d 183c 2616 263b 2c7f c73e f61c 55bd
00000100: 044c a73e 527c c4bc 807a 783d 545a 05bf
00000110: 697a a73e 472a ca3e 9c86 3d3d 9df9 82bd
00000120: 77d1 303d f5af 4bbc 8b19 d43e a3b8 92bd
00000130: c605 c03e 90a4 f6be f39c eebe 6a83 07bf
00000140: 4e6a 4abd 2d8e bfbe 6c5d bf3e 4aec 08bd
00000150: 005a 0dbf 9da6 fdbe c285 f6be d288 aa3e
00000160: 1a05 51bd 50cd 0ebd aff2 4b3d 8d44 8a3d
00000170: 91b1 a63e ed28 65be 3189 b03e 5c41 da3e
00000180: 00de b53e 6b00 cd3e b85d ae3d 8e7c 06bf
00000190: b172 ca3e d7bf 6e3e 1515 febe d37f bd3e
000001a0: 37dc a93d 3b9d 943e a39d dd3e 9dfa cdbe
000001b0: 8899 313d 839a cb3e d317 bf3e cb04 8a3e
000001c0: a531 33bc 1c54 efbe ac6f 20bd b3fb 0dbf
000001d0: daaa af3e 3d86 c53e 11a7 cd3e 6b15 c1be
000001e0: 8177 d53e da20 c63e f3b8 af3e e620 a43e
000001f0: 0583 893e 4d1d c53e fe45 7b3e 43b7 46bd

advantage_stream.model.0.weight f4 [128, 128]
-0.029251067 -0.04640784 0.114827685 -0.029181585 -0.18675223 0.049939316 0.05212183 0.0046765385
0.029331367 -0.037306875 -0.04298609 0.05439929 -0.011165207 0.18447693 0.23189718 -0.3369824
-0.077094086 0.016864788 0.124717295 -0.11607974 0.3289407 -0.062305417 0.012507016 -0.09099136
-0.0629051 -0.06877028 0.09947683 0.13513127 0.051807597 -0.103525415 -0.0383527 -0.07097613
0.07925524 0.055333115 -0.09501463 0.13850595 0.047751915 0.1198186 0.0142266825 -0.13901965
0.08504344 0.01725446 -0.033760805 0.066717476 -0.094488315 -0.07663685 -0.07539658 0.016798494
0.0029045895 -0.08935265 0.015144457 -0.147158 -0.116731785 0.00096120243 0.0073659895 0.015533852
-0.09839066 -0.18189994 -0.06074332 -0.035749692 0.010133324 0.0062380326 0.2500154 -0.07087172
0.021755807 0.21421766 -0.04889373 -0.069976196 0.27772772 0.013516617 -0.12592146 0.085200295
0.012174164 0.18319708 -0.07367398 0.0028382677 0.007175246 0.15976895 -0.05162454 0.14833046
0.10253697 -0.10221496 0.041190278 -0.077274784 0.024802946 -0.14370511 0.13882796 0.087040134
0.14731064 0.0066152476 0.16710742 0.054696217 0.2311967 -0.055073507 0.121207744 -0.081009105
-0.14127885 0.09059727 0.090424605 -0.0051716804 -0.14012848 -0.14637178 -0.21423183 -0.06265826
0.020501427 -0.076687604 -0.050970104 -0.054386526 -0.23872995 -0.021051267 -0.00020899909 -0.004087641
0.00907437 0.1617639 -0.100601956 0.008268107 -0.027097506 0.13384154 -0.04288546 -0.11111111
0.20060386 0.0272194 -0.0855707 0.010834492 0.04615984 -0.08640041 -0.024699375 -0.22033349
-0.033406895 -0.08790688 0.13210365 -0.039579693 -0.09350522 0.113925934 0.09369561 0.1310122
0.095464624 -0.10369772 -0.14535378 0.13655843 0.009028626 0.17166544 0.25758693 -0.3673695
-0.05542078 0.13953598 0.19172525 -0.0275671 0.39169514 -0.046154022 -0.0850353 -0.08125621
-0.10877804 0.01547191 0.03568232 0.12310577 0.10168286 -0.18642671 -0.06989496 0.015479096
0.06178252 0.076929875 -0.10687814 0.25599942 0.083036326 0.06677361 0.048998393 -0.036144868
0.06295277 0.014161929 0.047937088 0.108924195 -0.119566694 0.065974675 -0.0850175 -0.1303869
-0.16592355 0.024171423 0.10533853 -0.117384344 0.0070410804 -0.005474057 -0.08938178 -0.094130695
-0.0015794473 -0.1418808 0.058357812 -0.12179531 0.05869311 -0.05000462 0.18076894 -0.03499487
0.091670014 0.21039185 0.038817894 -0.15091169 0.3267705 0.071424186 -0.16205716 0.16782486
-0.036280334 0.058218233 0.103906214 -0.0016838011 -0.017144173 0.16602135 0.07059375 0.027576862
0.12819064 -0.11158545 0.092060894 -0.120639995 0.06701274 -0.10228288 0.22948612 -0.051296465
0.14366998 -0.057117283 0.12416975 0.13738061 0.15664573 0.016390538 0.07830728 -0.046511084
-0.07758017 0.10031729 0.04462554 -0.015480853 0.042601332 -0.025834521 -0.19767505 0.019713992
0.037982233 -0.09165405 -0.029039828 0.122293465 -0.22706142 0.0954549 -0.2494003 0.015708074
-0.08082395 0.05554811 0.0054116747 0.07155998 0.039880294 0.060011707 -0.022237517 -0.04514091
0.18609418 0.016806388 0.08829706 0.047792975 0.13235003 0.08206793 0.00061582506 -0.17795423
00000000: ef9f efbc 2616 3ebd c72a eb3d 380e efbc
00000010: fa3b 3fbe 2b8d 4c3d b37d 553d a63d 993b
00000020: 5648 f03c 18cf 18bd 2f12 30bd cad1 5e3d
00000030: 46ee 36bc 85e7 3c3e 7476 6d3e f588 acbe
00000040: 81e3 9dbd 0628 8a3c c86b ff3d 37bb edbd
00000050: ea6a a83e f733 7fbd 3aea 4c3c ae59 babd
00000060: 64d4 80bd 6fd7 8cbd 82ba cb3d da5f 0a3e
00000070: 3434 543d 2205 d4bd b917 1dbd ef5b 91bd
00000080: 9250 a23d faa4 623d 0897 c2bd 81d4 0d3e
00000090: 8397 433d 7463 f53d 0817 693c 2b5b 0ebe
000000a0: 412b ae3d 3a59 8d3c c548 0abd 2ca3 883d
000000b0: 1783 c1bd c8f3 9cbd 8669 9abd ff9c 893c
000000c0: ed5a 3e3b 86fe b6bd 7520 783c 96b0 16be
000000d0: 1311 efbd 34f9 7b3a 665e f13b b381 7e3c
000000e0: 0b81 c9bd fa43 3abe fdcd 78bd 456e 12bd
000000f0: 3e06 263c 6968 cc3b 0502 803e 3125 91bd
00000100: 3c39 b23c e05b 5b3e cb44 48bd ae4f 8fbd
00000110: 5432 8e3e cd74 5d3c 8ef1 00be 7e7d ae3d
00000120: 2576 473c 0498 3b3e 62e2 96bd 3b02 3a3b
00000130: 531e eb3b 799a 233e 4174 53bd f1e3 173e
00000140: e7fe d13d 1456 d1bd 23b7 283d 3e42 9ebd
00000150: 8c2f cb3c 6f27 13be eb28 0e3e 1942 b23d
00000160: 9ad8 163e b8c4 d83b 351e 2b3e 2409 603d
00000170: d4be 6c3e c294 61bd c43b f83d 1ae8 a5bd
00000180: 67ab 10be 108b b93d 8930 b93d 3377 a9bb
00000190: d77d 0fbe 7ce2 15be 975f 5bbe f952 80bd
000001a0: 9cf2 a73c 640e 9dbd 07c6 50bd 68c4 5ebd
000001b0: a075 74be b573 acbc c426 5bb9 9ef1 85bb
000001c0: abac 143c 70a5 253e 6608 cebd f476 073c
000001d0: 97fb ddbc c20d 093e aaa8 2fbd 398e e3bd
000001e0: 196b 4d3e 38fb de3c b13f afbd 2783 313c
000001f0: 1a12 3d3d b3f2 b0bd 5856 cabc 1a9f 61be
00000200: abd5 08bd 8608 b4bd 2e46 073e 511e 22bd
00000210: aa7f bfbd 0052 e93d 7ce3 bf3d 1028 063e
00000220: f582 c33d 785f d4bd 9fd7 14be f9d5 0b3e
00000230: cdec 133c 11c9 2f3e 6fe2 833e db17 bcbe
00000240: e600 63bd 85e2 0e3e a053 443e 66d4 e1bc
00000250: 448c c83e 000c 3dbd fd26 aebd a869 a6bd
00000260: 05c7 debd e57d 7d3c a027 123d e11e fc3d
00000270: 1a3f d03d a5e6 3ebe 1725 8fbd 099c 7d3c
00000280: ab0f 7d3d 698d 9d3d ede2 dabd 5b12 833e
00000290: f30e aa3d 9ac0 883d 8ab2 483d a40c 14bd
000002a0: 62ed 803d 6f07 683c ae59 443d a613 df3d
000002b0: 62df f4bd bb1d 873d a81d aebd 2584 05be
000002c0: dde7 29be 2603 c63c babb d73d 3467 f0bd
000002d0: ddb8 e63b b85f b3bb cb0d b7bd 98c7 c0bd
000002e0: 7505 cfba 3349 11be 9a08 6f3d d26f f9bd
000002f0: 3068 703d a5d1 4cbd 7e1b 393e c856 0fbd
00000300: 7dbd bb3d f670 573e 83ff 1e3d 9888 1abe
00000310: 774e a73e d846 923d 50f2 25be 48da 2b3e
00000320: b09a 14bd 3e76 6e3d c8cc d43d fdb2 dcba
00000330: f071 8cbc 8001 2a3e 7593 903d dfe8 e13c
00000340: 6844 033e ea86 e4bd 6c8a bc3d 1a12 f7bd
00000350: fa3d 893d b079 d1bd 69fe 6a3e 3e1c 52bd
00000360: 391e 133e d0f3 69bd b64c fe3d 81ad 0c3e
00000370: bd67 203e 7345 863c 915f a03d 6882 3ebd
00000380: 5ae2 9ebd 2773 cd3d 45c9 363d 67a3 7dbc
00000390: bc7e 2e3d eba2 d3bc 546b 4abe 3d7f a13c
000003a0: 4293 1b3d 1eb5 bbbd efe4 edbc ff74 fa3d
000003b0: ca82 68be dc7d c33d cb62 7fbe 38ae 803c
000003c0: 0787 a5bd 6a86 633d 6b54 b13b 0a8e 923d
000003d0: 8559 233d d6ce 753d 742b b6bc ade5 38bd
000003e0: 798f 3e3e 8dad 893c 17d5 b43d 91c2 433d
000003f0: c486 073e 3b13 a83d 526f 213a a239 36be

advantage_stream.model.0.bias f4 [128]
0.022199068 0.1374089 0.022073714 -0.024013583 0.02236199 0.053607233 -0.029447822 0.023289807
-0.0800471 -0.10151375 -0.035587035 -0.117231116 0.05805249 -0.048628766 0.17218617 -0.02659855
-0.021856101 -0.17198686 0.022345884 0.025245462 -0.2813428 0.02588941 -0.0036215733 0.0889053
0.030858828 0.10845517 -0.012184974 0.08937958 0.26409614 0.36914963 -0.13589837 0.23414615
0.054129466 -0.30275813 -0.14149067 0.38409662 -0.012488266 0.03080752 0.04023808 0.081270054
-0.15644434 -0.07681182 -0.056012116 0.088575825 0.3090337 -0.093960665 -0.1533581 0.02429711
-0.10160429 -0.02660312 -0.07613089 -0.019712297 0.061812513 -0.07178882 0.17655042 0.1163247
-0.01305957 0.045850806 -0.008033238 -0.31767732 0.032253228 0.092315316 -0.10750607 -0.0020969084
0.104197614 -0.07284462 0.061848294 -0.110083885 -0.054302532 0.1303967 -0.09470517 -0.064819574
-0.096036874 0.041711953 0.047235895 -0.014610242 -0.087785825 -0.14720319 -0.0417925 0.30471423
-0.23520958 -0.014420678 -0.2043097 -0.005667516 0.10661932 0.088818856 0.04691353 -0.049832046
-0.08924756 0.06763175 -0.12565286 -0.06698483 0.28694293 -0.121413134 -0.070123985 0.008951061
-0.19417095 -0.01525006 -0.087644815 -0.20284593 -0.052269794 -0.09588096 -0.20988792 0.19471191
-0.08620567 0.121195346 -0.03313108 0.030675353 -0.17699033 -0.005142153 0.06895121 -0.033355076
-0.19891421 0.21340162 -0.0481061 -0.07325338 0.0659035 0.024414087 -0.20865494 -0.0008551565
0.06015076 0.12604035 -0.057532117 -0.087203145 0.2551554 0.015735839 0.08781417 0.08460952
00000000: d2da b53c ebb4 0c3e efd3 b43c 22b8 c4bc
00000010: 7e30 b73c 4293 5b3d 8f3c f1bc 44ca be3c
00000020: bcef a3bd 71e6 cfbd b6c3 11bd de16 f0bd
00000030: 73c8 6d3d f52e 47bd 9251 303e 34e5 d9bc
00000040: 910b b3bc 531d 30be b70e b73c 92cf ce3c
00000050: 2a0c 90be 0716 d43c eb57 6dbb fb13 b63d
00000060: a7cb fc3c bf1d de3d 7ca3 47bc a40c b73d
00000070: 9c37 873e 2e01 bd3e f128 0bbe 02c4 6f3e
00000080: dcb6 5d3d 1d03 9bbe eee2 10be 50a8 c43e
00000090: 969b 4cbc 0d60 fc3c afd0 243d ea70 a63d
000000a0: f232 20be 844f 9dbd f66c 65bd 3e67 b53d
000000b0: aa39 9e3e 736e c0bd e809 1dbe bc0a c73c
000000c0: e915 d0bd c9ee d9bc 83ea 9bbd af7b a1bc
000000d0: 1e2f 7d3d 0406 93bd a2c9 343e a53b ee3d
000000e0: cff7 55bc 0ece 3b3d d89d 03bc 9aa6 a2be
000000f0: f61b 043d d00f bd3d 242c dcbd 496c 09bb
00000100: 8f65 d53d 8f2f 95bd a354 7d3d a973 e1bd
00000110: 556c 5ebd b686 053e c9f4 c1bd 20c0 84bd
00000120: fbae c4bd 27da 2a3d 6d7a 413d cc5f 6fbc
00000130: 0ec9 b3bd 6fbc 16be 9d2e 2bbd 8103 9c3e
00000140: c8da 70be b544 6cbc 9036 51be 92b6 b9bb
00000150: 3b5b da3d a9e6 b53d 6728 403d b01c 4cbd
00000160: 6dc7 b6bd 8482 8a3d 25ab 00be 582f 89bd
00000170: 2fea 923e 73a7 f8bd 2a9d 8fbd 79a7 123c
00000180: c0d4 46be 63db 79bc 207f b3bd d8b6 4fbe
00000190: da18 56bd 3d5d c4bd dcec 56be 8f62 473e
000001a0: 998c b0bd 4435 f83d 75b4 07bd e14a fb3c
000001b0: f43c 35be 817f a8bb 4b36 8d3d 559f 08bd
000001c0: 2bb0 4bbe f485 5a3e e70a 45bd de05 96bd
000001d0: 6af8 863d 0d00 c83c a4a9 55be 952c 60ba
000001e0: a560 763d b910 013e cca6 6bbd 9097 b2bd
000001f0: bba3 823e 72e8 803c ead7 b33d c247 ad3d

advantage_stream.model.2.weight f4 [10, 128]
-0.04903505 -0.07087839 -0.05102678 0.009781542 0.0055600586 0.011244993 -0.089714274 -0.10318528
-0.08312542 0.13177466 0.09442458 -0.07393822 -0.13159952 0.0432791 0.0470618 0.106986314
0.040757336 -0.06914793 -0.22264284 -0.1316217 0.027789162 -0.18892747 -0.11658385 -0.06193758
-0.09826194 -0.26920408 -0.021516513 -0.018851196 -0.16553769 -0.23799987 0.16464329 -0.02012437
-0.09376452 -0.05572066 0.026881367 -0.1385594 -0.19759256 0.04220036 0.002593579 0.06045321
0.04056264 0.00034199638 0.029141694 -0.05635449 -0.21295038 0.03269933 -0.021442104 0.06514903
-0.07601655 0.030902248 -0.011056936 0.082013145 0.09037692 -0.017923137 -0.25939074 -0.085721664
0.033477597 -0.052126035 0.033113685 -0.022250004 0.02368568 -0.047208585 -0.04317668 -0.034639724
-0.2743901 -0.05564475 -0.2009762 0.038245425 -0.008284891 -0.080185056 0.044736817 0.030835088
0.007988862 -0.031209683 0.009424079 -0.008998126 -0.03861451 -0.025027962 -0.1473113 -0.20762266
0.08375161 0.013956639 0.041640688 -0.046069372 -0.0844763 -0.122908935 -0.015117366 0.13153563
-0.25690538 -0.06729214 -0.04247065 -0.05219795 -0.13344122 0.064102456 0.005739571 -0.009570377
0.10382754 -0.055119332 0.10856119 -0.01898365 -0.029948795 -0.061221175 -0.055117037 -0.22391832
0.099068224 -0.16956538 0.13210608 -0.10438582 0.043860357 0.10012427 -0.15603043 -0.112510055
0.09105381 -0.10687145 -0.009925909 0.03410726 -0.27955535 -0.10690138 0.078727685 -0.2157691
-0.14206693 -0.25137046 0.017110016 -0.045501832 -0.116662115 -0.057062257 -0.15937686 -0.1916792
-0.17947815 -0.20163628 -0.054217733 -0.1681526 -0.031656772 0.20316426 -0.092688724 -0.27325037
0.069374025 0.12538368 -0.0074667037 -0.07619689 -0.11140553 0.0059970366 0.19112141 0.08025802
-0.015413957 -0.1662638 -0.2510698 -0.2481165 -0.011317958 0.0573769 -0.15000479 -0.018710924
-0.39258096 -0.2875028 0.060759746 -0.20767023 -0.031656712 -0.18259436 0.15385263 -0.21079217
-0.03511301 -0.009753729 0.1939338 -0.07151764 0.15234837 0.0624668 0.0056240936 0.01927852
-0.07687634 0.065951444 -0.047610458 -0.2543962 -0.119000845 -0.018352808 0.07757487 0.028805576
-0.101145975 -0.053559463 -0.039408945 0.04591559 -0.05167706 -0.052713484 -0.30310264 -0.07355748
0.060369793 0.099265814 0.030498724 0.074938826 -0.05749127 -0.26693106 0.17014974 0.01606354
-0.10897692 0.05441552 -0.24641283 0.118605204 -0.0035013764 0.030129645 0.039043237 0.04988608
0.13147204 -0.20240417 0.03317633 0.0440645 0.06137174 -0.21607345 0.08095922 -0.29480627
0.13409588 0.09591955 -0.023301294 -0.035331942 -0.11292953 -0.26973218 -0.011019719 0.080700465
-0.19222605 -0.24280927 0.07239706 0.014204736 -0.1729187 0.19115674 -0.06900564 0.022811927
0.010044039 -0.361242 -0.034195043 -0.005251081 -0.022587756 -0.013751931 0.03843709 -0.22718123
0.048372515 0.09006145 -0.10171403 -0.25729924 0.10594412 0.07101082 0.116403356 0.013709421
0.15333022 -0.24037378 -0.17288499 0.26152998 -0.14180464 -0.18410306 -0.027088126 -0.23357289
-0.21082526 -0.2933208 0.17217676 -0.07915315 -0.14625698 0.158018 -0.23324941 -0.2250657
00000000: fad8 48bd b028 91bd 7501 51bd c342 203c
00000010: 2731 b63b eb3c 383c 1ebc b7bd ce52 d3bd
00000020: a93d aabd f0ef 063e ad61 c13d ec6c 97bd
00000030: 06c2 06be 6d45 313d e0c3 403d a41b db3d
00000040: 2af1 263d 6e9d 8dbd 7cfc 63be d7c7 06be
00000050: 19a6 e33c 3476 41be 83c3 eebd 43b2 7dbd
00000060: 8e3d c9bd 1ed5 89be 6643 b0bc d36d 9abc
00000070: b682 29be 3db6 73be 4098 283e dddb a4bc
00000080: 9d07 c0bd 593b 64bd 5036 dc3c 84e2 0dbe
00000090: b455 4abe 49da 2c3d 09f9 293b c99d 773d
000000a0: 0325 263d fa4d b339 90ba ee3c f7d3 66bd
000000b0: aa0f 5abe bcef 053d 5aa7 afbc db6c 853d
000000c0: 91ae 9bbd b626 fd3c 2728 35bc 82f6 a73d
000000d0: 8917 b93d 8bd3 92bc ddce 84be d78e afbd
000000e0: ce1f 093d 1c82 55bd 37a2 073d a445 b6bc
000000f0: 7908 c23c ca5d 41bd 08da 30bd 62e2 0dbd
00000100: dc7c 8cbe c0eb 63bd b4cc 4dbe 3ca7 1c3d
00000110: 5abd 07bc 1038 a4bd f43d 373d de99 fc3c
00000120: b7e3 023c 73ab ffbc 7467 1a3c e06c 13bc
00000130: 402a 1ebd 7107 cdbc c6d8 16be 099b 54be
00000140: f785 ab3d 63aa 643c 6d8f 2a3d 3db3 3cbd
00000150: e901 adbd aeb7 fbbd d4ae 77bc 47b1 063e
00000160: 1a89 83be 76d0 89bd b4f5 2dbd 85cd 55bd
00000170: d1a4 08be 2648 833d 0313 bc3b 12cd 1cbc
00000180: 89a3 d43d cfc4 61bd 5455 de3d 9983 9bbc
00000190: 2d57 f5bc 0ec3 7abd 67c2 61bd d84a 65be
000001a0: 48e4 ca3d 8ca2 2dbe d146 073e 3cc8 d5bd
000001b0: eba6 333d f40d cd3d 71c6 1fbe ac6b e6bd
000001c0: 6c7a ba3d 6bdf dabd 48a0 22bc 0eb4 0b3d
000001d0: e121 8fbe 1cef dabd fb3b a13d 93f2 5cbe
000001e0: fe79 11be a1b3 80be 4e2a 8c3c 2160 3abd
000001f0: 8cec eebd 1dba 69bd b033 23be 8d47 44be
00000200: 1fc9 37be be79 4ebe 6a13 5ebd 3230 2cbe
00000210: 88aa 01bd 4b0a 503e 96d3 bdbd 79e7 8bbe
00000220: f813 8e3d 9464 003e 40ab f4bb 1d0d 9cbd
00000230: 9528 e4bd ca82 c43b 55b5 433e 515e a43d
00000240: d28a 7cbc 0f41 2abe 398c 80be 4012 7ebe
00000250: f56e 39bc 0a04 6b3d db9a 19be a747 99bc
00000260: 5f00 c9be 9133 93be 36df 783d 81a7 54be
00000270: 78aa 01bd 04fa 3abe 8b8b 1d3e e7d9 57be
00000280: a9d2 0fbd 1bce 1fbc 9596 463e d777 92bd
00000290: 3601 1c3e 30dd 7f3d 514a b83b fded 9d3c
000002a0: 5871 9dbd 8d11 873d 2f03 43bd 3840 82be
000002b0: b7b6 f3bd a158 96bc 93df 9e3d acf9 eb3c
000002c0: 9f25 cfbd 2b61 5bbd 466b 21bd fc11 3c3d
000002d0: 53ab 53bd 18ea 57bd 4530 9bbe 4ea5 96bd
000002e0: 5146 773d e04b cb3d 76d8 f93c 8779 993d
000002f0: f77b 6bbd 30ab 88be bc3b 2e3e af97 833c
00000300: 4b2f dfbd cfe2 5e3d a553 7cbe 49e7 f23d
00000310: 5977 65bb 72d2 f63c cdeb 1f3d 5955 4c3d
00000320: 9ba0 063e 0a43 4fbe e7e3 073d fa7c 343d
00000330: ef60 7b3d 5c42 5dbe f3cd a53d d9f0 96be
00000340: 6e50 093e 7871 c43d 5be2 bebc 3ab8 10bd
00000350: 9947 e7bd 561a 8abe 0d8c 34bc 4946 a53d
00000360: e8d6 44be fea2 78be e944 943d fbba 683c
00000370: 9a11 31be 98be 433e d452 8dbd 14e0 ba3c
00000380: c18f 243c b6f4 b8be 1a10 0cbd 4311 acbb
00000390: f509 b9bc c74f 61bc 3670 1d3d 32a2 68be
000003a0: 4222 463d 2372 b83d 724f d0bd babc 83be
000003b0: 3bf9 d83d 1f6e 913d e264 ee3d 7b9d 603c
000003c0: 9902 1d3e 8b24 76be c308 31be 42e7 853e
000003d0: 3c35 11be 8385 3cbe ebe7 ddbc bb2d 6fbe
000003e0: 94e2 57be 252e 96be 1b4f 303e 0c1b a2bd
000003f0: 64c4 15be 78cf 213e efd8 6ebe 9f77 66be

advantage_stream.model.2.bias f4 [10]
-0.073786356 -0.005049079 0.21728991 -0.048647255 -0.024056928 0.13002044 -0.06183892 -0.013712408
-0.13402389 -0.16937535
00000000: 4d1d 97bd bf72 a5bb 3f81 5e3e 5842 47bd
00000010: 0913 c5bc 1424 053e cf4a 7dbd 02aa 60bc
00000020: 8f3d 09be bb70 2dbe
