logs/7-HIER-BCS/35-DuelingDQN-random-max-HIER-25_10_24_23-30-41/10/models/54000/DuelingDQN_checkpoint.pth (torch, 868043 bytes, 44 tensors)

feature_layer.model.0.weight f4 [128, 23]
00000000: cbfd 913d 7d68 263d 3605 c6bd 30d8 c53d
00000010: 2bb1 a5bf dd37 e83f c6c9 32be 7a02 5140
00000020: e71d 803c 4b79 a740 224e 82c0 25f0 fdc0
00000030: 722d 11c1 c74a 1dc1 3387 eec0 5102 8bbe
00000040: 548e 3bbf fffd 0840 0c23 0140 7779 1c40
00000050: bd12 c140 fda6 d1bf 1b35 c9bf 5cf6 b3bc
00000060: c53b 033d 1947 91bc 854c a73d 5100 f1be
00000070: 88b5 d2be bdb0 85bd 6589 2a40 c5d0 d43f
00000080: dc91 ea40 b2e8 e840 8431 d440 47f3 db40
00000090: 1747 c640 f061 e040 bb88 6040 2f51 c13c
000000a0: 1098 bd40 c9f5 d540 0917 e540 b51d cc40
000000b0: 3b3e a140 7915 2040 4387 a03c 7974 f53e
000000c0: db1f 59bf e5ba 773e 767c bf3f b66a 89bc
000000d0: c561 9f3e 00d5 2ac0 3a02 b1be 8076 9fc0
000000e0: a26d 9f40 10b0 0241 7d8e 0e41 338f 1c41
000000f0: 02fc f540 944a 59bf e5f9 9a3f 164d eabf
00000100: d20b a9bf 1f17 b6bf 4a5f a1c0 9cc8 6040
00000110: dd34 0a40 6f2a 843f 0584 d83e b57a c9be
00000120: bd37 38bf 1234 b73f 5d58 1040 6369 1b3f
00000130: e6cc 4c40 ee2d e83f 4589 1741 474b be40
00000140: 0d03 803f bb1f 963d 66b8 b6be e76c 0b40
00000150: fb57 1a40 14d2 df3f 292c bd40 360f 0f41
00000160: ba2c f240 8dcd a440 71f2 1840 8720 1840
00000170: 5a7f 1a3f 4e8b acbe 3987 81be eb56 be3e
00000180: 98a7 d5bf ae23 3140 289e 00c0 92f4 1640
00000190: ba81 79bf 78e3 1f41 4ec3 ac40 f4ad db3f
000001a0: 5bf2 eabf 2d9a febf 53e3 303f 02fb dabf
000001b0: 0a3b 91bf c4bd a640 c6b9 da40 7567 0741
000001c0: 8b9d 0841 7c42 f03f bc2d 75be 2116 ee3e
000001d0: 4d69 1e3f 0fec 4dbf fa29 bcbb d3bd 1340
000001e0: d1a1 7240 4e71 0c40 d468 503d 821f 86bf
000001f0: 44e5 0ac0 5462 7bc0 3dbc 7fc0 0ac5 c6c0
00000200: 4105 e6c0 f6f8 91c0 46e2 e1bf ae81 b640
00000210: bf44 c6bf 5667 37c0 f103 34c0 40d5 f3be
00000220: dd73 103f 14db f13e a701 cdbe 22ee f6be
00000230: 011e 863d e83e 5b3f b326 d7bf 07fa 3d3e
00000240: 0664 b7bf 106b b43f 55de 15c0 587e 4140
00000250: 2589 2b3f b27f c0bf 99d6 7dc0 8700 83c0
00000260: d1e2 2cc0 a301 07c0 e001 1bc0 4f7a 80bf
00000270: 7b9a 873f c38b 9f40 e901 1440 6811 4dbf
00000280: 06bc 02c0 cda7 ccbe d5aa b33e 5e23 f8bb
00000290: cb2b 6bbc aeff 7d3f b8c2 a83e 69fb 82be
000002a0: e44b ad3f 9374 14c0 ec2d 93c0 f8c4 d4c0
000002b0: e58b 9ec0 2756 d9c0 50ef a4c0 93ed b6c0
000002c0: 25a1 6dbf 7639 2a3f 9783 77c0 3045 6dc0
000002d0: a196 a2c0 f0a8 5fc0 a2df 4fc0 9c9f a5bf
000002e0: cd2c 173f 37ee 0fbf e3cb a73e 7091 273f
000002f0: 3a4b 1f40 9109 b03f f5bb de3f 924f 273f
00000300: 8cc5 d6bf 5a20 f73e c579 5540 92db 0041
00000310: fca2 ee40 9043 0141 dc92 db40 c9df 77c0
00000320: 7e82 fd3e 75be 693f f99c e03d 9f0f 1f3d
00000330: b8eb 2340 6594 bf40 ec3d 7240 da01 f5bc
00000340: 4570 b0be 38bb 18be cbd9 403f d432 7cbf
00000350: 32be 203f dd12 a1bf f906 5240 0b82 37bf
00000360: 855e 1441 394e c140 be76 0340 9bdd 323e
00000370: c156 dfbd 6a0f b13f 802e 113e 662a f2bf
00000380: f38d 2840 8fda b840 0a7e 1841 442b c540
00000390: df9d 0e40 9d62 9f3d eafa 7b3e 4b66 b9be
000003a0: 6abd 603e 7d80 203f 1082 8a3f e1af 103f
000003b0: fa39 1840 1d5c 283f d5ba 793f 79dc ab40
000003c0: df8d 2fc0 c6dc 06c1 3bac 28c1 e37d 28c1
000003d0: acad 0fc1 2264 b4bf 1852 113f 257e bd3f
000003e0: bae7 ed3f f911 7240 6175 9d40 6ae8 1c3f
000003f0: 08d5 0abf 8409 743f 09ce 2fbf c55b 623d
0.07128485 0.04062699 -0.09668963 0.09660375 -1.2944692 1.8142048 -0.17459783 3.2657762
0.015639259 5.2335563 -4.0720377 -7.9355645 -9.073595 -9.830756 -7.454004 -0.27150205
-0.7326405 2.1405027 2.017764 2.4449136 6.0335374 -1.6379086 -1.5719332 -0.02196806
0.032039423 -0.017734097 0.08168892 -0.47070554 -0.41154122 -0.06527851 2.664636 1.6626211
7.330305 7.278405 6.6310444 6.873447 6.196178 7.0119553 3.5083454 0.023598282
5.9248123 6.686253 7.159062 6.3786263 5.0388465 2.5013106 0.019595748 0.47940424
-0.8481423 0.24192388 1.4959857 -0.016774517 0.3112928 -2.6692505 -0.3457201 -4.9832153
4.982133 8.167984 8.909787 9.784961 7.6870127 -0.8487942 1.2107512 -1.8304775
-1.3206732 -1.4225806 -5.042882 3.5122442 2.1594765 1.032545 0.42288223 -0.3935143
-0.7196005 1.4312766 2.2553933 0.6070768 3.200006 1.8139017 9.471013 5.946689
1.0000931 0.07330271 -0.3568756 2.1785219 2.41162 1.7485986 5.9116406 8.941214
7.56796 5.1500916 2.3897974 2.3769853 0.60350573 -0.3370003 -0.2529848 0.37175688
-1.669177 2.7678027 -2.009653 2.3586774 -0.9746357 9.993034 5.398841 1.7162461
-1.8355211 -1.9890801 0.6909687 -1.7107852 -1.1346142 5.2106647 6.8351774 8.462758
8.538463 1.877029 -0.23943228 0.46501258 0.61879426 -0.8043832 -0.0057423087 2.308461
3.7911265 2.1944156 0.050881222 -1.0478365 -2.1702433 -3.9278765 -3.9958642 -6.2115526
-7.1881413 -4.5616407 -1.7647178 5.70333 -1.548973 -2.8656821 -2.8127406 -0.47623634
0.56426793 0.47237456 -0.40040323 -0.48228556 0.065486915 0.8564286 -1.6808685 0.18552409
-1.43274 1.4095173 -2.341695 3.0233364 0.6700614 -1.503897 -3.966223 -4.0938144
-2.7013438 -2.109475 -2.4219894 -1.0037326 1.0594019 4.9858108 2.3126166 -0.80104685
-2.042726 -0.39971772 0.35091272 -0.0075725755 -0.014353703 0.9921826 0.3296106 -0.25582436
1.3538785 -2.3196151 -4.5993557 -6.649044 -4.954577 -6.7917666 -5.154213 -5.7165008
-0.9282401 0.6649393 -3.8674066 -3.7073479 -5.0808873 -3.4946861 -3.2480245 -1.2939334
0.59052736 -0.5622286 0.3277274 0.65456295 2.4889665 1.375292 1.740111 0.6535579
-1.6779037 0.4826687 3.3355572 8.053606 7.4573956 8.078995 6.861677 -3.8730338
0.4951362 0.9130624 0.1096744 0.038833257 2.5612621 5.9868646 3.7850294 -0.02990811
-0.34460655 -0.14915168 0.75332326 -0.9851506 0.62790215 -1.2583882 3.2816756 -0.71682805
9.273076 6.0407987 2.0541224 0.17467348 -0.10905219 1.3832829 0.14177895 -1.8919189
2.633664 5.7766795 9.530771 6.1615314 2.2283857 0.07782481 0.24607435 -0.36210856
0.21947256 0.6269606 1.0820942 0.5651837 2.3785386 0.65765554 0.9755071 5.370663
-2.7430341 -8.4289 -10.542048 -10.530734 -8.9799 -1.4093058 0.5676589 1.4804121
1.8586342 3.782347 4.9205785 0.61292136 -0.5423131 0.9532702 -0.6867376 0.0552633

feature_layer.model.0.bias f4 [128]
00000000: 54b6 b53e 8d3b b13e 7606 f73e 9829 e03f
00000010: 5e9f babe e728 2640 4a4d a2bf 2ac2 d73d
00000020: e5a1 e93f 95be b0be e381 a93f 9814 3240
00000030: 5399 0040 af88 803f c07f 37be 1e64 91bf
00000040: 6c32 cb3f a6ae 3e3e b5f1 6c3e ed75 6ebf
00000050: ae0d 01bf fd83 c93e 37ce a73f 6fd8 5b3f
00000060: 311c 013e 6ae0 9c3f 4527 803f 3381 323f
00000070: 9377 023f 76eb 453e 6645 48be 9b2c 893e
00000080: a271 693f 70ed 9ebf 9b50 adbf ce13 08bf
00000090: dbde af3e bd3c 35be c75a 973f 3777 6cbc
000000a0: d8a2 8d3f 899a 92bf 1253 5640 9a00 a13f
000000b0: d90f 953f c53f dabe cac4 3c3f e5de a83f
000000c0: 4597 ac3f 2887 acbf 7d50 033f c4c9 1c40
000000d0: d027 f53e ed61 de3f 7431 5abe fc5d 063e
000000e0: 265c 1640 237e c3bd f133 fd3c d055 aabe
000000f0: 1877 a83f 073c 84be 86b1 65bf 914c 523f
00000100: 9091 2cbe 01f6 a1bf ae0c 3240 f197 543f
00000110: 5c03 753f db40 83bf 1f81 833f 9fa4 b13f
00000120: 099b 3640 ec32 f33e c33b fe3f 3b74 163e
00000130: 602d 1a3e c50f 8d3f be62 5abf 9dc8 423f
00000140: df3b 7fbc f68a 36bf d2fc 13bf dd60 8d3f
00000150: ae5e 6d3e 5f68 dfbe c1c6 bd3f 4dcf 4240
00000160: 566f a0bf 8402 3f3e e86c 8f3f 5611 2e3e
00000170: c23c babe aab0 a83e 50a8 cc3f 8b40 6d3f
00000180: f1e1 d3be eae2 703f bf61 493f 5372 60bf
00000190: b1e0 0a3f b7be db3e 3b93 143f bf7d a93f
000001a0: 3ca9 0a3d 5d35 1e3f 73cc 6c3f ee2e c63f
000001b0: 221b 3abd d804 8d3f 045f 3240 5840 21bf
000001c0: 3f5f 2040 833f 4b3f 076e 1540 8808 67be
000001d0: a1f8 da3e a564 e5be 84ca 2d3f 1137 6abe
000001e0: b3cb 01c0 fea9 e5be 917d 2a3f 87c5 94bf
000001f0: 1dfe 4d3f fded 163c adf7 86bf f493 99bc
0.35490668 0.34615746 0.48247117 1.7512693 -0.36449713 2.5962465 -1.2679837 0.10535081
1.8252531 -0.34520403 1.3242763 2.782507 2.0093582 1.0041713 -0.17919827 -1.1358678
1.5874763 0.1862131 0.23139079 -0.9314869 -0.504115 0.39358512 1.3109807 0.85877126
0.1260841 1.2255986 1.0011984 0.6972839 0.50963706 0.19328102 -0.19557723 0.26791844
0.91189015 -1.241621 -1.3540224 -0.5315522 0.34349713 -0.17698951 1.1824578 -0.01443272
1.1065321 -1.145341 3.3488202 1.2578309 1.1645461 -0.42626777 0.73737776 1.3193022
1.3483664 -1.3478746 0.5129469 2.4498148 0.47881937 1.7373635 -0.21307927 0.1312179
2.3493743 -0.09545543 0.030908557 -0.33268595 1.3161345 -0.25827047 -0.89724004 0.8214808
-0.16852403 -1.26532 2.782024 0.83044344 0.9570825 -1.0254167 1.027378 1.3878363
2.8532126 0.47499788 1.9861988 0.14692776 0.15056372 1.1020437 -0.8530692 0.7608736
-0.015578239 -0.7130579 -0.5780765 1.1045185 0.23180649 -0.43634316 1.482628 3.0439026
-1.2533977 0.18653303 1.120511 0.169988 -0.3637448 0.32947284 1.5988865 0.9267661
-0.41383317 0.94096243 0.78664774 -0.87674445 0.542491 0.4291894 0.58037156 1.32415
0.0338528 0.61800176 0.92499465 1.5483072 -0.045436032 1.1017103 2.7870493 -0.62988806
2.5058134 0.79393786 2.3348405 -0.22561848 0.42767814 -0.44803348 0.6788714 -0.22872569
-2.0280578 -0.44856256 0.6659785 -1.162278 0.8046587 0.009212014 -1.0544335 -0.018747307

feature_layer.model.2.weight f4 [128, 128]
00000000: 3e37 023d 819c 65bd 2b51 2cbd a3c5 b3bd
00000010: 8378 8bbd c0de ccbb 20ee 3b3d 2bd6 a9bd
00000020: afa9 573d f471 9d3d 347b bdbd be67 803d
00000030: ccbc 64bc 3e5b 00bd bf88 7bbd 1a6c b13c
00000040: 7f20 2ebd 540b afbd 7126 b1bd 0ad1 8fbd
00000050: 250b abbd c391 03bd 96f2 9fbd efa4 b33c
00000060: 084a 253c b260 123d 2cb2 86bd 66ac a1bc
00000070: 731e 3f3d 6bc6 1cbd 60b7 91bd ff7f 61bd
00000080: 3733 86bb a6f3 ff3b 0b55 0c3d 4584 09bc
00000090: 5ff3 7d3d 9a26 883d ce57 963c e053 3abb
000000a0: e475 133d ab65 a3bd ee96 a6bd 9fbc 8f3d
000000b0: 81c1 40bd 8198 60bd 58fa 7c3d 4f76 5c3c
000000c0: f82a 69bd 02bd 21bd 8b44 5eba 23c9 743d
000000d0: c617 b1bd 2cc8 913c caf8 033a ba80 2c3d
000000e0: aedd 7a3c c039 bdbb 1b94 9d3d b269 8c3d
000000f0: 529f 983d ddca c2bd ce63 58bc 00c6 bfbb
00000100: 034c a8bc 0ce0 7b3d 37ae 8d3d 6fcb 83bd
00000110: baf6 023d 54e3 babc 41ed 3cbd e6a7 b0bc
00000120: fac9 0b3c ce21 5f3d f0f5 66bc 86c9 c4bd
00000130: 4765 a93c 0d79 133b ae33 4bbd 89e4 12bd
00000140: 0e4c 94bd e92c f3bb 364f 693d d0a3 39bd
00000150: 07a9 423c 0058 843c 0914 86bd 269c 2bbd
00000160: 0e7a 22bd 6115 b03a a777 a23d c518 48bd
00000170: 2523 923d d680 a1bd 1547 b23d 6916 7bbd
00000180: e475 9fbc 94cd 4c3d 22ea 753d 82bd c53c
00000190: 9397 5ebd 4cbe 7c3d 7c25 cb3c 3b4d 66bd
000001a0: 6264 8ebd 3ebb 0abd 9802 98bc 0933 d8bb
000001b0: 02e3 b8bd 9607 483d ba16 923d d3f3 a23c
000001c0: 9323 803d 7c4c 403d 95f5 75bd 59a7 77bd
000001d0: 3c56 b9bd 5643 213d fb2d 18bd 6c31 fe3c
000001e0: 129a 0cbd e437 49bd 5a37 863d 8c67 44bd
000001f0: e08e b9bc af83 b13d e133 5ebd 404d c73a
00000200: 5d3d 8940 4f5b a8c0 6b1d abbf 2021 973e
00000210: 817f 89bd 1544 4d3f 19e9 9c3e 3cd5 3740
00000220: dea4 033e d959 62be bf18 973f b24e 963f
00000230: e53b 753f 1a62 083e f08b 2ebf 116a 953f
00000240: a2e4 82be b201 503f 747d 35be 1bdd 103f
00000250: 6b6f 8a3f 58e9 283e 025a 3dbf 0468 1ebf
00000260: 7f04 2440 067a adbf 4898 c1bf a2e0 ce3e
00000270: 39e7 3240 9eda bc3c 2506 babe 8db7 bcbf
00000280: 4c0d 2bbf de71 fb3e 6dd1 7cbf 4f2c d53d
00000290: 0b34 443f e64d 01bf ccac 1d40 0dbb c540
000002a0: d4ea ac3f e48e f03d 937a 783e 6854 01c0
000002b0: 2dc4 3140 5630 52bf 65b6 ec3f 71d0 5abd
000002c0: d18a 8e3d 2f52 ca3e d0e0 31bf c7ab 4f3f
000002d0: 73b0 97bd 22c8 813e 724b a4be d4f9 a3bf
000002e0: a6e6 f73e 93bc acbf ede8 3a3f 4acf 94bf
000002f0: dfae 33be ff20 323d bb00 db3f dffb 713f
00000300: 573a 1840 221a 85be 40da 6a3e bd86 db3f
00000310: 1721 ed3d 415e fb3f a289 933f be54 fb3d
00000320: bc8a 623d af86 8dbf 787a 0640 e426 bd3b
00000330: 8793 3b3e 9580 a9be 123b cebe 81f6 9f3f
00000340: 86de b0be ba24 093f 2df9 0a40 ba1c 05be
00000350: 25ab 4b3f 3192 863e a74a 88be 079e 683f
00000360: 9208 2fbe 6caa 523f e927 ebbf 8558 0d40
00000370: 5976 f23f 0a2c 1540 8397 2c3f e0ce fbbc
00000380: 3011 fa3e 6132 4b3d 4c37 963f 1d52 183f
00000390: c4b1 0d3e affa 04bd 7f78 ac3f 8081 b1bf
000003a0: 8e38 363d 9721 89be d0d8 0840 d891 d2bd
000003b0: b105 ec3e 516d babf 188d 3a3f e6d4 a0bf
000003c0: 61fd 673e 0ca8 d0be 66c6 c13d b291 5d3f
000003d0: 2348 d2be 6cc1 0fbf c8cc f8be bd1a 283f
000003e0: 1224 a13e 172f 5940 5554 0ebf 8a89 89bf
000003f0: 7d8b 8a40 2829 af40 fcef c43f 77f4 bebf
0.031790964 -0.056057457 -0.042069595 -0.087779306 -0.06810095 -0.00625214 0.04588139 -0.082928024
0.052652057 0.076877505 -0.09252015 0.06269787 -0.013961028 -0.031337015 -0.061409708 0.021657992
-0.04251146 -0.085470825 -0.0864991 -0.07022293 -0.08351735 -0.03212143 -0.078099415 0.021929232
0.010088451 0.035736747 -0.06576952 -0.019735526 0.046659898 -0.038275164 -0.07115054 -0.055053707
-0.0040954608 0.0078110276 0.03426079 -0.008393352 0.061999675 0.06647988 0.018352415 -0.002843134
0.0360011 -0.07978376 -0.08134256 0.070183985 -0.04705954 -0.05483294 0.061762184 0.013455941
-0.056925744 -0.039486893 -0.00084788416 0.05976213 -0.086471125 0.017795645 0.0005034326 0.04211495
0.015311642 -0.0057747066 0.076942645 0.06856097 0.07452263 -0.09511349 -0.013207389 -0.005852461
-0.020544058 0.061492965 0.069179945 -0.06435286 0.031973578 -0.022813477 -0.0461247 -0.021564435
0.008532042 0.054475598 -0.014096722 -0.0960875 0.020678176 0.0022502572 -0.049609832 -0.03586248
-0.07241069 -0.007421125 0.056960307 -0.04532224 0.01188112 0.016155243 -0.0654679 -0.04189696
-0.03966718 0.0013434106 0.07932978 -0.048851747 0.071356095 -0.07885902 0.08704964 -0.06130067
-0.019465394 0.050000742 0.06003774 0.024138216 -0.05434377 0.06170492 0.024798147 -0.056225996
-0.0695274 -0.033869974 -0.018555924 -0.0065978807 -0.09027673 0.04883536 0.07133241 0.019891655
0.06256785 0.04694794 -0.06004866 -0.06046233 -0.09049651 0.039370857 -0.037153225 0.031029426
-0.03432662 -0.049125567 0.06553526 -0.047950312 -0.022651136 0.08667695 -0.054248694 0.0015205517
4.2887406 -5.261146 -1.3368353 0.2951746 -0.067137726 0.8018201 0.3064659 2.8723898
0.1285586 -0.22104587 1.1804427 1.1742766 0.95794517 0.13318673 -0.6818228 1.1672994
-0.25565058 0.81252587 -0.17723638 0.5658738 1.0815252 0.16495264 -0.73965466 -0.61877465
2.5627744 -1.3552864 -1.5124598 0.40405756 2.7953627 0.023053464 -0.36332813 -1.4743515
-0.66817164 0.4911031 -0.9875706 0.10408842 0.7664191 -0.5050949 2.4636717 6.1790833
1.3509164 0.11746004 0.24265508 -2.0207767 2.7775986 -0.82105005 1.8493162 -0.05342144
0.06960071 0.39515826 -0.6948366 0.81121486 -0.07406702 0.25348002 -0.3208881 -1.2810616
0.48418158 -1.3495048 0.73011667 -1.162576 -0.17547177 0.0434885 1.7109598 0.9452495
2.3785608 -0.259965 0.22934818 1.7150494 0.11578577 1.9638139 1.1526377 0.12272023
0.05530809 -1.1056727 2.101225 0.0057724584 0.18317996 -0.33105913 -0.40279442 1.2497102
-0.34544772 0.53571665 2.1714585 -0.1299924 0.7955802 0.2628341 -0.26619455 0.9086613
-0.17093113 0.82291293 -1.8371555 2.2085278 1.8942367 2.330813 0.6741869 -0.030738294
0.48841238 0.049608592 1.1735625 0.59500295 0.13837343 -0.032465633 1.3474272 -1.3867645
0.04448753 -0.2678344 2.1382332 -0.10281724 0.46098092 -1.4564611 0.7287154 -1.2564971
0.2265525 -0.4075321 0.094616696 0.8655044 -0.4107066 -0.56154513 -0.48593736 0.656658
0.31472832 3.3934991 -0.5559743 -1.0745099 4.3295274 5.473774 1.5385737 -1.4918355

feature_layer.model.2.bias f4 [128]
00000000: 96a2 a53d ea2a 883f 2bf5 3f3d 077e d83f
00000010: 024f 5a3f e372 f03e 8ae1 7a3f a571 a03f
00000020: f291 823f 3c88 453d ff6c c8bd 5980 113f
00000030: 04fe 563f b5a3 efbe c0a2 993f 6fc6 74bd
00000040: 1dcd 1c3e 5a47 a7bd 8f6a cb3e 9804 2b3f
00000050: e008 9d3f f925 6c3f 684b 3a3f 2e3a 213f
00000060: d15d 413d c35d b53f 3b20 c7be a294 853f
00000070: c5e3 6bbe 73f5 d3bb 0bc3 ae3f 875a cc3c
00000080: 1a12 d6be 38c2 e13f d32f f2bc 2c0b a83e
00000090: e37b dabb 5e6b 413f 5631 9fbd 9130 eb3e
000000a0: a7d2 d1bd 2a23 493f 1ccc 883c 7650 f2be
000000b0: bc96 383f 13f3 cf3c 55f0 8abf 2c4b c6bc
000000c0: 0dcb 6a3e a649 6e3f dc36 363f 0629 d43c
000000d0: 4450 f33f d30b aa3f b780 e5bc acdb 613f
000000e0: 3324 bf3d eb56 f03f e0e5 eb3b 7344 6a3f
000000f0: 60e9 b0bd ab4e 5e3f 293c 8f3f 1b6e 293f
00000100: 702e 803c c3f2 983e 9a39 7ebe 868c 1e3d
00000110: fd47 abbf 7a4d d73d 607f 023f a0e9 b13e
00000120: 0ef0 393d 9ffb d8bd 4850 07be 01a3 803f
00000130: 9df5 a8bd 47b6 9abd 6b5a bf3f b417 b93f
00000140: 10f7 753f 4a4d 4b3f 96e2 09bd b455 f63e
00000150: bb07 183f 6d35 8a3e ff08 f7bb 7583 893e
00000160: 59db a83f 63fa 3a40 d28e dc3c 7819 0b3f
00000170: 10a5 d93e e524 af3c d2c4 4a3f e316 553f
00000180: f92d 423f b1e0 0f3f 3e79 b13f 63a5 553f
00000190: c8df 8a3d e2cf 383f e5b0 a03d 57c3 37bd
000001a0: 403c a03f 9ad3 5e3f 400d 00be 533a ed3f
000001b0: 712b 5e3d c745 babd 1278 963f 7b9c 953f
000001c0: cca8 48bd 93ec d93e 9481 323f 81e7 c33f
000001d0: 53b2 823c 2b2f 28bd c33a 443b 9be8 943f
000001e0: 0c07 a0bd 7320 ee3e c464 bf3f 1346 3abb
000001f0: e6ba cbbb 8b33 5b3c a921 0e3d cacc a13c
0.080876514 1.0638096 0.04686467 1.691346 0.85276806 0.46962652 0.98000395 1.2534682
1.0200789 0.048225626 -0.09786414 0.5683647 0.8398135 -0.46804586 1.2002792 -0.059759554
0.1531262 -0.08167906 0.39729735 0.66803885 1.2268333 0.9224544 0.7277131 0.629794
0.04720861 1.4169239 -0.38891777 1.0435984 -0.23036106 -0.006468469 1.3653272 0.02494551
-0.41810685 1.7637396 -0.02956382 0.32821023 -0.0066676005 0.75554454 -0.07773082 0.4593549
-0.10245257 0.7856928 0.01669889 -0.47327012 0.72105 0.025384462 -1.0854594 -0.024205767
0.2292902 0.9308113 0.7117746 0.025898468 1.900887 1.3284858 -0.028015478 0.8822582
0.09333076 1.8776525 0.007199034 0.91510695 -0.08638263 0.8683879 1.1190234 0.6618363
0.015647143 0.29872712 -0.24826661 0.038708232 -1.3381344 0.10512824 0.5097561 0.34748554
0.04539495 -0.10594868 -0.13214219 1.0049745 -0.08249972 -0.07554298 1.4949468 1.4460359
0.9608011 0.7941481 -0.033663355 0.4811226 0.59386796 0.26993886 -0.007538914 0.26858106
1.319194 2.9215324 0.02692357 0.5433574 0.42508745 0.021379897 0.79206574 0.8323805
0.758514 0.56202227 1.3865125 0.83455485 0.06780964 0.72192204 0.0784624 -0.044864025
1.2518387 0.8704163 -0.12505054 1.8533424 0.054240648 -0.0909534 1.1755393 1.1688379
-0.048989102 0.42563304 0.6972897 1.5305024 0.015954172 -0.041060608 0.0029942251 1.1633486
-0.07813844 0.46509132 1.4952626 -0.0028423115 -0.0062173484 0.013378988 0.03470007 0.019750971

value_stream.model.0.weight f4 [128, 128]
00000000: fcaa 9ebc 0f6a 3840 80df a93d 027b 033f
00000010: e986 a4bc 6e04 9a3f e788 93bd b57a 7e3e
00000020: 8175 f33f aaf5 083d 5c8f 9fbd fcb7 d7bd
00000030: 357e fdbf 49bc 22bf d911 b33e 97b3 d73d
00000040: 41b4 d2bf a7fb a2bd 63b0 113f 03f2 333f
00000050: 6e5b e63f d7e9 653f 2ec7 d03e c003 d23e
00000060: 210c df3c 13c8 963c d602 00bf a4c3 3f3e
00000070: 4b82 b5bf b58e 8b3d 524f 433e c64e 5f3d
00000080: 6fa2 d7bf cfa3 963e 0726 4dbd f419 e3bd
00000090: 4c69 83bd ae51 0ec0 b4d7 e7bf d9bc 2cbe
000000a0: 69ac b7bd 6525 aebd 6e9c 673b 4c22 99be
000000b0: 8689 673f 200e 5cbb 05b0 7ec0 f8f0 04bc
000000c0: 49ff 853c 5240 e1be 0b2c 5740 bbb1 833d
000000d0: 9ae6 113e 16e2 15c0 6804 603c 13dd 2140
000000e0: 6c8b f9bf 95b9 9fbe 9c6a 4cbd bf13 223f
000000f0: eb58 9d3d a23c 0abf 1c0c acbf adad 98bf
00000100: 054d 893d 918e 503e 0ac1 e73d fbb0 aabb
00000110: 7848 12bf 7097 a1bc 0399 3dc0 07fa f63c
00000120: dbea 543d b227 163d aeea a9c0 5e58 ab3e
00000130: 65b0 5cbd d2c6 81bd ec02 bcbc fdb1 dd3e
00000140: b66e 983f f62b 10c0 1429 83bc 394a 473b
00000150: d6ac fbbf a0f4 49bf 600b 60bd a464 1440
00000160: 8b3e 3040 a5e4 0c3f 1019 203d 03ea d0bd
00000170: 84ae ce3c 4f65 0d40 6e6a 893f ae76 9bbf
00000180: 6da1 8e3d 9610 203f 5e95 be3e e653 903f
00000190: 4a38 aabd b63a 8a3f e1d6 a63d c53d 4d3c
000001a0: 7fae 8b3f 3c8c b2be e107 90bd 7a69 ef3e
000001b0: adf8 95bc d8ba 08bd 4747 863f 068a c73f
000001c0: be9e 5a3c 4cac 04be 06ce c0bf 30d6 bc3e
000001d0: 06c0 183d b3c8 9cbd 1690 12bd d262 aebf
000001e0: a89e f9bc 837c 113f 4a5f bcbe 8a91 a9bc
000001f0: 0053 55bc 0e2f 13bd 91d5 27bc e3b5 623c
00000200: b7d7 513d 7587 26c0 337a e1bc 1fee 733f
00000210: 689f 0cbe b0a0 75bf b9f1 6bbf 95b0 033e
00000220: c35c d5bf ac99 3cbd 68cc b23d 7b9f 01bf
00000230: a6da bd40 14b8 8e3f 6dd2 0fbe b04e 703d
00000240: 3b21 f93f c445 993c 8953 283f f856 c4bd
00000250: cbb8 f6bf 9a2d d8bf ada4 b83f cd5e 7d3f
00000260: 3bb7 19bc 500a b63f bca3 ab3f 2c65 1dbf
00000270: 1920 0e40 ac77 773d 60b9 38be a2b0 123c
00000280: 1c64 3640 eb1f 7e3f e363 173c 3961 7440
00000290: a92d 283d a7e5 ca40 1cc8 0440 1c25 6a40
000002a0: 318c 21bb 5acd 28bf e1c1 a1bd ff42 753f
000002b0: 6d5f ac3f a563 b9bc 7055 9b40 ec2c 183c
000002c0: dac9 51bf 186c 92be a9d7 3cc0 bcfb 473d
000002d0: e819 6b3f f99d 9c40 b593 8abd 3a33 42c0
000002e0: b8e3 2b40 d056 783f 60e0 993d e5f7 843f
000002f0: e87a cc3b 627b 1dbe 2594 1440 a266 df3f
00000300: f3ff be3b 8dc1 a23f 9d13 693f f89b 45bd
00000310: 6035 f53f 212c be3d ed19 de40 ea75 8340
00000320: 0fa3 a73d 4582 263d 1262 0841 5eb4 ee3f
00000330: fa58 903b cad3 303c 6247 963e c281 e7bf
00000340: e280 ecbf a88c 1f40 fcc1 50bd 7247 1440
00000350: e552 1040 e26d 423f acda ba3d feaf 0ec0
00000360: 3877 27c0 fa7f a43f 7d7e 90bd fca2 3340
00000370: 7508 f43e b81e 15c0 5857 a8bf 4c7d a940
00000380: 1749 123e d000 583f 48ba 6abe 01d1 80bf
00000390: 4319 a03d 402a 9dbf 401d d33c d412 6e3d
000003a0: 060a 96bf d6c3 533f 771a 953d 9f1a b73f
000003b0: e381 48bd e513 a03d 1dc2 32bf 0d02 1fc0
000003c0: 9d72 6a3d db04 7940 892a a240 21cd a93e
000003d0: 3464 55bd ce73 2e3c 5e61 99bd 5c26 c63f
000003e0: 57d9 fbbc b10b 513f 6646 f53e 8d22 9ebd
000003f0: 069f 6bbd 1827 0d3d 67e3 30bd 7707 563d
-0.019368641 2.8814733 0.08294582 0.5135957 -0.020083861 1.2032602 -0.072038464 0.24851497
1.9020234 0.03343741 -0.077910155 -0.10533139 -1.980414 -0.6356855 0.34974554 0.10532301
-1.6461259 -0.07958155 0.5690977 0.70291156 1.7996652 0.89809936 0.40776962 0.41018486
0.027227463 0.01840595 -0.5000433 0.18726975 -1.4180387 0.068143286 0.19073227 0.054518484
-1.6846446 0.2942185 -0.050085094 -0.110889345 -0.06416568 -2.2237353 -1.8112702 -0.16868915
-0.089684315 -0.08503226 0.0035341042 -0.2990898 0.9044422 -0.0033577755 -3.9794934 -0.008114092
0.016357081 -0.43994385 3.3620632 0.06430384 0.14248124 -2.3419242 0.0136729255 2.5291183
-1.9495673 -0.31196275 -0.049906358 0.6331138 0.076829754 -0.5399877 -1.3441195 -1.1928002
0.067041434 0.20366885 0.11316116 -0.005209086 -0.5714183 -0.019725531 -2.962464 0.03014852
0.051981788 0.03665895 -5.3098974 0.33465856 -0.05387916 -0.0633675 -0.022950612 0.43299857
1.1908786 -2.2526832 -0.016010799 0.003040923 -1.966212 -0.78888893 -0.054698348 2.3186426
2.7538173 0.55036384 0.0390864 -0.10200884 0.0252297 2.2093084 1.0735605 -1.2145593
0.06964383 0.6252531 0.37223333 1.1275604 -0.083115175 1.0799167 0.08146454 0.012526934
1.0912627 -0.34872615 -0.07032753 0.4676016 -0.018307054 -0.033381313 1.0490502 1.5588996
0.013343511 -0.12956351 -1.5062873 0.36882162 0.037292503 -0.07655468 -0.035781942 -1.3623908
-0.030471161 0.56830615 -0.3679145 -0.020699281 -0.013020277 -0.035933547 -0.010243789 0.0138373105
0.051231112 -2.6020176 -0.02752409 0.9528522 -0.13732684 -0.95948315 -0.92165715 0.1286033
-1.6668934 -0.04604499 0.08730394 -0.5063397 5.9329405 1.1149926 -0.14045115 0.058668792
1.9463266 0.018710025 0.65752465 -0.095869005 -1.9275144 -1.6888916 1.4425255 0.9897278
-0.009382064 1.4221897 1.3409343 -0.614825 2.220709 0.060416862 -0.18039465 0.008953245
2.8498602 0.9926745 0.009240123 3.818434 0.04105917 6.3405337 2.0747137 3.658515
-0.002465021 -0.6593834 -0.078983076 0.9580535 1.3466622 -0.022630522 4.8541794 0.009288054
-0.81948626 -0.28598094 -2.9506629 0.048824057 0.91836405 4.894284 -0.06766454 -3.0343766
2.6857738 0.97007465 0.07513499 1.0388151 0.0062402375 -0.15379098 2.321542 1.7453196
0.0058288514 1.2715317 0.9104555 -0.048244447 1.9156914 0.09285761 6.940665 4.108144
0.08185398 0.04065158 8.523943 1.8648794 0.004405138 0.010792682 0.29351336 -1.8086474
-1.8476832 2.49296 -0.050966248 2.3168607 2.2550595 0.7594892 0.091237396 -2.2294917
-2.6166515 1.2851555 -0.07055376 2.8068228 0.47662702 -2.33 -1.3151655 5.296545
0.14285694 0.8437624 -0.22922623 -1.0063783 0.07817318 -1.2278519 0.025770783 0.058123425
-1.1721809 0.82720697 0.072804384 1.4304999 -0.048951995 0.078162946 -0.69827443 -2.4845002
0.05723821 3.8909214 5.0676923 0.33164313 -0.052097514 0.010647727 -0.074892744 1.5480456
-0.030743284 0.81658465 0.47905272 -0.07721434 -0.057524703 0.03446111 -0.043185618 0.052253213

value_stream.model.0.bias f4 [128]
00000000: 7674 3c3f 6ed2 a43e 7a86 333f 2904 e53e
00000010: 331d c23e 3dc6 c93e 44d0 963c 045f 673f
00000020: 3ca7 923d 9891 6f3e e20c bf3e 2f2c 383d
00000030: c7e8 a63e 5d20 9cbd 0473 4dbc 0c4e b33e
00000040: 2ab8 ab3e 3ca5 7e3e 1213 823f 3bbc bf3e
00000050: 3cf1 453e 002c f63d 7ff6 30bd 76b9 583e
00000060: a286 873c 3a2b ce3e 32d3 e9bd 4219 913e
00000070: c8af 533f 5f50 a6bd 5740 2e3f 9519 053e
00000080: 1c17 283f b8ba 043f 4bde 793e 73ff 8d3d
00000090: c4e6 133f 50ba 313e 4517 0b3e 835c 9b3e
000000a0: 790b d43e 0ebb 803e cfbb e0bc 112c 94bd
000000b0: ec2a 2abd 7841 783f d11e 203e 836e 723d
000000c0: 485f b63e 5ccf 2d3f 7e04 c23c f38f 5e3e
000000d0: 468c da3b bbe7 8e3e 2939 733e 2508 90bd
000000e0: 63fe 3e3e aacb 713e 1792 d83e 7b32 983e
000000f0: f5a6 5b3f 5a1b 793e 8908 5a3d 3dfb eebd
00000100: 5ac3 153f 90b6 f7bc 155f 67bf 50b3 303f
00000110: 3228 923e 5c9c 9f3e 24d7 edbd 8677 2d3f
00000120: ebab 243f e92f 9abd 4690 193f 6c8e 613f
00000130: 2e61 d13e a3b2 803e d344 423e ab03 ff3e
00000140: 6cef b83e 11a5 8b3e 1499 293f a257 9d3e
00000150: 1ef5 863e 66b1 193f 5f1e 583d f494 363d
00000160: e318 8f3e ed16 103f 2012 1a3e a4a7 c13e
00000170: 72d2 9b3e 478a c63a 020e bf3e 0bd0 8a3e
00000180: 3ee0 f83c 0c71 ca3e dee2 6a3e 84f3 1b3f
00000190: a322 663f fc14 603f 381a 433d 9f13 063c
000001a0: cd9e 4d3d 7fb1 313f d8a7 eabd b2a9 bb3e
000001b0: 5472 d63e 8304 a53e f169 803f efc4 ce3e
000001c0: 08b7 773e f2e1 47be 5c7e 7abd 0002 2e3f
000001d0: a1b8 84bd 7918 5fbd e0a3 70bd 11f4 b83f
000001e0: 69d3 653f 6dc1 783d a741 203f 37fd a83e
000001f0: 408a 603e 1631 a8bd 9092 2bbc 93d7 26bd
0.73615205 0.32191795 0.7012707 0.44729736 0.37912902 0.39409056 0.018409856 0.9037936
0.07160804 0.23395383 0.37314516 0.04496401 0.3259947 -0.0762336 -0.012539629 0.35020483
0.33538944 0.2486772 1.016207 0.37448296 0.19330305 0.12020111 -0.043203827 0.21164498
0.01654369 0.40267354 -0.114172354 0.28339583 0.82690096 -0.08120798 0.68066925 0.1299804
0.6566026 0.5184741 0.24401204 0.06933489 0.57773995 0.17356229 0.13583095 0.30344018
0.41415003 0.2514271 -0.027433304 -0.072349675 -0.04154484 0.969749 0.15636756 0.059187423
0.3561957 0.6789453 0.023683783 0.217346 0.006669554 0.2791117 0.23752274 -0.070328034
0.18651728 0.23612848 0.42298958 0.29726014 0.8580163 0.2432684 0.053230796 -0.11669014
0.5850121 -0.03023842 -0.9037946 0.6902361 0.28546292 0.3117398 -0.116133004 0.67760503
0.64324826 -0.075286694 0.5998577 0.88107944 0.40894455 0.2513629 0.18971567 0.49807486
0.36120164 0.27274373 0.66249204 0.3073092 0.26358885 0.60036314 0.05276334 0.044575647
0.27948675 0.5628498 0.15045977 0.37823212 0.30433995 0.0015147411 0.37315375 0.2711185
0.030380365 0.39539373 0.22938105 0.6091845 0.898966 0.8753202 0.047632426 0.008183389
0.050200272 0.6941146 -0.11457795 0.36652905 0.418841 0.32230005 1.0032331 0.40384623
0.24190915 -0.19519785 -0.061155662 0.679718 -0.06480528 -0.0544667 -0.058750033 1.4449483
0.8977571 0.06073134 0.6260018 0.33005688 0.21927738 -0.082124874 -0.010471955 -0.04073293

value_stream.model.2.weight f4 [1, 128]
00000000: 2041 41c0 76e3 3940 67a8 47c0 c50f 43c0
00000010: d31b 3441 3b63 61c0 ad2c 8940 6014 a640
00000020: 062a 5640 2591 6440 cf89 13c0 3952 453d
00000030: de01 3cc0 4dad ce3b a789 753a 846f 2440
00000040: 53e6 2e40 abe6 2f40 7f53 ac40 0a08 5e40
00000050: 0454 3b40 b957 6440 168b 4b40 cbd8 3840
00000060: df5b bbbc b73f 3840 56e2 b53d b10f 5cc0
00000070: 0cd8 a940 c9a9 3440 aa0e 9540 fe7e ca40
00000080: 3e1f 3dc0 a65a 2ac0 c7b2 5a40 ccbe 75bd
00000090: 7a77 2cc0 ac64 3541 41c3 4d40 2625 6440
000000a0: f598 12c0 dff2 4bc0 42e9 9bbf 9892 fbbb
000000b0: ca00 73bd 99aa a740 1f2a 1f40 c761 143d
000000c0: 53f8 31c0 4423 4041 2c39 68bd 3b87 2340
000000d0: 548d 5d3a 1243 3241 79a6 4140 a079 4640
000000e0: 813e 3540 d33b 3840 2982 8c40 2755 51c0
000000f0: e34e a640 7c9c 3dc0 8791 5bbc 8e67 0e3d
00000100: 3f03 69c0 5b60 a1bd 2efd f340 fe7b a640
00000110: 811d 2f40 962c 3b41 fe94 2940 53b3 a640
00000120: 808b 22c0 2f84 2fbd c0ed 3c41 8efd a940
00000130: 5086 30c0 b9c4 3c40 7de6 7840 b757 2741
00000140: 85e6 25c0 63fe 4441 9a2d 9040 a65e 4540
00000150: e1b3 2c41 08af 22c0 a608 a1bc 50bb 09bb
00000160: fed0 8e40 8348 8d40 de67 2141 42eb 4cc0
00000170: aab9 3c41 e6c7 6240 0ff3 4141 4dd8 4241
00000180: e8e6 fcbc 5a9c 4141 dc12 4540 e269 c940
00000190: 965e a340 729d 4041 b947 2d40 727b ddbd
000001a0: 3a6e a5bd ca10 5dc0 5770 27bd 93e1 50c0
000001b0: 7507 47c0 110f 3440 c621 53c0 7a3b 3e40
000001c0: 1421 2c40 ce81 4e40 4acd 7dbd 9a9f 40c0
000001d0: 73fd 3941 1a54 3bbc 5150 59bc d818 4141
000001e0: c35f 38c0 0ce0 afbd ff46 9dc0 cea7 2f40
000001f0: ee92 2d40 2d15 90bd b78d 24bd 2978 edbc
-3.0196 2.904508 -3.1196535 -3.0478375 11.256793 -3.5216815 4.2867036 5.189987
3.346315 3.571359 -2.3052862 0.048174117 -2.937614 0.00630728 0.000936652 2.5693064
2.7328079 2.7484539 5.3851924 3.4692407 2.927003 3.5678542 3.1803641 2.888232
-0.022870956 2.8788888 0.08881061 -3.4384577 5.307623 2.8228629 4.65804 6.328002
-2.9550319 -2.6617827 3.4171617 -0.05999641 -2.6947923 11.337078 3.2150424 3.5647674
-2.2905858 -3.1866987 -1.218056 -0.0076773874 -0.059326924 5.239575 2.4869459 0.03622606
-2.7807815 12.00861 -0.05669515 2.5551288 0.00084515405 11.141375 3.0257857 3.1011734
2.83194 2.8786514 4.3908887 -3.2708223 5.1971297 -2.962676 -0.013401396 0.034766726
-3.6408231 -0.078797065 7.6246557 5.202636 2.7361758 11.698385 2.6497188 5.20939
-2.5397644 -0.04285067 11.808044 5.3122015 -2.7581978 2.949507 3.889068 10.458915
-2.5921948 12.312106 4.5055666 3.083902 10.793916 -2.541933 -0.019657444 -0.0021016188
4.4630117 4.4151015 10.087858 -3.201859 11.795328 3.5434508 12.1218405 12.177808
-0.030871823 12.100672 3.079276 6.294175 5.105296 12.038439 2.7075026 -0.10814561
-0.08077665 -3.4541497 -0.04087862 -3.263768 -3.1098301 2.8134196 -3.2989364 2.9723802
2.689519 3.2266726 -0.061963357 -3.0097413 11.624377 -0.011433626 -0.013263778 12.068565
-2.8808448 -0.085876554 -4.9149165 2.744617 2.7120929 -0.07035289 -0.040174212 -0.02898796

advantage_stream.model.0.weight f4 [128, 128]
00000000: dc11 a2bd 0c41 8cbd 69a0 3d3d 2447 7dbd
00000010: 87a7 413d 08c7 3d3d 567d 37bd 7674 febc
00000020: 2d7a 153c b762 0c3c 153b 62bd ba84 abbd
00000030: e262 79bc 5dbc 103d 9fa0 7d3d 133a 953d
00000040: eb07 833d 790b ac3d d0df cebd ea83 a5bd
00000050: b1b4 59bd deb4 c5bc 741b afbd aebd 233d
00000060: 0025 5bbc ff0e 3d3b 1328 2b3b 7c26 e4bc
00000070: 639f 61bb 085a 52bc 820b 70bd 38a8 d8bc
00000080: e80b f53c 1dd2 57bd 490f 9abd 9e3b 86bd
00000090: 5781 27bd b5e7 92bd 36ae 233d efe7 cd3c
000000a0: 73a2 933d 89e1 f33b 9d23 213d b028 b0bd
000000b0: 4d96 ecbb df8a 9f3d c372 1ebd 8081 2b3b
000000c0: fb5c 4f3d 0e22 0bbd 4ea6 173d 7f1f aebd
000000d0: 2c03 933d cc1e 0f3d bc6c 8abd e08d 2d3d
000000e0: 3bf1 aebc 9d39 63bd 997a a83d 67a6 85bd
000000f0: ebe9 453c a370 85bd 030c 63bc 7315 d5bb
00000100: 2bb0 18bd 3476 adbd 97ee 3abb 0a58 afbd
00000110: 64c6 dcbb b965 2d3c 38c1 8abd 97b5 84bb
00000120: a351 8d3d e994 cebc d883 583d ded2 87bd
00000130: d333 833d bea5 763d 745d 3b3c 66cb 6dbd
00000140: 2a41 563c baf5 5bbd c880 2bbc 2e52 9f3d
00000150: 5156 7b3c e81b 6a3c 2222 04bd 59db 5b3c
00000160: 6ebc 433c c734 31bd 5707 adbc 66a1 08bd
00000170: c5de abbc 67e1 3abd 1f3e 98bd 4edb 6bbd
00000180: ddce 1c3d 3da8 48bc 0666 88bd 8c39 84bd
00000190: b05d fa3c 14c4 363d a4cc a8bd f2e6 783d
000001a0: 49ce 263a e6c6 e3bb 9b11 66bd 0430 eb3c
000001b0: eb55 a6bd aaf8 693d 2f01 14bd 8c47 8f3d
000001c0: ccbf a6bd ab52 d5bc 5759 923c d6de 8dbd
000001d0: a0ee 823b e005 e3bc 38e1 9d3d 62bf b6bc
000001e0: ea22 553d e127 9dbb ea4e b23c ab85 0abd
000001f0: 4ddb 9cbd 904c 27bc 6324 aebd 6032 573b
00000200: d48e 4abd aa01 a9c0 04a0 193d 67a9 7e3f
00000210: dab8 9cc0 895f 9c3f ae8f aec0 b6ca 8dc0
00000220: bfc9 a4c0 4d12 303b 628f 093d 4c50 a8c0
00000230: ac50 7440 5b65 dd3e 436a 8cc0 b67f babc
00000240: 969e 63c0 e335 9ebd a60f 4c3f ff63 7fc0
00000250: 568a a1c0 83c1 aec0 e3e1 8f3f d34b 6d3f
00000260: 50d0 44bc 0f56 c03f 05c5 abc0 0245 aec0
00000270: 0651 4f40 5a91 fdbc 90a1 76c0 e14b 173c
00000280: 039a 4d40 c1a6 8a3f b030 88bd a72c fb3e
00000290: 8319 4ebc c2ee 7540 4405 54c0 0b13 d53e
000002a0: beb8 9d3d 25e8 b7c0 5aef 093d 431b eb3e
000002b0: cd7a ac3f 76ab 523d 34dc a83f 0bd6 8dbd
000002c0: c813 b4c0 8517 a2c0 812d 86c0 62ff 00bd
000002d0: bc91 e23f 50c4 4b40 b4e0 4abd 5774 f4bf
000002e0: 4b38 afbf 5956 dc3f a4d6 fb3c 4d15 9a3f
000002f0: 319d d53c b85d 9dc0 0a46 93be 3b64 b63e
00000300: 311d 92bd 4a37 463f d002 023d 6e02 823d
00000310: 83ba 2740 b913 003c df7f 7940 eb1b d43e
00000320: 12f6 e9bc 0471 933d 2974 9a40 8be3 f13f
00000330: 4ec3 273d d451 a9bc 1b87 46c0 380f 93c0
00000340: 0623 a6c0 7d9e 3240 0098 bf3a bf04 0d3f
00000350: ccf7 09c0 534b 10c0 a0a0 4e3c 9165 89c0
00000360: cf44 abc0 0a78 823f d075 72bd 47e5 e53e
00000370: cd93 183f f048 163e 9973 b0c0 4f0e 6740
00000380: ee62 0e40 4258 373f c80a a1c0 b8c8 abc0
00000390: 322b 5c3d 1dab b4c0 7205 583d cc7b 2cbd
000003a0: 85cf 96c0 2627 8a3f 238a 82bd 2af9 8e3f
000003b0: 418a 903d 3c00 51bd b893 9cc0 9166 adc0
000003c0: 1a53 93bd e65d 0d3f c646 6840 b3ab 89c0
000003d0: b033 95bd 017a 1dbd 969e 79bd 285a 1e3e
000003e0: f0f3 26bd b639 483f db1b 80c0 c67a 823d
000003f0: e0f1 26bb 35c9 35bd c384 a4bd 765e 18bd
-0.07913563 -0.06848344 0.046295557 -0.061835423 0.047278907 0.04633239 -0.044797264 -0.031061392
0.009123367 0.008568457 -0.055232126 -0.08374925 -0.015221329 0.035335887 0.06192076 0.072864674
0.063979946 0.08400626 -0.101012826 -0.08081801 -0.053150836 -0.024134096 -0.08550158 0.039975815
-0.013375521 0.002884805 0.0026116415 -0.027850382 -0.0034427277 -0.012838848 -0.058604725 -0.0264474
0.029912904 -0.052690614 -0.07522447 -0.0655434 -0.040894832 -0.07173101 0.039961062 0.025135009
0.07208719 0.0074426574 0.039340604 -0.086015105 -0.0072200657 0.077901594 -0.038683664 0.0026169717
0.050625782 -0.033968024 0.037023835 -0.08502101 0.07178339 0.03494148 -0.06759021 0.04237163
-0.021355262 -0.055474866 0.08226509 -0.06525879 0.012079696 -0.065156244 -0.013857844 -0.006502801
-0.037277382 -0.08469811 -0.0028523558 -0.08561714 -0.006737517 0.010583335 -0.06775135 -0.0040499675
0.069003366 -0.02521749 0.05286011 -0.066320166 0.06406369 0.060216658 0.011435855 -0.058055304
0.01307706 -0.05370114 -0.010467716 0.077793464 0.015340404 0.01428888 -0.032259114 0.013418996
0.011946781 -0.043263223 -0.021121664 -0.033357047 -0.020980248 -0.045625117 -0.07433724 -0.057582192
0.038283218 -0.012247142 -0.066600844 -0.06456289 0.030562252 0.04462059 -0.08242157 0.06076712
0.00063631363 -0.006951201 -0.056169134 0.02870942 -0.08121856 0.05712191 -0.03613394 0.06996068
-0.08142051 -0.026040396 0.017864866 -0.06927268 0.0039957315 -0.027712762 0.07708973 -0.022308055
0.05203525 -0.0047960137 0.021766145 -0.033818882 -0.07659016 -0.010211125 -0.08503034 0.0032836422
-0.049452618 -5.281453 0.03750612 0.9947724 -4.897565 1.2216655 -5.455039 -4.430995
-5.149627 0.0026866377 0.033584006 -5.259802 3.8174238 0.4324139 -4.3879714 -0.022765975
-3.5565543 -0.07725122 0.7971138 -3.9904783 -5.0481367 -5.461122 1.124081 0.92693824
-0.012012556 1.5026263 -5.3678 -5.445924 3.2393203 -0.030953098 -3.853611 0.0092344
3.2125251 1.0832139 -0.066499114 0.49057505 -0.012579325 3.8426976 -3.3128214 0.4161609
0.077012524 -5.747088 0.03367553 0.45919237 1.3474976 0.05143305 1.3192201 -0.06925591
-5.6274147 -5.065371 -4.1930547 -0.031493552 1.7700725 3.183857 -0.0495307 -1.9098004
-1.3689054 1.7213851 0.030741997 1.203775 0.026075931 -4.9176903 -0.28764373 0.35623345
-0.07134474 0.77428114 0.031740963 0.0634812 2.6207588 0.007817202 3.8984296 0.4142755
-0.028559718 0.071992904 4.8266797 1.8897566 0.04095774 -0.020668902 -3.1019962 -4.5956078
-5.1917753 2.7909234 0.0014617443 0.55085367 -2.1557493 -2.2545974 0.012611538 -4.2936482
-5.3521495 1.0192883 -0.059194386 0.44901487 0.59600526 0.14676261 -5.514111 3.6102483
2.2247882 0.71619046 -5.032566 -5.368252 0.05375213 -5.645888 0.052739568 -0.04211025
-4.712832 1.0793197 -0.06374004 1.1169789 0.0705762 -0.051025614 -4.893032 -5.4187703
-0.07193585 0.552214 3.6293197 -4.3022094 -0.07285249 -0.03844643 -0.060942255 0.1546408
-0.04075998 0.7821306 -4.0034003 0.063710734 -0.0025473759 -0.04438134 -0.08033135 -0.03719946

advantage_stream.model.0.bias f4 [128]
00000000: b646 5fbd 675d 993e 9b4e 50bd 28e4 ae3e
00000010: 9f16 d8be 9b54 d03f 86eb 823f e3b0 fc3e
00000020: bd5e 123e a431 b43e 4aeb 1abe 7e79 4d40
00000030: e28a 07be 9889 0c3c 5674 753e c625 0ebf
00000040: 6339 3d3e 8590 8440 74d6 1c3e 375d 443d
00000050: b1de 02bf 4c43 0d3d c683 113f a5ad 283f
00000060: fe92 4cbf 446c c83e 4e50 9cbe 225d 6cbe
00000070: 33e9 4fbd b51e 3440 258c 8740 9a86 993f
00000080: edb5 a0bd d2f1 4840 ae1e c43f 6f22 fabe
00000090: 64dc 9d3c f885 963f 0716 3d40 cdf2 813f
000000a0: 02b8 0340 7aec e13b e084 1d3f 96c7 7f3e
000000b0: 086e c93f 207f 29bc a574 5f40 c56a 613c
000000c0: ff5f 05bf 13d3 4b3f cd37 6a40 cf7e 4fbc
000000d0: 893b 5c40 d079 8c3e cc41 a53e 78bf 203e
000000e0: 6998 01bf 6758 d73e 4b76 6dbd a64c dbbd
000000f0: 225a 033f 1855 de3e d49c 4d3f 8b2f cdbd
00000100: 46e9 b7be af53 2040 33c2 b13e fee7 83bc
00000110: 6598 7c40 b47d f33d 9d25 9a3f 54b7 6040
00000120: 7fc9 9dbc 06c7 023f 5690 863f e632 6f3c
00000130: a027 a9bf d475 043f 95a0 b5bd 3d9b 433e
00000140: 6c25 833f 3ad8 fa3f a03c 43bc 6a50 7940
00000150: a332 4a3d 9686 f33d 459f 393f b14b 6b40
00000160: 6c24 923e 70c9 0a3f 472b 153f d87a 293e
00000170: d479 0cbf a5c9 6c3e 993e 4d40 f550 7540
00000180: 740c 863e 41ed f63d 2505 923f ec73 533f
00000190: a848 2e3f d0a7 cf3e dfcd 263e d2e8 0f40
000001a0: 56b7 6abd 7360 6d40 29d7 1f3f 65b3 d5be
000001b0: 240e 283f 8e22 dcbe 9375 8640 9fbf ca3f
000001c0: f1e8 c63f 24d3 0b3e eb49 923d 05d3 493e
000001d0: 07a2 333f 5587 f23e 4a43 be3f 4179 7640
000001e0: fc19 7640 c80c 5240 66ee 6b3e 8beb 9a3f
000001f0: cc7d dabd 22fe f9bc 4378 b23e dffd adbd
-0.054510795 0.29954073 -0.050856214 0.34158444 -0.4220476 1.627582 1.0228126 0.49353704
0.14293952 0.35194123 -0.15128818 3.2105403 -0.13236573 0.008577727 0.2397016 -0.5552639
0.18478923 4.1426415 0.15316182 0.04794046 -0.5112105 0.034488007 0.56841695 0.6588996
-0.7991179 0.391451 -0.30530018 -0.23082402 -0.050759505 2.8143742 4.2358575 1.1994202
-0.078471996 3.1397595 1.5321863 -0.48854396 0.01927013 1.1759634 2.9544694 1.0152222
2.058106 0.0068946453 0.61530876 0.2497848 1.5736704 -0.01034525 3.4914944 0.013758366
-0.52099603 0.7961895 3.6596558 -0.012664511 3.4411337 0.27436686 0.32276762 0.1569804
-0.50623184 0.42059633 -0.05797414 -0.10707979 0.51309407 0.43424296 0.80317426 -0.10018834
-0.3592016 2.5051076 0.34718475 -0.016101833 3.9468014 0.1188921 1.2042729 3.5111895
-0.01926112 0.51084936 1.0512798 0.0145995375 -1.3215218 0.5174229 -0.08868519 0.19102187
1.0245795 1.9597237 -0.01191631 3.895533 0.049364697 0.118909046 0.7250865 3.6764948
0.28543413 0.5421362 0.5826916 0.16550767 -0.54873395 0.23123796 3.2069457 3.8330662
0.26181376 0.12056971 1.140782 0.8259876 0.68079615 0.40557718 0.16289471 2.2485852
-0.05730375 3.7090118 0.62437683 -0.4173843 0.65646577 -0.42995113 4.2018523 1.5839728
1.5539838 0.13654763 0.07143005 0.19709404 0.7016911 0.47368875 1.4864285 3.8511508
3.845336 3.28203 0.2304016 1.2103132 -0.10668525 -0.030516688 0.34857377 -0.08495688

advantage_stream.model.2.weight f4 [2, 128]
00000000: b3ad 1f3b 95d2 9b40 68bb 0541 f8cb 21c0
00000010: a0b1 eebf 1f3e 39be 9d05 c6bf 9c06 2fc0
00000020: d353 1041 8235 22c0 0de8 2ac0 c37f e1bf
00000030: d680 d3bf 411d 0541 577b 1441 c0a9 cfbf
00000040: 08bd dd40 8d94 d4bf 5b0e 1041 f8e4 6d3d
00000050: 6c8e b1bf b498 e63d 3ee5 4640 0f99 3640
00000060: 6860 bb40 f1ee 05c0 7495 e3bf 6d78 05c0
00000070: dfef 383d 9bde b2bf 0f58 0fc0 a459 d43e
00000080: 6571 593d 7ec8 d0bf e794 b43f 2fbc d240
00000090: 1475 17c0 fc62 43c0 525e b2bf 4cd4 a53f
000000a0: b16a 21bf c437 d038 700e 4bc0 98f1 0a41
000000b0: 4376 09be 8516 9e3d e9f3 b4bf 6811 e33a
000000c0: a2e5 cebf 81cf 2340 cf91 03c0 94a7 623c
000000d0: 7509 a7bf 7107 24c0 ddbd 5d40 a617 37c0
000000e0: 6aa1 bcbf 9a26 25c0 fc83 873d b6c5 f7bc
000000f0: 114d 24c0 788e 3440 3d71 f13f e0e6 46bd
00000100: 2066 dabf c987 7cbf d402 20c0 856a 8bba
00000110: c06c f1bf 861a 0f41 c89b af3e a235 c2bf
00000120: fceb aa3c a2fa 2ac0 bd61 e2bf 4bc8 cf3c
00000130: 5106 f7bf 5154 03c0 6f75 0b41 69a7 0d41
00000140: e38a 0740 b0d3 f5bf 5548 36bd 534e b0bf
00000150: 12bd 88bb 3a34 0941 ecfd 0741 cc85 aebf
00000160: 4e7f 0c41 51b0 2fc0 4846 ebbf 91b0 1cc0
00000170: fd5e d6bf e045 0741 8f87 a3bf e837 f3bf
00000180: d9d2 1fc0 394d 23c0 48d6 e23f 0dd9 2c40
00000190: 4522 34c0 36f3 06c0 2e60 1141 70a2 5b40
000001a0: 8bfc bd3d f8ec 23c0 9557 6d40 b73e e7bf
000001b0: 5477 1440 4174 bbbf 8e31 e8bf 4c04 9ebe
000001c0: 1799 81bd bc7c 0741 c436 233c 63c4 0e41
000001d0: cf85 1c40 4d60 2dc0 b630 0240 ee8f d6bf
000001e0: 31f4 e3bf 4187 b5bf 4d8a 0141 ba10 cd40
000001f0: 77be 0241 7efc 083d 8893 2cc0 b6f7 1c3d
00000200: 23c8 35bd 2090 9c40 a5e6 0641 4905 9d40
00000210: 0ff6 2940 f1fe f0bf e03b 9abf 6881 a740
00000220: c1c1 b240 6613 9f40 e44b 933e be95 f1bf
00000230: 7327 733f 81d9 0741 c50f b940 cbf2 e43f
00000240: 3b7b 8b40 1859 04c0 5ccf aa40 b5cd d83c
00000250: 3316 3340 0505 bdbd c1c7 b43c 5920 96bd
00000260: 454c 4940 605b 0d40 b324 d63f b9d5 1b3f
00000270: 58dd 853d b2d8 44c0 b101 2ec0 b4ec e8bf
00000280: ff75 403d 60b5 e1bf 7200 44c0 aa53 5240
00000290: 99a6 283f 4e4c 9140 fe6f 0cc0 69b2 f8bf
000002a0: 5378 3fc0 d1a7 0d3c 268d 8a40 11e9 aa40
000002b0: eb7c fabf b5e9 083c 8389 08c0 0258 a0b9
000002c0: b424 1340 61cb fcbe f9cb 1fc0 6f44 2a3d
000002d0: 1b68 02c0 23ee 9640 c625 813f bbe2 543f
000002e0: 18fd 2740 6fb4 9d40 7c14 403d 3dcc a33c
000002f0: d023 9140 c472 b83f 873f 56bf 3ee0 f4bb
00000300: 2a58 2140 6bec 14c0 6679 9e40 3ec5 b73b
00000310: 4e23 0fc0 2ad5 af40 c920 dbbf 7421 dbbf
00000320: 35c2 38bd ee35 aa40 2b01 b2bf c4ce 9e3d
00000330: d2a4 c53f c680 7e40 e4fc fe40 78a4 ac40
00000340: 396a b1bf 065c e4bf 9549 6cbd a655 fdbf
00000350: a929 03bd 8c2a 1941 bce8 1940 5599 00c0
00000360: 938a af40 6aa3 a540 66ac 8940 dcb8 7440
00000370: 6429 1c40 bf3e a740 b60f 07c0 57cc 11c0
00000380: 1305 a540 c997 a640 e705 f5bf 5cad 07bf
00000390: 7069 9e40 068f 7240 2a5c b040 ed65 0c41
000003a0: 4ddf 7e3d 63de 26c0 c7e6 87be f3b7 4040
000003b0: aba9 a2be aa3c da3f 6f7c 08c0 6296 07c0
000003c0: 1a16 e8bf 03eb a940 7840 a7bd 670b ab40
000003d0: 50bf 14bf b08d 7240 d0a7 28c0 f2a2 09c0
000003e0: 3671 14c0 a3a3 ccbf ae19 1341 e690 1541
000003f0: ea9e e640 3025 3e3d 390b a440 4c32 b13c
0.0024365007 4.869456 8.3582535 -2.5280743 -1.8647957 -0.18090104 -1.5470463 -2.7347784
9.020465 -2.5345159 -2.6704133 -1.7617115 -1.6523693 8.319642 9.280112 -1.6223679
6.929325 -1.6607834 9.003505 0.05807969 -1.3871589 0.112595946 3.1077418 2.853092
5.8555183 -2.0927088 -1.7779984 -2.0854752 0.045150634 -1.3974184 -2.2397497 0.4147464
0.053086657 -1.6311185 1.4107941 6.5854716 -2.366521 -3.0529165 -1.3935034 1.2955413
-0.63053423 9.9286e-05 -3.1727562 8.683983 -0.1342402 0.07719139 -1.4136935 0.0017323913
-1.6163828 2.55954 -2.0557745 0.013833899 -1.3049761 -2.5629542 3.4647133 -2.8608184
-1.473676 -2.580481 0.06616971 -0.030245643 -2.5672038 2.8211956 1.8862683 -0.048560023
-1.7062416 -0.9864469 -2.5001726 -0.0010636604 -1.8861313 8.943975 0.3429854 -1.5172617
0.02086448 -2.6715474 -1.7686077 0.025364062 -1.9298803 -2.0520213 8.71617 8.853372
2.117852 -1.9205227 -0.044502575 -1.3773903 -0.0041729296 8.575251 8.499493 -1.3634582
8.78108 -2.7451365 -1.8380823 -2.4482768 -1.6747738 8.454559 -1.2775744 -1.9001436
-2.4972441 -2.5515883 1.7721643 2.7007477 -2.8145916 -2.1085944 9.085981 3.4317894
0.092766844 -2.5613384 3.7084706 -1.8066014 2.3197832 -1.4644853 -1.8140123 -0.30862653
-0.06328028 8.467953 0.009961788 8.922946 2.445667 -2.7090027 2.034223 -1.6762674
-1.7808896 -1.4181901 8.096265 6.408292 8.1715 0.03344392 -2.6965046 0.038322173
-0.04438032 4.8925934 8.43131 4.906895 2.6556432 -1.8827802 -1.2049522 5.2345467
5.5861516 4.971118 0.28768837 -1.8873823 0.9498207 8.490602 5.783175 1.7886595
4.358793 -2.0679379 5.3378124 0.026465276 2.79823 -0.09229473 0.022067906 -0.073303886
3.1452801 2.208702 1.672995 0.6087299 0.065363586 -3.075726 -2.7188532 -1.8197236
0.04698753 -1.7633476 -3.0625272 3.2863564 0.6587921 4.5405645 -2.1943355 -1.9429446
-2.991719 0.008645968 4.32973 5.3409505 -1.9569372 0.008356501 -2.133393 -0.0003058315
2.2991152 -0.49373916 -2.4968245 0.04156917 -2.037604 4.7165694 1.0089653 0.83158463
2.6248226 4.9282756 0.046894535 0.01999485 4.5356216 1.4410024 -0.83690685 -0.007473021
2.521006 -2.3269298 4.952319 0.00560823 -2.2365298 5.494771 -1.711938 -1.7119584
-0.045107085 5.319083 -1.3906606 0.07754281 1.5440924 3.9766097 7.9683704 5.3950768
-1.3860542 -1.7840583 -0.05768736 -1.9791763 -0.032022152 9.572887 2.40483 -2.0093586
5.485666 5.176198 4.3022947 3.823783 2.4400263 5.2264094 -2.110334 -2.278097
5.1568694 5.2060285 -1.9142426 -0.529989 4.950371 3.7899795 5.5112505 8.774884
0.062224675 -2.6073234 -0.26543257 3.0112274 -0.3177007 1.7049763 -2.1325948 -2.1185536
-1.8131745 5.309938 -0.08166593 5.345142 -0.5810442 3.789898 -2.6352425 -2.1505704
-2.3194098 -1.5987438 9.193769 9.347876 7.2068987 0.046422184 5.12637 0.021630429

advantage_stream.model.2.bias f4 [2]
00000000: 53f3 ea3e 454c c1be
0.45888767 -0.37753502
